PERGAT_embbedding/data/emb/models/model_dim128_lay2_epo33.pth (torch, 137088 bytes, 7 tensors)

linear.weight f4 [128, 1]
00000000: c4e6 83be dca7 cc3e ac34 aabe 9086 b8bd
00000010: c075 f33c 7cf4 7c3f b8ac 123f 84ba 20bf
00000020: 665a 0f3f 28f1 65be ac31 833e a427 d93e
00000030: 0c23 2a3f c881 23bf 80bc 823d 6cec 17bf
00000040: a4d2 d2be e007 ba3e 00fd 33be 0054 e03a
00000050: c840 c03e d2aa 193f f045 893e 00ac 6cbd
00000060: 7abb 083f 7eb4 5c3f 147a ef3e d44c 9ebe
00000070: 2c82 8ebe 8a2f 75bf 1049 1abf de84 663f
00000080: 9285 233f f073 7f3e 4032 3e3f 605f 98bd
00000090: 185e 063f 1eca 7abf 9042 24bf 9a4a 1a3f
000000a0: 0841 55bf 7c30 3bbf a830 083f 7c13 6f3f
000000b0: 342e 493f 80d2 d1bd aaf8 78bf 46a6 65bf
000000c0: dc78 23bf 7ef6 5fbf e44a b33e bc5c fabe
000000d0: 0605 3c3f f8b9 043f 162b 1b3f f40f 50bf
000000e0: 4893 d13e 20f7 563f 3c4e 1ebf 54c4 7e3f
000000f0: 24be fc3e 9666 573f b21e 5fbf 50be 13bf
00000100: 40a1 a13e 38f2 a03e 685b bebe cc73 783f
00000110: 6ca5 71bf f02c 643f 0030 eaba 2c8f bb3e
00000120: 745d 62bf 8063 2c3e 7880 3a3f 1443 cd3e
00000130: dcb3 9bbe 507d 2abf c026 273d 0005 c6be
00000140: b8a5 babe 56f9 7c3f c8b0 98be 8a13 69bf
00000150: 4847 923e 3823 b23e 62a2 33bf f2ad 09bf
00000160: 2ee1 34bf a053 cb3d 6acb 38bf 16d4 4bbf
00000170: 205b 06bf fc7d 0cbf bac3 5e3f ea05 7fbf
00000180: e0fa 953d 9c7c db3e 880b b53e 001e aebc
00000190: 5008 28bf 042b 4f3f 5cd7 343f 542a debe
000001a0: d833 3ebf f4b4 523f 4cde 06bf e07b 10bd
000001b0: 9c71 ec3e 6491 71bf 82b0 0abf 0055 d43b
000001c0: 083c 523e 500f 9e3e ec51 d83e b093 e3be
000001d0: cc33 32bf 8052 6dbd b4af a0be b8f0 483e
000001e0: 3847 bcbe 7a3e 58bf 8803 763e 402b 1ebf
000001f0: 68b4 23be c624 263f 2009 63bf f83b 0e3e
-0.25761998 0.39971817 -0.3324331 -0.09010041 0.029719234 0.98810554 0.572948 -0.627846
0.5599731 -0.22455275 0.25623834 0.42413056 0.6645973 -0.63869905 0.0638361 -0.59345126
-0.4117633 0.36334133 -0.1757698 0.0017114878 0.37549424 0.60026276 0.2681117 -0.05778122
0.53411067 0.8621291 0.46772826 -0.3091799 -0.27833688 -0.95775664 -0.60267735 0.9004649
0.6387569 0.2494657 0.74295425 -0.07440066 0.52487326 -0.97964656 -0.64164066 0.6027008
-0.83302355 -0.73120856 0.53199244 0.93389106 0.78586125 -0.10245228 -0.9725443 -0.8970684
-0.6385629 -0.8748549 0.35018075 -0.48898876 0.73445165 0.51846266 0.6061262 -0.8127434
0.4093268 0.8397083 -0.61838126 0.9951832 0.49363816 0.8414091 -0.8715621 -0.5771227
0.31568336 0.31434798 -0.37179112 0.9705169 -0.9439304 0.8913107 -0.0017867088 0.3663267
-0.8842385 0.16834831 0.7285228 0.4009024 -0.3041066 -0.6659746 0.04080844 -0.3867569
-0.36454558 0.98817956 -0.29822373 -0.9104544 0.28570008 0.34792495 -0.7016965 -0.53781044
-0.70656097 0.099280596 -0.72185385 -0.7962049 -0.52482796 -0.54879737 0.87017405 -0.996184
0.07323241 0.42868507 0.3536036 -0.02125454 -0.65637684 0.8092501 0.7064111 -0.4339167
-0.7429786 0.8230736 -0.5268295 -0.035274386 0.46180427 -0.94362473 -0.5417558 0.0064798594
0.20530713 0.30871058 0.4225 -0.44448614 -0.69610286 -0.057940006 -0.3138405 0.19623077
-0.36773086 -0.8447033 0.24024785 -0.61784744 -0.15986788 0.6489986 -0.886858 0.13890064

linear.bias f4 [128]
00000000: 42b6 08be 0dac 663f 1389 2b3f 7838 533f
00000010: fa3b 733f d32a 1ebf abbe 2f3d 44d9 65bf
00000020: e42a 823e ea10 5d3e 2ef1 11bf 3a48 3b3f
00000030: e365 223e 2ee5 173f bf6a 37bf 00ed a9be
00000040: 2229 48bf b59a 7ebf 62ae 4ebe fbac 11bf
00000050: b5dd 2bbe 85b8 d33d 1b3e cb3d 94ff 2e3f
00000060: cdcd acbe 36c1 483e 9a84 74bf 6307 57bf
00000070: 277d 053f b7d3 bfbe 9328 743f 5596 133f
00000080: f12b 54bf 3114 4fbf 4c65 1dbf 46c3 293f
00000090: 4982 7ebf 85a4 413f 8aa2 0abf 7b35 763f
000000a0: f4be 5abf 633d 193e aeb5 53be e5b3 f53e
000000b0: 2195 1dbf bcba 7ebf 8b15 aabe 663b c4be
000000c0: 09bf c43e 4ee5 363e db41 57bf 1984 17bf
000000d0: 5d95 413f 4e01 593f 98ef 16bf ac4f 883d
000000e0: f315 023c 6898 7ebf d21f 6c3f 81a7 7d3e
000000f0: 9db3 1dbf ceb7 683f a4c2 533d 94c5 223f
00000100: c675 db3d 6337 a93e ebac fb3d ef54 113e
00000110: d85f abbe 40a8 a6bd 3a12 36bf a010 713f
00000120: 4e2c 0a3f d65c 743f 11e0 a9be 4136 623f
00000130: 574d 41bf 0ff8 15be 0b31 0e3f fc16 8abe
00000140: 3b9d 6bbf 5550 5bbf ba69 323f ec5f 28bf
00000150: 8669 14bf 5bde 9fbe 163a bd3e 98a1 79bf
00000160: 3b49 1e3f a689 043f 2487 7abf 7178 72bf
00000170: c0bb 143e ebb1 c9be 091d 48bf 9495 23be
00000180: f3e0 bcbe c411 6b3f 8896 da3e 9b4e 3f3f
00000190: 14f4 8fbe b4f5 0e3f 2258 3d3f 2f70 06bf
000001a0: ac83 64bf b525 56bf 76cc 65bf 99e1 dabe
000001b0: 6d16 723f 2de4 2b3f 9fbd 9d3e 98c1 57bd
000001c0: bfe1 9fbe b4d6 1a3f ca75 383f f374 cebd
000001d0: 68cf 4cbf af91 cd3e ab3e 5a3f 07a7 58bd
000001e0: 2e93 5fbf f960 64bf 0fa9 213e d74b 5d3f
000001f0: 7dee 0fbf e2d1 40be ff03 ff3c 7f1a 1fbf
-0.13350776 0.9010628 0.67006034 0.8250804 0.9501339 -0.61784095 0.042906445 -0.89784646
0.25423348 0.21588483 -0.57008636 0.73157084 0.15859179 0.59334075 -0.71647257 -0.3318863
-0.78187764 -0.99454814 -0.2018371 -0.5690457 -0.16783793 0.10337929 0.09923955 0.6835873
-0.33750764 0.19604954 -0.95514834 -0.83995646 0.5214409 -0.37466213 0.9537441 0.57651263
-0.8287955 -0.80890185 -0.6148269 0.6631359 -0.9941755 0.7564166 -0.54154265 0.96175355
-0.8544762 0.14964823 -0.20674774 0.4798881 -0.6155568 -0.99503684 -0.3321956 -0.38326567
0.38426998 0.1786091 -0.8408486 -0.5918594 0.75618535 0.84767616 -0.5895934 0.06655821
0.007939803 -0.99451303 0.92236054 0.24770929 -0.61602193 0.90905464 0.051699296 0.6358273
0.10715823 0.3305007 0.12288841 0.14192556 -0.3347156 -0.0813756 -0.7112156 0.9416599
0.53973854 0.95454156 -0.33178762 0.88364035 -0.75508636 -0.14645408 0.55543584 -0.2697066
-0.9203679 -0.8566945 0.69692576 -0.65771365 -0.57973516 -0.3122433 0.3695838 -0.975122
0.6183049 0.51772535 -0.9786246 -0.9471503 0.14524746 -0.39393553 -0.78169304 -0.15975028
-0.36890373 0.91823983 0.4269297 0.7472932 -0.28115904 0.55843663 0.73962605 -0.5251493
-0.89263415 -0.83651286 -0.8976511 -0.42750242 0.9456547 0.67145044 0.30808732 -0.05267486
-0.31226918 0.6048386 0.7205473 -0.100809 -0.80003977 0.4015021 0.85251874 -0.052893665
-0.87333953 -0.8921047 0.15787147 0.8644385 -0.5622328 -0.18830064 0.031129835 -0.62149805

conv_0.weight f4 [128, 128]
00000000: 2856 80bc 3da8 e73d 5135 693c 300d 93bd
00000010: 4455 07be a1cf 33bd bcd8 b53b 63c1 773d
00000020: 5005 26bb d3f0 a9bd b44f 8b3d efdc 9f3c
00000030: c24f 78bd 643c 60bc f166 e4bc 9dee 91bd
00000040: 5684 1f3d c57e c83d 62d9 1bbd 0db7 ccbd
00000050: b149 d9bd 3234 e73d f956 643d fe06 13be
00000060: 69bf 923d 8e28 83bd bfc6 93bd 5bd3 983c
00000070: 1587 f6bd e37a fabd d727 6a3d 6c59 013e
00000080: 344f e43a 9637 c13d 4bb3 8a3d 13e5 063d
00000090: d6d7 0cb9 675e 16be d41a 103e 45c1 1bbd
000000a0: 9663 dbbc 6c40 0bbe 382d e43d f4cc 973d
000000b0: 5c34 0ebe 336e 933c b62e c3bd f258 9ebd
000000c0: df7c 1ebe 5049 0fbe 0700 76bc 4178 a8bc
000000d0: 404c 803d b1bd 613c 02c1 9dbd 6dbc cd3d
000000e0: f1a1 963d f95f c0bd 8ac0 923d cf67 423d
000000f0: cd90 92bc f807 253d 599f e9bd 53a2 8f3b
00000100: 0fa9 62bd e860 a23d f7cd 9dbd 21f9 d33d
00000110: bb78 b4bd d4f7 05be 149c 13be b56c a23d
00000120: e494 9a3d f72b 803d 06b1 ba3d 9f75 8ebc
00000130: 9e83 04be 2966 dcbc 6ca9 5a3d 6e27 1bbe
00000140: 7a68 07be 5eed 0e3e 7315 c2bd 431c c2bd
00000150: 550e aabd 3f82 b73d 4c19 d7bd 3cbc 52bd
00000160: f355 5ebd 18e6 ecbd 2419 083d 4eab 8dbc
00000170: 113b 25bd 6eef f0bd 6bf9 ecbd f04a 0dbd
00000180: c289 ed3d 9fe2 83bd f20c 143c c566 c03d
00000190: 858b cbbd f1a6 55bb f82e f3bd 3ae4 da3d
000001a0: 8518 0c3e b180 183e 7630 963d 0b47 e9bd
000001b0: 81f1 c8bd 4ad1 f8bd ec67 143e c909 7cbd
000001c0: b05d 8f3d 0c24 0cbe 9f99 f03d 207f 0bbe
000001d0: 7fe5 6a3d 45b0 013e 6911 11be 0423 133c
000001e0: 4928 693c bc79 d73d b1a6 f43d d38b 6b3d
000001f0: ee8b 10be f4bf 63bd 0324 893d 19db 14be
00000200: 6ef8 1e3d f5f2 fc3c ecde 8f3d 953c 7b3d
00000210: 763c 9cbd 6b96 aebd 6b79 183d c0de c6bd
00000220: 9db6 18be 556a 06be 2716 083e 174b ca3d
00000230: fbf8 4b3d dd52 2f3c 58cb febc a5b5 983d
00000240: 9ae1 43bc 944b 8f3c 9e14 10bc d8a3 0c3e
00000250: c944 c5bd 4ee6 2e3d 7ad7 453d e7ea af3d
00000260: 0870 53bd 32c2 b9bd 4b2c a33d 98a0 90bd
00000270: eda1 b0ba 4d8f ee3d dcd2 d73d bd9f c13b
00000280: 92d3 18be 6969 bfbc 0351 c33d 2020 86bc
00000290: 8dfc 153d 5606 16bb aec7 0f3e 399d 99bd
000002a0: e26e 67bd 5366 13bb 85a4 ba3d a7a3 e73d
000002b0: c3fb 1c3e b8b5 11be bf53 e33d 81cf 9dbc
000002c0: 522f 79bc a648 b9bc 9c8e 14bd 9d89 6d3c
000002d0: 8df8 b8bd 88c0 4cbd e6c9 c2bb e60a 753c
000002e0: 0aa4 83bd bae5 26bd e215 f23d 4377 9f3d
000002f0: 33fc fb3b 342b 013e b1f4 1cbe d1cf 1c3e
00000300: e572 dbbd 91de 11be b8da 7a3d 47ba 07be
00000310: 79d7 5dbd 39d2 eebd a811 15be 2d87 cebd
00000320: dd75 003d 43ad 123d b863 e23d 7ed7 3ebd
00000330: 4e67 a6bd 2306 f7bc ceec a1bd cad4 a1bd
00000340: a879 e53d ab71 91bc 5ffc 423b bae1 cbbd
00000350: abe3 abbd cc44 283d 046f abbb 784a 013e
00000360: d163 083e 209d 63bd 6bb0 3f3d e5a0 c93c
00000370: 5d0a 1bbc 7fc5 ad3b 58b9 65bd ad26 163e
00000380: f529 2e3d 6760 ee3c ead0 c6bc ebe8 10bb
00000390: 57a7 223d c377 823d fc75 bf3d 2616 ebbc
000003a0: 14d5 dabc 6d75 13be e9f9 0abd 71ed 10be
000003b0: 0549 ec3d 5439 b93d f8db 013d 237c 3ebd
000003c0: 5e01 ddbd 2484 b63d 8b9c 11be abef d3bd
000003d0: ea84 a53d 5907 ae3d ff7c 11be 9071 f13d
000003e0: 2ba3 aebc e076 a83d c4eb e13d 9e76 1d3e
000003f0: fa50 67bd 73f7 a13d e665 99bd 8704 f93d
-0.015666083 0.11311386 0.014233903 -0.0718025 -0.1321612 -0.043899182 0.0055495184 0.060487162
-0.0025332756 -0.08297887 0.068023115 0.019514529 -0.060622938 -0.013686273 -0.027881118 -0.0712559
0.038944565 0.09789804 -0.03804911 -0.09995852 -0.10609759 0.11289252 0.055747006 -0.14358136
0.07165415 -0.064042196 -0.07215642 0.01865547 -0.120374836 -0.1223047 0.0571669 0.12631768
0.0017418624 0.0943443 0.06772479 0.032933306 -0.00013431846 -0.14684449 0.14072734 -0.038026113
-0.026780885 -0.13598794 0.11141437 0.074121386 -0.13887161 0.017996883 -0.09530394 -0.07731809
-0.15477322 -0.1399281 -0.015014655 -0.020565154 0.062645435 0.013778136 -0.07702829 0.10045705
0.073551066 -0.09393305 0.0716563 0.04746228 -0.017891312 0.040290803 -0.11407346 0.004383364
-0.055337008 0.0792864 -0.077053 0.10350252 -0.0881209 -0.1308282 -0.14415008 0.079308905
0.0754793 0.06258386 0.09115796 -0.01739007 -0.12940833 -0.026904183 0.05338423 -0.1515176
-0.13223448 0.13957736 -0.09476747 -0.09478047 -0.08303515 0.08960389 -0.10502872 -0.051449046
-0.054281186 -0.115673244 0.0332271 -0.017293599 -0.040339533 -0.117644176 -0.1157101 -0.034495294
0.11598541 -0.06439709 0.0090362895 0.09394602 -0.099387206 -0.0032600726 -0.11874193 0.10688062
0.13681228 0.14892842 0.07333462 -0.113905035 -0.09811688 -0.12149294 0.14492768 -0.06153277
0.07000291 -0.13685626 0.11748051 -0.13622713 0.05734777 0.12664898 -0.14166798 0.008980516
0.014230796 0.10521266 0.11945856 0.057506394 -0.14115879 -0.055602983 0.06696322 -0.14536704
0.03881114 0.03087757 0.07024941 0.061337072 -0.076287195 -0.08524784 0.03722517 -0.09710455
-0.14913411 -0.131265 0.132897 0.098776035 0.049797993 0.0107009085 -0.031102821 0.07456521
-0.011955643 0.017492093 -0.008793978 0.13734376 -0.0963226 0.042700104 0.048301198 0.08589726
-0.051620513 -0.09070243 0.079674326 -0.07061881 -0.0013475992 0.11648426 0.10538265 0.005908935
-0.14924458 -0.023365693 0.09536936 -0.01637274 0.036617804 -0.002289196 0.14041016 -0.07500691
-0.05650223 -0.002249141 0.09113411 0.11310511 0.15330414 -0.14229476 0.11099958 -0.019263985
-0.015209036 -0.02261765 -0.036268815 0.014498142 -0.09031782 -0.0499883 -0.0059444783 0.014956212
-0.06427772 -0.040746428 0.1182058 0.07786419 0.0076899766 0.12614137 -0.15327717 0.1531365
-0.10715274 -0.14245059 0.061243743 -0.13254653 -0.05416057 -0.116611905 -0.14557517 -0.100843765
0.031362403 0.035809767 0.11054176 -0.046592228 -0.081251726 -0.030154293 -0.07906495 -0.079019144
0.11204845 -0.017754396 0.0029752476 -0.09955163 -0.083930336 0.041081235 -0.00523174 0.12626064
0.13319327 -0.055569768 0.046799105 0.024612853 -0.00946292 0.0053030844 -0.05608496 0.14663191
0.042520482 0.029098703 -0.02426954 -0.0022111486 0.03971037 0.06370499 0.093486756 -0.028697085
-0.026712932 -0.14400263 -0.03392974 -0.14153077 0.11537365 0.090441376 0.03170392 -0.046505105
-0.107912764 0.089119226 -0.14219873 -0.103484474 0.08081992 0.08497495 -0.14207838 0.117892385
-0.021318039 0.082257986 0.11031297 0.1537728 -0.05647371 0.07908525 -0.07490139 0.12159067

conv_0.bias f4 [128]
00000000: 8896 41bb a639 523b 3b1f 593b d1ad 51bb
00000010: a0cd 37bb 59a8 443b 60d8 3cbb a9e0 403b
00000020: af4b 57bb cc6e 633b 8db6 6abb ab6c 3b3b
00000030: 07fe 593b f7eb 453b 775f 51bb 6ac1 473b
00000040: 2f51 1d3b c7fb 8fba bf2d 573b 6cd9 54bb
00000050: f37b 523b cabf 3f3b e47d 373b 5c50 693b
00000060: 9635 37b9 59d3 3b3b 8dc2 523b 279c 573b
00000070: 0c2d 1abb 5f23 563b bbdc 42bb dd4b 443b
00000080: 47ec 663b 89dd 40bb 8c2f 483b 107f 50bb
00000090: 6dcd 4fbb 8b96 4fbb af8d 533b 7734 f73a
000000a0: 0487 563b fe0e 55bb 5ec6 513b 42cf 463b
000000b0: e9d3 613b 2135 2a3b e4ec 56bb 94c8 433b
000000c0: f0b4 293b c449 2ebb 0550 593b 0191 463b
000000d0: 2026 593b a07d ccba 3132 443b e890 37bb
000000e0: 24ab 6b38 2cdd 5bbb 617c 0abb dc05 233b
000000f0: fb80 533b e255 59bb 5926 55bb 339c 513b
00000100: 4b19 2e3b 8914 51bb ffe0 6c3b 1a73 453b
00000110: db8f 503b 54d6 53bb 74e4 59bb 55ba 593b
00000120: 987c 453b 6131 553b 6ad7 54bb fb23 52bb
00000130: c129 50bb 1cc1 64bb c08d 473a 6cbb 613b
00000140: c44c 563b 2c5c 45bb 94be 53bb 4bf8 403b
00000150: ce48 513b 62b8 c33a ce0c 273b 1c5b 523b
00000160: 672b 6b3b 0d11 5a3b cafa 34bb 288d 62bb
00000170: aa4b 543b 6e4b 593b 83b8 37bb 5376 53bb
00000180: 2e62 513b 0d2b 433b a72c 41bb d034 573b
00000190: b9b6 50bb 5d87 43bb b6d5 433b 7292 44bb
000001a0: 2aa6 653b 6c48 423b 8315 473b f609 5bbb
000001b0: 9345 553b ecbe 54bb e98a 31bb ef1a 583b
000001c0: 118f 13bb df3d 45bb 9c2c 3dbb 579c 4f3b
000001d0: f6ff 52bb 3dd7 513b 8875 43bb 5f42 533b
000001e0: be4c 5ebb 904a 2ebb 7c68 5d3b 760b 453b
000001f0: 2d56 433b 1b12 423b b11c 43bb 0014 513b
-0.0029539187 0.0032077818 0.0033130187 -0.0031994472 -0.0028046146 0.003000757 -0.0028815493 0.0029430783
-0.0032851507 0.0034703491 -0.0035814375 0.0028598707 0.0033262984 0.003020046 -0.003194777 0.0030480274
0.0024004688 -0.001098507 0.0032833663 -0.0032478226 0.0032117337 0.0029258602 0.002799862 0.0035600876
-0.00017472202 0.0028659909 0.0032159418 0.003289947 -0.0023525385 0.0032674891 -0.0029733616 0.0029952445
0.0035236047 -0.002942892 0.0030545918 -0.0031814016 -0.0031708137 -0.0031675424 0.0032280495 0.001886024
0.0032734284 -0.0032510157 0.0032009105 0.0030335938 0.0034458584 0.0025971609 -0.0032795006 0.0029874193
0.00258952 -0.002659426 0.0033159268 0.0030298831 0.0033134297 -0.0015601404 0.0029937143 -0.0028009955
5.6187753e-05 -0.0033548577 -0.0021131265 0.0024875319 0.0032272923 -0.0033162762 -0.0032524078 0.003198397
0.0026565369 -0.003190311 0.003614485 0.003012842 0.0031824026 -0.0032323794 -0.003324774 0.0033222635
0.0030134078 0.0032530653 -0.003247703 -0.0032064903 -0.0031763169 -0.0034905141 0.000761237 0.0034443988
0.0032699564 -0.0030114753 -0.0032309638 0.002944487 0.0031934264 0.001493227 0.002548981 0.0032097762
0.0035884024 0.0033274323 -0.0027615302 -0.0034569 0.0032393732 0.0033156532 -0.0028033562 -0.0032266572
0.0031949389 0.00297803 -0.0029476078 0.0032837875 -0.0031847192 -0.0029835321 0.002988202 -0.0029994515
0.0035041668 0.0029645218 0.0030377812 -0.0033422685 0.003254269 -0.003246243 -0.0027090854 0.0032975038
-0.0022515694 -0.0030096692 -0.00288657 0.003167888 -0.0032196022 0.003201916 -0.0029824693 0.0032235605
-0.0033920254 -0.0026594736 0.0033784201 0.0030066646 0.0029806003 0.0029612842 -0.002977174 0.003190279

layers.0.weight f4 [128, 128]
00000000: 5918 f0bd e31f 10be 6b71 72bc a0d1 c23b
00000010: 79c0 473d 9bf3 80bd c88d 063e 7022 5d3d
00000020: cc74 3d3d dc74 d8bd 5f67 16be 7db2 7d3d
00000030: 5a3d d63d df0a 2d3d a8c4 0c3e 657d 7bbd
00000040: 7302 da3d 2537 37bd eead d43d e52c 193e
00000050: 8832 03be e085 f23d 74f4 723c 0744 5b3d
00000060: 1155 0abe adfa eabd 476b e23d 3d17 c43c
00000070: cb95 a83d a517 b53d 610d fc3d 5f64 5abd
00000080: 3905 1b3d cb89 b5bc a615 233d 94ca df3d
00000090: ccec ac3d a010 f4bd 895a abbd 0c56 cabd
000000a0: 1ac6 77bd ed04 d3ba 55a4 033e e7bd 0b3d
000000b0: 8455 ca3d 1322 663d 0b2b 193c 8fe7 253d
000000c0: e2b4 dd3b 9d62 133e 45df 18be d580 dd3d
000000d0: 06df e4bd cef6 963d 27ff 85bd a700 8ebd
000000e0: 7690 a13d f4a4 a1bd 068d 6dbd 128c 8fbc
000000f0: 9a8a 193e 7727 cfbc 748f 16be fa5b 793d
00000100: 5c9c 563d 3140 383b 0b18 a6bc e089 2b3d
00000110: c777 0abe 77e0 9e3d 4449 133e b171 c33d
00000120: c42e f5bd b2af c93d 5b71 383c 212d 15be
00000130: 6976 b13d 0f89 ddbb d74f b1bd 7cbc 8b3d
00000140: 14ac 4cbd f5d8 d63d 4a50 e3bd 5bb9 763d
00000150: f7d8 d7bd cfe1 e7bd ea2f febd 8022 c03d
00000160: c2e6 a33d d2e5 98bd 937b d33d d9e0 a3bd
00000170: 5492 1ebd 971c 643d 9fa3 16be 9fbb 083d
00000180: eb03 9bbd 59fb 84bd e10d debd f769 86bd
00000190: 24dc 84bd db27 d0bd 93b8 a7bd ba5c acbc
000001a0: e145 a13d 4430 003e cb30 73bd 7383 883d
000001b0: a99d 9e3b 8a0e 73bd 0a31 3abd f7fc 81bd
000001c0: efb5 d6bd 8ac1 623d 1e42 803d b06e 033e
000001d0: 85e4 003e 93ad 2b3d f3af ebbd 4a56 b83c
000001e0: 34a4 103e 9e10 fdbd 7efd 083d f28e 343c
000001f0: cf7a f1bd caee cdbd 9cab c83d d20d 373d
00000200: 9ee0 5e3d fa29 1ebd a9e5 cdbd ce35 00be
00000210: 3b63 98bd faa1 a1bd 8b3d f5bd 7159 babd
00000220: be05 01be 2d2a 82bc f7b2 ec3d 53df 383d
00000230: f1e6 14be 2944 ddbd 5362 12be c2c9 253d
00000240: 1646 ea3d cd52 3dbd 84e8 05be 04d3 68bd
00000250: fd6d 3d3d d167 91bd 519f 153e 9e37 12bd
00000260: 5f0a d6bd baae 573d e8ef 1fbd 220a f63d
00000270: fb2e c1bd e245 733d 2803 1e3d 3272 07be
00000280: adb4 9ebd fec2 173e 15d1 9dbd 10b5 f33d
00000290: 9a8a 863d 71f4 533d f07a 173e 2944 d53c
000002a0: 6529 1ebe 1efe acbd 947c bc3d ab06 88bd
000002b0: 6ac0 3fbd 68de adbd 9f02 9e3d e9f2 7fbd
000002c0: 453d b83d 3e7a e33d cc93 8fbd f91d 833d
000002d0: b218 a03d 96dc fabd c83f 673d c9ac d0bd
000002e0: d6d5 02be 6439 58bd 17f9 b33d 7b16 713c
000002f0: 4c21 dabd 375d bd3d 4ae6 02be 00bd 893d
00000300: f9e4 963b 4811 323d cdec 11be 2bc9 053e
00000310: f25a b23d 4eff 0c3e 6a81 783d 7b4d d33d
00000320: f4fb 413c 5eee 153b 3ea0 063c 6bc7 583c
00000330: 6e9b 4abd 75ce b0bd 0d95 993d 5145 eebd
00000340: 22ce 573d 6dcb 4dbd 6626 12bd 223c 923c
00000350: 98c0 833c 5891 1dbe 4ccf 0ebe 7713 1ebe
00000360: 05b7 ae3d 7c09 f0bd 5c1e 113e 8210 b73d
00000370: a042 b0bc 556f 1abc dcd7 d83d 1523 81bd
00000380: 1655 0cbe 88d7 0cbe b7c2 093e 83b8 21bd
00000390: cce4 cbbd c6e1 963d 3a2f 92bd a2c4 62bd
000003a0: a021 e3bd dea9 183d 14ee ff3d b311 c2bd
000003b0: 71c3 67bd 62c3 d93d dd11 ffbd 5ead 1e3e
000003c0: e421 b23d b8bb db3d 3933 44bc 4039 f73c
000003d0: 2c7f a03d 7497 1dbe 1a53 3e3d 8ea1 2ebb
000003e0: febd d43d de6e 1abe 1d50 c33d 84ec b5bd
000003f0: 05e8 d9bb 4696 b2bc 1d8b 87bb af4d 2cbb
-0.11723394 -0.14074664 -0.014797549 0.0059453994 0.04876754 -0.06296464 0.13140023 0.05398792
0.046253964 -0.10569164 -0.1468787 0.061937798 0.10460921 0.042246696 0.13746893 -0.061398882
0.106449984 -0.044730324 0.10384737 0.14958532 -0.12812245 0.11841941 0.01482879 0.053531673
-0.13509013 -0.11473594 0.11055618 0.023936862 0.08231696 0.088424005 0.12307239 -0.053318378
0.037846778 -0.022160431 0.039815567 0.109273106 0.08443603 -0.119172335 -0.083668776 -0.098796934
-0.06049166 -0.001609949 0.12855656 0.034116652 0.09879592 0.05618484 0.009348641 0.040504035
0.0067659477 0.14393087 -0.1492892 0.108155884 -0.11175351 0.07371293 -0.06542807 -0.06933718
0.07888882 -0.078927904 -0.05799582 -0.017522845 0.14994279 -0.025287373 -0.1470316 0.06087873
0.05239521 0.0028114433 -0.020275136 0.041879535 -0.13522254 0.07757657 0.14383417 0.09543169
-0.119718105 0.09847964 0.011257495 -0.14567997 0.08665163 -0.0067607234 -0.08657806 0.0682306
-0.049968794 0.104906 -0.11099298 0.060235362 -0.1053943 -0.113223664 -0.12411483 0.0938158
0.08002998 -0.0746571 0.10326304 -0.08001871 -0.038713768 0.055691328 -0.14710854 0.033382054
-0.07569107 -0.06493253 -0.10842491 -0.0656318 -0.06487301 -0.10163852 -0.081895016 -0.02104031
0.078746565 0.12518412 -0.059372704 0.06665697 0.004840572 -0.059340037 -0.045456924 -0.06347077
-0.1048392 0.055360354 0.06262611 0.12835193 0.12587173 0.04191358 -0.11508169 0.022502083
0.14125139 -0.12356685 0.033444874 0.011020409 -0.11791002 -0.10055311 0.09798357 0.044690914
0.05441343 -0.03861425 -0.1005357 -0.12520525 -0.07440802 -0.07892223 -0.11974629 -0.09099091
-0.12599847 -0.015889252 0.11557572 0.045134854 -0.14541222 -0.10804016 -0.1429532 0.040475614
0.11439149 -0.046221543 -0.13076979 -0.056841865 0.04624747 -0.070998795 0.14611556 -0.035697572
-0.10451197 0.052656867 -0.03904715 0.120136514 -0.09432789 0.059392817 0.03857723 -0.13227156
-0.07749305 0.14820477 -0.07705895 0.11899769 0.06569405 0.05174679 0.1479299 0.026033478
-0.15445478 -0.084469065 0.09203449 -0.06641897 -0.04681436 -0.08489686 0.07715344 -0.062487517
0.08996061 0.111073 -0.07010612 0.06402201 0.0781721 -0.12249105 0.05645731 -0.10189206
-0.12776884 -0.052789107 0.087877445 0.014714832 -0.10650882 0.09246295 -0.12783161 0.06725502
0.0046049324 0.043473512 -0.14250489 0.1306502 0.08708753 0.13769266 0.060670294 0.103175126
0.011839855 0.0022877674 0.008216916 0.013231139 -0.049464636 -0.086331286 0.07499132 -0.11634315
0.052686818 -0.05024283 -0.03568115 0.01785094 0.016083047 -0.15387475 -0.13946265 -0.15437113
0.08531002 -0.11720559 0.14171737 0.089386955 -0.021516144 -0.009425958 0.10588047 -0.063055195
-0.13704333 -0.13754094 0.13453184 -0.039482605 -0.09955749 0.073672816 -0.07137914 -0.055363305
-0.11090398 0.037271373 0.12496582 -0.09476032 -0.05658287 0.106329694 -0.12454579 0.15495822
0.086978704 0.10729164 -0.011975103 0.030178666 0.07836756 -0.15389806 0.04646597 -0.0026646587
0.10387801 -0.15081355 0.09536765 -0.088830024 -0.0066499733 -0.021800172 -0.0041364566 -0.002629142

layers.0.bias f4 [128]
00000000: 3344 57bb 3159 56bb de97 60bb 6209 53bb
00000010: 52d9 54bb 948b 56bb 8523 553b bc2a 533b
00000020: f8d5 553b f6b5 6b3b cb26 58bb cd79 523b
00000030: d0ff 54bb 4eca 523b 5421 d4ba a40a 55bb
00000040: 9f0e 563b 5f6d 533b fed6 4bbb acf8 54bb
00000050: 3b94 523b 4875 55bb 4080 553b f9f9 51bb
00000060: adb5 583b 5df9 543b 5296 55bb 9cd2 523b
00000070: 2a50 533b f023 51bb 7732 533b 73b7 553b
00000080: 5778 4d3b 9237 523b e73a 55bb ce52 553b
00000090: e131 53bb a00e 4f3b 30b2 533b 6f9d 55bb
000000a0: a8fa 52bb e126 59bb ad04 563b aa31 55bb
000000b0: 19c9 59bb e875 5bbb 0aca 4abb 0055 53bb
000000c0: f4d9 533b 54e6 4ebb be07 553b 7fe6 51bb
000000d0: 36cd 553b 2489 4f3b d009 52bb 6d56 55bb
000000e0: 45e0 54bb bfee 543b cf16 56bb 6302 53bb
000000f0: 24ab 52bb bb31 5a3b f6d2 4f3b fc9d 553b
00000100: 9ed8 543b 9334 4f3b c647 563b 171e 573b
00000110: 796c 523b 1bde 54bb 8698 51bb 7a0c 57bb
00000120: a6cf 523b 04fd 553b f6d2 563b 3349 563b
00000130: 57f3 55bb f53e 523b 8c21 55bb f50b 563b
00000140: d2c7 52bb 134c 563b 2887 563b e576 553b
00000150: 4010 533b c297 52bb 7148 53bb 1d16 51bb
00000160: 50a7 50bb 72b6 553b 951d 4ebb 382a 53bb
00000170: f954 523b df0b 553b 9fe0 52bb 45dd 57bb
00000180: 5698 553b 2fc5 50bb 5ff3 543b 4217 323b
00000190: cece 533b d9e5 513b 7b2c 523b 846f 55bb
000001a0: 7651 513b dcba 52bb fca6 54bb 590a 56bb
000001b0: 6be6 563b c822 54bb d13c 543b af62 553b
000001c0: d4fd 543b 9017 55bb d03f 553b 6efd 52bb
000001d0: 847e 553b fdcd 52bb 56dd 4abb f117 53bb
000001e0: 5068 553b 5c80 52bb 39c1 4a3b d19d 523b
000001f0: 24dc 54bb 08b2 52bb 0315 553b 380d 56bb
-0.0032847046 -0.003270697 -0.0034270207 -0.0032201638 -0.0032478166 -0.0032737004 0.0032522392 0.0032221517
0.0032628756 0.0035966611 -0.0032982107 0.0032116056 -0.003250111 0.003216404 -0.0016184249 -0.0032507563
0.0032662523 0.0032261235 -0.0031103487 -0.0032496853 0.003213181 -0.0032571126 0.0032577664 -0.0032039864
0.0033067272 0.0032497265 -0.0032590819 0.003216899 0.0032243826 -0.003191229 0.0032226124 0.0032610565
0.0031352246 0.003207658 -0.003253633 0.0032550576 -0.0032225775 0.003159441 0.0032302253 -0.0032595058
-0.003219286 -0.0033134746 0.0032656596 -0.0032530823 -0.0033231436 -0.0033487026 -0.0030943179 -0.003224671
0.0032325955 -0.0031570392 0.0032505835 -0.0032028256 0.0032623536 0.0031667436 -0.0032049306 -0.0032552734
-0.0032482308 0.0032490937 -0.0032667404 -0.0032197468 -0.0032145465 0.0033293802 0.0031711436 0.0032595387
0.0032477747 0.003161703 0.003269659 0.0032824331 0.0032108112 -0.0032481018 -0.003198178 -0.0032813833
0.0032167225 0.003265203 0.003277955 0.0032697439 -0.0032646263 0.0032080982 -0.0032521216 0.0032660936
-0.003216256 0.0032699152 0.0032734368 0.0032572087 0.003220573 -0.0032133912 -0.0032239223 -0.003190405
-0.0031838007 0.0032609967 -0.0031450738 -0.003222121 0.0032094105 0.0032508296 -0.0032177342 -0.0032938283
0.003259202 -0.0031855812 0.0032493693 0.0027174507 0.003231931 0.003202787 0.003206997 -0.003256769
0.0031939424 -0.0032154834 -0.0032448163 -0.0032659976 0.0032791148 -0.0032369364 0.0032384882 0.003256004
0.0032499926 -0.0032515265 0.0032539256 -0.0032194513 0.003257663 -0.0032166236 -0.003095468 -0.0032210315
0.0032563396 -0.0032119965 0.0030937924 0.0032137523 -0.0032479847 -0.0032149572 0.0032513745 -0.0032661688

predict.weight f4 [1, 128]
00000000: 5607 bbbc 07f1 01bd b043 fbbb a077 68bd
00000010: 577c b3bd efe5 e6bc 995b 8f3d c843 883d
00000020: 2201 233d 9b77 833b 4a15 93bc e3b6 103d
00000030: a834 9ebd b5ba 433d a615 ab3a 69e8 90bd
00000040: 7be0 173d b15a 953d aa4f cabb ede1 9bbd
00000050: 4705 283d 0092 4bbd fba1 423d f61b ebbc
00000060: 2677 7c3c f4a6 9b3d 7b7a 95bc 6149 3e3d
00000070: 4993 6c3d 8366 97bc e926 923d 88a8 283d
00000080: 1f2c 033c ec53 873c d1c1 72bd 0af3 5f3d
00000090: 7774 84bd 2067 293c dfad f53c 08d5 31bd
000000a0: 8be8 4bbd 3a27 70bc 8912 143d 87cc 7fbd
000000b0: 8d77 56bc 0273 31bc 83a2 b2bb 7b9a a2bd
000000c0: 4e80 a53d f294 aabb 6a1a 9c3d b9db b4bc
000000d0: 6b91 213d dd9d 533c fa4b f2bc 1bd0 48bd
000000e0: 94b1 afbd 7b7b ad3d 5c31 11bd dba2 53bd
000000f0: 098e 1abd a034 543c 07f2 543c df4d 373d
00000100: 232d b73d b0bc 3c3c eafa ff3c 292d ca3c
00000110: afc3 163d 842c adbd 2ac9 c2bc 2c0f c9bc
00000120: b279 453d e2ac 123d b5ba ce3c 4750 0c3d
00000130: 0f1b 21bd 22c5 fb3c 53aa 8ebd 6e5a 0f3d
00000140: 615a 1cbd 6bb4 f93c 3802 eb3c 0e43 463d
00000150: b287 483d 1395 22bd 9406 9ebd 144a 7ebc
00000160: eace 89bc b9fa 2a3d 4376 14bc 1d1a 82bd
00000170: 40eb 0f3d 4262 8c3d 87f1 41bd 5e84 aabc
00000180: 1392 353d ad38 87bc 8a4d a23d ccd1 5c39
00000190: 0a27 843d a76c e53c 8ce8 db3c 99b7 5dbd
000001a0: 5fed b23c 9086 39bd 56e8 92bd 38a0 13bd
000001b0: 8836 ca3c f50b 51bc acc6 903c 7e88 643d
000001c0: a14f 953d e705 87bd 35b0 6c3d 8532 62bd
000001d0: 12c8 463d 14de 45bd 2a2b a7bb 0294 28bd
000001e0: e65a 523d 206b 1fbd d368 ab3b 1e6c 2f3d
000001f0: 6d48 b8bd 00c5 2ebd 010a 863d 7365 15bd
-0.022830646 -0.031724002 -0.007667981 -0.05675471 -0.0876395 -0.028185813 0.06999893 0.06653553
0.039796002 0.004012061 -0.017954487 0.035330664 -0.07724887 0.04778548 0.0013052716 -0.07075579
0.037079316 0.07292689 -0.0061740475 -0.07611451 0.041020658 -0.049699783 0.047517758 -0.028699856
0.015409267 0.07600203 -0.01824688 0.0464567 0.05775765 -0.018481499 0.07136328 0.04117635
0.008006125 0.01651951 -0.05926687 0.05467514 -0.064675264 0.010339528 0.029990135 -0.043416053
-0.049782317 -0.01465779 0.03615049 -0.06245091 -0.013090027 -0.010830643 -0.005451502 -0.07939621
0.08081113 -0.005205744 0.076222256 -0.022077428 0.039445322 0.0129160555 -0.029577244 -0.04902659
-0.08578792 0.08470818 -0.035447463 -0.051668983 -0.03773311 0.012952 0.012997157 0.044751998
0.08944156 0.011519596 0.031247575 0.024679737 0.036807712 -0.08455756 -0.023777563 -0.024543367
0.04821176 0.035809405 0.025235513 0.034256246 -0.039332446 0.030733649 -0.069660805 0.03499835
-0.03817213 0.030481538 0.028687581 0.048403792 0.048957534 -0.03969295 -0.077160984 -0.015520591
-0.016822297 0.041743014 -0.009061399 -0.06352637 0.03513646 0.06854679 -0.04734948 -0.02081507
0.04432876 -0.016506517 0.07924946 0.0002105899 0.064527586 0.028005911 0.026844285 -0.05413017
0.021841703 -0.045294344 -0.07173221 -0.03604147 0.024684206 -0.012759198 0.01767286 0.05579423
0.07290579 -0.06592923 0.05778523 -0.05522396 0.048530646 -0.048307493 -0.005101581 -0.041156776
0.05135622 -0.03892052 0.005231002 0.042827718 -0.08998189 -0.042668343 0.06544877 -0.036473703
