PERGAT_embbedding/data/emb/models/model_dim128_lay2_epo35.pth (torch, 137088 bytes, 7 tensors)

linear.weight f4 [128, 1]
000000 cc f4 1c 3f 34 6e 1f bf 8c 2b cf be 38 c9 0f 3e
       0.6131103 -0.6227753 -0.4046291 0.14041603
000010 04 8f 16 bf b0 49 86 3e 70 6f 07 3f f0 d7 50 bf
       -0.58811975 0.26228094 0.52904415 -0.81579494
000020 70 6f db 3e fa f1 74 bf c0 be c5 bd 10 b5 ea 3d
       0.42858458 -0.95681727 -0.09655523 0.11460316
000030 a0 6a da 3d e0 b3 64 3d ca 26 6f bf 90 4f 02 3f
       0.10664868 0.055835605 -0.9341856 0.5090265
000040 22 c1 28 bf b0 10 0e 3f 18 e0 00 3e 1a 97 7b bf
       -0.659197 0.55494213 0.12585485 -0.9827744
000050 c2 34 73 bf ee da 7a 3f 20 de 5e be be 33 18 3f
       -0.9500238 0.9799031 -0.21764421 0.5945395
000060 10 0c 1b 3f c4 c6 d8 3e 62 d5 17 bf 70 94 7a bf
       0.6056528 0.42339146 -0.5930997 -0.9788275
000070 94 f2 2d bf a8 52 f2 be 5e 21 55 bf 96 52 38 3f
       -0.6794827 -0.47328687 -0.8325404 0.72001016
000080 98 c7 05 3e 04 62 a0 be 54 2a 74 bf d0 2b cd be
       0.1306442 -0.3132478 -0.9537709 -0.4007249
000090 08 71 9d 3e 30 fb 3c 3e 10 16 c3 bd 20 3c 5e 3e
       0.30750299 0.18455195 -0.095256925 0.21702623
0000a0 d0 39 86 be 20 c2 a7 3e c0 bb 12 bf ee 03 66 bf
       -0.26215982 0.32765293 -0.57317734 -0.89849746
0000b0 84 c1 b3 be 84 8c 1a 3f 0c a5 cc 3e 74 f9 e0 3e
       -0.35108578 0.6037066 0.3996967 0.43940318
0000c0 e8 9c 4e 3f 38 8f 85 be 20 9a 29 3e 6c 47 f3 3e
       0.8070817 -0.2608583 0.165627 0.47515428
0000d0 c0 39 c6 bd 68 b6 fa be e4 65 bc 3e 92 97 2d 3f
       -0.09678984 -0.4896729 0.36796486 0.678094
0000e0 f8 3c 2d 3e 98 64 04 3f e6 0c 2f 3f b0 91 eb 3e
       0.16917789 0.51715994 0.68379056 0.46009588
0000f0 3c 84 01 3f 30 6e 31 3f 98 8d b1 be bc d0 78 bf
       0.505924 0.6930876 -0.3467834 -0.97193503
000100 04 9e 3b bf 20 37 23 3f b6 23 66 bf 8e c4 58 3f
       -0.7328799 0.6375599 -0.8989824 0.8467492
000110 40 e6 28 3f d4 d5 34 bf e0 32 a5 bd 00 fc 97 be
       0.65976334 -0.70638776 -0.08066344 -0.29684448
000120 48 f6 e1 be 4c 9f 0b bf 8c 4a 6c bf 4e 2d 3f bf
       -0.4413321 -0.5453994 -0.9230125 -0.74678504
000130 98 ea b1 be de f0 2a 3f 62 a1 42 3f 56 15 02 bf
       -0.34749293 0.66773784 0.760275 -0.50813806
000140 40 ea 71 be b8 c1 37 bf 72 89 74 3f 48 c8 5c 3f
       -0.23624516 -0.71779966 0.95522225 0.86243105
000150 46 a7 36 bf f0 23 dd bd 8e 1f 22 bf 9a 4e 0e bf
       -0.7134899 -0.1079787 -0.633294 -0.55588686
000160 8e 34 5d 3f 3e d1 7f bf 04 13 0b bf 94 17 cd 3e
       0.8640832 -0.99928653 -0.5432589 0.4005705
000170 84 1f e5 3e 78 18 2a be 6c f7 3a 3f be f4 5a bf
       0.44750607 -0.16610897 0.73033786 -0.85529697
000180 48 84 a1 be a4 1a a4 3e f0 6a da be 20 95 42 3f
       -0.31546235 0.32051575 -0.42659712 0.76008797
000190 30 e6 53 3e 48 f6 02 be 18 30 13 bf 68 2f fe 3e
       0.20693278 -0.12789261 -0.5749526 0.49645543
0001a0 10 a8 13 be e4 47 9b 3e f2 15 30 3f 70 54 af bd
       -0.1441958 0.30328286 0.68783486 -0.08561027
0001b0 90 76 38 3f e6 7e 12 3f e8 ec 71 3e 84 a1 e0 3e
       0.7205591 0.5722488 0.23625529 0.43873227
0001c0 e2 cd 35 3f da c2 6e 3f 70 95 84 bd 3a 19 73 3f
       0.7101728 0.9326607 -0.064738154 0.9496037
0001d0 30 64 a2 3d 96 11 42 bf ae e3 61 3f f0 a2 58 3e
       0.079292655 -0.75808084 0.88238037 0.21155906
0001e0 c4 1d d4 3e 44 f4 b6 be 1c 26 7f bf 70 63 d6 be
       0.4142896 -0.35733235 -0.99667525 -0.4187274
0001f0 40 33 8b be 02 0e 47 3f 90 67 dc 3d c4 2d 1e 3f
       -0.27187538 0.7775575 0.107619405 0.6178858

linear.bias f4 [128]
000000 5e 3c 82 be e2 10 21 3f 8c b4 da be ea 74 75 be
       -0.25436682 0.62916386 -0.4271587 -0.2397038
000010 23 56 46 3f 74 30 59 3f df e8 67 bf 39 de 12 bf
       0.77475184 0.8483956 -0.9058971 -0.57370335
000020 8e b7 31 bf a0 11 e6 3e b5 c1 2e bf cf 6e 25 3c
       -0.6942071 0.44935322 -0.68264323 0.01009722
000030 cb 75 bc be 66 33 a6 be 39 d2 b4 3e 43 d6 1b 3f
       -0.3680862 -0.3246109 0.35316637 0.6087381
000040 fc 69 52 3f 67 25 88 be c0 c7 20 bf 79 b2 34 3f
       0.8219297 -0.26591036 -0.62804794 0.7058483
000050 3d 44 08 bf 19 38 ce 3d 58 3b 99 be d8 29 52 3f
       -0.53229123 0.100692935 -0.29928088 0.820951
000060 1f f2 6a 3f 6c aa 89 3e 3e ba ab bd 5a 2c 71 bf
       0.917757 0.26887834 -0.08385132 -0.942083
000070 a3 36 00 3f 6c 27 42 bd 8c 92 b9 3e 46 3a bc be
       0.5008337 -0.047400877 0.3624462 -0.3676321
000080 12 22 06 3f 3f f9 26 bf 78 6d cb bc c5 d2 cc be
       0.5239574 -0.6522407 -0.024832472 -0.40004554
000090 c7 65 33 bf 83 d8 31 3e f1 a8 4c bf 16 83 16 be
       -0.70077175 0.17367749 -0.79945284 -0.14698443
0000a0 81 f0 02 bf 1b 1f af be 94 2e 3c bf 82 ec 69 3f
       -0.5114823 -0.3420342 -0.7350857 0.9137651
0000b0 4d 71 4c bf 13 da 72 bf 41 3a 75 be 8e 86 59 bf
       -0.79860383 -0.94864005 -0.23948003 -0.8497094
0000c0 ec 4b 1b 3f 8a c9 a5 3c 28 bd 3c 3f f8 92 5f 3f
       0.6066272 0.020237703 0.7372613 0.8733363
0000d0 97 bc 62 3f fa 0f 5f 3f a9 31 63 bf fc b3 23 bf
       0.88569015 0.87133753 -0.8874765 -0.6394651
0000e0 ff 89 1a bf e0 94 52 3f e2 55 2b 3f 3d 7f 40 be
       -0.60366815 0.82258415 0.6692792 -0.18798538
0000f0 ea 3b a4 3e cf 5b 90 bb 7f c5 8f 3e dd 92 f8 3e
       0.3207696 -0.0044054757 0.28080365 0.48549548
000100 e7 4a 38 bf dd 61 77 3f f8 78 02 3f e0 1a ae 3e
       -0.7198929 0.966337 0.50965834 0.3400488
000110 20 db 35 bf 19 aa 32 3f 2e 16 44 3f c9 76 9c be
       -0.71037483 0.697908 0.76596344 -0.30559376
000120 38 fd 7a bf da 28 74 3e dc 1c 68 3f 71 d0 d8 be
       -0.9804263 0.23843709 0.90669036 -0.42346528
000130 90 31 3f 3f 93 5a 28 3f 72 54 cd 3e 9e f3 03 be
       0.74685 0.65763205 0.4010349 -0.12885901
000140 70 86 b4 3e 6b 2b 43 be 7b b5 48 be 52 48 53 3f
       0.35258818 -0.19059531 -0.1960048 0.8253223
000150 6d 55 52 3f 78 bd 5f bf 53 51 34 bf 67 29 42 bf
       0.821616 -0.8739848 -0.7043659 -0.75844425
000160 fe 4c 7a 3f c4 c2 a7 bc 03 d2 6f 3f a5 69 4b 3f
       0.9777373 -0.020478614 0.9367983 0.79458076
000170 04 6b 6c bf 63 76 13 3e 36 81 0b 3f 86 15 a5 3e
       -0.9235079 0.1440063 0.54494035 0.32242984
000180 d3 b4 3a 3f 83 01 8d 3e df 37 cb be 22 e7 59 3e
       0.72932166 0.27540216 -0.39691064 0.21279576
000190 ba 42 43 be 7d 27 53 3f 60 5c c7 be fe 57 48 3f
       -0.19068423 0.8248213 -0.38937664 0.78259265
0001a0 d2 11 99 be 12 eb 80 be ba d1 b5 be f0 6a 2f bf
       -0.29896408 -0.25179344 -0.3551157 -0.6852255
0001b0 af e2 14 3f b6 af 00 bf a6 ab 10 bf 1e 0a 2c bd
       0.5815839 -0.50268114 -0.56511915 -0.042001836
0001c0 d8 67 3d bf 0f ad 7b 3f 69 c9 1c 3f a7 1d f4 3e
       -0.7398658 0.9831094 0.6124483 0.47678873
0001d0 dd ab 71 bd 96 46 5e bf fd 16 2d bf 64 59 61 3f
       -0.059001792 -0.86826456 -0.676132 0.88027024
0001e0 1e a0 2f 3e d5 14 a2 3e 97 9a a5 be 7a 61 57 3e
       0.17150924 0.3165652 -0.32344505 0.21033278
0001f0 60 9b ae 3e b7 55 12 3f 16 72 ad be 94 8d 70 3f
       0.34102917 0.5716204 -0.33876103 0.9396603

conv_0.weight f4 [128, 128]
000000 c4 a3 dc bd 30 1e 99 3b 79 88 80 3c 89 87 bb bd
       -0.10773423 0.004672788 0.015690075 -0.09156711
000010 da ef 4d bd fd d9 99 bd c5 3b 14 3e 24 0f 63 3b
       -0.05027757 -0.07512281 0.14475925 0.0034646476
000020 f5 d4 f7 3c 6c 42 10 be e0 50 e4 3b 3d 33 b2 bd
       0.030252913 -0.14087838 0.006967649 -0.08701179
000030 1f 4f 30 3d 6f 50 06 3e b9 74 12 3e e6 1c 13 be
       0.043044206 0.1311662 0.14302339 -0.14366493
000040 af 81 d8 3c 0f bf bb 3d 40 9e bb bd 14 cd be 3d
       0.026429025 0.09167301 -0.09161043 0.09316459
000050 37 6f e2 3d a5 b6 ff 3c 66 7b 77 3d 31 92 d6 bd
       0.11056369 0.031215021 0.060420416 -0.104771025
000060 23 81 43 3d e2 71 92 bd 1b d6 7a 3c c6 e7 10 3d
       0.047730576 -0.07150628 0.015309836 0.035377286
000070 2a 10 c9 3c 3d 3f 51 bb 8f dd f9 bb 76 53 2b bd
       0.02454384 -0.0031928562 -0.007625289 -0.04182764
000080 86 e9 29 3c e2 b4 83 3d 45 cd ec bd fd 28 cb 3d
       0.010370618 0.06430985 -0.115625896 0.09919927
000090 df 63 44 3d b3 5c de bd ca ce c2 bd 70 c7 d5 3c
       0.047946807 -0.10857525 -0.09512098 0.026096076
0000a0 a4 e9 a6 bd f2 f7 66 bd 03 0d ea 3d 43 e3 a0 3d
       -0.08150032 -0.056388803 0.11428263 0.07855847
0000b0 a3 25 51 bd 33 cf a6 bc c8 3d fc bd ee 3f 47 3d
       -0.051061284 -0.020362472 -0.12316471 0.048644952
0000c0 ff 22 c6 3c 7a 11 fb bc ac ec 59 bd e4 2c ff bb
       0.02418661 -0.030647982 -0.053204224 -0.007787334
0000d0 9f 86 97 3d 06 d7 2c 3d db 05 86 3c ee 36 f8 bd
       0.07398724 0.04219725 0.016360214 -0.12119852
0000e0 13 49 10 be 4c 32 ed 3c 2b d8 e5 3b 19 52 e8 3d
       -0.14090376 0.028954647 0.0070142946 0.11343784
0000f0 e5 69 93 bd 9a e5 b4 3d f3 ee f0 bd 60 b8 75 3d
       -0.07197932 0.088328555 -0.11764326 0.059990287
000100 0a 3c 83 3c 38 f5 51 3c e0 d1 60 bd be 36 6a bb
       0.01601984 0.012814812 -0.054887652 -0.0035738195
000110 e1 a2 85 bc dc f8 e4 3b 54 59 ff 3d 02 66 32 3d
       -0.016313018 0.006987674 0.1246821 0.043554313
000120 47 df 63 bc 50 b3 5b 3d 88 dd f6 3c eb bd cb 3b
       -0.013908214 0.053637803 0.030134931 0.0062177083
000130 c7 a4 03 be 2a 0f 19 3e 4f ee fe bc a0 ca db bd
       -0.12855826 0.14947191 -0.031119494 -0.10732007
000140 3e 5f d6 bd 01 f1 5d 3b 14 c1 ee bd 4f df ef 3d
       -0.10467385 0.0033865573 -0.116579205 0.117125146
000150 3a 78 80 bd 7c 10 a5 3c 08 23 76 bc 96 0c d3 3d
       -0.062729314 0.020149462 -0.015023001 0.10305135
000160 5b 8f 99 3d 51 ea 77 3c 65 39 58 bd d5 03 d1 bc
       0.07498046 0.015131549 -0.05278911 -0.025514523
000170 8e fd e2 3c d7 bb 9e 3d 01 9d f7 3d 70 02 2a bd
       0.027708795 0.07750671 0.12090493 -0.04150623
000180 8d 59 d3 3d 55 bd 13 3d d0 b2 8c bd 69 26 e6 bd
       0.10319815 0.036069233 -0.06870043 -0.11237795
000190 9c c9 d7 3c bb e2 87 bd 89 75 40 3d 48 5c c0 bc
       0.026341252 -0.06635042 0.04698709 -0.023481503
0001a0 5c ea a1 3d 59 9d 9c bd ca b4 b9 bd 78 95 27 3d
       0.07906029 -0.07647199 -0.09067686 0.04091403
0001b0 f8 d2 50 bd d3 2f ff 3d e6 6e da 3d 49 61 d0 3d
       -0.050982445 0.124602936 0.106656834 0.10174806
0001c0 88 5f a8 bb 03 13 c9 bd 9e 22 bb 3d 0d 42 55 3d
       -0.0051383413 -0.09818079 0.09137462 0.052064944
0001d0 3e 9f ac 3c 1b 75 0b 3e 2b a8 64 bd 15 40 01 3d
       0.021072026 0.13618891 -0.05582444 0.031555254
0001e0 74 96 98 bd 56 62 b1 3d c9 36 f2 bc 13 c9 05 3e
       -0.07450572 0.08661334 -0.02956714 0.13064985
0001f0 95 c9 af bc 3d 73 ce 3d e3 8d 04 3c 1d 13 c7 bd
       -0.021458426 0.10080574 0.008090469 -0.097204424
000200 bb 1e 1f 3e 2d 2c 54 3d 1c 34 dc bd 3c ee 14 bd
       0.15539066 0.05179994 -0.107521266 -0.03636001
000210 20 57 d8 3d 1f c6 0a 3d ee 2e 5d 3d 76 04 0d 3c
       0.10563493 0.03388035 0.053999834 0.008607021
000220 ce ef 0a be f0 f3 53 bc 0c d5 60 3d 5e cb 0a be
       -0.1356804 -0.012936577 0.054890677 -0.13554141
000230 23 0d cd 3d 9e 20 3d bc f7 a8 60 3d 10 aa 01 be
       0.10012271 -0.011543421 0.054848637 -0.1266253
000240 8b 6f 9e bd c2 8f df 3d cd 16 16 be 20 95 d3 3d
       -0.07736119 0.109160915 -0.14657135 0.10331178
000250 9d 71 79 bd c0 b5 8e 3c 4a 63 14 3d 57 97 b2 bd
       -0.060899366 0.01742065 0.036227502 -0.08720272
000260 9d 53 a3 3c fb 9d 06 3e 4f a9 7d 3d 84 a3 12 3e
       0.01993733 0.13146202 0.061929043 0.14320189
000270 fd b9 ac 3c fd 7d 7f bd 0e bb 04 be 94 5e 18 3c
       0.02108478 -0.06237601 -0.1296198 0.009299893
000280 ed 19 12 be 89 b3 1d 3e 82 7e 8d bd 18 15 ca 3d
       -0.14267702 0.15400518 -0.06908895 0.098673046
000290 54 de 1a be 63 a7 10 3e 1a c8 fd 3d 84 b0 ae 3c
       -0.15123874 0.14126353 0.12391682 0.021324404
0002a0 49 5d 07 bd f9 8f 67 3d ad 6d 01 3e a7 e2 3b bb
       -0.033047948 0.056533787 0.12639494 -0.002866903
0002b0 84 8f c3 3d 30 51 93 3d 6e 85 9c bc 1b 12 05 be
       0.09548858 0.0719322 -0.019106593 -0.12995188
0002c0 1d a3 1e 3e 4d d0 4c 3c 88 5c c9 bd 21 35 7e bd
       0.1549191 0.012500835 -0.09832102 -0.062062386
0002d0 12 58 98 3c 63 b3 bb bc 5f a0 d9 3d cb 23 32 3c
       0.018596683 -0.022912687 0.106262915 0.0108727915
0002e0 cd 95 51 3c 9c de e2 bc a3 bd ba 3d 6d f1 ff bd
       0.012792063 -0.027694039 0.091182016 -0.1249722
0002f0 35 46 bc bc 39 3e 56 3d c6 08 80 3d e1 60 09 be
       -0.022982696 0.052305434 0.062516734 -0.13415863
000300 a5 15 c3 bd 8f ed bf 3d bf bb 07 be fd 81 80 bd
       -0.09525613 0.093714826 -0.13255213 -0.06274793
000310 7e 49 c0 bd bf 2f 37 3d da 59 f0 3b 3a 14 10 3e
       -0.093890175 0.04472327 0.00733493 0.14070216
000320 0b f6 1f be 63 cf 96 bd 96 ea 72 3d 1c 73 63 3d
       -0.15621202 -0.073637746 0.05930575 0.0555297
000330 73 9d cb 3c 79 4c 8e 3d 35 f1 2b bd 82 2a ca 3d
       0.024855351 0.0694818 -0.04197808 0.09871389
000340 cf bb 9b 3d 15 1e e9 3d 8a a2 d0 3d 51 52 90 bd
       0.07604181 0.11382691 0.10187252 -0.070469506
000350 e2 2f ae 38 83 27 df bb 0d 24 3a bd ff 9e 19 be
       8.3058854e-05 -0.00681013 -0.045444537 -0.15002058
000360 1c dd 09 3e 20 bb da 3d 49 8c ea 3d 7f 28 f1 bc
       0.13463253 0.106802225 0.114525385 -0.029438255
000370 59 ae 22 bc 16 7f cd bc 98 bb 10 be 79 c8 d6 bd
       -0.009929263 -0.025085013 -0.14134061 -0.10487456
000380 3c fc 17 be d8 2d 19 be f2 db 32 bd 72 78 18 3d
       -0.14842314 -0.14958894 -0.043666787 0.03722424
000390 ac 1b 59 3c de ab 82 bd 9f b6 7a bd 5d f5 a1 bd
       0.013251226 -0.06380437 -0.061209317 -0.079081275
0003a0 27 21 75 3d 4d ae 09 3e 1e 12 e6 3c 85 c1 c3 3d
       0.05984607 0.13445397 0.02808481 0.09558395
0003b0 6a 43 ff bd 80 20 0f be d7 9a b4 3d 23 b7 f7 bd
       -0.1246403 -0.13977242 0.08818596 -0.120954774
0003c0 22 44 9d bc 83 72 04 3e 76 a6 0a be 7a c0 e1 3d
       -0.019197527 0.12934308 -0.13540062 0.1102304
0003d0 8d b9 f5 3d 57 5f 5a 3d 5a f4 74 3c 48 58 e0 3d
       0.11998282 0.05331358 0.014950836 0.10954338
0003e0 92 d1 04 bd 9b 6a b8 3c 0c cf 08 be 21 55 96 bd
       -0.032426424 0.022511771 -0.13360232 -0.07340456
0003f0 1c 2b 11 3b 73 84 bb 3b db 11 69 bb 9d b8 c0 bd
       0.002215094 0.0057225763 -0.0035563621 -0.09410212

conv_0.bias f4 [128]
000000 29 f8 5d 3b 09 0e 58 3b c7 15 16 bb 06 09 55 3b
       0.0033869839 0.003296735 -0.0022901164 0.00325066
000010 cb 16 5c bb ba 2d 4a bb d9 1e 6c 3b 0f d9 55 bb
       -0.0033582922 -0.003085001 0.0036029129 -0.0032630598
000020 28 e7 54 3b 80 26 5b bb 5b 5f 3c 3b ba f6 4a bb
       0.0032486413 -0.0033439696 0.002874336 -0.0030969814
000030 48 2c 43 bb 3b f5 6c 3b 7c d3 63 bb 86 2b 57 bb
       -0.0029781032 0.003615691 -0.0034763506 -0.0032832338
000040 97 aa 62 ba 4e 3a 39 bb aa f2 60 3b b4 dc 66 3b
       -0.00086466357 -0.0028263512 0.0034324327 0.0035226764
000050 b1 24 54 bb 8e ac 68 3b d7 96 56 bb 2b 4b 68 bb
       -0.0032370503 0.0035503241 -0.0032743716 -0.0035445194
000060 3f 38 47 bb 0c de 44 bb 43 16 56 bb b9 d3 3c 3b
       -0.0030398516 -0.0030039577 -0.0032667078 0.002881272
000070 08 49 4c bb cf 56 01 bb 3e 5f c3 ba ac 61 3f bb
       -0.003117146 -0.001973558 -0.0014905704 -0.0029202504
000080 0a bd 88 ba 5c 87 7c 3b 9f 57 5a 3b 9c 2d 44 3b
       -0.0010432315 0.003853283 0.0033316386 0.0029934412
000090 e9 b1 e9 ba 31 fa 58 bb f4 d8 56 3b 83 8e 3f bb
       -0.0017829511 -0.003310811 0.0032783123 -0.002922923
0000a0 00 29 56 3b 6c 5f 41 bb cd a5 23 bb 76 1b 9b ba
       0.0032678246 -0.0029506339 -0.002497065 -0.0011833746
0000b0 73 cb 4b bb 2c f2 10 bb 66 99 40 bb 63 44 5b bb
       -0.0031096607 -0.0022117002 -0.0029388308 -0.003345751
0000c0 b7 35 25 3b 63 34 57 3b d3 48 5c 3b b2 3c 61 3b
       0.0025209018 0.0032837621 0.0033612743 0.0034368453
0000d0 e3 a3 40 bb 9a fc 5a 3b ca 40 40 bb ab c4 6a 3b
       -0.002939456 0.0033414722 -0.0029335492 0.003582279
0000e0 6a 65 67 3b 5d 89 65 3b f9 c7 10 3b 28 68 59 3b
       0.003530825 0.0035024502 0.002209185 0.0033173654
0000f0 67 78 28 3b 23 03 34 3b e5 09 34 bb e4 ac 5d 3b
       0.002570653 0.002746769 -0.0027471718 0.0033824975
000100 17 22 59 bb 9e 5e 57 3b 2b 0f 1e bb e4 99 d7 ba
       -0.0033131891 0.0032862793 -0.0024117928 -0.0016449061
000110 9a 21 3d 3b 8c be 44 bb c8 29 6d bb 44 04 61 bb
       0.002885914 -0.0030020801 -0.0036188234 -0.0034334818
000120 c9 18 5c bb bb 3e 5b 3b fa 6c 3c 3b d6 02 59 3b
       -0.003358411 0.0033454138 0.0028751479 0.0033113263
000130 94 83 b6 ba ff a3 59 3b 49 e9 3d bb fc 12 ec 3a
       -0.0013924711 0.0033209322 -0.002897816 0.0018011029
000140 74 c2 59 bb 3c 65 3a bb 5c 5d 2b bb 25 b2 6b bb
       -0.0033227475 -0.0028441688 -0.0026148176 -0.0035964337
000150 4c dc 4a 3b 35 15 46 bb d1 4c 5c 3b 29 b6 32 3b
       0.003095406 -0.0030225043 0.0033615122 0.002726922
000160 8d 4f 49 bb 4a aa 5b bb 07 14 48 3b 49 e7 6d bb
       -0.0030717582 -0.0033518248 0.0030529515 -0.0036301187
000170 7c be 28 bb f2 99 6f bb 65 10 62 bb 2c c8 5a 3b
       -0.0025748303 -0.0036560264 -0.0034494635 0.0033383472
000180 c8 f0 5a bb 3a 4b 5b 3b 81 37 06 bb 2a 0d 63 bb
       -0.0033407677 0.0033461587 -0.002047986 -0.0034645298
000190 7b 29 67 bb 58 a6 70 3b 73 cd 2a bb 92 c9 47 bb
       -0.0035272527 0.0036720242 -0.0026062399 -0.0030485136
0001a0 7e 45 55 bb ce 59 56 3b 4d 3a 61 3b 59 34 52 ba
       -0.0032542641 0.0032707336 0.0034367025 -0.00080186647
0001b0 62 76 70 bb 5d 2f 41 bb d8 c8 d0 ba a9 1d 64 bb
       -0.0036691655 -0.0029477694 -0.0015928997 -0.0034807718
0001c0 2f cc 49 3b 29 a9 59 3b 82 e1 3c 3b 53 91 59 3b
       0.003079187 0.00332124 0.0028820937 0.0033198192
0001d0 af d5 6a 3b 13 6e 8c ba 3b e0 5e 3b c4 54 ef ba
       0.0035832932 -0.0010713957 0.0034008163 -0.0018259515
0001e0 32 80 5a 3b 9e 34 65 bb d8 3d 68 3b 96 6b 56 bb
       0.003334057 -0.003497399 0.0035437252 -0.0032717935
0001f0 69 f3 44 bb 88 17 61 bb ad a5 5b 3b 61 d6 5b 3b
       -0.003005231 -0.00343463 0.0033515499 0.0033544528

layers.0.weight f4 [128, 128]
000000 09 53 a1 bd 10 f1 88 3d a9 e8 d9 3b 7f 0c 7a 3d
       -0.07877166 0.06686604 0.0066500497 0.061047073
000010 4b 08 d3 3c 22 27 fe bd 06 19 e1 3d b9 e3 cf 3d
       0.02576079 -0.12409808 0.10991101 0.101508565
000020 b8 72 43 bd 26 ba bf bd 76 0a 60 bd 7d 18 9c 3d
       -0.047716826 -0.09361677 -0.054697476 0.07621858
000030 ef de d9 bc d0 6d 4f bd 4b 65 ec bd 32 0b 5f bd
       -0.02659556 -0.050641835 -0.115427576 -0.054454036
000040 b2 e0 b3 3d cd 68 04 be 9e 2b be 3d 08 03 3f 3d
       0.087830916 -0.12930603 0.09285663 0.04663375
000050 c6 04 a0 3d 91 db 69 3d af 37 b9 bd 82 b7 54 3d
       0.078134105 0.05709416 -0.09043824 0.05193282
000060 78 33 b5 3c 3c 49 ce bd f4 2f c3 ba 4f 90 e0 bd
       0.022119269 -0.10072562 -0.001489161 -0.10965025
000070 a4 35 0d 3b b8 50 4f bd 58 94 9b 3d 1a 6f a2 bd
       0.0021546865 -0.05061409 0.07596654 -0.07931347
000080 74 05 ac bd 32 9c 18 be 36 c6 fa 3d f0 b0 da 3d
       -0.083994776 -0.14903334 0.12244837 0.106782794
000090 44 ef 12 3e cc 80 c1 bd f1 9a f6 bd 4f 2a 1b 3d
       0.14349085 -0.09448394 -0.120412715 0.037882145
0000a0 de 0c 8a 3c bb 7e c2 3d 04 81 9f bd 71 43 10 3e
       0.016851839 0.09496828 -0.0778828 0.14088227
0000b0 24 0b 7a bc c3 13 18 bc f2 cb b1 bd df b6 eb 3d
       -0.015261445 -0.009282055 -0.086814776 0.11509489
0000c0 95 54 24 3d f9 ee a1 bd 83 a2 ef bd f6 a4 95 3c
       0.040119726 -0.079069085 -0.117009185 0.018267136
0000d0 85 ce 21 bd 42 bc 31 3c d1 90 6a 3d ef cd cc 3c
       -0.039503593 0.010848107 0.057267014 0.02500054
0000e0 3a 0e 5d bc f0 36 08 3e 53 9e ce bb d8 66 0a be
       -0.013492161 0.13302207 -0.006305495 -0.13515794
0000f0 cc 50 1a 3c b6 80 e6 bd ae 78 61 3d 32 17 73 3c
       0.009418678 -0.112550184 0.05504673 0.014837073
000100 34 01 03 bc 4f 18 8f 3c 20 cf f7 3d ab 97 85 bd
       -0.007995892 0.017467646 0.12100053 -0.06523069
000110 2a be 5f bd 1c 56 b6 3d da ea 3f 3d f5 db 10 be
       -0.054624714 0.08903143 0.04685483 -0.14146407
000120 47 d1 a8 bc dd fb e8 bd 5b e9 3f bc fb 28 b2 bd
       -0.020607604 -0.11376164 -0.011713351 -0.08699223
000130 a9 1c e1 bd ef 35 b5 bd a0 92 9c 3d 16 58 89 bd
       -0.109917946 -0.08848178 0.07645154 -0.06706254
000140 e7 8d a8 bd 05 01 c3 bd c9 3a f4 3d 91 cc 56 3d
       -0.08230191 -0.09521679 0.11925275 0.052441183
000150 f3 2e a2 bc 85 77 8e bd 18 78 fc 3d 73 ca 33 3d
       -0.019797778 -0.0695639 0.123275936 0.043894242
000160 94 11 5e 3d 28 10 f5 bd 1c 70 10 3d 25 d2 ad bd
       0.054215983 -0.11965972 0.035263166 -0.084873475
000170 7d 0c 13 be 24 6d d5 3d 25 e7 4c 3d bd e5 01 3d
       -0.14360233 0.104212075 0.050025124 0.031713236
000180 a4 b3 42 3d a7 a8 10 3d f4 0e c8 bd e1 8d b1 bd
       0.0475346 0.03531709 -0.09768477 -0.086696394
000190 ae 2d 2f 3d de 64 d9 bc e2 87 97 3c cb ff 92 3c
       0.042768173 -0.026537355 0.018497411 0.017944237
0001a0 ae 81 ea 3c 51 bf 19 be 6f 58 c6 3b 89 da c3 3d
       0.02862629 -0.15014388 0.0060530226 0.09563167
0001b0 69 32 08 be 87 b1 9b bd fb eb b3 3d 24 2e 0f 3e
       -0.1330048 -0.0760222 0.08785244 0.13982445
0001c0 55 c4 60 ba 93 1b ad bd 76 8d cc 3d 8a d9 e9 bb
       -0.00085741776 -0.08452525 0.09987919 -0.0071365284
0001d0 14 b5 a3 bd 30 ee e6 bd ee de 32 bd f6 14 8e 3d
       -0.07993522 -0.112758994 -0.043669634 0.06937592
0001e0 9a 5f be bc 89 bc 58 3c 1c 18 57 3d 90 0b 3d bc
       -0.023238946 0.013228544 0.052513227 -0.011538401
0001f0 fb 86 af bd 52 b9 67 3d 98 c9 0b 3e e9 d4 ac bc
       -0.08570667 0.05657322 0.1365112 -0.021097617
000200 e0 b6 d3 3d eb 14 b4 bb 0b 5b 40 bc d9 1c 00 3e
       0.10337615 -0.0054956577 -0.011740456 0.12511005
000210 89 db 19 3e a6 ef 47 bd 23 32 06 3e ba f0 fd 3d
       0.15025152 -0.04881253 0.13105063 0.123994306
000220 a1 0e d7 3d 55 cf 91 3d 65 51 4b bc dc 62 ef 3b
       0.10500837 0.071196236 -0.012409543 0.007305486
000230 47 f5 3f 3c 10 75 4c bd 44 a3 13 bc c8 b7 8b bd
       0.0117161935 -0.049916327 -0.0090110935 -0.06822163
000240 13 fb 3d 3d ae d5 05 be 1b 3d d9 3d 5f e0 04 be
       0.04638202 -0.13069794 0.10607358 -0.12976216
000250 85 bd 88 3b 5f 82 9a 3d 02 62 0f be 20 e0 83 bd
       0.004172983 0.075443976 -0.14002231 -0.06439233
000260 96 af b2 bd ea e2 ac 3d 49 46 f3 3d 00 a0 fc 3d
       -0.087248966 0.08441718 0.1187864 0.12335205
000270 b2 a6 69 bc 09 b5 9e bd 75 84 ac 3d 6b d6 f1 3d
       -0.014260935 -0.077493735 0.08423702 0.11808475
000280 be 21 7f 3d d0 c7 8a 3d 65 90 09 3d c8 65 87 3d
       0.06228804 0.067763925 0.03358497 0.0661121
000290 2e 61 82 bd 1e 65 12 3e 6a 90 90 3d 4e 79 18 be
       -0.06366192 0.14296386 0.07058795 -0.14890024
0002a0 e8 2c 92 bd 12 fa ef 3d 8a 7a f4 bd 09 b3 99 bc
       -0.071374714 0.11717619 -0.11937435 -0.018762128
0002b0 6b 48 a0 bd ca 50 2d 3b 0d ed 83 3d 19 9e e1 3c
       -0.07826313 0.002644586 0.06441698 0.027541207
0002c0 0c 32 fa 3d ea be ac 3c 4c 7d 8c 3d de e8 52 3d
       0.12216577 0.021087129 0.06859836 0.05149161
0002d0 74 ba 16 3d 73 a6 04 bd bb 4e b1 bd dc 49 5d 3d
       0.03679891 -0.0323853 -0.08657595 0.054025516
0002e0 a1 22 98 bd 29 73 91 3c 3d 11 1c 3d ef 9d eb 3d
       -0.0742848 0.017755108 0.038102377 0.11504733
0002f0 14 0e 85 3c ec c2 7e bd 92 74 3c bd 8b cd 72 3c
       0.016242065 -0.06219761 -0.046009608 0.014819513
000300 98 47 cc 3d 1b da b5 bd 75 c8 16 3e a6 8a 17 3e
       0.09974593 -0.08879491 0.14724906 0.14798984
000310 ab 27 fb bc 0c 8a 99 bd 50 56 5a 3d 22 39 08 3e
       -0.030658564 -0.074970335 0.05330497 0.13303044
000320 63 5f 9d 3d 24 64 ba bd 7e 4d 1b be 6d 46 e2 3d
       0.07684209 -0.091011316 -0.1516628 0.11048589
000330 ee 06 9d bd ae e4 dc bc 8a a8 a3 bc 71 fc 96 bc
       -0.07667337 -0.026964512 -0.019977827 -0.01843092
000340 f6 0c 6e bd fa 91 9d bd e9 12 c1 bd 84 7e 49 3d
       -0.05811783 -0.076938584 -0.09427435 0.04919292
000350 61 8a ef 3d 85 ec fc 3d ed 04 5b 3d 5d be 1b be
       0.116963156 0.123498 0.053471494 -0.15209337
000360 16 c7 8b 3d 1c 43 36 3d 46 2f ba 3c da f3 0d 3e
       0.06825082 0.044497594 0.02272762 0.13862553
000370 2e 37 03 be 49 1e 86 3c c8 43 c0 3d f5 58 5e 3d
       -0.12814018 0.016371863 0.09387928 0.054284055
000380 1b 05 88 bd fb a3 17 3e 05 1c 11 3c 1f 89 f3 3d
       -0.06641599 0.14808647 0.008856778 0.11891388
000390 59 fb d8 bd 08 a6 7c bc 86 31 2d 3d 12 32 a6 bd
       -0.10594816 -0.015420444 0.042283557 -0.08115019
0003a0 c5 3d 80 bb 54 73 81 3c 14 75 78 3a 86 ea 2b 3d
       -0.0039136135 0.015802063 0.0009477895 0.041971706
0003b0 71 b1 5d bd ec 80 3c bd 7c 3e c5 3c e0 62 1e bd
       -0.0541243 -0.046021387 0.024077646 -0.038668513
0003c0 0d 48 06 3e 38 3a 36 3d 02 8a 1b 3e 76 ee 33 bd
       0.13113423 0.044489115 0.15189365 -0.043928586
0003d0 1c 6e 99 bd 41 7c 8b bc 4a 6d 92 3d ea 66 c8 bd
       -0.07491705 -0.017027022 0.071497515 -0.09785254
0003e0 40 a1 65 3d 7b 5e 10 be f5 f0 68 3d 9b e8 aa bd
       0.056061983 -0.14098541 0.05687042 -0.08345147
0003f0 97 04 60 3c 25 f6 72 bd 24 96 97 3d 76 b1 28 3d
       0.013672969 -0.059316773 0.07401684 0.041184865

layers.0.bias f4 [128]
000000 ef 1b 61 3b 9b 23 62 3b 78 c8 5f bb 3e 5d 5e bb
       0.0034348925 0.0034506086 -0.0034146588 -0.0033930088
000010 34 62 61 3b db c4 53 bb 4e 31 5d bb d4 b6 5e bb
       0.003439081 -0.003231338 -0.0033751312 -0.0033983486
000020 81 d4 7a bb ca 29 5f bb aa 8f 62 bb 1b ac 5e bb
       -0.0038273635 -0.0034052008 -0.0034570494 -0.0033977095
000030 bf 54 5b 3b b2 d2 60 3b fe 96 61 bb 7f 3c 62 3b
       0.003346726 0.0034305272 -0.0034422274 0.0034520922
000040 1a af 5e bb a9 e0 5e bb 03 fe 62 3b 10 57 6a bb
       -0.003397888 -0.003400842 0.0034636266 -0.003575746
000050 b7 0e 61 3b 72 cd 5e bb ca 15 5e 3b 10 12 5a bb
       0.0034341046 -0.0033996967 0.00338875 -0.0033274926
000060 c0 2f 56 bb 99 a8 5e 3b dd ec 61 bb cf e1 60 3b
       -0.003268227 0.0033975004 -0.0034473457 0.003431428
000070 c2 ab 5e bb df b6 62 bb 45 95 5e 3b 05 a1 5e bb
       -0.0033976887 -0.0034593863 0.0033963483 -0.0033970487
000080 1d 4c 75 3b 7d e0 60 bb 1b e5 5e bb 1e 35 64 bb
       0.00374294 -0.0034313493 -0.003401107 -0.00348217
000090 2a ac 58 3b e4 52 62 3b 36 80 60 3b 97 b3 56 3b
       0.0033061602 0.003453427 0.0034256107 0.0032760852
0000a0 fa e7 60 bb b4 b0 61 3b 4b 7f 61 bb 59 2f 61 bb
       -0.0034317956 0.0034437599 -0.0034408148 -0.0034360497
0000b0 f4 c6 62 bb 82 06 5f 3b 95 f6 62 bb 8d e7 60 3b
       -0.0034603449 0.0034030979 -0.0034631838 0.0034317703
0000c0 d8 cf 61 3b 9f 5a 43 bb 4a 33 65 bb d2 cd 5a 3b
       0.003445616 -0.0029808653 -0.0034973198 0.0033386839
0000d0 ea 00 61 3b 0e ea 59 3b 4f 5a 61 3b 82 dd 5d bb
       0.003433282 0.003325108 0.0034386104 -0.0033853953
0000e0 f2 a0 5c bb 22 d5 5b bb 5c 04 61 3b f2 d1 5e 3b
       -0.0033665267 -0.0033543785 0.0034334874 0.003399965
0000f0 ad fe 5e bb 3d 68 61 3b 85 36 5e bb 73 41 67 3b
       -0.003402631 0.0034394406 -0.0033907008 0.0035286814
000100 54 26 5c bb 92 24 62 bb dc 2c 5f 3b 27 9a 5d 3b
       -0.0033592181 -0.003450666 0.0034053838 0.0033813806
000110 c5 3a 5e bb 81 65 62 bb 8b 16 62 3b 53 f8 6a bb
       -0.003390954 -0.0034545364 0.00344983 -0.003585358
000120 16 97 61 bb 2e d9 5e bb d1 e7 62 bb 35 92 60 3b
       -0.003442233 -0.003400396 -0.0034623037 0.0034266834
000130 0a a5 53 3b c6 d7 62 3b 34 84 61 3b 58 e9 60 bb
       0.0032294416 0.0034613474 0.0034411075 -0.0034318771
000140 72 02 60 bb f8 70 61 bb 84 1d 60 3b 24 19 61 3b
       -0.0034181145 -0.003439961 0.003419728 0.003434726
000150 02 4e 60 3b a2 73 5e 3b 93 7c 64 bb 69 d0 60 bb
       0.0034226184 0.0033943434 -0.003486429 -0.003430391
000160 f4 48 5d 3b 36 cf 5d 3b d1 13 15 bb fd 31 71 3b
       0.0033765407 0.0033845431 -0.0022747407 0.0036803477
000170 8e f0 58 bb c1 66 5d bb 0d c3 5e 3b 5c 40 63 bb
       -0.0033102366 -0.003378317 0.003399077 -0.0034675812
000180 a0 06 61 3b 21 95 6e bb 4d c2 60 bb 74 f8 5e bb
       0.0034336224 -0.0036404806 -0.00342955 -0.0034022601
000190 e1 e9 5c bb 74 fc 5e 3b ca 32 5f 3b 33 d9 60 3b
       -0.0033708739 0.0034024986 0.0034057372 0.0034309148
0001a0 99 fb 48 3b 3d dc 61 3b 6e 72 5f 3b d9 86 63 bb
       0.0030667542 0.0034463548 0.0034095305 -0.0034717827
0001b0 59 69 62 bb 23 b4 60 3b 52 39 5f 3b a6 48 24 3b
       -0.0034547655 0.0034287057 0.0034061265 0.0025067716
0001c0 6f c6 5f bb 05 0b 61 bb 21 d3 5e 3b 64 f7 5d bb
       -0.0034145375 -0.0034338844 0.0034000354 -0.003386938
0001d0 db 03 5f bb 85 eb 65 3b 5b f7 5d bb 51 5a 45 3b
       -0.0034029398 0.0035083008 -0.003386936 0.0030113647
0001e0 95 1f 71 bb 53 11 5f 3b 7b d6 60 3b bd c5 64 bb
       -0.0036792506 0.0034037426 0.0034307528 -0.00349079
0001f0 e2 97 61 3b 48 b6 63 bb ae 83 5e 3b 27 75 63 3b
       0.0034422805 -0.00347461 0.0033953 0.003470728

predict.weight f4 [1, 128]
000000 aa 20 8d 3d 85 ac 1d 3d de d3 01 bd d1 09 3c bd
       0.06890996 0.038494606 -0.031696193 -0.0459078
000010 01 d9 51 3d 0c f6 86 bb 57 e9 a8 bc e0 8d 4c bd
       0.05123234 -0.0041186865 -0.020619078 -0.04993999
000020 0c de 9f bb 23 2c a4 bd 60 fb f2 bc 88 07 71 bd
       -0.004878765 -0.08016231 -0.02966088 -0.058845073
000030 1e f8 5a 3c b5 10 ba 3d 36 58 41 bd 59 41 0a 3d
       0.01336482 0.09085218 -0.047203265 0.033753727
000040 ea a7 60 bd a1 65 8c bd ca 5d c2 3c 6b ef 03 bc
       -0.054847635 -0.06855322 0.023726363 -0.008052687
000050 77 dd 90 3d 84 37 85 bd 34 b9 1f 3d 61 20 35 bc
       0.07073491 -0.065047294 0.038994983 -0.011055083
000060 86 49 c0 bb 30 14 54 3d 01 8d 20 bd a9 84 aa 3d
       -0.0058681397 0.051777065 -0.03919697 0.08326084
000070 d3 b5 59 bd 3b b8 ea bc 2d 59 55 3d d5 14 63 bd
       -0.053151917 -0.028652301 0.052086998 -0.05543979
000080 67 b4 7d 3b 9e 53 9f bd 2a ec 97 bd 35 cb 9f bc
       0.0038712265 -0.077796206 -0.074180916 -0.019506076
000090 e1 80 b8 3b 0f 26 0a 3d e4 8a 2d 3d dd 0e cc 3b
       0.005630598 0.0337277 0.042368785 0.006227358
0000a0 ba 1d 9b bd 23 f8 2c 3d 87 2c 60 bd 47 c8 70 bd
       -0.07574029 0.04222883 -0.054729965 -0.05878475
0000b0 a6 bc d6 bc ca f4 89 3d d0 c6 e2 bc cb 03 9e 3d
       -0.026213001 0.06736143 -0.027682692 0.07715567
0000c0 3f 4a 28 3d 23 b4 84 ba 04 a5 84 bc d2 72 53 3c
       0.04108643 -0.0010124486 -0.016191967 0.012905793
0000d0 0d a3 90 3d 9f 3c 2e 3c 42 bb 6d 3d 3e eb 0c bd
       0.070623495 0.01063457 0.05803991 -0.034404032
0000e0 8b b0 9e bc b5 2a 83 bc 8c bd 9b 3d 8c 7c c6 3c
       -0.019371292 -0.016011575 0.076045126 0.02422931
0000f0 a1 16 a5 bd fd f3 4b 3d 6d 56 12 bd 9e 8a 3f 3c
       -0.08060957 0.049793232 -0.035726953 0.011690764
000100 64 f4 a1 bc 1d 60 0f bd a2 73 ac 3d 44 11 ca 3c
       -0.019769855 -0.03500377 0.08420493 0.024666436
000110 b7 b4 13 bd df 1f 01 bd 55 73 06 3d dc 6b 18 bc
       -0.036061015 -0.031524535 0.032824833 -0.009303059
000120 17 e2 52 bd 7f 4b 84 bd c4 7a ed bc a8 f7 95 3d
       -0.051485147 -0.06459712 -0.028989203 0.07322627
000130 d5 fc 9b 3b fe da f3 3c 57 b1 53 3d 3f 24 99 bd
       0.0047603645 0.02976751 0.051682796 -0.074776165
000140 16 c3 9c bd 35 b2 56 bd 56 3d 89 3d e2 6a 8b 3d
       -0.07654397 -0.052416045 0.06701152 0.06807496
000150 88 dc 7b 3d 83 cd 36 3d 5e f5 a7 bc 89 91 b2 bd
       0.061489612 0.044629585 -0.020502742 -0.08719165
000160 02 de c8 3c 4e 82 f3 3c 1e 09 9b 3a 75 c1 ba 3b
       0.024519924 0.02972522 0.0011828279 0.0056993314
000170 52 a2 07 bc 3b 98 e0 bc cd d2 78 3d 92 0e c5 bc
       -0.008278446 -0.02741634 0.06074791 -0.0240548
000180 ca 7e 8d 3d d1 81 da bb bf b7 b6 bd 38 b8 95 bd
       0.06908949 -0.0066683074 -0.089217655 -0.073105276
000190 d0 db ba bc ad 44 32 3d d6 69 ab 3d ab 09 aa 3d
       -0.022809893 0.043522526 0.08369796 0.08302625
0001a0 9c 09 ce 3a 2f 02 29 3d ba 23 93 3d 9e c9 b3 bc
       0.0015719417 0.041261848 0.07184549 -0.021946725
0001b0 8b 44 ff bc 29 07 9c 3d 67 9c 84 3d 6e 77 1a ba
       -0.031160614 0.07618553 0.06475144 -0.000589243
0001c0 96 63 49 bd ef a9 93 bd 44 1c 59 3c 6b 59 0a bd
       -0.04916724 -0.07210147 0.013251368 -0.033776682
0001d0 b0 83 74 bd 63 56 33 3c 76 dd 0d bd ce 3a b6 3a
       -0.0596959 0.010945889 -0.03463503 0.0013903023
0001e0 34 6c bf bb b5 09 2d 3d 83 77 93 3d ce a7 91 bc
       -0.0058417562 0.042245585 0.072005294 -0.01778021
0001f0 dd b1 3d 3d 5f 21 b3 bc bf cf 53 3d 98 36 bf 3c
       0.0463122 -0.021866499 0.051711794 0.023341462
