PERGAT_embbedding/data/emb/models/model_dim128_lay2_epo25.pth (torch, 137088 bytes, 7 tensors)

linear.weight f4 [128, 1]
0	0x3f603daa	0.8759409
1	0x3ea2ef60	0.31823254
2	0x3dae8380	0.085211754
3	0x3d80fdd0	0.06298411
4	0x3f7bd202	0.9836732
5	0x3f16b458	0.5886893
6	0x3e8df88c	0.2772869
7	0x3f5f037e	0.87114704
8	0x3d6186a0	0.05506003
9	0xbf1e0cf8	-0.6173854
10	0xbf09252c	-0.53572345
11	0x3f4e67d0	0.80627155
12	0x3d2ea080	0.042633533
13	0xbf1f7178	-0.62282515
14	0xbf7fd256	-0.9993032
15	0xbe9ae2d4	-0.3025118
16	0xbed1b160	-0.4095564
17	0xbeb6d488	-0.35709023
18	0x3f7d5726	0.989611
19	0x3f433bc2	0.7626306
20	0x3dfb98d0	0.12285006
21	0xbebe700c	-0.3719486
22	0xbf544b1c	-0.8292711
23	0xbed63cbc	-0.41843212
24	0x3f506996	0.8141111
25	0x3f1d1022	0.6135274
26	0x3f6398ec	0.88905215
27	0xbee54490	-0.44778872
28	0x3f2e151c	0.6800096
29	0x3f7b2c12	0.9811412
30	0xbf6bbb64	-0.9208281
31	0xbf16aea0	-0.58860207
32	0xbe018470	-0.12648177
33	0xbeab1da0	-0.3342104
34	0xbf4e12f4	-0.8049767
35	0xbcd7e940	-0.02635634
36	0x3f781062	0.969
37	0x3f45625e	0.7710322
38	0x3f6fe060	0.93701744
39	0xbde9b6e0	-0.11411834
40	0xbefe56e0	-0.49675655
41	0xbe1932b0	-0.14960742
42	0xbee08bf8	-0.43856788
43	0x3d5583a0	0.05212748
44	0xbec861c0	-0.39137077
45	0xbf3e17b0	-0.74254894
46	0xbdd3d5a0	-0.1034348
47	0x3f519b08	0.81877184
48	0x3f54e4a8	0.831614
49	0x3ecf5b00	0.40499115
50	0xbf2807fa	-0.6563717
51	0x3f7db99c	0.9911134
52	0xbf5b9604	-0.8577578
53	0x3f666f50	0.900136
54	0x3eecda44	0.46260273
55	0x3f4988d8	0.7872443
56	0x3f03c9b4	0.5147965
57	0xbf2bb124	-0.6706717
58	0xbf0e23d4	-0.5552342
59	0x3ed8ff8c	0.42382467
60	0xbedc60e0	-0.4304266
61	0xbe949c44	-0.2902547
62	0x3f64e8ee	0.8941792
63	0x3f77263a	0.96542704
64	0xbf5283fc	-0.8223264
65	0x3f5ffb8a	0.87493193
66	0xbe54e3a0	-0.20789957
67	0x3f520fcc	0.82055354
68	0xbde541a0	-0.111941576
69	0xbf55b0a8	-0.8347268
70	0xbf2c6ba2	-0.67351735
71	0xbf6bc7c0	-0.9210167
72	0xbdbc5ba0	-0.091971636
73	0xbe829e8c	-0.25511587
74	0xbdce08d0	-0.100602746
75	0xbf12fef6	-0.5742029
76	0xbf117b74	-0.56829
77	0x3f784dba	0.969936
78	0x3e81c05c	0.2534207
79	0x3f590320	0.84770393
80	0x3e95bad0	0.2924409
81	0xbf2f73b8	-0.6853595
82	0xbf23d7f2	-0.6400138
83	0x3eeca984	0.4622308
84	0xbf3e7aec	-0.74406314
85	0x3e852a38	0.26008773
86	0xbea97690	-0.33098269
87	0x3f2fe194	0.6870358
88	0xbedf356c	-0.43595445
89	0xbdb190c0	-0.08670187
90	0x3f67b588	0.9051137
91	0x3e8e27bc	0.2776469
92	0xbaf27c00	-0.001850009
93	0x3f5fc916	0.8741621
94	0xbd058ce0	-0.032605052
95	0xbf4e6f6c	-0.80638766
96	0xbee3028c	-0.4433788
97	0xbe1bb670	-0.15206313
98	0x3e1ef2e8	0.15522349
99	0xbed30198	-0.41212153
100	0xbe9aadb0	-0.30210638
101	0x3f0a7fba	0.54101145
102	0x3ec0b240	0.37635994
103	0x3c633f80	0.01387012
104	0x3efe4518	0.4966209
105	0xbe47b588	-0.19502842
106	0xbf4309bc	-0.7618673
107	0xbef6f4c0	-0.48233604
108	0x3f77f792	0.9686214
109	0xbf28ed38	-0.6598697
110	0xbdb0bc50	-0.08629668
111	0x3eb04044	0.3442403
112	0x3f04e28a	0.5190817
113	0xbef461dc	-0.4773091
114	0xbdcf32b0	-0.1011709
115	0xbd8d3360	-0.06894565
116	0xbf0f3190	-0.55935
117	0xbeb64b80	-0.35604477
118	0x3f560aca	0.8361021
119	0x3da7bbf0	0.08190143
120	0x3dc93580	0.098246574
121	0xbe9aad90	-0.30210543
122	0x3f7f2288	0.99662066
123	0x3f018cb0	0.506053
124	0x3f6dd778	0.92906904
125	0x3e298a68	0.16556704
126	0x3f4a92c2	0.79130185
127	0x3f27fbac	0.65618396

linear.bias f4 [128]
0	0xbf6539f8	-0.8954158
1	0x3ebf3bf3	0.37350425
2	0x3f5c4830	0.8604765
3	0xbee9d1e8	-0.45667958
4	0xbf0d99d4	-0.5531285
5	0xbf083890	-0.5321131
6	0xbe5a60b6	-0.21325955
7	0x3cb1b16a	0.021691043
8	0xbed83b14	-0.42232573
9	0xbf55519a	-0.8332764
10	0xbeac5032	-0.33654934
11	0x3ef29909	0.47382382
12	0xbf5d0bac	-0.86345935
13	0xbf2dbf39	-0.6786991
14	0xbf0f3e71	-0.55954653
15	0x3f4f892b	0.81068677
16	0x3f57d09d	0.84302694
17	0x3cfc5947	0.03080429
18	0x3e14f58e	0.14546797
19	0x3e8d68db	0.2761906
20	0x3d5f129a	0.0544611
21	0x3f2664f0	0.6499777
22	0xbe375c0f	-0.17906211
23	0xbf293b5f	-0.6610622
24	0x3ee81af7	0.45333073
25	0x3eb3271a	0.3499077
26	0x3dad6bbf	0.084678166
27	0xbea44a32	-0.32087857
28	0x3f295fb2	0.66161644
29	0x3e93937c	0.2882346
30	0x3f338740	0.7012825
31	0x3f5f3ad2	0.8719913
32	0xbf64eb86	-0.8942188
33	0xbf499573	-0.78743666
34	0x3eeebe6e	0.4662966
35	0x3f08c370	0.53423214
36	0x3f460f3a	0.77366984
37	0xbf59ca38	-0.85074186
38	0xbf769776	-0.9632486
39	0x3f6de067	0.92920536
40	0xbe957683	-0.2919198
41	0x3ece06ad	0.40239468
42	0xbf4c879b	-0.7989442
43	0xbeea4eeb	-0.45763335
44	0x3f0c6706	0.548447
45	0x3f37cb06	0.71794164
46	0xbf0e2eeb	-0.5554034
47	0xbf11cbb8	-0.56951475
48	0x3f00e177	0.5034403
49	0x3d790216	0.060793005
50	0xbdeae6bf	-0.114697926
51	0x3e86e952	0.26349884
52	0xbf0b2c53	-0.5436451
53	0xbe317810	-0.17330956
54	0xbe409543	-0.18806939
55	0x3f0d889c	0.55286574
56	0xbe87eb3e	-0.26546663
57	0x3f110197	0.5664305
58	0xbd84e9b8	-0.06489891
59	0x3da8cbe8	0.08242017
60	0x3e9f6fc4	0.31139958
61	0x3e87453b	0.26420006
62	0xbf125793	-0.5716488
63	0xbf4b6541	-0.79451376
64	0x3cd9f8bd	0.026607865
65	0xbee6b23f	-0.45057866
66	0xbd606044	-0.054779306
67	0x3e0023c5	0.12513645
68	0x3f19612f	0.59913915
69	0xbe372eb0	-0.17888904
70	0x3e8a2488	0.26980996
71	0x3f47f30f	0.78105253
72	0x3ee5c9dc	0.4488057
73	0x3ec89aa4	0.3918048
74	0xbf37bc57	-0.7177176
75	0x3e04fd1d	0.1298718
76	0xbe0894b8	-0.13337982
77	0xbf0ed35a	-0.55791247
78	0x3d889da8	0.066706955
79	0xbf784c97	-0.96991867
80	0xbdcc97b6	-0.09989874
81	0x3e054ecc	0.1301834
82	0xbf348445	-0.7051433
83	0xbf10a5f4	-0.56503224
84	0xbf028b0c	-0.5099342
85	0x3f5ec7dd	0.8702372
86	0x3eb995a4	0.3624698
87	0xbdc66201	-0.096866615
88	0x3f38ba2b	0.7215907
89	0xbd850102	-0.06494333
90	0x3e8073f2	0.2508846
91	0xbe87aa35	-0.26497045
92	0xbf5f81ca	-0.8730742
93	0x3e4c8431	0.19972302
94	0xbdca208f	-0.09869491
95	0x3f1f21b2	0.6216079
96	0xbf68ddf7	-0.9096369
97	0x3edcc10b	0.4311603
98	0x3f7d5069	0.9895082
99	0xbeb529f6	-0.35383576
100	0x3d99f29b	0.075169764
101	0xbf54f0d1	-0.83179957
102	0x3f01c29f	0.50687593
103	0xbdfbd1ba	-0.122958615
104	0x3eecc84e	0.4624657
105	0x3e20dca0	0.15709162
106	0x3e70937a	0.23493758
107	0x3f7ed20c	0.99539256
108	0xbdc1b7f0	-0.094589114
109	0xbf39d316	-0.72587717
110	0x3edadc95	0.42746416
111	0x3daacb3a	0.08339544
112	0xbf473db0	-0.778285
113	0xbec2e3e0	-0.3806448
114	0xbeb14716	-0.34624547
115	0x3ee4f740	0.44719887
116	0x3f7f88cc	0.9981811
117	0xbe9b5526	-0.303384
118	0xbf680146	-0.90626943
119	0x3dacdb83	0.08440306
120	0xbda5376f	-0.08067214
121	0x3f4c3fa0	0.79784584
122	0xbf00d534	-0.5032532
123	0x3f6df74e	0.9295548
124	0xbf3d27a1	-0.73888594
125	0xbf1199b9	-0.5687519
126	0xbe82cf6e	-0.2554888
127	0xbf014759	-0.5049949

conv_0.weight f4 [128, 128]
0	0x3d24e664	0.04025878
1	0x3c667840	0.014066756
2	0xbcdc563f	-0.026896594
3	0x3e0f500a	0.13995376
4	0x3d9714bc	0.07377002
5	0xbd25ede7	-0.040510084
6	0xbe187911	-0.14889933
7	0xbda74b73	-0.08168688
8	0xbdb9806a	-0.09057696
9	0xbd6d705f	-0.057968494
10	0xbe0e6f5a	-0.13909665
11	0xbdd6e79c	-0.10493395
12	0xbd56b693	-0.05242021
13	0x3cd156be	0.025554057
14	0x3ce756f6	0.028239708
15	0xbbc07cf8	-0.0058742724
16	0xbe1832ed	-0.14863177
17	0x3da84151	0.08215583
18	0x3cae2300	0.021256924
19	0x3e0ff391	0.14057757
20	0x3d4aa05a	0.04946933
21	0xbdb65fb5	-0.089049734
22	0x3d7be895	0.061501104
23	0x3ca6d674	0.020365931
24	0xbe1832eb	-0.14863174
25	0xbd72639d	-0.05917703
26	0xbd23c743	-0.039984953
27	0x3b940047	0.0045166346
28	0xbdea4f57	-0.11440914
29	0xbdd22d20	-0.10262513
30	0xbd75c555	-0.060002644
31	0x3decb457	0.115578346
32	0xbdf6e019	-0.12054462
33	0xbe009826	-0.1255804
34	0xbdbd5e3b	-0.09246489
35	0xbdee6886	-0.1164103
36	0x3acda03b	0.0015688011
37	0xbe101d7a	-0.14073744
38	0xbcaf9676	-0.02143405
39	0xbd850829	-0.06495697
40	0xbd7c3fc3	-0.061584245
41	0xbe10b480	-0.14131355
42	0x3c2acf42	0.010425391
43	0x3deb6c91	0.11495317
44	0xbd15877e	-0.03650617
45	0x3dbec2c3	0.093144916
46	0x3dc698f6	0.09697144
47	0xbbba420c	-0.005684143
48	0x3d2712ff	0.0407896
49	0xbe0030d6	-0.1251863
50	0x3db949c8	0.09047276
51	0xbe0913bb	-0.13386433
52	0x3d814a55	0.06313006
53	0x3e13bedd	0.14428277
54	0x3e0c878b	0.1372358
55	0xbdb3f0b3	-0.08786144
56	0xbcce1983	-0.02515865
57	0x3c12a32d	0.008950037
58	0x3de617a5	0.112349786
59	0x3dafe19c	0.085879534
60	0xbc92ca70	-0.017918795
61	0x3e02a2e7	0.12757455
62	0xbd9932e1	-0.074804075
63	0xbe033d0b	-0.12816255
64	0x3cbd978d	0.023143554
65	0x3d2fe299	0.04294071
66	0xbe050075	-0.12988456
67	0x3c403ea0	0.011733681
68	0x3d156880	0.036476612
69	0x3e0f8119	0.1401409
70	0x3d8662f6	0.06561844
71	0xbd784a54	-0.06061776
72	0xbdd6b807	-0.10484319
73	0xba689faa	-0.00088738895
74	0xbc128fdb	-0.008945431
75	0xbde229e3	-0.110431455
76	0x3c9bb666	0.019007873
77	0xbe0df054	-0.13861209
78	0xbdb7408d	-0.08947859
79	0xbcc9ce36	-0.024634462
80	0x3d161e01	0.036649708
81	0xbde059f2	-0.10954656
82	0x3c3068ff	0.0107672205
83	0x3db4d534	0.08829728
84	0x3e005f9c	0.12536472
85	0xba4db8d8	-0.0007847673
86	0x3d38977f	0.045066353
87	0x3e1210f4	0.1426428
88	0x3d51cde1	0.051221732
89	0xbe14bb75	-0.14524634
90	0xbaccc47f	-0.0015622525
91	0xbd89e15b	-0.06732436
92	0x3c48a8ec	0.012247305
93	0x3dc251aa	0.094882324
94	0xbdbb3cae	-0.09142433
95	0x3ddce7b5	0.10786382
96	0xbbaa72e1	-0.005201683
97	0xbc55e477	-0.013054959
98	0xbd69560c	-0.056966826
99	0xbd9586d8	-0.0730111
100	0x3d504142	0.050843485
101	0xbdebfb6d	-0.11522565
102	0x3d3c72e8	0.04600802
103	0x3e18243d	0.14857574
104	0x3ca1c671	0.019747945
105	0x3d034073	0.032043885
106	0xbd7c7b7d	-0.061641205
107	0xbc8bb3bd	-0.01705348
108	0x3dedbfcf	0.1160885
109	0x3ca212ae	0.019784298
110	0x3dbd9c6a	0.09258349
111	0xbddb2bd2	-0.107017174
112	0x3d152464	0.036411658
113	0xbdda9088	-0.106720984
114	0xbd37c997	-0.044869985
115	0xbdde6e81	-0.10860921
116	0xbe03935b	-0.1284918
117	0xbd17342d	-0.036914993
118	0x3da663a4	0.08124474
119	0xbe00e5c1	-0.12587644
120	0xbcda8d75	-0.02667878
121	0xbdd53918	-0.104112804
122	0x3e118680	0.14211464
123	0x3d7f8490	0.06238228
124	0xbd4dd983	-0.050256263
125	0x3db201fa	0.08691783
126	0xbe08dded	-0.13365908
127	0x3d0b0807	0.033943202
128	0xbb2e4422	-0.0026590903
129	0xbcc4a284	-0.024003275
130	0x3ceb0220	0.028687537
131	0xbc825e89	-0.015914219
132	0x3de60c9f	0.11232876
133	0x3de64aac	0.11244711
134	0xbdf58916	-0.11989038
135	0x3d287ea7	0.04113641
136	0x3dbf06b6	0.09327452
137	0x3e0ddecb	0.1385452
138	0x3e1ab2fb	0.15107338
139	0x3d270c94	0.04078348
140	0xbd52f47a	-0.051502682
141	0xbc4bee2e	-0.012446923
142	0xbe03cf82	-0.12872127
143	0x3d11bebd	0.035582293
144	0x3e07c3fb	0.13258354
145	0x3c7f9823	0.015600237
146	0xbdd3f2d5	-0.10349051
147	0x3b423271	0.0029632116
148	0xbe08161a	-0.13289681
149	0xbd0d54b4	-0.034504607
150	0x3e033a87	0.12815295
151	0x3d54b28d	0.05192809
152	0x3defdc6f	0.11711966
153	0xbdb6c358	-0.089239776
154	0xbdfa7e37	-0.12231105
155	0xbe0bee68	-0.13665164
156	0xbd44d6c9	-0.048056398
157	0xbe014e20	-0.12627459
158	0xbe18e99f	-0.1493287
159	0x3ded55dc	0.11588642
160	0x3d796129	0.060883675
161	0xbb79b863	-0.0038104288
162	0x3d2e1b03	0.04250623
163	0x3ddd3bbb	0.10802408
164	0xbd4473b1	-0.047961894
165	0xbded2b86	-0.11580567
166	0x3dc0ad62	0.0940807
167	0x3e0566cf	0.130275
168	0xbdce8455	-0.10083834
169	0x3d297b45	0.041377325
170	0x3b8b51a9	0.004251678
171	0xbd508229	-0.05090538
172	0xbcf4737e	-0.029840227
173	0x3e160d23	0.14653449
174	0x3db19f28	0.08672935
175	0x3de686c8	0.11256176
176	0x3c943889	0.018093364
177	0xbdc59f6b	-0.09649547
178	0x3cc61b63	0.02418298
179	0xbd205316	-0.039141737
180	0x3d9687c0	0.07350111
181	0xbc6b8915	-0.014375945
182	0x3ba956af	0.005167804
183	0xbdcaab3d	-0.09895942
184	0x3de52e65	0.1119049
185	0xbe1a0b70	-0.15043426
186	0xbc8966a6	-0.01677258
187	0xbe146240	-0.14490604
188	0x3db3f622	0.087871805
189	0xbb8301c6	-0.003998014
190	0xbd5ae7c1	-0.053443674
191	0x3d750e3a	0.05982802
192	0x3de51fa7	0.11187678
193	0xbdc3d9d9	-0.095630355
194	0x3d196105	0.03744604
195	0x3de86f45	0.11349348
196	0xbdaa7bdd	-0.08324406
197	0xbe04d6fe	-0.12972638
198	0xbe1b9f20	-0.1519742
199	0x3d482b33	0.048869323
200	0x3d6ad50c	0.057332084
201	0x3df35e7f	0.11883258
202	0xbe0ed8ba	-0.13949862
203	0xbdb01128	-0.08597022
204	0x3dd9e2b9	0.10638947
205	0xbdc168c9	-0.09443814
206	0x3c9489ee	0.018132176
207	0x3de96316	0.11395852
208	0xbdaab4ac	-0.08335242
209	0x3df0126f	0.11722266
210	0x3de3c72b	0.11121973
211	0x3d8d61cc	0.06903419
212	0x3c96539d	0.018350417
213	0xb9850873	-0.00025374032
214	0xbe0f54e4	-0.13997227
215	0x3e02bbd3	0.12766962
216	0x3d58eba2	0.052959092
217	0xbdc165ce	-0.09443246
218	0xbdaa2358	-0.083075225
219	0x3daf7456	0.08567111
220	0x3d67f93f	0.056634184
221	0xbd8980e9	-0.06714041
222	0x3db65d1d	0.08904479
223	0x3dbe9bef	0.09307086
224	0x3e13f96e	0.14450619
225	0xbd073923	-0.033013474
226	0xbc9f3c21	-0.019437851
227	0x3c8aaab2	0.016927097
228	0x3de77b2b	0.11302789
229	0xbd2072f1	-0.039172117
230	0x3d84ae0f	0.064785115
231	0x3e0fe12c	0.1405074
232	0x3da95ec6	0.0827003
233	0x3de126b9	0.10993714
234	0xbe106a6e	-0.141031
235	0xbdae954f	-0.08524572
236	0x3c5a5214	0.013325233
237	0xbd94d7ac	-0.07267699
238	0x3c837cbd	0.01605069
239	0xbd46ebd9	-0.048564766
240	0x3cd2db49	0.025739329
241	0xbd591fb2	-0.053008743
242	0x3dfa3c39	0.12218518
243	0xbc16eab9	-0.009211236
244	0x3da07847	0.07835441
245	0x3e196129	0.1497847
246	0x3dd42c90	0.10360062
247	0xbdfdb275	-0.123875536
248	0x3c8a86f5	0.016910056
249	0x3e195c02	0.14976504
250	0xbdb912bf	-0.09036779
251	0x3d3c5628	0.045980603
252	0xbe04831b	-0.12940638
253	0xbbeb1084	-0.0071735997
254	0x3c7adde4	0.015311692
255	0xbcd29457	-0.0257055

conv_0.bias f4 [128]
0	0x3b13a6ca	0.0022529834
1	0xbb1f5e9e	-0.002431787
2	0xbb2e29c7	-0.0026575194
3	0x3b13afc4	0.0022535184
4	0xbb1f6f2b	-0.0024327736
5	0xbaa1fb29	-0.0012358177
6	0x3b194fbf	0.002339348
7	0x3aa79237	0.0012784664
8	0x3b17c103	0.0023155815
9	0xbb1d2985	-0.0023981046
10	0x3b20a2a2	0.0024511
11	0xbb181acd	-0.0023209334
12	0xbb2131c4	-0.0024596313
13	0xba7d6a40	-0.00096670166
14	0x3b17749a	0.0023110271
15	0x3b23f399	0.0025017022
16	0xbb239b9f	-0.0024964584
17	0xbb1ccc39	-0.0023925437
18	0x3b1c0d5e	0.0023811678
19	0xbab93736	-0.0014130834
20	0x3b18078d	0.002319786
21	0x3b20869a	0.0024494291
22	0x3b1c1de6	0.0023821532
23	0x3b0fd1da	0.002194515
24	0xbb1ebce4	-0.0024221474
25	0x3b22206c	0.0024738563
26	0xbb009b3c	-0.0019623777
27	0xbad16b9d	-0.0015977506
28	0x3b1dd0d1	0.0024080763
29	0xbb202a10	-0.0024439134
30	0x3b21a4a9	0.0024664795
31	0xbb1fb8ef	-0.0024371704
32	0x3b273443	0.0025513328
33	0x3b1662ba	0.002294703
34	0xbb1f5822	-0.0024314006
35	0xbb1fbb0c	-0.0024372963
36	0xbb0251eb	-0.0019885253
37	0xbb0732ba	-0.00206296
38	0xbb106b47	-0.0022036599
39	0xbb1fe4b1	-0.0024397785
40	0xbb12c6c4	-0.0022396306
41	0x3b1e1690	0.0024122335
42	0xbb1fde3c	-0.0024393937
43	0x3b183edc	0.0023230826
44	0xbb26c2d0	-0.0025445707
45	0xbb126236	-0.002233637
46	0x3b1928c6	0.002337025
47	0xbb1e45b6	-0.0024150438
48	0x3b1602e7	0.0022889914
49	0xbb27f6fc	-0.0025629392
50	0xbb1f6047	-0.002431886
51	0x3b160c23	0.0022895418
52	0x3b171b38	0.0023056995
53	0xbb1e565b	-0.0024160359
54	0xbb11ec01	-0.0022265913
55	0xba8be925	-0.0010674341
56	0xbaef2f53	-0.0018248357
57	0x3acc44bd	0.001558445
58	0x3b2c0a3f	0.0026251224
59	0xbb181d7b	-0.002321093
60	0x3b2059a2	0.0024467488
61	0xbb262174	-0.002534953
62	0x3b237b62	0.0024945368
63	0xbb21f1c3	-0.0024710752
64	0xbb1f7a3a	-0.0024334327
65	0x3b0e81fd	0.002174496
66	0x3b148f32	0.002266836
67	0x3b227e3d	0.0024794482
68	0xbb173634	-0.002307308
69	0xbade91dc	-0.0016980725
70	0xbb1fadfb	-0.0024365175
71	0x3b14109a	0.0022592903
72	0xbb2139aa	-0.002460102
73	0xbb01bf85	-0.0019797992
74	0x3b1680f2	0.002296504
75	0xbb1cf688	-0.0023950655
76	0x3b1c9e07	0.0023897903
77	0x3b207ca3	0.0024488352
78	0x3b16298e	0.0022912952
79	0xbb1937c0	-0.0023379177
80	0x3b16abdb	0.0022990617
81	0xbb22748f	-0.0024788713
82	0xbb1dac0e	-0.0024058851
83	0xbb16588b	-0.002294096
84	0x3b1d5bfb	0.0024011123
85	0xbb1327cf	-0.0022454148
86	0xbb1fc312	-0.0024377746
87	0xbb17621e	-0.0023099254
88	0xbb0e0e4d	-0.0021676004
89	0xbb15de47	-0.0022868083
90	0xbb03d441	-0.0020115527
91	0xbb1150d8	-0.002217343
92	0x3b2ac50d	0.0026057393
93	0x3b191298	0.002335703
94	0x3b19940a	0.0023434185
95	0xbb1396cc	-0.0022520302
96	0x3b18bd37	0.002330614
97	0x3b169b37	0.00229807
98	0x3b1e809b	0.0024185542
99	0x3b16e9a9	0.0023027456
100	0xbb15def7	-0.0022868493
101	0x3b1dc589	0.002407404
102	0x3b26b424	0.0025436962
103	0x3b126363	0.002233707
104	0xbb2043b2	-0.0024454412
105	0x3b23a13f	0.0024967936
106	0xbaa61237	-0.0012670223
107	0x3b248393	0.0025102838
108	0x3b154f97	0.0022783035
109	0x3b1de5a1	0.0024093168
110	0xbb166999	-0.0022951125
111	0xbaadb55a	-0.00132529
112	0x3b1940b6	0.0023384518
113	0xbaebe722	-0.001799796
114	0x3b0b53a4	0.002125957
115	0x3b21afc0	0.0024671406
116	0xbaf4cedb	-0.001867737
117	0xbb1da36b	-0.0024053704
118	0xbb1fe94d	-0.0024400533
119	0xbb24c2bb	-0.0025140482
120	0xbb20c2fe	-0.0024530287
121	0x3abdf249	0.0014491762
122	0x3b11d66c	0.002225305
123	0xbb17deb6	-0.0023173518
124	0xbb1e5091	-0.0024156908
125	0x3b249809	0.0025115034
126	0x3b1a465a	0.0023540468
127	0xbb14b2e0	-0.0022689626

layers.0.weight f4 [128, 128]
0	0xbca9a236	-0.020707231
1	0xbc491af2	-0.012274491
2	0xbe07645d	-0.1322188
3	0x3d60c19b	0.054872137
4	0x3d83adf2	0.06429662
5	0xbdcd1984	-0.10014632
6	0x3e1a023a	0.15039912
7	0xbd8d51d0	-0.0690037
8	0x3ca1578a	0.019695062
9	0x3e09193d	0.13388534
10	0xbdd12821	-0.10212732
11	0xbddc5b92	-0.10759653
12	0xbcaa38c3	-0.02077902
13	0x3c11a06e	0.008888347
14	0xbe132851	-0.14370848
15	0x3db2ee85	0.087369
16	0xbdc2718f	-0.09494316
17	0xbd2666c2	-0.04062534
18	0x3d96233a	0.07330938
19	0xbe04fc2d	-0.12986822
20	0x3bea1bac	0.007144412
21	0xbd88ebf3	-0.06685629
22	0xbd717c85	-0.05895664
23	0x3dd290e0	0.10281539
24	0x3d5a563f	0.053304907
25	0xbe12c11f	-0.14331482
26	0xbc6819c2	-0.014166297
27	0xbe06abf3	-0.13151531
28	0x3d15555a	0.03645835
29	0xbd9522ec	-0.072820514
30	0x3d40e875	0.04709669
31	0xbdecfcb9	-0.115716405
32	0x3dba3b26	0.09093313
33	0x3d5465b8	0.05185482
34	0xbdc4d526	-0.09610967
35	0x3c01e2d1	0.007927612
36	0x3d4de4b2	0.05026693
37	0x3e191d93	0.14952688
38	0xbd6d161e	-0.05788242
39	0x3deefc6e	0.11669241
40	0xbb81b68a	-0.003958528
41	0xbd6c6765	-0.057715792
42	0x3dcc0464	0.09961775
43	0xbe004c55	-0.12529118
44	0xbded6ed2	-0.11593403
45	0xbe15ae4f	-0.14617275
46	0xbe0b2f87	-0.13592349
47	0x3d94898a	0.07252796
48	0xbc4e0240	-0.012573779
49	0xbd95a618	-0.073070705
50	0xbda8b777	-0.08238118
51	0x3d8869a9	0.06660778
52	0xbd6260e7	-0.055268195
53	0x3de2074e	0.110365495
54	0xbe167042	-0.1469126
55	0xbd143200	-0.036180496
56	0xbd2fdfc4	-0.04293801
57	0x3db4443d	0.08802078
58	0xbdf19d2e	-0.11797558
59	0xbd01f49e	-0.031727426
60	0xbdf7df67	-0.121031575
61	0xbd761bbb	-0.06008504
62	0xbd4520c7	-0.048126962
63	0xbc8ccc22	-0.017187182
64	0x3cae93c5	0.021310696
65	0xbcdfcb1d	-0.027318532
66	0x3e003dfe	0.12523648
67	0x3d31aed2	0.043379612
68	0x3d98d5a9	0.074626274
69	0xbde11850	-0.10990965
70	0x3db08de0	0.086208105
71	0x3c6720a0	0.0141068995
72	0xbe0898c0	-0.1333952
73	0xbdddbb7f	-0.10826778
74	0x3e0350a8	0.12823737
75	0x3d109c47	0.035305288
76	0x3d940502	0.07227518
77	0xbc73345e	-0.014844028
78	0xbca180cc	-0.019714735
79	0xbd3f31e7	-0.04667845
80	0xba86b251	-0.0010276531
81	0xbcfd8e5f	-0.030951677
82	0xbd818693	-0.06324496
83	0xbdb7bd35	-0.08971635
84	0x3dd994a6	0.106240556
85	0x3e15ffbf	0.1464834
86	0x3cb96af7	0.022634013
87	0x3dbaac1c	0.091148585
88	0xbe0e7c75	-0.13914664
89	0x3dcb3533	0.09922256
90	0x3d8f5b13	0.06999793
91	0x3d874fa8	0.0660699
92	0xbdd72c09	-0.10506446
93	0x3dd0a1f4	0.1018714
94	0x3dab95b7	0.08378165
95	0x3dbf79e8	0.09349424
96	0xbde48b23	-0.11159351
97	0xbd0e5e7b	-0.034758072
98	0x3dad623a	0.08466001
99	0x3d317a59	0.04332957
100	0x3c166d91	0.009181396
101	0x3caa1358	0.020761177
102	0x3e18190b	0.14853303
103	0x3d495257	0.04915079
104	0xbde50a30	-0.11183584
105	0xbdf09804	-0.11747745
106	0xbdc5e9c5	-0.096637286
107	0x3dcbd87e	0.09953402
108	0x3dea7324	0.114477426
109	0x3d772ba9	0.060344372
110	0x3daf1f78	0.08550924
111	0x3e15c087	0.14624225
112	0xbddf2644	-0.108959705
113	0x3d87b2d1	0.066259034
114	0xbd1dbea6	-0.038511895
115	0x3d90a252	0.0706221
116	0xbcb1bf85	-0.021697769
117	0x3d9c5a0d	0.07634363
118	0x39a8815f	0.00032139846
119	0x3e0a1ac7	0.13486777
120	0x3d2be6cc	0.041968152
121	0xbdc2a6a2	-0.09504439
122	0xbc423551	-0.011853532
123	0x3d88b5c8	0.06675297
124	0xbbbbabf3	-0.005727285
125	0xbdce13bb	-0.10062357
126	0xbda20503	-0.07911112
127	0xbd888b19	-0.06667156
128	0x3d32e9d7	0.04368004
129	0x3df1a074	0.11798182
130	0x3df7f707	0.121076636
131	0xbcc7f8ac	-0.024410568
132	0x3bfe0daa	0.0077530937
133	0xbe09552a	-0.13411394
134	0xbc2d17c5	-0.010564749
135	0x3dc7e8a6	0.09761171
136	0xbc3a29bf	-0.011362492
137	0x3e193c63	0.14964442
138	0x3c6b7da8	0.0143732205
139	0x3bb10825	0.005402582
140	0xbdf9fdaf	-0.122065894
141	0x3e1150ab	0.14190929
142	0x3df2f06c	0.11862263
143	0x3dccd142	0.1000085
144	0xbd86590a	-0.065599516
145	0x3d9123f2	0.07086934
146	0xbc6c0580	-0.014405608
147	0xbd80bf0f	-0.062864415
148	0x3d80c44a	0.06287439
149	0x3d31c333	0.043399047
150	0x3d6aaa57	0.057291355
151	0xbd36f2cb	-0.04466514
152	0x3d97b125	0.074068345
153	0xbe1083a3	-0.14112715
154	0x3cedbead	0.029021585
155	0xbe0caf1d	-0.13738675
156	0x3d5fc3d6	0.054630123
157	0xbe0ff918	-0.14059865
158	0x3d84fa9c	0.064931124
159	0x3db78b88	0.0896216
160	0x3dfd6d04	0.12374309
161	0xbd01b019	-0.03166208
162	0xbdf052ee	-0.117345676
163	0x3d5155cb	0.05110721
164	0x3e0c6c6c	0.13713235
165	0x3e0fdfc4	0.14050204
166	0xbe065af4	-0.13120633
167	0x3df0e72c	0.117628425
168	0x3c8c30a0	0.01711303
169	0xbdf19709	-0.11796386
170	0xbcfec905	-0.031101713
171	0xbdfadbf3	-0.12248983
172	0x3dd07b44	0.10179761
173	0x3bace30b	0.005276089
174	0x3cabd855	0.020977179
175	0xbb8bd258	-0.0042670183
176	0xbdf4d6ab	-0.11955007
177	0x3da1cdc5	0.079005755
178	0xbda4c408	-0.080452025
179	0xbe005f70	-0.12536407
180	0x3dacc934	0.08436814
181	0xbbbea5f3	-0.0058181225
182	0xbdb7dbfa	-0.08977504
183	0xbd945513	-0.07242789
184	0x3d748e93	0.059706282
185	0x3dea2855	0.11433474
186	0xbd9620c3	-0.073304676
187	0x3e0be7a2	0.1366258
188	0xbdd8876c	-0.10572705
189	0x3db16c6f	0.0866326
190	0x3dddcfe2	0.10830666
191	0x3da75ab7	0.08171599
192	0xbd90e206	-0.070743605
193	0xbd4376fa	-0.047720887
194	0xbbb51123	-0.0055257245
195	0xbe09798f	-0.13425277
196	0x3d9dc408	0.077034056
197	0x3a7fa4c9	0.0009752033
198	0xbda0f8e0	-0.07859969
199	0xbdf5f3ab	-0.120093666
200	0x3de8ba10	0.113636136
201	0xbd68891a	-0.056771375
202	0xbd19f199	-0.03758392
203	0x3e064771	0.1311319
204	0x3deb4e8b	0.1148959
205	0xbdbb20e2	-0.09137131
206	0x3d86878e	0.06568824
207	0x3e062e63	0.13103633
208	0x3db2f8c7	0.08738857
209	0x3de64c96	0.11245076
210	0xbe1959ee	-0.14975712
211	0xbe06d104	-0.1316567
212	0xbd9087e1	-0.07057167
213	0x3dd544c0	0.10413504
214	0x3c840f1e	0.01612049
215	0x3d26fbdf	0.040767547
216	0x3dbb8378	0.09155935
217	0xbdbe7bce	-0.093009576
218	0x3df75944	0.12077573
219	0xbd475952	-0.048669167
220	0x3dd15610	0.10221493
221	0xbe00cab0	-0.12577319
222	0xbde9c59b	-0.114146434
223	0xbdff08bf	-0.1245284
224	0xbdcf8fa3	-0.101348184
225	0xbc042a1c	-0.00806668
226	0x3d0702fa	0.032961823
227	0xba0827e4	-0.00051939324
228	0xbdd54782	-0.1041403
229	0xbdf20ac5	-0.118184604
230	0xbd09fd62	-0.03368891
231	0x3d9b261c	0.07575628
232	0xbd0158c7	-0.031578805
233	0xbd074c30	-0.033031642
234	0x3d49c6ca	0.049261846
235	0xbd9a0c60	-0.075218916
236	0xbd907dc6	-0.070552394
237	0x3dcd89f1	0.10036076
238	0x3d1c4dd8	0.038160175
239	0x3e189b3e	0.1490297
240	0x3b2cffbd	0.002639755
241	0xbc938781	-0.01800895
242	0x3d2335a2	0.03984607
243	0x3dc1c02f	0.09460484
244	0xbbe3a57d	-0.006947218
245	0xbde0daf3	-0.10979261
246	0x3ce19fe4	0.027542062
247	0x3de9bf0f	0.11413395
248	0xbe08c201	-0.13355257
249	0x3d79b0b2	0.060959525
250	0x3cf0ab9d	0.029378707
251	0xbd315779	-0.04329631
252	0x3b884ed6	0.0041597886
253	0x3e071e46	0.13195142
254	0x3d141da7	0.03616109
255	0xbd0ceb3a	-0.034404017

layers.0.bias f4 [128]
0	0x3b232f86	0.0024900152
1	0xbb21cc95	-0.002468859
2	0x3b208e6f	0.002449896
3	0x3a1fcd0d	0.00060959236
4	0x3b20c8eb	0.002453382
5	0xbb2086fe	-0.0024494524
6	0xbb229ce3	-0.002481275
7	0xbb214720	-0.0024609044
8	0x3b0d92e2	0.0021602442
9	0xbb232b75	-0.0024897729
10	0xbb21c79d	-0.002468563
11	0x3b250600	0.0025180578
12	0x3b20f1d9	0.0024558215
13	0xbb23152a	-0.002488444
14	0xbb2219e6	-0.0024734675
15	0xbb20d932	-0.002454352
16	0xbb20fe8b	-0.0024565782
17	0xbb2122c3	-0.002458737
18	0xbb1af388	-0.002364369
19	0x3b22f574	0.002486554
20	0x3b21fa63	0.0024715893
21	0xbb21d813	-0.002469544
22	0xbb208661	-0.0024494159
23	0x3b21e395	0.00247023
24	0xbb1fbe4b	-0.0024374898
25	0x3b1f41fa	0.00243008
26	0x3b210940	0.0024572164
27	0x3b2a70ac	0.00260071
28	0xbb21a35d	-0.0024664022
29	0xbb1df3cf	-0.002410162
30	0x3b226ed9	0.0024785309
31	0x3b2215d6	0.0024732254
32	0xbb2fde06	-0.0026835217
33	0x3b209242	0.002450124
34	0xbb2ed4f9	-0.0026677235
35	0x3b2223f8	0.0024740677
36	0xbb210355	-0.0024568636
37	0xbb210d1f	-0.0024574471
38	0xbb1fef55	-0.0024404128
39	0x3b22f2c2	0.0024863933
40	0xbb22d4e0	-0.0024846122
41	0xbb2206b5	-0.0024723236
42	0x3b220b36	0.002472592
43	0x3b212a3c	0.0024591824
44	0x3b20d991	0.0024543742
45	0xba9c3bf2	-0.001191972
46	0x3b214cca	0.002461242
47	0xbb25f61d	-0.0025323697
48	0x3b210669	0.002457047
49	0xbb21f4e1	-0.002471261
50	0xbb22a5ec	-0.0024818135
51	0x3b22c4e4	0.0024836594
52	0xbb210bb6	-0.002457363
53	0xbb2484e3	-0.002510362
54	0xbb20d953	-0.0024543598
55	0x3b20923a	0.002450122
56	0x3b20e9dc	0.0024553454
57	0xbb20f1ac	-0.002455811
58	0xbb2284bd	-0.0024798356
59	0x3b20c0c6	0.0024528964
60	0x3b2072f1	0.0024482573
61	0x3b21c84f	0.0024686044
62	0x3b21c1e1	0.0024682211
63	0xbb215804	-0.0024619112
64	0x3b20ea9f	0.0024553908
65	0xbb2300aa	-0.0024872222
66	0x3b2306b5	0.0024875824
67	0xbb211e81	-0.0024584832
68	0x3b1ff20a	0.002440574
69	0x3b21ca61	0.0024687278
70	0xbb21dcc1	-0.002469823
71	0x3b2108da	0.0024571926
72	0x3b21c68e	0.0024684998
73	0x3b223914	0.002475326
74	0x3b21aea3	0.0024670742
75	0xbb20ca1e	-0.0024534534
76	0x3b21be55	0.0024680097
77	0x3b22983e	0.0024809982
78	0xbaf98793	-0.0019037597
79	0x3b234ad1	0.002491642
80	0xbb225951	-0.0024772475
81	0x3af975fa	0.0019032352
82	0xbb20d6fa	-0.0024542199
83	0x3b22297e	0.002474397
84	0xbb21ca3d	-0.0024687194
85	0xbb252ba6	-0.0025203018
86	0x3b210634	0.0024570348
87	0x3b20c437	0.0024531016
88	0xbb21c2c8	-0.002468275
89	0x3b257d42	0.0025251661
90	0x3b212f54	0.002459486
91	0xbb2265a1	-0.0024779814
92	0xbb183755	-0.002322634
93	0x3b210095	0.0024566997
94	0x3b22d844	0.0024848143
95	0x3b207059	0.0024481027
96	0x3b20d247	0.0024539398
97	0x3b22b7de	0.0024828832
98	0x3b1dc9d1	0.002407659
99	0x3b220553	0.0024722412
100	0xbb20cc6c	-0.0024535907
101	0xbb07d22d	-0.002072464
102	0x3b221c0f	0.0024735963
103	0xbb2057c2	-0.002446637
104	0xbb2205d4	-0.0024722712
105	0xbb2104f4	-0.0024569603
106	0x3b21dd94	0.0024698721
107	0xbb1fd955	-0.0024391015
108	0xbb1e82cc	-0.0024186848
109	0x3b21048b	0.0024569358
110	0x3b21d56c	0.002469386
111	0xbb1fe2a5	-0.0024396565
112	0xbb210f8a	-0.0024575912
113	0x3b210132	0.0024567363
114	0xbb210d83	-0.0024574704
115	0xbb212407	-0.0024588124
116	0x3b220335	0.002472115
117	0xbb226f8a	-0.002478572
118	0xbb20ec77	-0.0024555007
119	0xbb21cd9d	-0.0024689205
120	0xbb20c9d5	-0.0024534364
121	0xbb21e207	-0.0024701373
122	0xbb20dbf4	-0.0024545165
123	0xbb21d6ba	-0.0024694637
124	0xbb20e21c	-0.0024548834
125	0xbb213c00	-0.0024602413
126	0xbb214119	-0.0024605452
127	0xbb20b254	-0.0024520354

predict.weight f4 [1, 128]
0	0x3c99af15	0.018760243
1	0xbda1382b	-0.07872041
2	0x3d0d2ad4	0.034464672
3	0xbaabf3e3	-0.0013118949
4	0x3d41fbe4	0.047359362
5	0xbd0674b8	-0.032826155
6	0xbce02620	-0.02736193
7	0xbd72412b	-0.05914418
8	0x39ad35dc	0.0003303726
9	0xbc9c8188	-0.019104734
10	0xbda90046	-0.08252005
11	0x3c191ebd	0.0093457075
12	0x3d6a13cc	0.057147786
13	0xbca81e73	-0.020522332
14	0xbd362fa5	-0.04447903
15	0xbd59289e	-0.05301725
16	0xbd996a36	-0.07490961
17	0xbd6db598	-0.05803451
18	0xbb627a43	-0.0034557737
19	0x3cab9ea4	0.02094967
20	0x3d613d32	0.05499
21	0xbd8fa7b4	-0.07014409
22	0xbd05bec1	-0.03265262
23	0x3d82a161	0.06378437
24	0xbc8e0823	-0.017337864
25	0x3c4f0619	0.012635731
26	0x3dab8a1a	0.0837595
27	0x3b925afc	0.0044664126
28	0xbd2426b3	-0.04007597
29	0xbbf64897	-0.0075159776
30	0x3cfa5ea3	0.030562704
31	0x3d42bd71	0.047543947
32	0xbb433339	-0.002978517
33	0x3d049a64	0.0323738
34	0xbb24aa91	-0.002512608
35	0x3d2cdba6	0.04220166
36	0xbd99f695	-0.07517735
37	0xbd9bfcf9	-0.0761661
38	0xbc768d3a	-0.0150483195
39	0x3ca933b7	0.020654542
40	0xbcc2e109	-0.023788946
41	0xbd50d053	-0.050979923
42	0x3d4ec699	0.050482366
43	0x3d9a9b61	0.075491674
44	0x3cb82d88	0.022482648
45	0xba90b8ac	-0.0011041365
46	0x3d9adc00	0.07561493
47	0xbbff4a4d	-0.0077908398
48	0x3d88af50	0.06674063
49	0xbd751c50	-0.059841454
50	0xbcd2a3a9	-0.025712805
51	0x3cc93316	0.024560492
52	0xbd9f45d1	-0.07776988
53	0xbc40e6b8	-0.011773758
54	0xbd574081	-0.05255175
55	0x3d0a0c33	0.03370304
56	0x3d79f4f2	0.061024614
57	0xbd844a8f	-0.064595334
58	0xbcea06ce	-0.028567698
59	0x3d262272	0.040560193
60	0x3cf93376	0.030420046
61	0x3da825a6	0.08210306
62	0x3db2466d	0.08704839
63	0xbd82df7a	-0.06390281
64	0x3d7596eb	0.05995838
65	0xbca4c733	-0.020114517
66	0x3ca48284	0.020081766
67	0xbdb12993	-0.08650508
68	0x3ca0c362	0.019624416
69	0x3da5e933	0.0810112
70	0xbd93993d	-0.07206962
71	0x3d9d92dc	0.07694027
72	0x3da8c7f1	0.08241261
73	0x3d1c78cd	0.038201142
74	0x3d90d317	0.07071512
75	0xbd404ec0	-0.0469501
76	0x3db9e36e	0.09076582
77	0x3ce21060	0.027595699
78	0x39ceba0c	0.00039429998
79	0x3c91adb2	0.01778302
80	0xbd0b7bad	-0.034053493
81	0x3b192c9b	0.0023372534
82	0xbd54b1de	-0.05192744
83	0x3d29e882	0.041481502
84	0xbda7a775	-0.08186237
85	0xbc166a99	-0.009180688
86	0x3da08787	0.0783835
87	0x3d411a41	0.04714418
88	0xbdb12aaa	-0.08650716
89	0x3c0aae0a	0.008464346
90	0x3d7232b5	0.05913039
91	0xbd027dea	-0.031858362
92	0xbb0dabcc	-0.0021617291
93	0x3d92540d	0.07144938
94	0x3cb59b7a	0.022168864
95	0x3c23a1fd	0.0099873515
96	0x3d5021dd	0.050813545
97	0x3cbbda44	0.022931226
98	0x3bebe272	0.0071986252
99	0x3d554de6	0.052076243
100	0xbd3aba86	-0.04558804
101	0x3806493e	3.20163e-05
102	0x3d38a1b8	0.045076102
103	0xbcda3302	-0.02663565
104	0xbd51b1c1	-0.05119491
105	0xbd9e4d6e	-0.07729612
106	0x3d8ba99e	0.06819461
107	0xbc963185	-0.01833416
108	0xbc18f9ea	-0.009336928
109	0x3d946f7e	0.07247828
110	0x3d9aec77	0.07564633
111	0xbc87e034	-0.0165864
112	0xbda961bd	-0.08270595
113	0x3d96cb9a	0.07363053
114	0xbdaadecf	-0.083432786
115	0xbd8e34bc	-0.06943652
116	0x3d57646d	0.052586008
117	0xbd003268	-0.03129807
118	0xbd6eb6ac	-0.05827968
119	0xbda5c8c4	-0.08094934
120	0xbd29a5f0	-0.041418016
121	0xbd8db1db	-0.06918689
122	0xbd5cfec7	-0.053953912
123	0xbd9a3bcd	-0.07530937
124	0xbd58deb7	-0.052946772
125	0xbc770329	-0.015076437
126	0xbd4380b7	-0.047730174
127	0xbcd5d213	-0.026101148
