PERGAT_embbedding/data/emb/models/model_dim128_lay2_epo29.pth (torch, 137088 bytes, 7 tensors)

linear.weight f4 [128, 1]
000000 fc 64 59 3f 44 19 71 3f 30 1f 0e 3f 22 e6 6d 3f
       0.84919715 0.9417918 0.5551634 0.9292928
000010 d4 04 92 3e fc a9 bf 3e 9a a7 48 3f 4e 76 73 3f
       0.2851931 0.37434375 0.7838074 0.95102394
000020 b0 7d 18 be 3c 04 0b bf 40 b8 2f 3f 50 48 73 3e
       -0.14891696 -0.54303336 0.6864052 0.23758054
000030 6a 02 20 3f e0 4a 8d 3e 16 5a 6a bf f4 70 53 bf
       0.62503684 0.27596188 -0.9154371 -0.8259423
000040 62 69 73 bf c4 c1 bc be 90 f8 14 bf 10 0a bb 3e
       -0.95082676 -0.3686658 -0.58191776 0.36531115
000050 60 50 2b bf aa be 29 3f 2a 06 3b 3f f8 df c5 be
       -0.6691952 0.66306555 0.7305628 -0.38647437
000060 30 c6 f2 bd b8 73 8c 3e 6c 16 89 be 00 37 5e 3d
       -0.118542075 0.27432036 -0.2677492 0.05425167
000070 fa 04 33 bf 0e 3b 41 3f 40 56 f5 3c 72 8a 6a bf
       -0.6992947 0.75480735 0.029948354 -0.916175
000080 08 d3 27 3f b4 b1 a5 be 50 aa b9 3d 70 d5 15 3f
       0.65556383 -0.3236214 0.09065688 0.58528805
000090 68 af 7e be 78 a3 bf 3e b4 df 2d 3f c8 8e d3 be
       -0.248716 0.37429404 0.6791947 -0.4131987
0000a0 08 98 82 3e 38 d3 0d 3e b2 58 31 3f d0 bb 61 be
       0.25506616 0.13850105 0.69275963 -0.22044301
0000b0 6c f3 6b 3f de 52 69 3f aa 39 67 3f 6c f0 11 3f
       0.9216831 0.9114207 0.90322363 0.5700748
0000c0 aa 91 3d bf 08 f3 1b be 10 38 24 3f 92 85 47 3f
       -0.7405039 -0.15229428 0.64148045 0.7793819
0000d0 16 dc 72 3f d2 a9 47 3f 8c fa 45 3f 40 01 f0 3c
       0.94867074 0.779935 0.7733543 0.029297471
0000e0 e4 61 82 be 74 2e 77 bf 90 19 cb 3d 4c 21 92 be
       -0.2546531 -0.96555257 0.09916985 -0.28541028
0000f0 a8 ad 99 3e 50 cd dc bd 90 b7 08 3e a0 0b cb be
       0.30015302 -0.10781348 0.13351274 -0.39657307
000100 e0 d2 22 be 52 ad 1e bf d8 b5 7f 3f c0 e7 10 be
       -0.15900755 -0.61983216 0.99886847 -0.14150906
000110 ee 4b 20 bf f8 b9 7d 3f 40 02 ef be 6c 42 46 bf
       -0.6261586 0.9911189 -0.46681404 -0.774451
000120 8e d2 45 3f 8e 58 54 3f f0 38 07 be 20 a2 7f bf
       0.77274406 0.82947624 -0.13205314 -0.9985676
000130 a0 98 15 3d c4 af 3c 3f cc b9 8e 3e 10 4e 3f 3f
       0.036522508 0.737057 0.27876127 0.7472849
000140 60 b6 62 3f a4 03 b1 3e d2 d7 18 bf 30 f7 c8 bd
       0.8855953 0.3457309 -0.59704316 -0.09812772
000150 86 f4 6d 3f 62 9f 10 3f 98 f5 56 3e 50 c4 a7 be
       0.9295124 0.564932 0.20992124 -0.32766962
000160 3a 1e 78 bf 90 af e1 3e 4a 53 5d 3f c0 82 f8 3c
       -0.9692112 0.44079256 0.86455214 0.030335784
000170 f6 c3 20 3f d0 1c ba bd 70 d2 2b be 18 a4 7a bf
       0.6279901 -0.09087527 -0.16779494 -0.9790664
000180 e8 6b 20 3f fc 4f 1f 3f c8 de 5b 3e 5c 6f a6 3e
       0.6266465 0.6223142 0.21471703 0.32506835
000190 64 b4 70 3f 06 6f 05 3f 10 24 a2 be d2 e9 2f bf
       0.94025254 0.52122533 -0.31668139 -0.68716156
0001a0 ce 58 60 bf f8 96 8e be f0 92 62 bf 18 9e bf 3e
       -0.87635505 -0.27849555 -0.8850546 0.37425303
0001b0 44 a8 d6 3e e0 48 84 3e b0 bb 9f 3e 84 e6 f8 3e
       0.4192525 0.2583685 0.31197882 0.4861337
0001c0 ea dd 23 bf 90 15 79 3e 8c f0 06 bf 42 8f 07 bf
       -0.6401049 0.24324632 -0.52710795 -0.5295297
0001d0 24 d0 95 3e 1c 26 1d 3f d4 15 a8 be 44 2e 53 3f
       0.2926036 0.61386275 -0.32829154 0.8249247
0001e0 18 b9 17 3e 00 74 2e bc 48 94 43 bf 50 44 44 bf
       0.14816701 -0.010647774 -0.76398134 -0.76666737
0001f0 60 de cd bd 58 95 6e 3e 58 29 0f 3f 58 16 6c 3f
       -0.1005218 0.23299158 0.5592246 0.92221594

linear.bias f4 [128]
000000 26 16 6a bf 2b 11 a0 3e 9d 8c 30 bf ed dc 68 3f
       -0.91440046 0.31263098 -0.6896456 0.90962106
000010 77 98 3f be ba 62 6a 3f 40 7f 15 3f 04 92 b2 3e
       -0.18710504 0.91556895 0.58397293 0.34877026
000020 e8 d4 df bd 74 83 30 bd fb 9a 39 be 8c 05 33 bf
       -0.109292805 -0.043094113 -0.18125527 -0.6993034
000030 5a 2d 50 bf ba cc 42 bf 3d 60 e9 be a4 d1 c8 be
       -0.813192 -0.7609364 -0.45581236 -0.39222443
000040 d2 85 a7 3e f3 b5 7b 3f f1 fe 6c bc b3 54 1c be
       0.32719284 0.9832451 -0.01446508 -0.15266685
000050 f6 b0 80 bc eb f3 89 3d 30 a3 99 3e 17 3e f0 be
       -0.015709382 0.06735977 0.30007315 -0.4692237
000060 cb 0b 30 3f 8a 9e 9f be 86 23 2f 3f 38 2f 3d 3e
       0.68767995 -0.31175643 0.6841358 0.18475044
000070 e5 88 dd be 45 36 90 3e 9e 2e 86 bd 29 33 6f 3f
       -0.43268505 0.28166404 -0.0655186 0.9343744
000080 d1 5f 16 3f d0 f3 bf bd fc b2 3e bf d1 3f 5f 3f
       0.58739954 -0.093726754 -0.7449186 0.8720675
000090 4f 34 e4 be b2 c3 a6 bd 6c 0d 39 3f cc 9b 6e 3f
       -0.44571158 -0.08142795 0.72286105 0.9320648
0000a0 04 4b 3f 3f ad 2d 5c bf d8 18 2c bf a4 3b 31 bf
       0.7472384 -0.86007196 -0.6722541 -0.6923163
0000b0 28 2c 58 bf f9 25 28 bf 5c 28 11 3f 21 ca bc be
       -0.8444238 -0.6568294 0.5670221 -0.36872962
0000c0 cf 0c 91 be 94 54 4e bf 85 69 1c 3f 40 4d 07 3f
       -0.28330085 -0.80597806 0.6109851 0.5285225
0000d0 96 f4 7b 3e 2c 78 81 3e 8c 83 cb 3e ee e2 1d 3c
       0.24605021 0.25286996 0.397488 0.009636624
0000e0 08 b2 92 3e f7 21 47 bf 2f 0c 7d be 1f 7c d2 bd
       0.28651452 -0.777862 -0.24711679 -0.102775805
0000f0 4a 01 da bd eb 14 18 3f b1 d3 fc be ee 97 38 bf
       -0.10644777 0.5940692 -0.49380258 -0.72106826
000100 8b a6 35 be 76 7a d1 3d 04 d8 76 3f 74 03 e7 be
       -0.17739312 0.10228436 0.96423364 -0.45119822
000110 94 17 84 3e 09 69 58 be 99 0e 37 3e c8 73 e2 be
       0.2579924 -0.21133818 0.17876662 -0.4422896
000120 c8 0b 0d 3f 27 85 39 3f 65 83 c5 be db 49 14 bd
       0.550961 0.724688 -0.3857681 -0.036203247
000130 54 c5 e4 3d 61 2c 3e bf d3 a8 05 bd aa b0 53 3f
       0.1117045 -0.74286467 -0.032631706 0.8269144
000140 fb 0e a5 bd 6e 05 bc 3e 03 ae 5d bf d5 7f 18 3f
       -0.08059498 0.36722893 -0.86593646 0.59570056
000150 34 a1 a7 3e 75 a3 d9 be 74 94 f0 bd b8 11 16 bf
       0.32740176 -0.4250752 -0.11747065 -0.58620787
000160 e1 d7 2c 3f 81 cc d9 3d 24 34 e0 be 31 a9 64 bd
       0.67516905 0.10634709 -0.4378978 -0.055825416
000170 3d ee e5 be 83 79 33 bf f8 d2 a0 be 37 74 3d 3f
       -0.44908324 -0.7010729 -0.31410956 0.74005455
000180 dd d2 c5 3e ea b0 52 bf 5c 5b 8b 3d bc 5a 70 bf
       0.38637438 -0.823012 0.06804535 -0.9388845
000190 7f 01 59 3e 32 17 b5 3e 40 45 de 3e 3b e9 6a 3f
       0.21191977 0.3536926 0.4341221 0.9176213
0001a0 ed f8 35 3c 00 35 cf be 10 6c 3a 3e b2 a4 34 bf
       0.011106712 -0.40470123 0.18205285 -0.70563805
0001b0 35 53 28 bf 5c 79 22 bf fd a5 4f be 05 9b 03 3f
       -0.65751964 -0.6346643 -0.20278163 0.51408416
0001c0 9b 09 4b be 94 1f 93 be 37 4a e5 be 51 f3 c5 be
       -0.19827883 -0.2873503 -0.44783184 -0.38662198
0001d0 15 b7 77 bf 03 56 50 3f a2 e9 22 3e 8c ba 6e 3f
       -0.96763736 0.81381243 0.15909436 0.932534
0001e0 3c 5e 44 3f 30 1f 29 3f 6a c9 1c bd 14 05 b7 bd
       0.7670629 0.66063213 -0.03827802 -0.089365155
0001f0 41 45 22 3f 2c b2 e5 3e b0 09 39 bd 70 0e c1 bd
       0.63386923 0.44862497 -0.045175254 -0.09426582

conv_0.weight f4 [128, 128]
000000 db 4c 90 3c e4 cf fa bd ab 68 ce bc 5a 2f d2 3d
       0.017614773 -0.12246683 -0.025196394 0.10262938
000010 4b 49 c1 bc 05 1c f7 bb 6e dc 8b bd 52 b6 da bd
       -0.02359452 -0.007541182 -0.06829153 -0.10679306
000020 13 47 59 3d 44 f8 f9 bc 1a 80 9e 3b 62 a5 a5 3d
       0.053046297 -0.03051389 0.0048370482 0.08088185
000030 de 7f d0 3d 3e a5 69 bd bc 62 6e bd c6 3b a7 bd
       0.10180639 -0.057042353 -0.05819963 -0.08165698
000040 7f 54 9e 3d 09 1b 25 3d 0c c7 6a bd 8b 23 49 3d
       0.0773096 0.040308986 -0.057318732 0.049106162
000050 30 be 07 3d ff ee 8d 3d 63 58 af bc f8 c1 77 bd
       0.03314036 0.069303505 -0.02140445 -0.060487717
000060 38 33 0e 3e 02 18 b4 3d 6e 54 dc bd 94 0c c1 bc
       0.13886726 0.087936416 -0.10758291 -0.023565568
000070 2c 21 b2 bd 9d 0f 13 be ee 24 dd 3d 5b d5 08 be
       -0.08697733 -0.14361425 0.107980594 -0.13362639
000080 c0 c7 dd bd 66 a3 1d 3d 06 79 09 be 99 09 e2 bd
       -0.10829115 0.038485907 -0.13425073 -0.11036987
000090 bd 5f 46 bd 4d ff 3e 3d 03 f8 18 3e ed 64 14 3d
       -0.048431147 0.046630193 0.14938359 0.036229063
0000a0 60 e9 c4 3d ac fe eb bb 4c 12 dd bd 74 4e 46 bd
       0.09614825 -0.00720199 -0.107945055 -0.048414662
0000b0 f3 5b 9a 3d 65 c5 68 bd d5 85 01 bd bd 1d fc 3d
       0.07537069 -0.056828875 -0.031621773 0.123103596
0000c0 a8 e2 ac 3d 7f 63 e6 3d fe ad 0c 3d 4f f9 25 bd
       0.08441669 0.11249446 0.03434562 -0.040520962
0000d0 22 c1 01 3c 17 4d fd 3d 83 6f 42 bc 17 00 50 3b
       0.007919582 0.12368219 -0.011867407 0.0031738335
0000e0 02 7c 09 3e 4a 35 90 bd 25 c0 c5 3d b2 d8 a1 bd
       0.13426211 -0.07041414 0.09655789 -0.079026595
0000f0 88 a7 08 3e 29 ce d7 3d 48 26 c3 bd 7b 45 8b bd
       0.13345158 0.10537369 -0.09528786 -0.06800362
000100 a2 23 02 3e fd 2f eb bd c9 82 bd 3d 9b ff 51 3c
       0.12708905 -0.114837624 0.09253461 0.012817289
000110 01 48 8f 3d 35 6f a6 3c 5a 55 0d 3e 37 88 71 bd
       0.069961555 0.0203167 0.1380209 -0.058967795
000120 74 03 75 3c 54 4a 55 3d 62 64 c1 bd 6d 48 6d 3d
       0.014954437 0.052072838 -0.094429746 0.0579304
000130 22 09 0c 3e ee 69 ed bd 02 75 12 3e 8f d5 55 bd
       0.13675359 -0.1159247 0.14302447 -0.05220562
000140 f1 5d 6c 3c ed f5 a7 3d 73 3d 14 3e 2f ca 5c bd
       0.014426694 0.082012035 0.14476566 -0.053903755
000150 8f 5c dd 3d be 0e 96 3d e6 ce a4 bd f1 f7 d1 bd
       0.1080867 0.073270306 -0.08047275 -0.10252369
000160 a6 e0 0e be 81 8f a5 bd 2e d6 19 3e c3 e6 d1 3c
       -0.13952884 -0.08084012 0.1502311 0.025622731
000170 51 06 0d be 4d 45 dd 3d 2b f1 91 3d 40 5d 0b be
       -0.13771941 0.10804234 0.07126077 -0.13609791
000180 6f eb eb 3c 67 4b 0d 3e 49 25 f3 bd 33 3c b0 bc
       0.028798787 0.13798295 -0.11872346 -0.02151308
000190 32 83 94 bd 4a a6 9e bd 01 79 bd bd 43 a8 ff 3c
       -0.07251586 -0.07746561 -0.09251595 0.031208163
0001a0 75 8f ec bb 82 05 b4 3c 34 e3 03 be f7 ad 09 3e
       -0.00721925 0.021975283 -0.1287964 0.13445269
0001b0 9e 8a bf bd 2d e7 79 bc b1 c4 1a 3e de 82 06 bd
       -0.09352611 -0.0152528705 0.15114094 -0.03283965
0001c0 d7 90 3a 3c 6e 0c 03 3e be 35 fb bd d0 92 f2 3c
       0.011387072 0.1279771 -0.1226611 0.029611021
0001d0 42 93 9f 3d d6 43 02 bd 80 7e f0 bb 95 46 be 3d
       0.07791759 -0.031802975 -0.0073392987 0.09290806
0001e0 dd e0 33 3d ef 6d 8f 3d 46 66 8f 3d 3e c6 0d 3e
       0.04391562 0.0700339 0.07001929 0.13845155
0001f0 f1 fe 83 3c 3b 1a 87 bd 19 9c 57 bd a5 29 3a bd
       0.016112776 -0.065968 -0.0526391 -0.04544987
000200 9b 0d ff bd 93 5b b7 3d b5 56 a6 3d 59 a8 ae 3d
       -0.12453767 0.08953013 0.08122007 0.085282035
000210 b6 24 23 3c 2e 6d 18 3e 53 23 21 bd 6f 1b 8b 3d
       0.009957483 0.14885399 -0.03934033 0.06792342
000220 cd bc cf 3c 7b 37 0b bc a5 5c aa bd 46 e3 ab 3d
       0.025358582 -0.008497114 -0.08318452 0.08392958
000230 e2 34 0c 3e fd ab b8 3d 37 ab 19 3e e4 14 13 bd
       0.13692048 0.09017179 0.1500672 -0.035908595
000240 61 61 9e 3d d6 9d ca bd 91 89 08 3e eb 6d 99 bd
       0.07733417 -0.09893386 0.13333727 -0.07491668
000250 d4 6f be 3d 1a 58 4e bd 2c bd dc 3d bc c8 27 3c
       0.09298673 -0.05037699 0.10778269 0.01024073
000260 68 f9 bd bd 27 16 09 b9 be b5 92 3d 98 e7 95 bb
       -0.09276086 -0.0001307359 0.07163571 -0.0045747273
000270 9c d1 0e bd 12 6d ca bd f1 88 6f bb ac 98 e8 3c
       -0.034867868 -0.09884085 -0.003655013 0.028393112
000280 f7 5e cc bc 81 5e ef bd 31 9b 03 bc 1e e1 b3 bc
       -0.024947627 -0.11687947 -0.008032606 -0.02195793
000290 db f8 bc 3d 9f 80 c0 bd 56 54 e6 bd e2 96 ef bd
       0.09227153 -0.093995325 -0.112465546 -0.116987005
0002a0 84 f8 a1 3d ea 42 e0 bd 52 34 9b 3c d1 26 3a 3d
       0.07908729 -0.10950263 0.018945847 0.045447174
0002b0 72 e8 19 be 1b 91 04 bd b9 4e 0b 3b bf 2d cc 3c
       -0.15030077 -0.032364946 0.002125664 0.024924157
0002c0 5c ce 88 bd 7a cf 01 3c 2c 5c 01 be 49 4b 09 be
       -0.06679985 0.007923001 -0.12632817 -0.13407625
0002d0 2f 69 17 3e c1 5c ee 3d 94 f3 78 3d cc 18 9b 3d
       0.14786218 0.11638785 0.06077917 0.07573089
0002e0 09 44 bb bd dc 66 16 be 43 b7 89 3c 20 a2 0f 3d
       -0.09143836 -0.14687675 0.016811019 0.035066724
0002f0 c5 5d 33 bd da 1c db 3c d7 57 10 3d 42 93 9f bc
       -0.043790597 0.026747156 0.03524002 -0.019479398
000300 cd 32 97 3d 59 01 8e bd cc 58 b3 bd 1e 0f 45 bd
       0.07382736 -0.06933851 -0.08757171 -0.04811012
000310 c0 5a 37 bd e6 49 3a bc 4c a9 d8 bd 52 6c 0b bd
       -0.04476428 -0.011370158 -0.10579166 -0.03403885
000320 4b 93 72 bd 99 81 05 be 50 68 00 be 7b b1 5b 3d
       -0.0592225 -0.13037719 -0.12539792 0.053636055
000330 70 9e 10 be fc fc 16 be ba 16 0f be e0 6b 8b 3d
       -0.14122939 -0.14744943 -0.13973513 0.06807685
000340 a0 89 08 3e 4d a8 27 3d e0 7d 86 bd 56 d4 25 3d
       0.1333375 0.04093199 -0.065669775 0.040485702
000350 da cd 8a 3c 35 3e d1 bc ef 58 e0 3d 58 2a 13 be
       0.01694386 -0.025542358 0.10954463 -0.14371622
000360 19 a7 1c bd 24 25 da 3d 98 3b a8 3d 9f ec 17 be
       -0.038245294 0.10651615 0.082144916 -0.14836358
000370 5e 93 1c 3c 37 25 0b be 1f 9c 07 3e 3d 4c 83 bd
       0.009556619 -0.13588415 0.13243149 -0.06411026
000380 d1 df f5 bd 81 ab b9 bd 29 e9 a4 3c 45 1f 6c bc
       -0.1200558 -0.09065915 0.02013071 -0.014411752
000390 18 b5 a0 3d 85 18 6f 3d 10 e9 b6 bd 3d b1 75 bd
       0.07847041 0.058372993 -0.08931172 -0.05998348
0003a0 21 c9 31 bd 4c 3d fb bd f3 b2 1a 3d 47 6d 6f bd
       -0.043404702 -0.12267551 0.037768316 -0.058453824
0003b0 9d 1e 0a 3e 36 ef e8 3d 50 ec c0 3d c7 2a 32 3d
       0.1348824 0.11373751 0.09420073 0.043497827
0003c0 7d 0a eb 3c 5f 65 04 3e 42 40 d3 bc 98 b4 8a 3d
       0.028691525 0.12929295 -0.025787476 0.06772727
0003d0 2b 39 09 3e 65 98 17 3e d0 3b 5e bd 24 81 94 3d
       0.13400714 0.14804228 -0.05425626 0.07251194
0003e0 19 ba 24 3c 7b cd 86 bd a1 1e 08 3e 12 c4 ac bd
       0.010054135 -0.06582161 0.13292934 -0.08435835
0003f0 5a 2e d7 bd 03 44 99 3d ae 66 cb 3d 45 02 8c bd
       -0.10506888 0.07483675 0.09931694 -0.068363704

conv_0.bias f4 [128]
000000 03 96 37 3b 13 7b 21 bb 74 bd 1f 3b 4d 61 3c bb
       0.0028012998 -0.0024640008 0.0024374397 -0.002874452
000010 f2 81 37 3b 29 c4 2e bb 88 d1 38 bb c2 b9 1c bb
       0.0028001037 -0.0026667214 -0.0028201062 -0.0023914431
000020 17 79 44 3b ca 9a 37 3b 14 89 19 3b 3e 36 48 bb
       0.0029979402 0.0028015845 0.0023427652 -0.003054991
000030 6f 81 3c bb 7b a7 2a bb 0b a5 cf 3a 59 3d 3b 3b
       -0.0028763672 -0.0026039768 0.0015842033 0.0028570502
000040 d5 c8 36 3b bf fd 48 3b d7 15 3c bb 01 be 08 bb
       0.0027890701 0.0030668823 -0.002869954 -0.0020865204
000050 11 77 aa 39 3c 07 2d 3b f3 93 2e 3b 58 7e c2 ba
       0.00032513638 0.0026402017 0.0026638478 -0.0014838679
000060 a1 10 3f bb 90 f5 35 3b 22 8c 35 bb 96 d0 35 3b
       -0.0029154199 0.0027764775 -0.0027701934 0.0027742735
000070 a7 43 08 bb cf b9 2f 3b 88 bb 34 bb 6f 86 36 bb
       -0.0020792277 0.0026813631 -0.0027577598 -0.0027851125
000080 c7 75 ce 3a e7 fa 27 3b 85 27 2d 3b 40 80 2e 3b
       0.0015751653 0.0025631727 0.002642126 0.0026626736
000090 0e ab 93 3a 6b bc 2a bb fe 92 34 bb 82 31 03 bb
       0.0011266188 -0.0026052247 -0.0027553434 -0.0020018523
0000a0 d8 53 38 3b 86 b4 2e 3b 62 1e 3d 3b 7c 11 3b 3b
       0.0028126147 0.0026657893 0.002885722 0.0028544357
0000b0 5c 2b 3a bb 76 8a f7 ba c4 92 ef ba a6 ff 28 bb
       -0.0028407192 -0.0018885869 -0.0018277992 -0.0025787144
0000c0 28 79 3c 3b 4b bf 38 3b 25 f6 15 bb 89 cf 39 bb
       0.0028758738 0.0028190191 -0.002288231 -0.002835246
0000d0 69 eb 39 3b 57 59 27 3b f8 91 36 bb 61 d7 2b bb
       0.0028369075 0.0025535428 -0.0027858 -0.0026220905
0000e0 19 34 2d 3b 34 ba 25 bb 59 95 42 3b bd db 06 bb
       0.0026428758 -0.0025287988 0.002969107 -0.0020577752
0000f0 c7 68 35 bb 8c b6 3b bb 7c ef 2b bb 3a 23 36 bb
       -0.002768086 -0.0028642742 -0.0026235273 -0.0027791993
000100 00 cb 26 bb 1b 7c 39 3b 4b 25 25 3b 9c 46 35 3b
       -0.0025450587 0.0028302732 0.002519923 0.0027660495
000110 75 aa 3c 3b 11 4a 37 3b 60 ee 34 3b e0 2c 36 3b
       0.0028788124 0.002796773 0.0027607903 0.0027797744
000120 4a a2 36 3b 2c 70 41 3b 88 03 25 bb 56 73 2a 3b
       0.0027867728 0.0029516323 -0.0025179107 0.0026008687
000130 0a 9d 38 bb 85 51 30 bb 7b ff 3e bb 7c 2f 2b bb
       -0.0028169774 -0.0026904058 -0.0029143977 -0.0026120832
000140 16 48 3c 3b 00 d6 d3 ba f0 25 39 3b ad a7 3a bb
       0.002872949 -0.00161618 0.0028251372 -0.002848129
000150 1a 6a 15 bb d7 58 ce 3a f9 fa 25 bb 62 2f 3e 3b
       -0.0022798837 0.0015743029 -0.0025326593 0.0029019942
000160 d3 89 9b ba 9d f2 37 bb 3d e2 35 bb 68 fd 15 bb
       -0.0011866636 -0.0028068193 -0.0027753257 -0.0022886638
000170 65 01 1a bb 03 bc 12 3b a1 54 27 3b 64 cd 38 bb
       -0.0023499366 0.0022389896 0.002553262 -0.0028198594
000180 4d cb 3a bb 64 0c 38 bb e4 e6 2c bb 67 cf 49 bb
       -0.0028502524 -0.0028083557 -0.0026382739 -0.0030793787
000190 4a 80 37 bb f8 82 20 bb 8d 9d 4d 3b 5b cc a9 ba
       -0.002800005 -0.0024492126 0.0031374425 -0.001295458
0001a0 21 cb 23 3b 70 fd 36 bb 37 9d 45 3b 16 09 2b bb
       0.00249929 -0.0027922057 0.0030153522 -0.0026097945
0001b0 05 21 36 bb b9 86 47 3b 2f 4b 40 bb 0d 4b 36 3b
       -0.0027790677 0.0030445291 -0.0029341688 0.002781573
0001c0 5a 64 41 bb 7b dc 18 3b 2c 8e 43 3b c8 b1 2b 3b
       -0.0029509277 0.0023324776 0.002983938 0.0026198495
0001d0 db f1 96 ba d0 57 5e ba d8 eb 38 bb 8c 45 2d bb
       -0.001151617 -0.0008481713 -0.0028216746 -0.0026439158
0001e0 c7 93 2e 3b 2c 69 24 3b a9 d7 1a bb 96 ab 2e bb
       0.0026638375 0.0025087101 -0.0023627079 -0.0026652566
0001f0 2e 77 27 bb 75 97 2d 3b a8 d1 40 bb 1b 2f 4b bb
       -0.0025553214 0.002648798 -0.002942184 -0.003100342

layers.0.weight f4 [128, 128]
000000 36 9f 8f 3c 62 7c 1f 3c d8 84 81 3d 16 55 f6 3d
       0.017531972 0.009734245 0.06324166 0.120279476
000010 18 b5 67 3d ea 7d ef 3d 50 7a 11 be e2 a8 91 3d
       0.05656919 0.11693938 -0.14206815 0.0711229
000020 02 9a 42 3d ea 87 c2 3d 34 9f 9d 3d 75 f6 de bd
       0.047510155 0.0949858 0.07696381 -0.10886852
000030 be d6 bd 3d d0 7b eb ba fa 59 55 3c 5a e5 c6 3d
       0.092694744 -0.0017965976 0.01302194 0.09711714
000040 58 cb b6 bd e2 53 14 be e5 d5 15 be 56 dc 31 3d
       -0.089255035 -0.14485124 -0.14632376 0.04342302
000050 d5 d2 49 bd 40 d6 3b 3d d1 9e 04 be 32 b8 3e bc
       -0.04927333 0.04585862 -0.12951209 -0.011640595
000060 9c 63 18 be c3 be 06 3e 46 2a 1a 3e 30 38 18 be
       -0.14881748 0.13158707 0.15055189 -0.14865184
000070 2e cc cd 3d 31 47 04 be b3 1a d5 3d 22 05 ea bd
       0.1004871 -0.12917782 0.10405483 -0.1142676
000080 be 46 ec 3c 38 27 1f be 6c 9b 87 bc e1 ca ca bc
       0.028842326 -0.15542305 -0.016553603 -0.024754943
000090 3d df ec 3d f9 2d 1b 3e 5d 67 81 bd a3 73 8c 3c
       0.11566017 0.15154256 -0.06318543 0.017144984
0000a0 15 69 44 3d 7f 8c 51 bc d4 80 d3 3d 81 93 cc bd
       0.047951777 -0.012789845 0.103273064 -0.09989072
0000b0 70 df df bd 13 9e fe 3d 81 29 c5 3d 00 7d d5 bd
       -0.10931289 0.12432494 0.09627057 -0.104242325
0000c0 f6 9b 1c 3d 93 72 05 be d3 43 cd bd 10 d5 8e bd
       0.038234673 -0.13031988 -0.10022702 -0.06974232
0000d0 45 36 0b be cc bc 74 3d 2b 9c 52 3d f1 0a a2 3b
       -0.13594921 0.059750363 0.051418465 0.004945152
0000e0 a7 34 c6 bd 53 00 11 3e 06 36 f7 3d 7c c0 09 3e
       -0.096780114 0.1416028 0.12070851 0.13452333
0000f0 29 b7 06 be 02 fb 00 3e 16 b6 ea bc 7c 8c 67 bd
       -0.13155808 0.12595752 -0.028651278 -0.05653046
000100 0b 06 fa bd a4 70 35 bd 9a 3d 0f 3c 00 52 00 be
       -0.12208184 -0.044296876 0.008742714 -0.1253128
000110 00 4e ef 3c a9 a0 f1 bc d3 0b ed bc ea c3 9e 3d
       0.029211998 -0.029495554 -0.028936302 0.077522114
000120 41 c2 f2 3d ce f1 8d bd dd 15 f7 bc ba fb ff 3d
       0.11853457 -0.06930886 -0.030161792 0.12499185
000130 07 df e1 3d a0 ed de bd 21 26 18 bc 86 f0 94 bd
       0.11028867 -0.10885167 -0.009286434 -0.07272439
000140 78 05 d5 3c 9f 9d 26 3d 88 82 06 be 5c 19 20 3d
       0.026003584 0.040677663 -0.13135731 0.039086685
000150 58 82 6f bd 5e 94 d9 3b 0d 92 a3 3d f2 1f 04 be
       -0.058473915 0.006640001 0.07986841 -0.12902811
000160 5c 8a 01 3e b1 28 76 bd 9b d1 c8 bd 73 06 c2 bc
       0.12650436 -0.0600974 -0.09805604 -0.023684716
000170 59 c3 0a 3e c8 24 84 3d 7e 53 af bd 46 ed c7 3d
       0.13551082 0.06452328 -0.08560847 0.09762053
000180 f0 ea cd 3b da cf ab bd 1a 4f f4 3d af 75 e4 bd
       0.0062841102 -0.08389254 0.1192915 -0.11155259
000190 06 35 8d 3d 94 fc 6b 3d b4 f4 94 bd 7b b7 cc 3d
       0.06894879 0.057613924 -0.07273236 0.099959336
0001a0 6d f9 d1 3d e1 0d 06 3e 05 f1 19 3e 27 fb 1b 3d
       0.10252652 0.13091232 0.15033348 0.038081314
0001b0 ef 30 c1 3d 76 e0 49 bd cb 31 08 3e ce 77 30 3c
       0.094331615 -0.04928633 0.13300245 0.010770751
0001c0 ad 4d 0f be 7c 44 a5 bd 00 5b e5 ba 02 e7 ce 3d
       -0.13994475 -0.08069703 -0.0017498434 0.10102655
0001d0 fe eb b2 bd 6e 5f e0 3d 82 b6 ab bd dd 42 a4 bd
       -0.08736418 0.10955702 -0.0838442 -0.08020566
0001e0 45 95 06 be 35 ab 3a 3d 02 1a 5f 3d f0 0c 57 bd
       -0.1314288 0.045573432 0.054468162 -0.052502573
0001f0 d5 1d be bd 34 57 b2 bd 0c 0c 0a be 6e 21 77 3d
       -0.09283034 -0.08708039 -0.13481158 0.060334615
000200 9e 11 fe 3d 27 0d fd bd c6 8f 17 bd 57 4b a4 3d
       0.12405704 -0.12356024 -0.037002347 0.080221824
000210 65 00 ba 3d 54 32 28 bd cc 7a 6c bc f8 aa 9c 3d
       0.090821065 -0.04106362 -0.014433574 0.07649797
000220 87 35 0c 3e aa 2d c5 bd ae c5 6a bd 80 4d 02 be
       0.13692294 -0.0962785 -0.05731743 -0.12724876
000230 9f 8f b5 3d 4a 01 ff 3c 24 8a 0b bd bc ec b1 bd
       0.08865284 0.031128544 -0.034067288 -0.086877316
000240 82 fe a3 bb d3 2a 11 3e 02 00 44 3d f0 1a c7 bd
       -0.005004705 0.14176492 0.04785157 -0.09721935
000250 ad 1f 03 be 71 da b2 3d ad f3 f5 3d 9d 64 05 3e
       -0.12805052 0.08733071 0.12009368 0.13026662
000260 53 58 0f bd e3 f2 97 bd 7c 22 1c 3e 96 99 ac 3d
       -0.034996342 -0.07419374 0.1524753 0.08427732
000270 22 ed a2 3d 2d 91 58 bd 57 07 67 3c ed 3e e4 bd
       0.07955386 -0.052872825 0.014100871 -0.11144815
000280 27 09 0c 3e 3f 6d ff 3d a7 5e 2e 3d 3a dd 05 3d
       0.13675366 0.12472009 0.042570736 0.03268168
000290 38 60 16 bd 14 90 88 3c f4 77 18 be 64 3a 14 3e
       -0.036712855 0.016670264 -0.14889508 0.144754
0002a0 e6 26 8d 3d 36 19 7c bd 09 43 b9 3d ca 1c 03 3e
       0.06892185 -0.06154748 0.09045989 0.12803951
0002b0 48 a2 0e be 74 a8 aa bd f6 26 1c 3e a1 46 1d be
       -0.13929093 -0.08332911 0.15249237 -0.15358974
0002c0 4c c7 4f bd 0c 6f 91 bd 32 f0 ba bd 49 da 6f 3d
       -0.050727174 -0.07101259 -0.09127845 0.058557782
0002d0 8c 77 6f bd e1 0c 69 3a 86 4b 44 3d da 38 31 3c
       -0.05846362 0.0008890164 0.047923587 0.010816777
0002e0 cf bc 1a 3e 99 96 79 bd 89 c8 9b 3d 73 a8 0f 3e
       0.15111087 -0.060934637 0.076066084 0.14029102
0002f0 d7 23 a3 3d 4e cc d9 3d f5 e7 b4 bc 94 36 90 3d
       0.0796582 0.10634671 -0.022083262 0.0704166
000300 7e e2 0c bd a9 82 a4 3d e3 f8 cb 3d 27 34 a8 bd
       -0.034395687 0.08032734 0.09959581 -0.08213072
000310 bc 88 81 3d 61 f9 fc 3d f9 06 da bd 42 ce 01 3d
       0.06324908 0.12352253 -0.10645861 0.031690843
000320 02 a1 44 bd bd a7 22 bc e8 74 eb 3d 70 6e 70 bd
       -0.04800511 -0.009927687 0.114969075 -0.05869907
000330 dd 7b 82 bd 08 66 ae bd 4f 73 0d be d8 63 a7 bd
       -0.06371281 -0.08515555 -0.13813518 -0.081733406
000340 5e b0 a8 3b e3 fa 8a 3c 44 6b 5c 3d 35 e8 8b 3d
       0.0051479777 0.016965335 0.053813234 0.06831399
000350 52 6f 03 be 77 a4 3e bd 8b 87 a8 3d 90 66 83 bd
       -0.12835434 -0.046543565 0.08228978 -0.064160466
000360 52 74 e0 3d 03 a8 c3 bd 2e 99 16 bd 5b 3d bb bd
       0.10959686 -0.0955353 -0.036767177 -0.09142562
000370 72 b0 5a 3d 74 93 ce bd 8c 37 be 3c b5 e5 66 bc
       0.053390928 -0.10086718 0.023219846 -0.014092852
000380 b9 67 08 3e 9b 43 16 3e f5 15 d5 3d 79 1b ac bd
       0.13320817 0.14674227 0.104045786 -0.084036775
000390 3a 2c 59 3d c8 18 55 bd 17 57 2a bd 05 56 74 3c
       0.053020693 -0.052025586 -0.04158696 0.014913087
0003a0 65 5a 08 bc 0f 48 d1 3d 47 0c 60 3d 45 a4 24 bd
       -0.008322333 0.10218822 0.05469921 -0.040195722
0003b0 3b 87 85 bd d6 be cd 3d 27 a3 0b bd 1f e0 14 be
       -0.06519934 0.10046165 -0.03409114 -0.1453862
0003c0 de 6e 76 bd e5 50 ea bd d9 7c 70 bd bc 7d d6 3d
       -0.060164325 -0.11441211 -0.058712814 0.10473201
0003d0 22 1d e9 bd 2e ae a0 bc e4 50 c8 3d e5 82 d1 3d
       -0.1138251 -0.019614305 0.09781054 0.10230044
0003e0 f0 c9 ac bd af 62 50 3d ee f9 6e bd b4 17 bf 3d
       -0.08436954 0.050875362 -0.05834382 0.09330693
0003f0 1e dd ae 3c 7f 6c b4 3d 3b 7c f6 3d 4e 6a db bd
       0.021345671 0.088097565 0.12035414 -0.107136354

layers.0.bias f4 [128]
000000 56 72 3a bb cd ad 3c 3b 43 bf 39 bb cf 31 3d bb
       -0.0028449497 0.0028790117 -0.002834276 -0.00288688
000010 20 cf 3b bb 8a 85 3b bb b2 2a 3c bb 46 2d 39 bb
       -0.0028657392 -0.002861353 -0.0028711972 -0.0028255745
000020 a3 3e 3a 3b 79 2c 39 bb c6 b2 3c 3b 2a 97 3b 3b
       0.0028418682 -0.0028255268 0.002879308 0.0028624036
000030 ec 91 2d bb 8d 63 3a bb 75 50 3a bb a0 80 3a 3b
       -0.0026484681 -0.0028440685 -0.0028429304 0.0028458014
000040 01 53 3a 3b 66 fc 3b bb 14 71 3a 3b 50 17 3a bb
       0.0028430822 -0.0028684377 0.0028448747 -0.0028395243
000050 2b 74 3a 3b fa 15 3a 3b bf bb 3b bb b3 34 1e bb
       0.002845059 0.0028394447 -0.002864584 -0.0024140298
000060 ec 8f 3b bb 03 84 3b bb c7 7a 3c 3b 58 ff 39 bb
       -0.002861972 -0.002861262 0.0028759704 -0.0028380957
000070 e6 50 3a bb 5c 8e 44 bb 07 36 3d bb 8c 87 3b bb
       -0.0028429567 -0.002999208 -0.0028871314 -0.0028614728
000080 46 43 39 bb 49 ac 3b bb 53 db 37 3b 45 7c 3a bb
       -0.0028268858 -0.0028636626 0.0028054311 -0.0028455418
000090 aa af 3b 3b 8c 7e 3a 3b 00 39 3c bb 3f 51 3a bb
       0.002863864 0.0028456775 -0.0028720498 -0.0028429774
0000a0 55 33 42 3b d1 96 38 3b 8f ce 3b 3b 3a e4 40 bb
       0.0029632647 0.0028166065 0.0028657054 -0.0029432909
0000b0 64 22 3c bb d7 ea 3b bb eb 04 3c 3b a9 a3 3b bb
       -0.0028707022 -0.002867391 0.0028689455 -0.0028631485
0000c0 3b 95 3b bb 9b df 3b 3b b2 93 3b 3b 04 7d 3a 3b
       -0.0028622884 0.0028667215 0.0028621969 0.0028455863
0000d0 ba bc 3b 3b 38 41 3c bb e6 92 3b bb be 67 3a bb
       0.0028646425 -0.0028725397 -0.0028621494 -0.0028443183
0000e0 4e 8e 3c 3b 6f 31 3a 3b bd d5 39 bb df aa 3b 3b
       0.0028771344 0.0028410812 -0.0028356158 0.0028635783
0000f0 f4 91 3c 3b 43 84 3b bb 6a 93 3b 3b b1 15 3a bb
       0.0028773518 -0.002861277 0.0028621801 -0.0028394277
000100 90 e6 39 3b 12 1e 3c 3b 62 8b 3b 3b 89 af 39 3b
       0.0028366186 0.0028704447 0.0028617014 0.0028333387
000110 2f 51 34 bb 3d d9 12 3b d7 3a 3a 3b c7 67 39 3b
       -0.002751421 0.0022407316 0.002841642 0.0028290616
000120 21 72 3a bb 74 d9 3b 3b 82 4c 3c bb e8 b0 3b 3b
       -0.0028449374 0.0028663548 -0.0028732126 0.002863938
000130 9e ef 39 3b f1 20 3a 3b cd 6a 3a 3b cb 34 3a bb
       0.0028371583 0.0028400982 0.0028445006 -0.0028412815
000140 72 86 3b bb e5 d3 3b 3b 38 69 3a 3b 23 76 3a 3b
       -0.0028614071 0.0028660235 0.0028444063 0.0028451763
000150 ec 94 4f 3b 57 4e 3c bb ee 8e 3f bb 80 3a 3a bb
       0.0031674458 -0.0028733218 -0.002922948 -0.0028416216
000160 7c 6a 40 bb 24 06 3c 3b 78 78 3a 3b 9c fc 3c bb
       -0.0029360345 0.0028690184 0.0028453153 -0.002883709
000170 78 70 3a bb d8 f0 39 3b 07 21 3a 3b c7 f3 3d 3b
       -0.0028448384 0.0028372314 0.0028401033 0.0028984414
000180 92 a3 3b 3b a8 8b 3b bb ae 4b 05 bb e0 bb 3b bb
       0.002863143 -0.0028617177 -0.0020339298 -0.0028645918
000190 41 94 3b 3b 80 5d 3a bb b9 4d 3c bb 62 3a 3a 3b
       0.0028622302 -0.0028437078 -0.002873285 0.0028416147
0001a0 e9 53 46 bb 4c cc 05 3b 42 ac 3b 3b 7b 1a 3b 3b
       -0.0030262417 0.002041596 0.002863661 0.002854972
0001b0 06 9d 37 bb ae b0 3b bb 4e 6d 3c bb 09 df 44 bb
       -0.0028017177 -0.0028639245 -0.0028751674 -0.0030040166
0001c0 5e 8c 3a bb df 92 3c bb a2 1a 3c 3b 83 a8 47 bb
       -0.0028465013 -0.0028774065 0.0028702398 -0.003046543
0001d0 b8 9b 39 bb e4 21 3d bb 63 17 3c bb 53 71 36 3b
       -0.0028321575 -0.0028859312 -0.0028700463 0.0027838543
0001e0 29 95 2d bb e1 30 3e bb f8 e8 3a 3b 11 59 3a bb
       -0.0026486611 -0.0029020833 0.0028520208 -0.0028434435
0001f0 8f eb 3b bb 72 5f 3a bb 31 9e 3b 3b 33 51 3a bb
       -0.002867434 -0.0028438237 0.0028628225 -0.0028429746

predict.weight f4 [1, 128]
000000 f1 66 93 bd 3b 60 f1 3c 01 ec 02 bd 4b 2c b8 bc
       -0.07197369 0.029464832 -0.031963352 -0.022482058
000010 e9 4b 30 bd 6a 2d b6 bd 7a 86 26 bd 5f 18 ba bc
       -0.043041144 -0.08895381 -0.04065559 -0.0227167
000020 78 bb 57 3d 1f 69 bf bc fa 84 ea 3c 1e 4f a2 3d
       0.05266902 -0.023365555 0.028627861 0.07925247
000030 03 c3 08 bb 7c dd 4d bd 61 a4 87 bd 3a 3a 94 3d
       -0.002086819 -0.050260052 -0.0662315 0.07237668
000040 f9 02 84 3d e6 74 43 bd b6 83 93 3d cc 52 37 bd
       0.064458795 -0.047718905 0.07202856 -0.044756696
000050 e2 c0 9b 3d fd 26 3c 3d 1f b1 82 bd b2 6f 20 b9
       0.07605149 0.04593562 -0.063814394 -0.00015300399
000060 4d a0 b5 bd 4e 05 b7 bd 1c 12 06 3d c1 04 29 bd
       -0.088684656 -0.08936559 0.032732114 -0.0412643
000070 a1 2f 83 bd cf 14 dc bb 89 5d b0 bc dc 12 b7 bd
       -0.06405569 -0.0067163478 -0.021528976 -0.08939144
000080 01 6e 8d bc 08 79 94 bd de e6 53 3c 93 4a a6 bd
       -0.017264368 -0.072496474 0.012933461 -0.08119693
000090 73 5a 8a 3d 27 01 73 3d 63 13 20 bd fb 33 83 bd
       0.06755533 0.05932727 -0.03908099 -0.06406399
0000a0 5e 10 f9 3b a6 45 8c 3c 74 1d 6c 3d bb af 20 bc
       0.007600828 0.017123055 0.057645276 -0.009807522
0000b0 bd a7 2a bd 77 f4 52 bd 70 ab 4c 3d d8 d2 93 bd
       -0.041663874 -0.05150267 0.049968183 -0.0721795
0000c0 97 cc a2 bd 72 94 57 3d 44 8a a4 3d ac e7 ac 3d
       -0.07949179 0.052631803 0.080341846 0.084426254
0000d0 65 b5 85 3d 63 7e 27 bd 61 e1 a6 bd cc 3e 95 bd
       0.06528739 -0.040892016 -0.08148456 -0.07287368
0000e0 1a bf f4 3c 6e 48 0a 3d 32 8b 17 bd 84 d5 8d 3d
       0.02987628 0.03376048 -0.03699798 0.069254905
0000f0 19 ab 01 3d de 44 b7 bd b7 22 a2 3d 91 56 40 bd
       0.031657312 -0.08948682 0.079167776 -0.046957556
000100 29 e8 08 3d 46 5b 2d 3d 88 f7 aa 3d 65 16 e4 3c
       0.03342453 0.042323373 0.08347994 0.02784271
000110 d4 a6 af bb 89 91 90 b9 89 53 4a 3d 0b 50 b4 3c
       -0.0053604636 -0.00027574252 0.04939607 0.022010824
000120 9d 6a 99 bd 6a 1f 03 3d f3 80 1a bd cf 07 8e 3d
       -0.07491038 0.03201238 -0.03772063 0.06935083
000130 55 a9 23 3d b6 57 4e 3d fe 51 6a 3d 92 7a 67 bd
       0.03995641 0.050376616 0.0572071 -0.056513377
000140 d6 88 b2 bd d3 34 6a 3d b9 0b 97 3d e8 c8 94 3d
       -0.08717506 0.057179283 0.07375283 0.07264882
000150 88 88 4b 3b ce 81 11 bd 92 0f 4a bc 6c 9a 6a bd
       0.003105672 -0.035524182 -0.012332814 -0.057276174
000160 4d 37 1d bc c8 8f 95 3c ff 39 a7 3d 25 9e d3 bc
       -0.009595704 0.018257037 0.08165359 -0.025832245
000170 22 52 a3 bd 77 78 a1 3c d0 56 32 3d b8 ee 8d 3c
       -0.0797465 0.019710762 0.043539822 0.017325744
000180 0f c8 97 3d ab ba ae bd 16 c1 d1 ba 10 b8 81 bd
       0.07411205 -0.08531698 -0.0016002979 -0.06333935
000190 be 48 a7 3d 0e 43 85 bd 70 38 0e bd 3f 3f 44 3d
       0.08168171 -0.0650693 -0.03472179 0.04791188
0001a0 7b 3e a3 bb fd f4 2a ba 8f 27 99 3d 11 34 a3 3c
       -0.0049818135 -0.00065214915 0.07478248 0.019922288
0001b0 a8 39 43 bc 85 45 83 bd 1e 33 0c bd 97 e9 be bb
       -0.011915602 -0.06409744 -0.034228437 -0.005826186
0001c0 1f c7 ab bd f0 8b f8 bc ac d4 32 3d 7f 80 a5 bb
       -0.08387589 -0.030340165 0.04365985 -0.0050507183
0001d0 0c 9b f6 bc f0 d0 bd bc 03 94 2d bd 31 4d 03 3c
       -0.030103229 -0.023170918 -0.042377483 0.008014009
0001e0 e6 b5 0d bb d2 f8 80 bc 1c 89 b3 3d 6f 9a 85 bd
       -0.0021623312 -0.015743647 0.08766386 -0.065235965
0001f0 b6 77 52 bd 38 78 84 bd 8f 63 a3 3d ab c1 74 bd
       -0.051383696 -0.064682424 0.07977974 -0.05975501
