PERGAT_embbedding/data/emb/models/model_dim256_lay2_epo105.pth (torch, 532940 bytes, 7 tensors)

linear.weight f4 [256, 1]
00000000: 1c1d 43bf 4465 99be 0e77 78bf b23c 353f
00000010: c810 b1be 546a f23e 7056 a73d 08d5 61be
00000020: aec0 043f 3ec3 0bbf 0841 3c3e 0cd5 06bf
00000030: a236 1d3f dc42 6e3f 3855 05be 00aa d1be
00000040: ae33 3fbf 003d c53b 7c4c 1dbf 4078 ae3c
00000050: a08a bf3e fc4b 8bbe 5caf ef3e 809b 06bf
00000060: 785a fbbe 9030 38be bc00 fdbe 68a3 33be
00000070: b093 efbd f0d6 ecbe f01c ecbd e0cf 4bbd
00000080: 583f dabe 0000 c73c c670 4e3f 8819 58be
00000090: c0d4 473e 8cdb 2b3f b0fa a8bd 80c6 e33d
000000a0: a458 2cbf 948d 12bf 94b0 8c3e e4b1 11bf
000000b0: e85c 023e 4071 dfbd 40f8 863c 4c0f 553f
000000c0: 3002 32be f2c8 1abf f20f 753f 4032 b03d
000000d0: c236 57bf 443f 383f e8bd 023e c4b4 d1be
000000e0: ae9d 4bbf 0c2c 913e a0e8 efbe e048 a63d
000000f0: 4083 c1bd bce4 30bf 2cb7 4e3f d46d 433f
00000100: d84d d83e 1c80 c83e bce6 143f 28af 113e
00000110: 1c0b f0be 403d c03d 6656 57bf 18db 5dbe
00000120: b2da 263f 80fc 083e d690 37bf b23e 39bf
00000130: ecae 04bf de86 4a3f ccd3 b1be 7e82 64bf
00000140: 2acb 3f3f 7005 bebd 84d6 a43e 005f e13d
00000150: 9c74 d03e 900a 303f 586a c9be c4bd 653f
00000160: 7412 e83e aea3 50bf b04a 26bf a437 933e
00000170: 38a0 7b3e 484a 13bf 9cda 64bf 0088 9b3b
00000180: 06e2 5bbf 6414 81be 8c8c 783f 0c8d 193f
00000190: c05f 3c3f d4dc 96be 6aa4 213f a0ba 063e
000001a0: 402e 043f 0834 74be e05a 363f 04b2 75bf
000001b0: 7827 5b3e 30ab 67be e0da e13d 301b 693f
000001c0: 5ee5 5a3f f0cb 18bf 527b 4d3f ca40 17bf
000001d0: 805c 6f3e 7cc1 003f a825 20bf 4060 893c
000001e0: 7cfb 6b3f f019 803e 2aaf 3e3f 8047 6f3d
000001f0: de13 7f3f 8c04 2ebf a0df 78bd a0ac 1fbf
00000200: fcc0 db3e b8b2 543e 2423 ec3e a8a5 743f
00000210: 1c79 733f 2822 42be 0073 7dbe 285e 49bf
00000220: 0068 953b 6c1e 623f 2809 1dbf 04c5 d83e
00000230: 1e39 463f 9858 24bf c80a 53bf 2897 cfbe
00000240: 6a9e 43bf 7841 743e f0a5 11bf b092 c7bd
00000250: 4220 57bf 1c7b c43e 64fb b8be 08df d53e
00000260: 9a62 193f de0f 053f 2845 49bf d00b 92be
00000270: fcba b03e 88ed 6c3f d83d 6bbf bc2a 473f
00000280: 10d3 b33d a07d 233d e6a2 7cbf 56ed 483f
00000290: d086 30be 589f 2cbf c023 00be 6e6c 1bbf
000002a0: c41f 1a3f a0c1 453d 40bd 2c3f 8c77 a73e
000002b0: 0a24 3d3f 2693 04bf 5076 12be 28d1 413e
000002c0: a8a3 203f a072 133e c0ac 0dbf c0cb 88be
000002d0: aa5c 28bf 58a0 1e3e b657 643f aaa0 4cbf
000002e0: 7ab6 3cbf 36f9 043f 9c7a 1f3f 628a 4abf
000002f0: 42e4 6dbf f01f 27bf 00d7 e73c 1426 493f
00000300: c866 35bf ca55 54bf 0e22 2f3f b85d 5e3e
00000310: 00b7 4cbe bccf f7be b0df 63bf 84b3 6b3f
00000320: 605e 7cbe 20c9 05bd f034 3abe 3466 efbe
00000330: a4af ab3e 9ee5 503f 2eac 133f c067 c7bc
00000340: 8074 19bf c811 76bf f0d6 39be 4060 783d
00000350: 5473 0f3f 5440 86be ac70 dc3e 84f5 94be
00000360: 601a 24bd dcbd 9a3e 6ab3 10bf dc40 533f
00000370: 5424 623f 68a1 1f3f 3cd4 f1be 78ea 29bf
00000380: 14a5 be3e e0a2 00bf f0fb 923d a082 2f3d
00000390: 7cea bebe 20b6 46bf 18dd 42bf 70b0 58bf
000003a0: 2884 183f 045b d53e c0b8 d73e b03c bcbe
000003b0: 6066 babe 56c7 753f a439 53bf 705e 413f
000003c0: e0a1 74be 46b1 443f 46e0 39bf 7e94 653f
000003d0: 104d e7bd a0ef 0a3f f8b2 2c3f c419 363f
000003e0: 7052 4b3e 2016 6bbd 60a2 3d3e c4d3 403f
000003f0: 60cc 3dbf 4019 87bc b0ff 6d3e 688f babe
-0.7621629 -0.29960072 -0.97056663 0.7079574 -0.34583116 0.47346747 0.081707835 -0.22053921
0.51856506 -0.5459479 0.18384182 -0.52668834 0.6141149 0.9307077 -0.1302079 -0.40950012
-0.7468823 0.0060192347 -0.6144483 0.021297574 0.3741045 -0.2720641 0.46813476 -0.52581024
-0.4909246 -0.17987275 -0.49414623 -0.17542803 -0.11698091 -0.46257734 -0.11528957 -0.049758792
-0.42626452 0.024291992 0.8064083 -0.2110349 0.19514751 0.67131877 -0.0825094 0.11121845
-0.67322755 -0.5724728 0.27478468 -0.56912065 0.12730753 -0.109102726 0.016475797 0.83226466
-0.17383647 -0.6046287 0.95727456 0.086033344 -0.8406793 0.71971536 0.12767756 -0.40958226
-0.79537475 0.28353918 -0.46857166 0.081193686 -0.09448862 -0.6909902 0.8074825 0.7633946
0.4224689 0.3916024 0.5816457 0.14226973 -0.46883476 0.093866825 -0.8411621 -0.21665609
0.6517745 0.13377571 -0.7170538 -0.7236129 -0.5182941 0.7911204 -0.347319 -0.89261615
0.7491938 -0.09278381 0.32194912 0.11004448 0.40713966 0.6876612 -0.39338946 0.89742684
0.4532658 -0.81499755 -0.64957714 0.28753388 0.24572837 -0.5753522 -0.8939607 0.004746437
-0.8589176 -0.2521087 0.9708946 0.59980845 0.735836 -0.29465353 0.631415 0.1315713
0.5163307 -0.23847973 0.71232414 -0.95974755 0.21401775 -0.22623897 0.11028075 0.9105711
0.85506237 -0.59686184 0.80266297 -0.59083235 0.2337513 0.50295234 -0.6255746 0.016769528
0.9218061 0.2501979 0.7448603 0.058417797 0.9963969 -0.6797569 -0.06076014 -0.6237278
0.42920673 0.20771301 0.4612056 0.9556527 0.95106673 -0.18958342 -0.247509 -0.78659296
0.004559517 0.8832767 -0.61342096 0.4233781 0.77430904 -0.64197683 -0.82438326 -0.4054501
-0.76413596 0.238531 -0.56893826 -0.09744775 -0.84033597 0.38375175 -0.36129296 0.41771722
0.5991608 0.51977336 -0.7862115 -0.28524637 0.34517658 0.92549944 -0.9189124 0.7779958
0.08780491 0.039914727 -0.98686063 0.78487146 -0.17238927 -0.6743064 -0.12513638 -0.60712326
0.6020472 0.04828036 0.6747627 0.32708395 0.73883116 -0.5178703 -0.14302945 0.18927443
0.6274972 0.14399195 -0.5534172 -0.2671795 -0.65766394 0.15490854 0.89196336 -0.79932654
-0.7371594 0.51942766 0.6229646 -0.79117405 -0.9292642 -0.6528311 0.028300762 0.7857373
-0.70859957 -0.82943404 0.6841134 0.21715438 -0.19991684 -0.48400676 -0.89013195 0.92070794
-0.24645376 -0.03266251 -0.18184257 -0.46757662 0.3353244 0.8160037 0.576846 -0.024341464
-0.5994339 -0.9612088 -0.18148398 0.060638666 0.5603535 -0.26220953 0.43054712 -0.29093564
-0.040064216 0.30222976 -0.56523764 0.8252084 0.8833668 0.6235566 -0.47232234 -0.66373396
0.3723532 -0.5024853 0.071769595 0.042849183 -0.37288272 -0.7762165 -0.7611861 -0.8464422
0.59576654 0.41671002 0.4213314 -0.3676505 -0.3640623 0.9600729 -0.8250983 0.75534725
-0.23889875 0.76833 -0.7260784 0.89679706 -0.112939954 0.5427189 0.67460585 0.71133065
0.19855666 -0.057394147 0.18518972 0.7532313 -0.74139977 -0.016491532 0.23242068 -0.36437535

linear.bias f4 [256]
00000000: f14f 803f c80a f3be 7264 0c3e 42bf 393f
00000010: 983a 3dbf 979f a83e f2c6 00be 859b e33d
00000020: 1f59 55bf 317b 63bf 5657 013f 087d 01be
00000030: c2ae 05bf d928 213f 7da2 de3d 3db5 06bf
00000040: 4267 5a3f ab28 4e3f 269e 10bf 0476 413f
00000050: d2f0 263f 0c5a 8bbe b285 3bbe c385 06bf
00000060: 4824 783d b2e3 4a3e 6c1f 1a3f 1092 cfbe
00000070: 6997 79bf 5d4c 7a3e 63af e53d 1b26 663d
00000080: e419 14bf 430a 7bbf 0d13 123e e950 653f
00000090: 04c9 b03e 075a 673f f328 8dbe a9fc 19bf
000000a0: 5135 39bf 6865 7abf 1221 6c3f 2d69 893d
000000b0: 20e5 35be a40b 54be 713e 003d 302f 413f
000000c0: 5256 353f d32b 41bf cda9 6ebe e3cd 893e
000000d0: 6387 54bf 179b 233f e078 e43e 56c9 493f
000000e0: e7a4 6bbf f856 1cbf 5214 e93d 83da e53e
000000f0: 4bc5 a0be e711 57bf e2cb 4a3f 0fed d03e
00000100: 0d3e d23e 9636 3a3f 507a 653f f19c 5f3f
00000110: edb0 5abf e21e f8be bc98 3bbf 2276 2dbf
00000120: 8335 763f 3e74 fb3e fc91 6fbf f641 c3bd
00000130: 5474 3cbf dbbc 2d3f c1f5 9e3d 0a4a 493f
00000140: 71d7 2bbf 5275 31bf 75c8 1ebf 9572 65bf
00000150: e6cb 1dbf 12d9 0a3f 620d 2ebf a020 5a3f
00000160: 51ba 4bbe b012 51bf 7149 94bd 4e6d 10bf
00000170: 4732 053f 82fa 143f b6a0 d4be 81bd ff3e
00000180: d1ac 04bf d46f a63d 17c4 de3e fc5b d2bd
00000190: 0fb3 94be 8a02 03be 0a48 0c3f 7fc3 6e3f
000001a0: 2d52 cf3e f169 6d3f 4a76 8bbc d116 ff3e
000001b0: 8fa6 c13e 6af1 5f3f b150 303f 6ff6 64bf
000001c0: 78cc 473f b8e5 efbd 36b5 f03d 831d 21bf
000001d0: 6b1f 54bf 21ee 503f 13e3 3ebf 28e5 52bf
000001e0: 1833 ee3e 697a 91be a7c3 1dbf 95ec 2e3f
000001f0: d25a 3ebe 4bd9 493f c239 6fbe 51fc 0b3f
00000200: 1077 883e 1df7 2a3f d6fd 5fbf c4b6 61bd
00000210: c6d0 573f 972e 70bf 381c d2be 593e 0f3f
00000220: 044e a6be fece 6bbe a076 5abf 503e 74bf
00000230: 1088 803f 3a02 2d3e c7d8 bfbe e74e f7bd
00000240: b31b 863d 9789 763f 88b0 5f3e 1257 6d3f
00000250: 27f9 8a3e 2ec3 843e 595b 693f 294d 5ebf
00000260: 0044 efbe ee8c f8be 4dc2 6e3f 4f0a 8d3e
00000270: d760 81be 1fe8 953c 1703 75bf 7bf9 40bf
00000280: 5a87 59bf 88cb 24bf 8e8d 0bbf eaf0 603f
00000290: 0343 15bf f1a2 2fbf 4754 11be 9b1a 373f
000002a0: 15b1 493e f478 433c dd1a d6be 3d5d 0f3f
000002b0: 3508 743f 9497 213e b540 453f 1a7c d93e
000002c0: b89a 053e f9f7 72bf b3df a0bc 708d 573e
000002d0: 6988 5fbf 0eea 2b3e 2f9b 90be 342e e8be
000002e0: cd44 c4be 5715 7a3f f8ae 6abf 8789 383f
000002f0: 48e5 693f 36a3 74bf 2de5 1dbf fa2f 89bd
00000300: 2c5e 4d3f 9529 1f3d e20b c33e c250 01bf
00000310: dd89 02bf 9da0 39bf aa74 e8be fe4d 28bd
00000320: 6289 1a3f 8f58 b7bd 5804 5f3f a3d6 2dbf
00000330: 3fc1 e2be 1bf6 413f f224 56bf bac7 223f
00000340: 6d91 7e3f c8cf a4bd b741 26bf e9fb 573f
00000350: f001 ed3e 7d4a 283f d08a 85be 1958 3abe
00000360: f414 0fbf 0b99 783f a674 453f 1bf0 393f
00000370: ef80 63be 8d21 0a3f 77e8 bebd 52dc 793d
00000380: 0032 c2be 2104 77bf ea85 ddbe cc16 5ebf
00000390: e369 b33d 1a21 22bf 4edb 6c3f 44d8 2c3f
000003a0: cf60 53bf 9292 543f a6ef dc3e cefe cf3d
000003b0: a318 a9be fe6b 51bf b245 3a3f d1d9 1abf
000003c0: 5c6c f43e 67e2 2e3f 40bf 48bd 2e7d 4ebe
000003d0: fff6 2cbc 20a6 2d3d 3519 463f bc21 753e
000003e0: d49d 753e 303e 143f 9769 5e3e 3df9 9d3e
000003f0: 7a94 3dbd bfbf 70be 297f 803f 65d2 aabd
1.0024396 -0.47469163 0.13710192 0.7255746 -0.7391753 0.32934257 -0.12575892 0.11113647
-0.83339113 -0.8885985 0.5052389 -0.12645352 -0.52219784 0.62952954 0.10870836 -0.526203
0.8531381 0.80530804 -0.56491315 0.755707 0.6521121 -0.27217138 -0.1831272 -0.52547854
0.060581475 0.19813421 0.60204196 -0.40541124 -0.9749666 0.24443193 0.11215093 0.056188684
-0.57852006 -0.98062533 0.1426508 0.89576584 0.34528363 0.90371746 -0.27570304 -0.60151154
-0.7234698 -0.97810984 0.9223796 0.06709514 -0.17763186 -0.20707566 0.03130955 0.7546263
0.7083484 -0.75457495 -0.23306961 0.26914892 -0.83019084 0.63908523 0.4462347 0.7882284
-0.92048496 -0.61070204 0.11380829 0.44893274 -0.31400523 -0.8401169 0.7921735 0.4080586
0.41062966 0.7273954 0.8963976 0.8734885 -0.8542622 -0.48461062 -0.7327993 -0.6775838
0.961754 0.49112123 -0.9358213 -0.095340654 -0.73615 0.67866296 0.077617176 0.786286
-0.6712561 -0.6931964 -0.62024623 -0.89627963 -0.6163925 0.54237473 -0.6798917 0.8520603
-0.19895293 -0.8166914 -0.0724057 -0.56416786 0.5202984 0.58194745 -0.41528863 0.49949268
-0.51826197 0.08126798 0.4350898 -0.10271451 -0.2904286 -0.12793937 0.5479742 0.93267053
0.40492383 0.9273978 -0.017024178 0.49822095 0.37822387 0.87477744 0.68873125 -0.8943853
0.7804637 -0.11713737 0.11753313 -0.62935656 -0.8286044 0.81613356 -0.7456524 -0.82380915
0.46523356 -0.28413704 -0.61626667 0.68329746 -0.18589333 0.7884719 -0.23361877 0.5468188
0.26653337 0.66783315 -0.874967 -0.05510594 0.8430294 -0.9382109 -0.41037154 0.5595451
-0.32481396 -0.2302818 -0.8533726 -0.9540758 1.0041523 0.1689538 -0.37470075 -0.12075596
0.06548252 0.96303695 0.21844685 0.92710984 0.27143213 0.2593016 0.9115501 -0.8683649
-0.46731567 -0.4854502 0.9326523 0.27546927 -0.25269195 0.01829916 -0.9570784 -0.75380677
-0.84972155 -0.64373064 -0.5451287 0.87867606 -0.58305377 -0.68608004 -0.14192306 0.7152497
0.19696458 0.011930693 -0.4181737 0.56001645 0.9532502 0.15780479 0.7705186 0.42477494
0.13047302 -0.94909626 -0.019637918 0.21050048 -0.8731752 0.16788504 -0.28243396 -0.4534775
-0.3833374 0.9768881 -0.9167323 0.7208485 0.9136548 -0.9556154 -0.6167782 -0.06698604
0.8022182 0.038858015 0.38095003 -0.5051385 -0.5099161 -0.725107 -0.45401508 -0.041090004
0.6036588 -0.08952438 0.87116003 -0.67905635 -0.4428806 0.7576615 -0.83650124 0.6358601
0.9944065 -0.08047444 -0.6494402 0.8436876 0.4629054 0.6573866 -0.26082468 -0.18197669
-0.55891347 0.97108525 0.77131116 0.72631997 -0.22217153 0.53957444 -0.09321683 0.06100113
-0.37928772 -0.96490675 -0.4326623 -0.86753535 0.08760431 -0.6333176 0.9252213 0.67517495
-0.82569593 0.8303615 0.43151587 0.10156022 -0.3302661 -0.8180541 0.72762597 -0.6048861
0.47738922 0.6831421 -0.049010515 -0.2016494 -0.010556935 0.042394757 0.7738221 0.2393865
0.23985988 0.5790739 0.21719967 0.30854216 -0.046284176 -0.23510645 1.0038806 -0.08340911

conv_0.weight f4 [256, 256]
00000000: ad23 dabd 4be4 983d 659b aa3d 8f01 e13d
00000010: 51c6 e63d baa8 7b3d 1a69 b5bd 3a79 453d
00000020: bf6a d6bd 7b38 cb3d b959 6abd 5a46 30bc
00000030: 774e bfbd 7efb 82ba fc00 cabc 71ff da3d
00000040: 5855 7ebd 9026 cf3d bf16 bdbd b728 e7bc
00000050: f022 09bd 8a7a 4f3d 2de4 903d 7325 723d
00000060: 2dc4 f5bc 62f4 e33d 73c9 c83d 8df9 0bbc
00000070: e2b5 233c eff6 62bd 8a6b 4dbd 7dd8 8e3d
00000080: 1374 273d 11e2 5f3d d312 7f3d 438e d33b
00000090: a020 703d f6ca a3bd 421a a8bd ce10 79bd
000000a0: d81c 88bd 0e5c e6bd 875d db3d 0a81 963b
000000b0: e430 b7bd 4768 abba b25b d6bd 4310 50bc
000000c0: 41be b0bd 0eed bbbd 4403 48bd 0a9d 58bd
000000d0: 6dca 9ebd df97 8d3d 5230 7abc 3595 ef3d
000000e0: 82f0 6e3d c53b 373c eb62 4dbd 57d9 123c
000000f0: f29c 133c 610d c13d 5cbb 65bd 3829 3f3c
00000100: ed54 7abd 03a9 d1bd 9039 5dbd 4627 293d
00000110: d20d a63d 73c0 dc3b 9ed9 5a3d 89f7 c93d
00000120: cab5 cb3d 6be2 863d b3cf 8fbd 4d48 693c
00000130: 8786 113d 4ace b3bd 1f85 be3c 620a 05bd
00000140: 1196 63bc eca3 debd 076f d7bc b0bb 90bd
00000150: 0f26 a13d f62c bf3d 4119 da3d dad4 c43d
00000160: 6267 cabd e554 e83d 7144 abbd 677d 9a3c
00000170: 336d b13b 44d3 853d fb44 d43d e9fb 083d
00000180: f1cd 60bd 7eb8 b2bc ac36 cf3d 1b77 b93d
00000190: 2912 a33d 72dc 34bd 3b17 a0bd a4df b23d
000001a0: ba43 ca3d 38f6 afbd 06ab 0c3d 48f4 8f3d
000001b0: 64d0 58bd b3b8 ea3d 88b4 b7bd 10f8 b5bc
000001c0: d717 d6bd beae 3cbd 67da 54bd ebc7 b9bc
000001d0: d2b8 a33d fa7e 12bc 15c3 013d 6ad9 93bd
000001e0: 19c4 9d3d d0e3 7a3c 6ee1 a2bd e012 bc3d
000001f0: 6e4b 2ebd 0633 983c 6197 b63d 557f cd3d
00000200: 44a6 843d 656b c83d f00c 8c3d 09a0 a7bd
00000210: 22b7 0fbd 6360 c6bb e62f 2a3d aa7e 2fbd
00000220: 83cf c8bd 5cd9 fcbc d9b7 73bc d0b0 9f3c
00000230: 023f 183d e7b4 65bd 882b abbd d626 963d
00000240: a59b 82bc b21f 913d 7aed c73d 932c d2bd
00000250: 242e 453d 13d6 f4bc 0d47 443c 6abe 92bd
00000260: 029a 9abc e9e5 41bd 1977 94bd ede2 123c
00000270: 9277 29bd 224c d8bc 32a2 5f3c 0721 82bc
00000280: c0a2 8c3d ab59 173d 14f0 b53d ac92 dabd
00000290: 873e 40bc f280 a3bb dbf5 ffbc 0803 983d
000002a0: 023d 273c bf89 893d 434a 0c3d 1f6f 2dbd
000002b0: 596b 033d c496 96bb ac21 0a3b 83bf bd3d
000002c0: 2dc9 793d 9535 e73d 031d 9e3c b4ec 543b
000002d0: 0195 f3bc bf6b 063d f1e5 903d 243c 33bd
000002e0: 4a06 2c3d 91f8 c33d cdf6 7ebd 8917 043d
000002f0: 5271 3cbd b15f f8b8 8656 cabd b661 d73d
00000300: e598 c63d 067a 04bd 7697 e43b 781e ca3d
00000310: 6d16 fd3c 2f9d 5abd f348 b0bd b8cc 243c
00000320: 9290 70bd 44a6 7cbd 938b b53b 571f a53d
00000330: 890c aa3d 909a 343d 5b2f 30bd 5a17 5b3d
00000340: af3a 733d c77d 8dbd 8ddd b53d 2763 c63c
00000350: beb4 1fbd 77e5 2c3d 8ac5 5f3d d48c 2c3d
00000360: 92c6 aebc 60f3 12bd 9a69 d7bc 1a10 c43d
00000370: 06a1 1c3d 80e7 bd3d 1b9a a93d b089 bc3c
00000380: 5071 cabc 7a7b 78bd b29a 003c bd60 7ebd
00000390: 75c2 2bbd a7c0 d13b 69b2 1d3d adcb 40bd
000003a0: 5cbc 253d c1e9 643d 0e33 fabc 8aaf b83d
000003b0: 98a8 a03d 853e c3bd 556a a7b9 f8d7 1e3d
000003c0: e41d 903c e0f9 933d 3cb9 d2bb cf58 883d
000003d0: 75a9 1c3c 41e1 7d3c a08a a1bd 5697 cdbd
000003e0: ff90 06bd 295d 753d d01b 1cbc e358 dcbc
000003f0: 2da9 603c 7239 b23d d033 49bd e784 9dbd
-0.10651336 0.074654184 0.083304204 0.109866254 0.112682946 0.061440207 -0.08857937 0.048211314
-0.10469579 0.09922882 -0.057214472 -0.010758961 -0.09341138 -0.0009993163 -0.024658673 0.10693253
-0.06209311 0.10114777 -0.09232854 -0.028217657 -0.033480585 0.05065397 0.07074771 0.059117746
-0.03000077 0.11130597 0.098040484 -0.008543384 0.009992095 -0.055411275 -0.050151385 0.069748856
0.04088218 0.054658953 0.06227381 0.006456168 0.058624864 -0.07997696 -0.08208133 -0.06080704
-0.066461265 -0.11248027 0.10711198 0.0045930194 -0.08944872 -0.0013077342 -0.10466708 -0.01269919
-0.08630038 -0.09176074 -0.04883124 -0.05288414 -0.077534534 0.06913733 -0.0152703095 0.11698381
0.058334835 0.011183684 -0.050143164 0.008962951 0.009009587 0.0942638 -0.056086883 0.011667542
-0.061116148 -0.102373146 -0.054009974 0.04129722 0.08108105 0.006736809 0.053430192 0.09861667
0.09946783 0.065861546 -0.07022037 0.014238429 0.035528686 -0.08779581 0.023256836 -0.032480605
-0.013890759 -0.10871109 -0.02629806 -0.070670485 0.07868587 0.093347475 0.10649348 0.09610911
-0.09883 0.11344317 -0.083626635 0.018858625 0.005414629 0.06534436 0.103647195 0.033443365
-0.0548839 -0.021816488 0.1011785 0.09055921 0.07962448 -0.044155546 -0.07816931 0.08734062
0.09876199 -0.085918844 0.03434279 0.07029015 -0.05293311 0.1146101 -0.089699805 -0.022213012
-0.10453766 -0.046065085 -0.051966097 -0.022678336 0.07994236 -0.008941406 0.031680185 -0.07219203
0.07703418 0.015313104 -0.079531536 0.091832876 -0.042552404 0.018579017 0.08915592 0.10034052
0.06477025 0.09786109 0.06838405 -0.08184821 -0.03508676 -0.0060539707 0.041549586 -0.042845406
-0.09805205 -0.030865364 -0.014875376 0.01949349 0.037169464 -0.056080725 -0.08357912 0.07331626
-0.015943358 0.070861235 0.09762092 -0.10262408 0.048139706 -0.029887235 0.01197983 -0.07165225
-0.018872265 -0.0473384 -0.072492786 0.008965236 -0.041373797 -0.02640349 0.01364951 -0.01588489
0.068669796 0.03695075 0.08883682 -0.10672507 -0.011733658 -0.0049897367 -0.031245163 0.07422453
0.0102074165 0.06715726 0.03425051 -0.0423423 0.032084797 -0.0045956094 0.00210772 0.092650436
0.06098287 0.11289517 0.019300943 0.003248972 -0.029734137 0.0328176 0.07075108 -0.043758526
0.041998185 0.09568895 -0.062247086 0.032249007 -0.04600651 -0.000118433854 -0.09879784 0.10516684
0.09697131 -0.032342933 0.0069760634 0.09869093 0.030894483 -0.05337256 -0.08607664 0.010058574
-0.058731623 -0.061682 0.00554032 0.08062618 0.08303172 0.044092715 -0.04301391 0.053489067
0.059382137 -0.06908756 0.08880148 0.024217201 -0.03899073 0.042211022 0.054631747 0.04212649
-0.02133492 -0.03587663 -0.026295472 0.09573384 0.0382395 0.09272671 0.082813464 0.023014873
-0.024712235 -0.06066463 0.007849382 -0.062103976 -0.041933496 0.00640114 0.038500223 -0.04706924
0.040462837 0.055886988 -0.030541923 0.090178564 0.07844657 -0.09533409 -0.00031931946 0.038780183
0.017592378 0.07225394 -0.006430773 0.06657564 0.009561886 0.015495599 -0.07887769 -0.10038631
-0.032853123 0.059903298 -0.009528115 -0.026897853 0.01371221 0.08702363 -0.049121678 -0.07691365

conv_0.bias f4 [256]
00000000: e918 1bbc e653 1a3c 4f90 e33b 651a 903b
00000010: 282d 063c 71bc 8d3b 9320 28bc 368c e83b
00000020: e5bf 06bc 2de1 d73a 678b 0a3c d286 03bb
00000030: cb1c 963b 9498 d73b 3775 edbb 3dc1 8b3b
00000040: 122d 143b 8021 e23b d1dd b5bb de3f e63b
00000050: 58ef 223a 5997 0bbc ee88 27bc e856 253c
00000060: 6b58 d23b 9fac 0c3c afd3 2e3c bd18 193c
00000070: d5f3 ae3a 1c36 0a39 86c5 803b 1b97 fe3b
00000080: 2419 0f3c b7f3 4bbb 3985 033c a463 79b8
00000090: dd78 16bc 7f8e e63b 2872 163c 5339 d0bb
000000a0: ce94 8d3b 0995 23bc 51c3 e83b 6769 983b
000000b0: efe4 083c 8b9c f03b 1817 ecbb 7c2e 443c
000000c0: e964 d93b dc0e e93b fa0d 383c b6fc 2e3b
000000d0: cc68 53bb 417a 1c3c 38fa 173c 5063 263c
000000e0: 87c6 3b3c 47d8 383c c4b5 06bc 5d6c fbbb
000000f0: d714 10bc d7e3 093c a06e 7bbb fd89 ee3b
00000100: e478 29bb 6377 cfbb 146f 90ba cc57 ecbb
00000110: 4df9 e83b ec04 903b a886 7fbb e2c4 d03a
00000120: 972b e03b 1225 01bb 7de3 f03b a04c 843b
00000130: 4b23 1abc e5f9 0c3c 207d ebbb e63e 293c
00000140: 6d71 5eba ba6d 05bc 75dd 293c 903c d53b
00000150: 3fe4 85bb 35e0 0e3c b378 373c a118 dd3b
00000160: a916 2e3a 7774 f33b 8d3a 27bb 59b2 8dbb
00000170: 969a e5bb bd5d 14bc ba45 d139 b7fc 773b
00000180: 1ff0 1d3c d451 0fba ff7d 7fbb 4559 b13a
00000190: 9e23 263c a86c 123c ce61 ffbb 6965 003c
000001a0: 0b19 a6b9 c853 c73b dbeb dcbb 93fd 0eba
000001b0: 37a1 0cbc a9ba 203c c7e0 eabb 7384 3f3c
000001c0: 0b88 0cbc e734 f4bb 7698 00bc 3565 56bb
000001d0: c2b0 123c 7cc2 473c 87d8 093c 289f 09bc
000001e0: 31e7 d73b a3ae 423c 557c 2e3c 2574 01bc
000001f0: 32d9 d0bb 04b1 063b 369a e83b ba3f 03bc
00000200: 3e69 2c3c 9058 faba 2ddd 09bb 8f3f f5bb
00000210: 968a e8ba 8ec0 a9ba 2d92 113b 448f f83b
00000220: f246 7bba 5ae1 f4bb cb8b 15bc 7d69 fb3b
00000230: ac3b fdbb 1f6a ecbb fb06 4cbb 5f2a f2bb
00000240: 5460 9ebb 0075 55bb 30af 383c 50c3 01bc
00000250: 6b82 1b3c a262 e8ba 8c82 4cba 2671 13bc
00000260: 04e5 d7bb 6691 0c3c f230 24bc 8e3f 073c
00000270: 8ae4 e2bb ee96 003c 6c8f 84bb 35ba 5dbb
00000280: 8d4a de3b 19e2 233c 4ed7 483c a833 f5bb
00000290: cf84 cebb 885d 38bb 025e 1b3c 0501 08bb
000002a0: 28e1 1d3c 9703 183c ff5a cb3a ee6b 233c
000002b0: 54cb b7ba cad2 2e3c c0cb 30bb ae57 f33b
000002c0: e1e4 d03b d02a dc3b b2f3 e3bb 1a1f 6a3b
000002d0: 84a6 e33b 1c88 57bb 75cc 1dbc 8619 20bb
000002e0: 8637 f3bb e4dd bcba 3458 f33b d82b 04bc
000002f0: 4784 57bb f18b 093c aeda 1b3c 58f0 1f3c
00000300: 5190 d5bb 5440 da3b 0611 0fbc 909b 67bb
00000310: 5cbc 1cbc 5f0e dcbb ac67 b3bb e403 07bc
00000320: 370d 86bb a0d4 fc3b 3359 1ebc f727 f0bb
00000330: 830c 173c 57f4 213c 1f86 133c 5dc7 e9ba
00000340: 8f3a 333c 3c70 013c 2568 243c 7e39 0c3c
00000350: 2813 eabb 8fe2 debb 0aa1 2d3c cda9 9cbb
00000360: e018 263c 8da6 113c 2225 d8bb 2d6d 8ebb
00000370: dcc9 bcbb 1f8e 8d3b 9006 1a3c 70cc 203c
00000380: cae1 dabb b6db eabb e088 e63b 9f37 083c
00000390: e93f da3b 315a 3eba dcea df3b c7bb 13bb
000003a0: b8d8 d9bb 3444 193c 9a17 95bb 514a febb
000003b0: f98c 013c a32a 1ebb 2a40 1c3c 266c 01bc
000003c0: 8ee4 9fbb c496 1a3c aeb1 e13b 0cac 85bb
000003d0: a191 893b 8c2b e2bb e26c 20bc 78cf e7bb
000003e0: 2a77 ea3b 7020 b5bb 4990 04bc 3d12 0f3c
000003f0: cdcf 853b bee5 90bb e816 44bb bce3 213c
-0.009466388 0.009419417 0.006944693 0.0043976777 0.008189477 0.0043254425 -0.010261673 0.0070967926
-0.008224462 0.0016470306 0.008456088 -0.0020069373 0.004581069 0.006579468 -0.007246639 0.004264979
0.0022609872 0.006900966 -0.005550124 0.0070266565 0.00062154746 -0.008519971 -0.010225518 0.010091521
0.0064192316 0.008586078 0.0106705865 0.009344277 0.0013347814 0.00013180863 0.0039297966 0.007769478
0.008734021 -0.0031120607 0.008027368 -5.9459024e-05 -0.0091840895 0.00703603 0.00918249 -0.00635449
0.0043207174 -0.009984263 0.0071033617 0.004651237 0.008355363 0.00734288 -0.0072049014 0.011973973
0.006634344 0.007112367 0.011233801 0.002670092 -0.0032258509 0.009550632 0.009275965 0.010155514
0.011460907 0.011282033 -0.008222047 -0.00767283 -0.008794031 0.008416138 -0.0038365498 0.007279633
-0.002585941 -0.0063313707 -0.0011019432 -0.0072126146 0.007109797 0.004395118 -0.0038990173 0.0015927816
0.006841134 -0.0019705934 0.0073513375 0.0040374547 -0.009407829 0.008604501 -0.007186547 0.010329938
-0.00084855297 -0.008143837 0.010367741 0.0065074638 -0.004086047 0.008720447 0.0111982105 0.0067473208
0.000664095 0.007429655 -0.0025517077 -0.004324239 -0.0070069535 -0.009055552 0.00039915537 0.0037839839
0.009639769 -0.00054672104 -0.0038985012 0.0013530633 0.010140328 0.0089370385 -0.0077936416 0.007836678
-0.00031680646 0.0060829856 -0.0067419834 -0.00054546556 -0.0085833585 0.009810128 -0.007167909 0.011689293
-0.008577357 -0.0074525955 -0.0078488495 -0.0032714133 0.008953275 0.012192365 0.008413441 -0.008399762
0.0065888395 0.011882457 0.01064976 -0.007901226 -0.006373548 0.0020552287 0.0070984615 -0.008010799
0.010523139 -0.001909988 -0.0021036372 -0.0074843834 -0.0017741497 -0.0012951063 0.0022212372 0.007585438
-0.0009585462 -0.007473153 -0.0091275675 0.0076724873 -0.0077280607 -0.007214799 -0.003113209 -0.007390305
-0.0048332606 -0.0032570958 0.011272237 -0.007920101 0.009491543 -0.001772959 -0.00078014354 -0.008999145
-0.00658858 0.008579588 -0.010021435 0.008254899 -0.0069242166 0.007848484 -0.0040454175 -0.0033832912
0.0067837895 0.010002636 0.012258364 -0.0074829645 -0.006302453 -0.002813192 0.009482862 -0.002075256
0.009636201 0.0092782 0.001551479 0.009974463 -0.0014022388 0.010670373 -0.0026976913 0.0074262237
0.0063749407 0.006718971 -0.006956541 0.0035724104 0.0069473404 -0.0032887524 -0.009631266 -0.0024429276
-0.0074223904 -0.001440939 0.007426286 -0.008067094 -0.003288524 0.008395181 0.0095125865 0.009761892
-0.006517448 0.0066605005 -0.008732086 -0.0035340525 -0.009566393 -0.0067155804 -0.005475005 -0.008240674
-0.004090931 0.0077157766 -0.009664821 -0.007328983 0.009219292 0.009884915 0.009004145 -0.0017835904
0.010939254 0.007900294 0.010034596 0.008558629 -0.007143397 -0.00680191 0.010597477 -0.004780984
0.010137767 0.008889806 -0.0065962235 -0.004346511 -0.005761368 0.0043199207 0.009400979 0.009814367
-0.006679748 -0.007167305 0.0070353597 0.008314042 0.0066604507 -0.00072613644 0.0068334173 -0.0022542344
-0.0066481493 0.00935464 -0.0045499327 -0.007760324 0.007907146 -0.00241343 0.009536782 -0.00789932
-0.0048795408 0.009435359 0.006887636 -0.0040793475 0.0041982685 -0.006902164 -0.009791585 -0.0070742927
0.0071553187 -0.0055275485 -0.008091041 0.008732376 0.0040836097 -0.0044219187 -0.002992088 0.009880956

layers.0.weight f4 [256, 256]
00000000: 3ca7 43bc f54a ba3d 8490 b3bd 9eb5 683d
00000010: e4bc 5cbd c431 ac3d d53c b93d b2b9 a6bd
00000020: 63b3 a3bd ab67 a7bd a7b0 303d e1c4 d13c
00000030: 5943 34bc 63ea 293c 4afa 7fbc 7e25 cb3d
00000040: b67a 09bd 6311 9bbd 8f33 a43c a206 acbd
00000050: eda4 a23d c470 90bd 9469 db3c b2d4 b23d
00000060: 6d59 92bd 7446 35bd 69e7 86bd 2774 59bd
00000070: 6708 f7bc 6106 ce3d 5496 82bd 79ca 6c3d
00000080: a527 db3d b572 ca3d 2b83 513d 7548 4eba
00000090: 9bae 393d 7c53 3f3d bc31 dc3c 8532 babd
000000a0: cfd3 aa3d f04f d63d c952 b3bc 8cc6 a5bd
000000b0: 2c2e c33d 1536 873d 1b22 a5bd 141a cebd
000000c0: 9696 1fbd 9d72 c4bd a7db 45bd dd7d 9fbd
000000d0: edbf c43d f237 e13d ab73 cebd 9de0 fd3c
000000e0: 18c4 043d a23b 7aba 8be2 38bc 4409 8d3d
000000f0: 9881 9fbc f2f8 1b3d 6b2b 733d f3e6 98bd
00000100: 4df0 c9bb 77b9 b63d 8ca5 573d 7107 09bd
00000110: e22f 733d 1313 d33a efa8 54bd 04aa 92bc
00000120: ab53 be3b cdbe b5bd 5324 b6bd 3519 3b3d
00000130: 8d1b e2bc 9e1f 19bc 2a69 d43d 0529 8f3d
00000140: cf4c 10bd 89c1 12bd 1f2f f53b 5394 90bd
00000150: d277 48bc ce90 753b 263f 813c ad59 91bd
00000160: 2f08 fb3c abef 853d 5bb5 2ebd 6ff5 6c3d
00000170: 3ea3 913d 198c d03d 056d 443d b534 d43a
00000180: 7864 cd3d 142c bf3d 61ba 7b3c bd5e 68bc
00000190: e296 9f3d a09f e53b f742 74bc 053c d1bc
000001a0: 0c00 12bc babf 7bbc d2e2 c5bd 412a 403d
000001b0: 51f1 75bd 5032 9fbd 251c d1bd fc55 83bd
000001c0: 49e8 443d a42a 993d 26fd a03c 35b6 b5bd
000001d0: d79a 213c ba64 8fbd e23b 7cbc dcf0 0bbd
000001e0: 675c d6bc 1e96 71bc 96e9 073d c802 57bd
000001f0: 9c60 763d 9f5d 203a 101b 303d 595c d8bd
00000200: d600 8e3d 9253 6d3d f65f 543d f016 91bc
00000210: 3d5b b7bd 229a 80bd 052c 23bc cdab d83d
00000220: ece1 863c 0ca8 aa3d 800f 89bd 68e9 abbd
00000230: 7733 28bd b95e bdbd 3ca6 103d d295 0d3d
00000240: 1bf6 83bd 9160 2abd f6a1 c1bd 8549 69bc
00000250: daf3 07bd abf6 b7bd 2264 953d abe8 7cbc
00000260: f3c4 b5bd 9f24 a0bd e781 453c a764 773d
00000270: 1a10 b53c f8b6 533d 72cc 273d 3ffb 85bd
00000280: c534 a3bd 4243 37bd 79bb 893d 057a c73d
00000290: 3736 90bd a64c c8bd 5616 bdbc 6b7f b43d
000002a0: 2bd4 e13c 2bce 70bd e1d6 c63c 2b34 de3d
000002b0: 995e 1d3d 4385 b0bd e8c7 b73d e129 94bd
000002c0: 08fa 983d a405 413d a24d 593c a2b3 b0bb
000002d0: 6f5a 4dbc 8a4d c5bc c964 a0bd 0e32 b23c
000002e0: 2854 543c 6a52 063d 66b7 5e3d dad0 97bc
000002f0: f65f b93d 5898 48bb b8d4 44bd 9302 723c
00000300: ae62 92bd 07d8 7bbd e99f 4b3d 9f40 b4bd
00000310: 7f2a 663d 9184 c83d f596 a03c e3e8 d5bd
00000320: 98cc 9abd eef3 f63c 8f36 6dbd 1c65 b7bd
00000330: 40c8 e13d 19bf c6bd 29c5 d5bc 9e20 5f3d
00000340: 2cfb 8ebd e157 8abd a9a4 aa3d e103 dfbd
00000350: 94ab 7e3c 8fc0 993d 57f9 8dbd 0be9 253b
00000360: 9b7e 8c3b 217d febb d0e6 a8bd 3a33 883d
00000370: ec63 d63d 15c4 be3d af5c b9bd 3710 83bc
00000380: 714a 3abc cc36 d8bc ec57 c23c f178 d4bd
00000390: 4f4d 4b3c f34e 4c3d 6a2e 4dbc 4f77 5abd
000003a0: 4b6b a9bd 5ab5 ef3c 4832 243d 313a 0dbc
000003b0: a173 98bc 4aa3 bbbd 95b3 46bd feba ac3d
000003c0: e981 c23d 309a 4cbd 813c 89bd 9412 ce3d
000003d0: e7bc 6d3d 0a6f d8bd 30b3 aebd e72b 803c
000003e0: bcc6 85bd 05bd 833d da51 64bd 204c 563d
000003f0: 8498 5ebd d153 a23d baab 6b3d 7cd7 4c3d
-0.011941727 0.09096328 -0.087677985 0.05681383 -0.053891078 0.084079295 0.09044806 -0.08140887
-0.079932 -0.0817407 0.04313722 0.025606574 -0.011002385 0.010370824 -0.015623638 0.099192604
-0.033564292 -0.07571676 0.020044116 -0.083997026 0.07941613 -0.07052758 0.026783742 0.08731975
-0.07145963 -0.044256642 -0.06587107 -0.053089287 -0.030155374 0.100598104 -0.06376329 0.05781028
0.10700921 0.0988516 0.051150482 -0.00078690733 0.045332532 0.046710476 0.026879184 -0.09091667
0.083411805 0.104644656 -0.021890061 -0.080945104 0.09530291 0.06602112 -0.08063146 -0.10063568
-0.03896197 -0.09592173 -0.04830518 -0.077876784 0.096069194 0.10996999 -0.10080656 0.030990893
0.032413572 -0.0009545629 -0.011284481 0.06886533 -0.019470975 0.03807921 0.05936758 -0.07465925
-0.0061626793 0.08922093 0.052648112 -0.033454362 0.059371836 0.0016103707 -0.05191892 -0.017903335
0.005808314 -0.08874283 -0.08893647 0.045678336 -0.027601028 -0.009345917 0.10371621 0.06990246
-0.0352295 -0.0358291 0.007482424 -0.070595406 -0.012235599 0.0037470344 0.015777182 -0.070971824
0.03064355 0.06539854 -0.042653423 0.05785125 0.07111214 0.101829715 0.04795553 0.0016190024
0.100289285 0.09334579 0.01536426 -0.014182744 0.077924505 0.007007554 -0.014908544 -0.025541315
-0.008911144 -0.015365535 -0.09662403 0.046915296 -0.06004459 -0.07773268 -0.10210446 -0.064128846
0.048073087 0.07478836 0.01965196 -0.08872644 0.009863577 -0.07001634 -0.015395137 -0.03416525
-0.026167108 -0.014745263 0.03318175 -0.052492887 0.060150728 0.0006117466 0.04299456 -0.10564489
0.06933753 0.057941027 0.051849328 -0.017711133 -0.08952949 -0.062793985 -0.009959226 0.105796434
0.01646515 0.08332834 -0.066924095 -0.08394128 -0.041064706 -0.092465825 0.035314783 0.034566708
-0.06443425 -0.041596 -0.0945472 -0.01423872 -0.03319154 -0.08982595 0.072944894 -0.015436332
-0.08875456 -0.07819485 0.012054897 0.060398724 0.022102404 0.051688164 0.04096646 -0.06542062
-0.07969049 -0.044741876 0.06725211 0.0974007 -0.07041591 -0.097802445 -0.02308194 0.088133655
0.02756699 -0.058790367 0.024272384 0.10849794 0.038420293 -0.08619168 0.08973676 -0.0723455
0.07469565 0.04712452 0.013263138 -0.0053925076 -0.012533768 -0.024084825 -0.07831723 0.021752384
0.012959518 0.03279344 0.05437412 -0.018532205 0.09051506 -0.0030608382 -0.048054427 0.014771122
-0.07147728 -0.061485317 0.04971305 -0.08801388 0.05619287 0.0979091 0.019603232 -0.1044481
-0.075585544 0.030145612 -0.05791336 -0.08954832 0.11024523 -0.09704418 -0.02609499 0.054474466
-0.06981501 -0.06755043 0.08332188 -0.10889412 0.015543837 0.07507431 -0.069323234 0.0025315906
0.0042875535 -0.0077663814 -0.08247149 0.06650396 0.10468277 0.093147434 -0.09050881 -0.015998943
-0.011370287 -0.026393317 0.023723565 -0.1037463 0.0124085685 0.04987998 -0.012523273 -0.053336438
-0.08272418 0.02926128 0.040087014 -0.008619831 -0.018609824 -0.09162004 -0.048511107 0.084341034
0.09497435 -0.049951732 -0.06700993 0.10062137 0.05804148 -0.10568054 -0.08530271 0.015645934
-0.06532046 0.06432537 -0.055742122 0.052318692 -0.05434467 0.07926143 0.057536818 0.05001019

layers.0.bias f4 [256]
00000000: 8c57 f73b 8a57 dd3b 8a54 123c f3f0 dcbb
00000010: 55b6 e53b 6b05 de3b 2b8d e43b d57d d73b
00000020: a8bf e3bb 0b24 cf3b 0705 d9bb 9dd1 e33b
00000030: cc4b dd3b 46ce e53b 07d5 e83b 84ad e7bb
00000040: 4dbd d8bb 7eed e1bb a579 df3b d0c4 c43b
00000050: 59a9 d43b 3438 d1bb e15f 223c 671d eabb
00000060: b279 e3bb e9bc e6bb 91f8 eabb 09bd e23b
00000070: c655 edbb 3392 d5bb 165e d5bb 1b38 ecbb
00000080: 71ad f2bb e90c f8bb 4901 fdbb 9de9 efbb
00000090: 3fe2 d7bb 5e44 f0bb 5833 ee3b 3c96 e7bb
000000a0: b39d e43b b86d e3bb ee5c dabb 2efc f1bb
000000b0: 57e1 d9bb e3f5 d23b d81e df3b e23b e43b
000000c0: 68f1 e2bb 459b e33b 5577 d7bb 2592 d23b
000000d0: 0db6 d6bb 3b71 dabb cd20 bd3b a4c8 043c
000000e0: 5444 db3b 7f1c d2bb ac84 e43b 9495 fb3b
000000f0: 10e6 dbbb ebd8 e8bb 2345 e83b e1fe e8bb
00000100: cea4 d83b 7044 dbbb f65d fcbb 2657 e8bb
00000110: 90de 0abc 85fb ddbb d409 e8bb 41f8 ea3b
00000120: 1583 003c aab4 d6bb 4677 00bc 135f cfbb
00000130: 6c2e e7bb 02ab d73b cece d8bb f989 e5bb
00000140: 1da3 e93b e891 e23b cea2 0cbc bfef e3bb
00000150: 8223 dfbb 9871 f4bb 9e56 09bc e1f9 e43b
00000160: 00ed d43b bccf e33b 1724 fcbb d21c ec3b
00000170: 4b3c e5bb 04e3 e9bb c8b5 ec3b 9e1b dc3b
00000180: c089 d8bb bcef db3b 8a6d ff3b c997 fcbb
00000190: 9f4d d5bb bd3d e83b 6735 d8bb 69d3 dbbb
000001a0: 3251 2b3c 9377 f03b 2209 e4bb e508 da3b
000001b0: 894d e13b a769 e8bb a358 153c b8cb e73b
000001c0: ae7d f6bb fe61 e33b 501d d83b 04b2 d0bb
000001d0: a04b e5bb cfc4 e3bb ab43 b3bb 052e e33b
000001e0: 6e2d d93b 19d3 0d3c 73a5 e2bb be42 e33b
000001f0: a702 e7bb b4d4 debb 9341 e3bb 8b85 003c
00000200: 9710 e2bb 47fc e73b ad06 e6bb 2b84 f2bb
00000210: 2a7a ddbb 4f18 e23b e895 e93b 8782 e2bb
00000220: 007e e7bb cbec e43b 1c01 e53b ed9c d3bb
00000230: 266d db3b be07 e2bb d9f2 cdbb cf86 f53b
00000240: f962 de3b 16e4 e0bb e30b d63b 4827 093c
00000250: a1ba e43b a650 f8bb dd94 d1bb 8b1a d9bb
00000260: 6eb5 b53b f9b5 d63b a5fe e33b 1afe e2bb
00000270: cc7a ebbb 02dc e6bb 1e29 f1bb 100b f0bb
00000280: 2062 b23b 1b44 e7bb 3dd2 e33b 2227 efbb
00000290: ec67 e13b ac9c e8bb ac36 e43b 65fe e3bb
000002a0: c60b e2bb 2515 e9bb 9ab4 d9bb 2eef d6bb
000002b0: 1cfb e83b e709 25bb 7762 e13b 3e5b d6bb
000002c0: a244 e33b efec d33b 5f0b d9bb 1c2a d8bb
000002d0: 2c08 e33b 1eac 243c 21f8 e2bb f54c f6bb
000002e0: a4bb e5bb bf34 2c3c b7bf c83b d143 e53b
000002f0: 75fa d93b 82e1 e3bb 8143 abbb 50a8 e23b
00000300: e2ee e93b 4f92 e4bb 2eaf df3b f3d5 dfbb
00000310: a3cc fe3a f294 f33b 0945 e4bb 4441 f93b
00000320: a536 d93b fb2a d73b c73b 1fbc 50af cbbb
00000330: 478f 8bbb 8032 d83b 7245 d4bb 7d08 ec3b
00000340: fca6 dfbb fab2 d53b f938 dfbb 6a54 de3b
00000350: e0e6 dcbb 7a47 e5bb 6dcc da3b c1bb e73b
00000360: 695b ecbb 7a76 ec3b ed4b f4bb b154 e33b
00000370: 4b9c e6bb 7af0 d63b 0d6c 2bbc 1875 e03b
00000380: 8781 c33b 78d8 013c d06d d7bb 45b5 c43b
00000390: b37e ce3b 0948 d83b 698b efbb e28b e33b
000003a0: 8c50 e33b 62f4 debb 6845 a3bb e0fa 033c
000003b0: 9152 e13b c27a e23b cdb8 e4bb 4c20 67bb
000003c0: b65d f13b 14f2 ccbb acd2 053c ba95 d1bb
000003d0: acbe 01bc fb33 bd3b d132 e33b 4edb e13b
000003e0: d5c4 e1bb 9cb4 f33b 47ee ddbb 7f3d d8bb
000003f0: c322 f03b d76e eabb 5702 d8bb 824e 1e3c
0.007548278 0.0067548202 0.0089312885 -0.0067425906 0.007010261 0.006775548 0.0069748363 0.0065762796
-0.0069503374 0.0063214353 -0.0066229138 0.006952478 0.0067534205 0.007013115 0.007105473 -0.007070245
-0.0066143633 -0.0068947664 0.006819921 0.006004907 0.0064899144 -0.0063848738 0.009910555 -0.0071446183
-0.0069419974 -0.007041563 -0.0071707447 0.0069195074 -0.007242891 -0.0065176724 -0.00651146 -0.0072088367
-0.0074059297 -0.0075698984 -0.0077211005 -0.00732155 -0.00658825 -0.0073323688 0.0072693042 -0.00706747
0.006976807 -0.0069405697 -0.00666391 -0.0073847985 -0.006649177 0.0064380034 0.006809097 0.0069651464
-0.0069257505 0.006946 -0.006575505 0.006426113 -0.006552464 -0.00666633 0.0057717324 0.008104477
0.006691495 -0.0064120884 0.0069738235 0.007677743 -0.006710775 -0.0071059368 0.00708832 -0.007110462
0.006611443 -0.006691508 -0.0077016307 -0.007090467 -0.008475915 -0.006774368 -0.0070812497 0.0071707075
0.007843752 -0.0065522986 -0.007840937 -0.0063284724 -0.0070550945 0.006581665 -0.00661645 -0.007004973
0.0071300403 0.006914366 -0.008583738 -0.00695607 -0.006809653 -0.0074598305 -0.008382468 0.0069877957
0.006497979 0.006952254 -0.007694732 0.007205584 -0.006995713 -0.007137658 0.0072238185 0.0067171594
-0.006608218 0.006711928 0.0077950405 -0.007708524 -0.0065094973 0.007087438 -0.006598163 -0.0067085517
0.01045637 0.007338473 -0.0069590965 0.0066538923 0.006875698 -0.007092673 0.009115371 0.0070738457
-0.0075223064 0.006939172 0.006595291 -0.0063688774 -0.0069975406 -0.0069509516 -0.005470713 0.006932976
0.00662773 0.008656287 -0.0069166957 0.0069354465 -0.0070498767 -0.0068002585 -0.0069353073 0.007844339
-0.0068989503 0.0070796343 -0.007019839 -0.0074010096 -0.006758948 0.0068998705 0.007128466 -0.0069125327
-0.007064581 0.0069862357 0.0069886576 -0.006457916 0.006696361 -0.0068978956 -0.006285053 0.007492877
0.006786701 -0.0068631275 0.0065321787 0.008371182 0.0069802557 -0.0075779734 -0.0063959197 -0.0066254786
0.0055453097 0.0065524545 0.006957846 -0.006927264 -0.0071862694 -0.00704527 -0.007359638 -0.0073255375
0.0054438263 -0.0070576794 0.0069525526 -0.007298366 0.0068788435 -0.007098755 0.006964525 -0.0069578164
-0.006898376 -0.0071131163 -0.006643844 -0.006559274 0.0071100127 -0.0025182904 0.006878193 -0.0065416386
0.006935672 0.0064674537 -0.00662367 -0.0065968167 0.0069284644 0.010050802 -0.006926552 -0.007516498
-0.007010894 0.0105106225 0.00612637 0.0069966097 0.0066521713 -0.006954373 -0.005226553 0.006917037
0.0071390728 -0.006975449 0.006826303 -0.0068309247 0.0019439649 0.007433527 -0.0069662374 0.007606657
0.0066288286 0.006566403 -0.009718842 -0.0062159672 -0.0042590233 0.006597817 -0.006478005 0.0072031603
-0.006825326 0.00652158 -0.0068122116 0.0067849653 -0.0067413896 -0.006997046 0.0066772015 0.0070719426
-0.0072130454 0.007216272 -0.00745534 0.0069375862 -0.0070376745 0.0065594288 -0.010462773 0.006849896
0.0059663686 0.007925145 -0.00657437 0.0060030543 0.006301725 0.006600384 -0.00731032 0.0069441656
0.006937092 -0.006804035 -0.004982639 0.008055419 0.0068762978 0.0069116065 -0.006980038 -0.0035267053
0.0073659075 -0.006254444 0.008167904 -0.0063960226 -0.007918995 0.005774019 0.006933548 0.0068925982
-0.0068899193 0.007437302 -0.0067727896 -0.006599128 0.0073283627 -0.0071543264 -0.006592076 0.009662272

predict.weight f4 [1, 256]
00000000: a0b9 c13c 52bc 5a3d 0628 113c 205a 6abd
00000010: 14c4 353d 78b4 0a3d d7c9 1e3d e011 1d3d
00000020: e918 78bd 9701 733c f932 57bd 5f7b 703d
00000030: 613b 493d 42ef 593d dd06 203d 9dba 48bd
00000040: 4aca 0bbd 1dd8 80bd 0d39 363d b238 f73b
00000050: 30d7 043d c5d7 aabc e311 133c 97a3 fbbc
00000060: c45d 41bd 634f d4bc 715f fdbc b4d0 393d
00000070: 979a c1bc 410e ebbc 847b 1ebd 6478 acbc
00000080: eed8 d5bc d33e afbc 5cdc 71bc 71af d0bc
00000090: b2f5 ecbc 9a21 cbbc ce71 d33c bf41 1dbd
000000a0: 2b3e 413d 9aa2 91bd d139 54bd fcf7 d3bc
000000b0: bfb0 cbbc 2d48 983c d31a 4e3d 173a 623d
000000c0: bf8a 54bd 002d 543d 3b20 ccbc 9fb7 a33c
000000d0: c5b4 03bd ef68 42bc dbf9 9e3b 4416 343c
000000e0: 4625 233d 93e3 bebc d684 753d fe97 cf3c
000000f0: cefe 23bd 7981 22bd f4fb 3f3d 2c9c 35bd
00000100: 6e14 213d 8dde 12bd 5a04 84bc b42a 12bd
00000110: a066 80bc 0ef2 00bd 40ac edbc 594e 303d
00000120: 3ff8 673c aa94 20bd 7eb2 c2bb d49c 8cbc
00000130: f6e6 edbc c168 2c3d 5741 6abd ab05 27bd
00000140: ae6d 043d 6510 f83c 6e4f 84bc 05d3 84bd
00000150: 1181 0cbd bbe7 88bc 8805 80bc c08c 213d
00000160: 6ee0 f93c 659e 883d 26a3 aebc 52f2 eb3c
00000170: 4744 6bbd 0c6a 14bd 5cbf 203d 1c99 4a3d
00000180: 0eea 33bd b9ad 4f3d c273 a73c 0b1a acbc
00000190: 5869 c2bc 5a17 113d 0cf9 33bd f9a0 4bbd
000001a0: 70ca 063c 95a7 fe3c cfca 21bd 663c 313d
000001b0: b504 203d d300 fcbc 7bc0 3a3c f11a 393d
000001c0: 930f a9bc a239 6e3d 721c 353d dc66 98bc
000001d0: 598e 23bd 7ed3 18bd 2299 58bb 3d85 913d
000001e0: cb91 143d 6a73 333c ac04 70bd dc3c 6a3d
000001f0: 104b 30bd 4c74 40bd 5c91 8bbd 0a60 aa3c
00000200: 02f2 7dbd 4068 023d 49b3 28bd 267f d8bc
00000210: 8bc3 81bd effe 8d3d 5a7b cf3c ff11 84bd
00000220: 07c2 d1bc d49e 743d 78b4 583d 19d2 b3bc
00000230: f92a d83c a3e7 88bd d9db 4ebc c3c1 9a3c
00000240: 380e ce3c ecd7 7dbd 50ed 1b3d 4f33 933c
00000250: 3948 603d 221a 92bc c37e 9dbc bf7f 68bd
00000260: dc98 763b 1341 fb3c 021e 903d 44a9 8dbd
00000270: 23f5 a5bc 5f9b 27bd 0335 f1bc 9afe 9ebc
00000280: d64b 4a3b c0bf aebc ec40 563d 0922 0ebd
00000290: 05f7 573d 797b 2ebd 1c2b fc3c 085b 52bd
000002a0: 071c 8ebd 563f 29bd e6c5 0fbd 0068 24bd
000002b0: 4a18 f93c af84 8d3a 75fc 813d 60ce a4bc
000002c0: c58b 433d f9bb 423c 0356 58bd eff2 53bc
000002d0: b206 433d 2d4f d03b b513 81bd 02f1 81bc
000002e0: efbd 27bd 8751 ea3b b13a 1b3c 803b 633d
000002f0: 31d4 ea3c c779 80bd 4a3b 44bb a493 543d
00000300: 4318 b03c 98c7 71bd 7a5d 653d 72c4 ccbb
00000310: 799d 04bb e4d1 a43c 2ebb 55bd 2781 a63c
00000320: 532e 713d 964f fe3c 2565 02bc 7053 5fbc
00000330: e046 42ba 880e 153d 3d60 fabc 7b13 e53c
00000340: 3b96 87bd abc1 e03c e184 24bd f147 833d
00000350: bd06 77bd 9fcd 64bd d542 683d 1a7b 203d
00000360: 66d5 ecbc 5569 b83c 2142 8bbc 2cc1 813d
00000370: 5977 12bd 3441 013d 7776 27bc 3bc1 373d
00000380: 8ec3 a23b c173 803c a66d f8bc 5633 d93b
00000390: e0b0 583c bb85 433d 5fde d7bc 7046 8c3d
000003a0: b19f 613d 7473 7ebd aac6 b3ba ccda 3f3c
000003b0: 1f22 753d de8a 8a3d 02f2 5bbd 9926 b03a
000003c0: 7780 c63c d0a2 3ebc 2b9a 7a3c 0d8c 5cbc
000003d0: 753c 99bc 3765 ac3b e9de 833d 7424 753d
000003e0: f7dd ccbc 5167 c73c 15ef 81bd 838e 38bd
000003f0: 89ff c53c cbcc f6bc cf54 0bbd 2a4d 213c
0.023648083 0.053402252 0.00885964 -0.057214856 0.044376448 0.033863515 0.03876671 0.038347125
-0.06057063 0.014831922 -0.052538846 0.058711406 0.049128894 0.05320669 0.039069045 -0.049006093
-0.034128465 -0.0629122 0.044488 0.0075446004 0.03243178 -0.02085484 0.0089764325 -0.030717654
-0.047208562 -0.02591676 -0.0309293 0.04536505 -0.023633284 -0.02869332 -0.038692012 -0.0210535
-0.026104417 -0.021392262 -0.01476201 -0.025474282 -0.02892575 -0.024796296 0.025811102 -0.03839278
0.04717843 -0.07111092 -0.05181295 -0.025875084 -0.024864553 0.018589104 0.05031855 0.05523118
-0.05189013 0.051800728 -0.024917712 0.019985018 -0.032154817 -0.011865838 0.0048515624 0.010991637
0.03983047 -0.023301875 0.059941135 0.02534103 -0.040037923 -0.039674256 0.04687114 -0.04433839
0.039326124 -0.035856772 -0.016115356 -0.035685256 -0.015673935 -0.03148084 -0.0290128 0.04304347
0.014158308 -0.039204277 -0.005941688 -0.017164625 -0.029040795 0.04209209 -0.05719122 -0.04077689
0.03233116 0.030281255 -0.016151156 -0.06485561 -0.034302775 -0.01671206 -0.015627638 0.03944087
0.030502524 0.06670836 -0.02131803 0.02880207 -0.05743816 -0.036233947 0.039244995 0.049462423
-0.043924384 0.050702784 0.02044094 -0.021008512 -0.023731872 0.03542266 -0.04393868 -0.049714062
0.008226976 0.031085769 -0.039500054 0.04327049 0.03906699 -0.030762112 0.01139843 0.04519171
-0.02063731 0.05816043 0.04421658 -0.018603735 -0.039930675 -0.03731107 -0.0033050259 0.07105491
0.03627185 0.01095281 -0.058598205 0.057186946 -0.043040335 -0.04698591 -0.068148345 0.020797748
-0.061998375 0.0318377 -0.041186605 -0.026427817 -0.06336125 0.0693339 0.025327373 -0.06448745
-0.025605215 0.059721783 0.052906483 -0.021950768 0.026387678 -0.06684806 -0.012625658 0.01889122
0.025153264 -0.061973497 0.038068116 0.017968802 0.054756377 -0.017834727 -0.019225484 -0.056762453
0.0037627732 0.030670678 0.070369735 -0.069170505 -0.020258492 -0.040919658 -0.029444223 -0.019408513
0.0030867956 -0.021331668 0.052308008 -0.034700427 0.05272581 -0.04259822 0.030782275 -0.051356345
-0.069389395 -0.041320167 -0.03510084 -0.040138245 0.03040709 0.0010796989 0.063469805 -0.020117939
0.047740716 0.0118856365 -0.052816402 -0.012936338 0.047613807 0.0063570947 -0.06302587 -0.015861992
-0.04095262 0.007150832 0.009474442 0.055476665 0.028665634 -0.06273227 -0.0029942566 0.051898614
0.021495944 -0.059028238 0.05599735 -0.006249004 -0.0020235463 0.020119615 -0.05218046 0.020325257
0.05888207 0.031043809 -0.007958685 -0.013630733 -0.0007411074 0.03639081 -0.030563468 0.02796339
-0.06620451 0.027436098 -0.040165786 0.06410206 -0.06030916 -0.055860158 0.05670436 0.0391799
-0.02891035 0.022511164 -0.016999306 0.06335673 -0.03575835 0.031556323 -0.010221115 0.044862013
0.0049671596 0.015680196 -0.030325722 0.006628434 0.013225764 0.047734957 -0.026351152 0.068493724
0.055083934 -0.062121823 -0.0013715823 0.01170988 0.059846994 0.06764768 -0.053697594 0.0013439237
0.024231179 -0.011635497 0.015295546 -0.013461125 -0.018705586 0.005261089 0.06439001 0.059849218
-0.025008185 0.024341257 -0.063444294 -0.045057785 0.0241697 -0.03012695 -0.034016427 0.0098450575
