PERGAT_embbedding/data/emb/models/model_dim128_lay2_epo108.pth (torch, 137100 bytes, 7 tensors)

linear.weight f4 [128, 1]
000000 fe bd 00 bf cc 9c c6 be e0 f5 f7 bd 5c 44 37 bf
       -0.50289905 -0.38791502 -0.12107444 -0.71588683
000010 00 8b 2c 3e 18 63 58 3f c0 ab a0 3c 0c e7 ec be
       0.168499 0.84526205 0.019613147 -0.46270025
000020 24 d7 01 bf e6 09 63 bf 5c ee db 3e 9c 6e 7c bf
       -0.50718904 -0.8868698 0.4295529 -0.98606277
000030 40 6a 93 be 40 5b 56 bf 40 7e bb 3e e0 f4 25 bf
       -0.28792 -0.83732986 0.3661976 -0.64826775
000040 50 d4 fc be 80 86 21 3e c8 5d ec be 20 03 0e 3d
       -0.49380732 0.15773964 -0.461653 0.03467095
000050 38 72 52 3f 18 f0 05 3e d2 b2 58 3f 6a d7 79 bf
       0.82205534 0.1307987 0.8464786 -0.9759432
000060 30 61 65 bf 8c f9 7d 3f e0 46 52 3d e4 0e 2c 3f
       -0.8960142 0.99208903 0.051337123 0.6721022
000070 60 ff ac be a4 60 c8 3e cc f7 c7 3e d0 b2 2c bf
       -0.33788586 0.3913623 0.39056242 -0.67460346
000080 38 c5 46 bf 96 ff 12 3f c2 d3 1a 3f 86 95 6e bf
       -0.7764468 0.57421243 0.60479367 -0.93196905
000090 40 56 21 be f8 52 a6 be 1c d9 72 3f 40 5a 4d bd
       -0.15755558 -0.32485175 0.9486253 -0.050134897
0000a0 e4 f2 16 3f 70 b4 82 be 40 7e c9 bd 8e 55 2f 3f
       0.5896437 -0.25528288 -0.098385334 0.6848992
0000b0 30 1d 0b be f0 49 13 bf c4 63 0f 3f 90 d9 67 3f
       -0.13585353 -0.57534695 0.56011605 0.9056635
0000c0 6e 9b 02 bf c4 7b 4a 3f 08 aa c5 be 44 6c 6c bf
       -0.51018417 0.790951 -0.38606286 -0.923527
0000d0 54 f6 b9 3e c0 a8 a4 3d 56 99 0d bf b2 7d 0d bf
       0.36320746 0.08039999 -0.553121 -0.5526992
0000e0 28 51 3c 3e a6 2d 07 bf d4 73 4f bf 88 61 0b be
       0.18390334 -0.5280403 -0.81036115 -0.13611424
0000f0 7c 1e b4 be 28 0a 07 bf f0 10 8c bd b8 06 4d 3e
       -0.35179508 -0.5274987 -0.06839168 0.20022094
000100 58 c7 13 3e b0 52 0d 3e c0 c9 7f bf b4 83 37 3f
       0.14431512 0.13801074 -0.9991722 0.7168534
000110 8e 23 51 3f 7e 5d 73 3f 20 bf 9f be d0 f7 cb bd
       0.8169488 0.9506453 -0.31200504 -0.09959376
000120 60 73 64 bd ac 6f 94 be 62 92 6a 3f 38 41 69 be
       -0.055774093 -0.2899145 0.9162961 -0.22778785
000130 cc 83 5f 3f c0 9f 3b be 6a cf 73 bf 58 c5 17 3f
       0.8731048 -0.18322659 -0.95238364 0.592855
000140 1c 14 17 3f 94 bf 8d 3e 44 ff 44 bf 08 1c f0 3e
       0.5901506 0.27685225 -0.76952004 0.46896386
000150 c4 e1 f7 be 48 33 99 be 08 0d d8 3e 20 05 50 3d
       -0.48414433 -0.29921937 0.42197442 0.050786138
000160 a6 5f 4d bf 30 ad 3c bf e8 6f 18 3e ca a4 69 3f
       -0.8022407 -0.73701763 0.14886439 0.91267073
000170 b0 10 7c be ea 54 4b bf 72 c3 01 bf 50 db 48 3f
       -0.24615741 -0.79426444 -0.5068885 0.78459644
000180 30 e1 55 3f 10 73 17 3e 9e 4f 4e bf 06 dd 05 bf
       0.83546734 0.14789987 -0.80590236 -0.5229038
000190 c0 bd 17 3f bc 0c 19 3f c4 21 13 bf be 8d 49 3f
       0.5927391 0.59785056 -0.574734 0.78731906
0001a0 82 52 33 bf 20 20 b2 be 32 67 4c 3f d4 9e 64 bf
       -0.7004777 -0.34790134 0.79844964 -0.8930485
0001b0 7a 53 7b 3f f0 f4 3b be 10 25 92 bd b0 3e 54 bf
       0.9817425 -0.18355155 -0.07135975 -0.82908154
0001c0 74 a6 24 bf 38 81 1d be 0c 60 48 bf 80 8b c9 bd
       -0.6431649 -0.15381324 -0.78271556 -0.09841061
0001d0 10 c9 06 3e bc ad 02 bf 18 d9 72 be de 9e 13 3f
       0.13162637 -0.5104635 -0.23715627 0.5766429
0001e0 a4 92 a6 3e 18 07 2a bf b4 76 04 3f 56 99 48 bf
       0.32533753 -0.66417074 0.51743627 -0.7835897
0001f0 de 27 67 bf 10 1f 21 bf 6c b0 ef 3e 74 2b 97 be
       -0.9029521 -0.6293802 0.46814287 -0.2952534

linear.bias f4 [128]
000000 22 b0 4f 3f 41 70 5d bf 0c 87 57 bf d1 39 60 bf
       0.8112813 -0.8649941 -0.8419044 -0.8758822
000010 85 ee 06 bc 5b 73 05 3f f1 f6 93 3e ea 5a 50 3f
       -0.008235578 0.52129143 0.2889934 0.81388724
000020 97 f0 c0 be 60 0d 41 3e 57 8f f3 3e ca 91 97 be
       -0.37683555 0.18852758 0.47570297 -0.29603416
000030 e2 74 20 bf 0e d4 d9 bd ed fd d2 be 73 d9 08 bf
       -0.6267835 -0.10636149 -0.41209355 -0.534568
000040 c3 6e 16 bf 41 e6 f3 3c 54 03 13 bf f6 a6 5d bf
       -0.5876276 0.02977288 -0.57426953 -0.8658289
000050 1b d8 d7 3e f3 2b f1 bd 7d 54 4c 3f 33 6b a1 3e
       0.42157063 -0.11775961 0.7981642 0.315271
000060 93 19 c8 be 8a 71 3e 3f a4 36 e9 3d e5 8d 22 bf
       -0.39082012 0.74391997 0.11387375 -0.63497764
000070 17 3a 6b 3f b4 10 b8 3e a6 4b 1b 3e 6b 38 f0 3e
       0.91885513 0.35950243 0.15165576 0.46918043
000080 f0 43 d3 be f3 98 27 3f ff f7 44 bf d2 b1 aa 3e
       -0.4126277 0.65467757 -0.7694091 0.3333879
000090 d5 88 c6 be bb a1 59 3e df 92 2b 3f 6a c8 7f be
       -0.3877627 0.21253102 0.6702098 -0.24978796
0000a0 b3 c5 3d 3f 3c a9 79 bf 31 bc bc 3e ab 10 07 3f
       0.7412979 -0.97523856 0.3686233 0.5275981
0000b0 88 11 58 3f 58 ba 4b bf a6 7e 26 3f 8f 3a 02 3e
       0.8440175 -0.79581213 0.65037 0.12717651
0000c0 fc f4 9a 3e 8c 83 33 3f 5f 16 4c 3f 83 59 47 bf
       0.30265033 0.701226 0.79721636 -0.7787096
0000d0 6a 49 3c bd 5b 15 68 bf e6 52 60 3f 83 8a 29 be
       -0.04596845 -0.90657586 0.8762649 -0.16556744
0000e0 f4 9f 58 bf d0 35 44 3d e0 6b 3d 3f 4d 7f 6e 3f
       -0.8461907 0.047902882 0.7399273 0.93162996
0000f0 a0 a0 f2 be 4d 7b 19 3f 29 7b 29 bf 34 ef 60 3f
       -0.47388172 0.5995377 -0.6620355 0.87864995
000100 6d 4b fd 3e 75 9f f7 be ab a8 17 bf aa 15 4d 3f
       0.49471608 -0.48363844 -0.5924174 0.8011118
000110 3b 05 01 3f 9d 0c 39 be a3 57 00 3d 4b 01 b8 be
       0.50398606 -0.18071218 0.031333577 -0.35938486
000120 b0 64 2a 3f fd 6e ea 3e d6 3c 4e be d1 5b 50 3e
       0.66559887 0.45787802 -0.20140395 0.20347525
000130 bf c3 69 3f 6f a8 d4 3d 59 ab 52 3f ee 6a 0c 3f
       0.9131431 0.10383689 0.82292706 0.5485066
000140 40 ee 0b bf c9 44 36 bf a3 24 d1 bc 2c da c7 3e
       -0.54660416 -0.7119871 -0.025530165 0.3903364
000150 f3 89 08 3d 5c e4 70 bf c1 8c 40 bf 16 93 f0 bd
       0.033334684 -0.9409845 -0.75214773 -0.117468044
000160 b9 1a bf be 1a b6 73 bf 7f 9b c3 be fd 57 22 be
       -0.37325075 -0.9519974 -0.38204572 -0.15853877
000170 94 ef fb bd 6e 99 9b 3d 15 b9 79 bf ff 4e 54 bf
       -0.12301555 0.07597624 -0.9754804 -0.8293304
000180 0e 3a b6 be c6 28 29 bc 73 8f 7c bf ac 80 2c bf
       -0.35591167 -0.010324663 -0.98656386 -0.6738384
000190 25 e4 98 be a7 42 2c 3f 96 fd de 3c 0d 41 69 be
       -0.2986156 0.67289203 0.027220529 -0.22778721
0001a0 c2 25 7d 3f e7 47 7c bf 69 a9 23 3f 4a 11 c0 3e
       0.9888574 -0.98547214 0.63930374 0.3751319
0001b0 a4 a2 a5 3e 5d c6 91 be a5 3e 0d 3f e0 d6 3a 3e
       0.32350647 -0.28471652 0.5517371 0.18246031
0001c0 78 5a 39 3f 06 e6 41 bf ce 0f 9c 3e 4f ce 4e 3f
       0.7240367 -0.7574161 0.30480808 0.8078355
0001d0 86 7e 3b bf 8a da 50 bf 34 e1 4f be ad b8 58 bf
       -0.73239934 -0.81583464 -0.20300752 -0.8465679
0001e0 43 94 38 3f d7 e0 06 bf 6e b7 43 bf 9b 52 25 3e
       0.7210123 -0.5268683 -0.76451766 0.16144793
0001f0 b4 8a 22 3f 2d 9d 09 3f 56 fc 51 3f 84 ba 35 3f
       0.63492894 0.53755456 0.8202566 0.70987725

conv_0.weight f4 [128, 128]
000000 27 24 e8 bd 69 20 7f bd 76 a5 d8 3d cd a5 ff 3d
       -0.113350205 -0.062286768 0.10578434 0.12482796
000010 51 77 95 3d cf 38 56 bd ec 27 d6 3c f4 5d 00 3e
       0.072981484 -0.05230027 0.026142083 0.1253584
000020 0f 0c 5e 3d ed f1 da 3d 9c 72 b5 3d 09 ea fe bd
       0.05421072 0.10690675 0.08859751 -0.124469824
000030 07 0c be bd b7 8e 0c be 29 0d 1e bd f2 49 af bc
       -0.09279638 -0.13726316 -0.03858677 -0.021397565
000040 ee cd 13 3e 3a 64 0b 3c 48 04 50 3d ee f6 90 bd
       0.14434025 0.008507783 0.050785333 -0.07078348
000050 5a fc a3 bd 83 da eb 3d 38 8f 29 bd c8 0a 2a bc
       -0.080071166 0.11516287 -0.04139635 -0.010378547
000060 cb 65 15 3e b1 f4 02 3e 08 0a 33 3d 96 57 f0 3d
       0.14589612 0.12788655 0.04371074 0.11735456
000070 5d 5a 3a bd 3c c9 90 bd 60 d3 c6 bd a2 04 ce 3d
       -0.045496333 -0.070696324 -0.09708285 0.100594774
000080 9b c1 4c 3a 7b 8e 36 bc 42 44 ec bd 5d c3 cf bc
       0.0007810832 -0.011142368 -0.11536457 -0.025361711
000090 62 54 28 be 23 24 20 be 32 53 ff 3d 48 d4 a7 3c
       -0.1643844 -0.15638785 0.1246704 0.020486966
0000a0 cc f7 f4 bd d0 78 18 3e 96 41 76 bd e5 c7 9d 3d
       -0.11961326 0.14889836 -0.06012114 0.077041425
0000b0 0a 78 04 bc b5 64 e3 bd 3d 9a de bc 93 44 c5 bd
       -0.00808526 -0.11103193 -0.027173156 -0.0963222
0000c0 60 42 14 3e f0 b5 50 bd dd 44 01 be 87 d4 ca 3c
       0.14478445 -0.05095476 -0.12623926 0.024759544
0000d0 de 82 0b be 10 ae c6 bd 09 7f b1 bd b8 f5 d3 bc
       -0.1362414 -0.097011685 -0.08666808 -0.025874004
0000e0 68 3e c1 bd d0 7f 9a 3d e7 0b cb 3d c1 29 e3 3d
       -0.09435731 0.075439095 0.099143796 0.11091948
0000f0 94 75 d2 bd af 8b d2 bd fd a4 2c bd 45 ca b3 3d
       -0.102763325 -0.10280549 -0.042149533 0.08778814
000100 d8 a5 a7 3b 4a 0d 60 3d cb 0b 18 3c 87 40 86 bd
       0.0051162057 0.054700173 0.009280155 -0.06555276
000110 90 bd ef bd d5 aa 93 bc f2 95 0e 3c ff 56 ad 3d
       -0.11706078 -0.018025795 0.008702742 0.08463859
000120 02 22 c2 3c 4b 55 17 bd c2 36 d7 bd 90 8f 84 3b
       0.023697857 -0.036946576 -0.10508491 0.0040454343
000130 4b 73 80 3d f0 f0 00 3e 7c be ac bd be a4 dd bd
       0.062719904 0.1259191 -0.084347695 -0.10822438
000140 75 96 04 3e 02 98 0c 3e c0 99 b4 bc b7 87 ff 3c
       0.1294802 0.13729861 -0.02204597 0.031192644
000150 3c cd c8 3d 81 0d 65 bd 25 9c a9 bd bb a5 19 be
       0.0980477 -0.05592108 -0.08281735 -0.15004627
000160 69 37 21 3d bc 91 41 bd 93 d7 c9 bd cb 0c 81 3d
       0.039359484 -0.047258124 -0.09855571 0.06301268
000170 5a 77 d1 bd 16 ef ca 3d 07 32 c8 3d 5e 79 a4 3d
       -0.10227843 0.09908883 0.09775167 0.080309615
000180 60 6b 23 be a5 19 f9 3d ad 2e 52 3c 5a 6e 66 bc
       -0.15958929 0.121630944 0.012828511 -0.014064396
000190 4c b8 22 3d e0 58 22 3e 5a 51 c6 bd 03 67 e3 bd
       0.03972654 0.15854216 -0.09683485 -0.11103632
0001a0 4a 58 00 3c d5 fa c2 bc 9a 04 23 3e ee 90 e5 bd
       0.00783355 -0.023801247 0.15919724 -0.11209284
0001b0 15 ca 1a 3d ec a6 1f 3d db b9 ba 3d fb 9c ee bd
       0.037790377 0.03897755 0.0911748 -0.116510354
0001c0 a6 98 48 bd 3e 06 1a 3e 36 e7 ad 3d 32 01 dd bd
       -0.048973702 0.15041444 0.084913656 -0.107912436
0001d0 2e 25 01 be 60 ac 30 bd 44 87 ae 3d 52 65 d8 bd
       -0.12611839 -0.04313314 0.085218936 -0.105662
0001e0 9d 3e a5 bd b6 9d 47 3d aa 3d b0 bd fe 09 e4 3d
       -0.08068583 0.04873439 -0.086055115 0.11134718
0001f0 f0 f7 96 bc 3b 29 4a 3c ec a7 0b be 1b d0 f4 bc
       -0.018428773 0.012338932 -0.13638276 -0.029884389
000200 d2 94 9d 3d 6c c8 b3 bd a6 33 75 3d 1b 5f bf 3d
       0.07694401 -0.08778462 0.05986371 0.09344312
000210 a8 ef 84 3d f7 8e 18 bd ff 6b 62 3d 99 d4 cc 3c
       0.06491023 -0.037245717 0.055278774 0.025003718
000220 a6 39 05 be 72 c8 be bd f8 a7 fd bd 9e 1f ee bd
       -0.13010272 -0.09315576 -0.12385553 -0.11627124
000230 74 f7 96 3b 4e c9 f5 3d 56 cd 1d 3e 5d c8 ed 3d
       0.0046071354 0.120012864 0.1541036 0.11610482
000240 67 08 b2 bc a1 82 0b 3e 74 23 f8 bd c6 52 ee 3d
       -0.021732522 0.1362405 -0.12116137 0.116368815
000250 6b d2 9a bd 59 29 d9 bd 99 bc 35 bd f0 4c 05 3e
       -0.07559665 -0.106035896 -0.044369314 0.1301763
000260 f7 72 9f 3d 5b 2b 47 bd 7d e5 04 be 6a 34 1f bd
       0.077856 -0.04862533 -0.12978168 -0.038868345
000270 91 39 01 3e b1 99 a6 3c fd 6d d8 bd be 3d e4 bd
       0.12619616 0.020336958 -0.105678536 -0.11144589
000280 35 cf 74 bd bb 3f 96 3d 3a b7 53 3d 80 e1 2a 3b
       -0.05976792 0.07336374 0.05168841 0.002607435
000290 c3 44 8e bd ca 4c 05 3e b8 83 fb 3d 4f e3 f5 3b
       -0.06946709 0.13017574 0.12280983 0.007503904
0002a0 a8 ad b3 3c a5 2c ed bd 82 bd b1 3d 99 94 86 3c
       0.021933392 -0.11580781 0.08678724 0.016428279
0002b0 30 ad b3 3d 18 5f cf 3c 4e 87 e1 3d 95 c7 01 3e
       0.08773267 0.025313899 0.110121354 0.12673791
0002c0 5f 80 ca bd 76 9f d4 3d 5e e8 d0 3c f6 7a e8 ba
       -0.09887766 0.10381977 0.025501426 -0.001773684
0002d0 13 bc df 3c 2c 37 fb bd 24 85 da 3c e6 ad 25 3d
       0.02731136 -0.122663826 0.026674815 0.040449046
0002e0 7a d2 01 3e b5 66 0b 3e 15 f5 a5 bc 72 8d 97 bc
       0.12677947 0.13613398 -0.020258466 -0.018500064
0002f0 1c 77 6c bb 0a 43 ab bc 4b 21 db 3d 72 50 08 bc
       -0.0036081737 -0.02090599 0.106997095 -0.008319961
000300 bb ff a1 bd 92 a6 01 3e da 3f 12 bd 28 fa 15 3e
       -0.07910105 0.12661198 -0.035705425 0.14646208
000310 b6 26 c4 3d e9 ec 0b be 01 f9 92 bd 15 0f 21 bc
       0.09577696 -0.13664593 -0.071764 -0.009830256
000320 61 ae b3 bc e7 c8 df 3d 82 3e 78 3c 83 a4 a4 bd
       -0.021933736 0.10926991 0.015151622 -0.080391906
000330 03 fb 95 3d d0 4b e4 3c f9 e2 1f be 37 bf d1 3d
       0.07323267 0.027868181 -0.15613927 0.102415495
000340 6f 96 f8 3c 80 5f 85 3d 0b 00 ad ba 15 2e ac 3d
       0.03034517 0.06512356 -0.0013198865 0.08407227
000350 51 87 60 3d a9 fe a4 3d 0d a6 45 3d 1b 80 c7 bd
       0.054816548 0.08056385 0.04825406 -0.09741231
000360 09 4d 32 3c 59 37 11 3e 7a 62 e6 bd 2c 12 c1 3d
       0.010882624 0.1418127 -0.11249252 0.09427294
000370 39 7a 72 bd ef 9b 02 be 19 11 9e 3c e5 dd 1f 3e
       -0.05919859 -0.12754796 0.019295262 0.1561199
000380 83 13 85 bd 39 bb 08 be 8f 81 af 3d 87 07 cd bd
       -0.06497862 -0.1335267 0.08569633 -0.10011201
000390 e8 44 dc bd 77 de 16 bd 10 c2 de 3d 80 a9 91 3d
       -0.1075533 -0.036833253 0.10876858 0.07112408
0003a0 b6 a7 13 be d4 9e 21 be 23 ff 92 bc c1 a2 15 bd
       -0.14419445 -0.15783244 -0.017943924 -0.036532167
0003b0 bb fa 81 bd d1 a9 8c 3c 5d 15 12 bc e2 f4 3d 3d
       -0.06346651 0.017170819 -0.008916226 0.046376117
0003c0 51 5a 90 bb 80 e5 8b bd 58 4f c8 bd 9e f8 6e 3c
       -0.004405298 -0.06830883 -0.097807586 0.014585642
0003d0 f7 6a 70 bd 07 37 34 bd 48 5e d4 bd b5 b8 95 bd
       -0.05869576 -0.04399779 -0.10369545 -0.07310621
0003e0 6b 2e 8a 3d 9a 0a d9 bd 18 a6 b9 bd 28 89 27 bc
       0.06747135 -0.10597725 -0.09064883 -0.010225572
0003f0 e9 53 f2 bd 63 5b 11 3e 7b 3c be bd fd a4 ca bd
       -0.11832411 0.14195018 -0.092888795 -0.0989475

conv_0.bias f4 [128]
000000 99 db 46 bc 2c 3d 25 3b d6 16 e1 bb 2b 68 42 3c
       -0.012137317 0.0025213463 -0.0068691773 0.011865656
000010 14 93 2b 3c 4d 86 de ba e6 06 2e bc dd 47 df 3b
       0.010472078 -0.0016977281 -0.010621762 0.0068139867
000020 70 59 21 bc d5 0b a8 bb ca e2 4c 3c 91 47 50 3c
       -0.009847984 -0.0051283636 0.012505243 0.012712375
000030 c0 87 27 bc 26 b8 68 3c 53 98 e5 bb 2e 77 29 bc
       -0.010225236 0.014204061 -0.007006684 -0.010343356
000040 51 ce 3b 3c 4f 6d 23 bc 6c d7 1c 3c 91 a0 45 3c
       0.011462764 -0.009974792 0.009572845 0.012062208
000050 53 ea c7 bb 56 4f 53 3c 18 b6 02 bc 12 d3 1e bc
       -0.0061009317 0.012897333 -0.007977985 -0.009693878
000060 da 81 75 ba 64 47 c4 ba b7 c7 25 3c 7f 14 2a 3c
       -0.00093653577 -0.0014974889 0.0101184165 0.010380863
000070 53 a0 e4 3b 2e 17 d1 bb 87 31 42 3c ee be 38 bc
       0.00697712 -0.006380937 0.011852629 -0.01127599
000080 f5 e7 57 3c a6 6e 2a 3c fe 42 58 bc 06 65 40 bc
       0.013177861 0.010402357 -0.013199566 -0.011742836
000090 f6 3d 4d bc cd 5f 24 bc 13 27 49 3c 28 25 4f bc
       -0.01252698 -0.010032606 0.012277382 -0.012643136
0000a0 cd 45 bd 38 07 b4 01 3c 46 69 26 3c 36 8c 2d 3c
       9.025224e-05 0.007916457 0.010156935 0.010592511
0000b0 36 dc cf 3b ca e7 2e 3c 54 a0 4a 3c cd 1a 20 bc
       0.00634339 0.01067538 0.012367327 -0.009772015
0000c0 71 4b 2e bb 6d 45 1a 3c 74 1d f7 3b 87 62 53 3c
       -0.002659526 0.009415966 0.007541353 0.012901909
0000d0 54 3d 93 bb 77 c9 2b 3c 12 e9 28 bc 52 44 8d 3b
       -0.004493395 0.010485045 -0.010309475 0.004311123
0000e0 40 3d d8 bb 43 d9 5b 3c fe 20 23 bc ea 0a 55 bc
       -0.0065990984 0.013418498 -0.009956596 -0.01300309
0000f0 1f ca 3b bc 96 e5 51 3c e6 a9 34 3c e5 30 35 bc
       -0.011461764 0.012811085 0.011026835 -0.011059021
000100 b2 c1 b7 bb df e5 20 bc 7c b4 5a 3c 2b 0c 44 bc
       -0.005607807 -0.009820431 0.013348695 -0.011965792
000110 bd cc 34 bc 19 09 ab bb c7 d6 31 bb f1 13 c3 3b
       -0.011035142 -0.0052195904 -0.0027136074 0.005953305
000120 c9 28 45 3c f0 8a 24 3c 02 f2 36 3c 3b 77 d8 bb
       0.01203365 0.010042891 0.011166098 -0.0066060103
000130 6d 67 68 bb 85 aa e2 3b fd 95 5b 3c 66 44 f8 3b
       -0.0035462037 0.0069173 0.013402459 0.007576513
000140 b8 cb 3c bc 95 2c 3a bc 5d 80 4d 3c a9 02 49 3c
       -0.01152318 -0.011363168 0.012542811 0.012268701
000150 a2 84 ad bb d1 b1 1c bc 63 e7 b9 bb 95 9c 20 bc
       -0.005295352 -0.009563879 -0.0056733354 -0.009802957
000160 b7 a1 57 bc b2 72 1c bc 41 8c 2b 3c 1d c2 f8 3b
       -0.013161114 -0.00954883 0.010470451 0.0075914995
000170 81 ff 61 3a 77 8d 3e bc ec 63 46 3c 20 9b 26 bc
       0.0008621142 -0.011630408 0.012108784 -0.010168821
000180 83 55 32 bc 18 97 5a 3c 9a e6 23 bc 88 43 29 bc
       -0.010884645 0.013341688 -0.01000371 -0.010331042
000190 7a d4 42 3c 54 6b 33 3c 2a 3f 18 3c c2 a9 f1 bb
       0.011891479 0.010950882 0.009292403 -0.007374973
0001a0 14 f5 17 3b 74 af 45 3c ac 19 54 3c 6f 2d c5 bb
       0.002318685 0.012065757 0.012945574 -0.006017379
0001b0 2f 78 30 3c 1c 6e 33 3c 8d b6 1e bc 5b f7 19 bc
       0.0107708415 0.010951545 -0.009687078 -0.009397353
0001c0 ac d8 33 3c 3d 79 1a 3c 06 e8 d7 3b fa 39 27 3c
       0.010976952 0.0094283195 0.0065889386 0.010206694
0001d0 a3 ac 60 3c 1f 7b 23 3c 06 da 21 3c 74 e8 24 3c
       0.013713035 0.009978085 0.009878641 0.010065187
0001e0 3b a3 47 3c a0 25 2d 3c 13 d0 8e bb 2f 6e 3c bc
       0.012184913 0.0105680525 -0.0043583005 -0.011500879
0001f0 3b dd 29 bc 06 5f 38 bb 79 86 19 bb db 91 64 bb
       -0.010367687 -0.002813281 -0.00234261 -0.0034876976

layers.0.weight f4 [128, 128]
000000 20 51 ae 3b c4 c5 fc 3c de 21 f9 bc 13 26 a9 bd
       0.0053197294 0.03085602 -0.030411657 -0.08259215
000010 12 86 e8 3d 2a f8 a4 3d c0 30 df 3d 7e 80 d5 3d
       0.11353697 0.08055146 0.1089797 0.104248986
000020 44 63 1a 3c 1f 1c 8f bc 8d 81 10 3d 47 c1 1c 3d
       0.009423081 -0.017469464 0.0352798 0.03827026
000030 80 a3 ab 3d 41 27 d3 3c 2a c4 08 3e 9c a5 c8 bc
       0.083807945 0.025775554 0.1335608 -0.024493031
000040 60 d5 10 be 6b bb a3 3d 25 97 13 be 70 15 30 3c
       -0.14143896 0.079947315 -0.14413126 0.010747299
000050 3a 32 11 be 12 ef d3 bd 46 6d 0f 3e cd e4 dd 3d
       -0.14179316 -0.103483334 0.14006528 0.10834656
000060 90 1f 08 bd 67 87 89 bc c3 df 1c 3e ad d4 84 3d
       -0.033233225 -0.016788198 0.15319733 0.06485877
000070 70 48 a5 3d 8b 74 a6 3d 60 93 88 bd ef f7 18 3e
       0.08070457 0.081276976 -0.066687346 0.14938329
000080 49 8a de bb 55 5f fc 3c 69 34 25 3d ad 32 02 3e
       -0.006791387 0.030807177 0.040333185 0.12714644
000090 f6 5d c6 3d 5d b4 c1 3d 2b 09 ca bd 2c 94 1c be
       0.096858904 0.0945823 -0.0986503 -0.15290898
0000a0 56 b0 ac 3d ce fa 35 3c 57 9a 07 3e 45 1b 24 be
       0.08432071 0.01110716 0.1324247 -0.16026028
0000b0 22 0e 2d ba 82 a2 a5 bd 32 e6 43 3c af c4 05 bd
       -0.0006601532 -0.080876365 0.011956738 -0.032658275
0000c0 31 6b 95 bd ae 8f 8a bc 3d fc 05 3e 38 cc 25 be
       -0.07295836 -0.016914215 0.13084503 -0.16191185
0000d0 2a 1b ed bd a6 71 19 3d c0 0e 3b bd 5e fb 1a be
       -0.11577447 0.0374619 -0.045668364 -0.15134951
0000e0 43 8e cc bc 81 c9 0c be b6 d8 9f 3b 7c 27 03 3e
       -0.02497018 -0.13748743 0.004878129 0.12808031
0000f0 a6 52 89 3d aa 04 8b 3d 8e 53 d5 3d a5 c8 c5 bd
       0.06705217 0.06787999 0.104163274 -0.096574105
000100 1f 8d 0b 3e 6c 6d 47 3d 0d 3c b1 3d f8 80 bf 3d
       0.13628052 0.048688337 0.08654032 0.09350771
000110 3b 75 b6 3d 12 e8 1e be 37 d2 2f bc 2e e3 75 3d
       0.08909079 -0.15518215 -0.0107312715 0.06003111
000120 96 e4 20 3e f6 75 82 3b ef 7f 0a bc 17 f5 05 3e
       0.15712199 0.003981347 -0.008453353 0.13081776
000130 43 64 08 3d 01 22 93 3d 90 bf 3a bd 41 a7 02 3e
       0.033298742 0.0718422 -0.045592844 0.12759115
000140 82 1d 20 bd 57 f3 65 3c d3 d8 24 bd 24 b1 c1 3d
       -0.03909064 0.0140350675 -0.040245842 0.09457615
000150 fa 71 c9 bd 89 28 9b bc 63 34 0e 3d f6 93 31 3c
       -0.098361924 -0.018940227 0.03471793 0.010838499
000160 b8 86 11 3e a6 f7 e6 3d 97 e5 90 bd 04 c6 39 3c
       0.14211547 0.11277704 -0.07075041 0.0113387145
000170 dd eb d2 bc 49 59 8c bd ac c9 1b bd ce 0f e4 bd
       -0.025747234 -0.06852967 -0.038034126 -0.11135827
000180 c9 c0 6e 3d c3 47 b3 bd 55 59 a1 3d 63 8e d7 bd
       0.058289323 -0.08753922 0.07878367 -0.10525205
000190 37 9a 74 3d 27 02 33 bd 36 a8 dd bb 19 45 18 be
       0.059717383 -0.043703225 -0.006764437 -0.14870109
0001a0 66 4c 4c 3c 72 25 e8 bd bc 94 c5 3d 9f 33 92 3c
       0.012469387 -0.11335267 0.096475095 0.01784688
0001b0 ba 4f 12 3d 92 12 1a 3e f9 8d 30 bd bf cd 16 bd
       0.035720564 0.15046147 -0.043104146 -0.03681731
0001c0 c2 ed 47 3d 7a 1f fd bd 3f 4e a3 3d fc f7 94 3d
       0.048810728 -0.12359519 0.07973909 0.07273862
0001d0 0a 28 14 3e 0c 90 cd 3d a6 a9 77 3c 59 71 d7 3d
       0.14468399 0.100372404 0.015116131 0.10519666
0001e0 49 76 a8 3c 06 7d 47 bc d7 22 a7 3b ee 81 4b bd
       0.020564215 -0.012175804 0.005100589 -0.049684457
0001f0 93 99 a5 bd 48 33 31 bb cd b6 7d 3d 96 cd a4 3d
       -0.080859326 -0.0027038623 0.06194191 0.08047025
000200 d9 8b 0a 3e df 1c ee bd ec ed 78 bd 87 78 c4 bc
       0.1352991 -0.116266005 -0.060773775 -0.023983253
000210 fc ee 33 ba 95 17 52 3d 76 c1 cf bd 39 39 06 be
       -0.00068639196 0.05129202 -0.101443216 -0.13107766
000220 91 14 b0 bc ec 4a c5 bb 14 fc 23 3d 18 5f e4 bd
       -0.021494182 -0.0060208943 0.040035322 -0.1115095
000230 9f 44 75 bd c5 7d 7a 3b 01 41 01 be 82 cb 45 3d
       -0.059879895 0.0038221937 -0.12622453 0.048289783
000240 d7 b5 3e bd d3 16 9a 3d 6a a1 1d bc ad f2 0c bd
       -0.046560135 0.075238846 -0.009621004 -0.03441112
000250 97 c3 cd bd 9a 94 10 3e c6 81 e1 3d ca 65 c6 3d
       -0.100470714 0.14119187 0.110110804 0.096873835
000260 2f 0a e0 bd e3 1e 9a bd a8 ef a8 bd f6 37 fe bd
       -0.10939442 -0.075254224 -0.08248836 -0.124130175
000270 d5 47 02 be 76 ee ab bd 94 20 1f be 7b 47 33 3d
       -0.12722714 -0.08395092 -0.15539771 0.04376934
000280 6f 03 c9 bd 56 f2 21 be 1e 1c 34 bd 41 b4 1e bd
       -0.09815108 -0.158151 -0.043972127 -0.038746122
000290 44 29 a5 3d 26 95 bc 3d c9 72 a2 3d b5 28 a3 3c
       0.080645114 0.09208135 0.0793205 0.019916872
0002a0 ca 80 ac 3b fb c4 5d bb b1 67 08 3e 7c 14 81 bc
       0.0052643763 -0.0033839333 0.13320805 -0.015756838
0002b0 36 70 b8 bc 58 25 1e be 90 df 14 be 5c 6d 67 bc
       -0.022514444 -0.15443933 -0.14538407 -0.014125194
0002c0 71 d7 ee 3d 46 a6 f4 3d 6c 28 03 be ae 37 92 bd
       0.11662186 0.11945777 -0.12808388 -0.07139526
0002d0 e0 a9 8c 3b fd 44 a5 3d f2 4d d9 3d 74 cf 11 38
       0.0042927116 0.08069799 0.1061057 3.47639e-05
0002e0 e5 68 c6 bd e6 08 52 bc 9a ea a7 bc 36 ae 2f bd
       -0.09687976 -0.012819504 -0.020497609 -0.04289075
0002f0 64 77 ff bd dd 1f ec bd 8f e3 af 3d ff ca dc bd
       -0.12473944 -0.11529515 0.08588325 -0.10780906
000300 bc f8 ca 3d 31 5c 8e 3d 7b 75 ef bd 8b c8 f8 3d
       0.099107236 0.06951178 -0.116923295 0.121476255
000310 29 ec 98 3d 80 16 19 3e 26 1f 0a be 4d 2c f2 bc
       0.07466919 0.1494999 -0.13488445 -0.02956214
000320 78 48 46 bd 2b 9c 8b bd 1c 8e 09 3c 59 66 e5 3d
       -0.048408955 -0.06816896 0.008395698 0.11201162
000330 7e db b2 3d f4 a0 cd 3d 5f 28 58 3c 3e f5 0c 3b
       0.08733271 0.10040465 0.013193219 0.002150848
000340 76 81 89 3a de 5a 04 3e d8 a7 7d bc e0 98 ba bc
       0.0010490853 0.12925288 -0.015481912 -0.022777975
000350 4e bf 82 3d ed 8f 9b bc a5 6d f3 bd 96 49 55 3d
       0.06384145 -0.018989528 -0.118861474 0.05207213
000360 5c 44 d1 3c f7 72 be bd b0 1d 9a 3d c4 66 00 3e
       0.025545292 -0.092992716 0.07525194 0.12539202
000370 c2 c0 72 bd ec 4a ad 3c 1b 60 fb bc 63 f5 80 3c
       -0.05926586 0.02115389 -0.030685475 0.01574201
000380 be 3e 13 3e 9f 7b dd bd c5 8c aa 3d 76 2e 0d be
       0.14379403 -0.108145945 0.08327631 -0.13787255
000390 96 2d d2 3d 0d 74 a6 3c 03 e3 ce bd c9 b3 d0 bd
       0.10262601 0.02031901 -0.10101893 -0.10190541
0003a0 9f 07 04 be 24 21 4b bd e6 24 c4 3d 09 13 0b 3d
       -0.12893532 -0.049592152 0.0957735 0.0339537
0003b0 9b d7 b4 3d 8b b3 9f bd 8a c5 2c 3d 23 63 29 3d
       0.08830186 -0.07797917 0.042180575 0.04135431
0003c0 d7 6b dd bd e6 30 21 be 52 4d db bd f6 77 04 3d
       -0.108115844 -0.1574131 -0.10708107 0.032340966
0003d0 7d 16 a2 bd a9 af e6 bd 95 84 92 39 4e f0 42 bc
       -0.079144455 -0.11263973 0.0002794607 -0.011898113
0003e0 a0 9a cd bd 14 83 09 3e 4d dc 02 3e 5a 83 0a be
       -0.10039258 0.13428909 0.1277935 -0.13526669
0003f0 aa a2 81 3c ad 0f 1f be cf f9 bc bd ba d5 e6 3d
       0.015824635 -0.15533324 -0.09227335 0.11271234

layers.0.bias f4 [128]
000000 28 74 1a 3c 7c 6e 1a 3c d5 c7 28 bc d9 59 1d bc
       0.009427108 0.009425756 -0.01030155 -0.009603941
000010 bc 01 16 3c 5e 34 1c bc 3e c9 47 bc 6a 61 1a bc
       0.009155687 -0.00953397 -0.012193976 -0.009422639
000020 e9 4b 26 bc 39 c8 13 3c 93 f6 1f bc e7 c4 21 bc
       -0.010149934 0.009019905 -0.009763378 -0.009873605
000030 91 a9 5f bc 48 69 11 3c a0 99 19 bc 69 18 0d bc
       -0.013651268 0.008875199 -0.009375006 -0.008611777
000040 7b 79 19 3c 28 75 1a bc 05 c3 09 bc fe e8 1a bc
       0.009367342 -0.009427346 -0.008408313 -0.009454964
000050 26 96 19 3c 05 0e 16 bc 31 30 0f 3c b8 20 1a bc
       0.009374177 -0.009158616 0.008739517 -0.009407215
000060 62 2d 0d 3c 5d 3c 1e bc fd f1 1a bc 63 8a 19 bc
       0.008616777 -0.009657946 -0.009457109 -0.009371373
000070 9f dd 16 3c 17 6f 3d 3c 3c a4 18 bc 5e fa 1d bc
       0.009208112 0.01156213 -0.0093165 -0.009642212
000080 f2 01 1c 3c 16 f4 1a bc 4a ce 1a 3c 3b 33 15 3c
       0.009521948 -0.009457609 0.009448597 0.009106453
000090 8f 75 f5 bb 13 05 07 bc b7 6f 1a bc 59 12 1f 3c
       -0.0074908207 -0.008240956 -0.009426049 0.009708964
0000a0 83 ef 1a bc 74 2a 1a bc f6 4c 28 3c 66 77 14 3c
       -0.009456518 -0.009409536 0.010272255 0.00906167
0000b0 ed da 11 3c cd 16 11 bc 95 b7 1a bc 85 85 25 3c
       0.008902294 -0.008855534 -0.009443183 0.010102634
0000c0 1e 52 2b 3c b0 c6 2f bc 20 cd fb 3b c6 89 33 3c
       0.01045659 -0.010728523 0.007684365 0.010958141
0000d0 6a 01 12 bc 1c 19 13 bc 77 25 1c bc 4d 2a 0d 3c
       -0.00891147 -0.0089781545 -0.009530417 0.008616042
0000e0 81 64 12 3c b9 c1 13 3c c1 c5 13 3c 11 51 1e bc
       0.008935095 0.009018355 0.009019316 -0.009662882
0000f0 ff 46 30 bc 72 f9 1c 3c 67 15 11 bc a3 b8 1d bc
       -0.010759114 0.009580957 -0.0088552 -0.00962654
000100 c5 a1 2a bc 30 5e 20 3c a8 8e 14 3c 7d ff 1e 3c
       -0.010414545 0.009788081 0.009067215 0.009704468
000110 be e3 24 3c 69 03 1d 3c 63 6e 19 bc 8d 56 1a 3c
       0.010064064 0.009583333 -0.009364697 0.009420049
000120 25 4a 13 bc df 0c 31 bc bb 01 1a bc f2 31 0e 3c
       -0.008989845 -0.010806291 -0.009399827 0.0086789
000130 f3 06 0f bc aa dd 13 3c a6 d4 10 bc 55 88 1a bc
       -0.008729684 0.009025017 -0.008839762 -0.009431918
000140 e6 4b 0e 3c be 23 1b bc 42 ee 1a bc 29 79 0a 3c
       0.008685088 -0.009468971 -0.009456219 0.008451738
000150 aa 57 1e 3c e6 33 0f 3c 47 87 27 3c 8a db 23 3c
       0.009664455 0.008740401 0.010225124 0.010001073
000160 61 de 14 bc 54 80 12 3c 29 1e 21 bc 81 b3 0e 3c
       -0.009086222 0.008941729 -0.009833851 0.008709789
000170 91 d4 13 3c 08 39 1d bc a2 6b 19 3c 92 49 1e 3c
       0.009022848 -0.009596117 0.009364041 0.009661095
000180 ac 62 3b 3c d4 9d 25 bc 15 9d 20 3c 99 ff 1c bc
       0.011437099 -0.01010843 0.009803076 -0.009582424
000190 0a ad 13 bc e8 61 12 bc cf f0 19 bc d8 74 8e 3b
       -0.009013424 -0.0089344755 -0.009395792 0.004347425
0001a0 e2 55 21 bc e0 a4 0f bc 92 33 0b 3c 77 d4 19 3c
       -0.009847136 -0.008767337 0.008496182 0.0093890345
0001b0 e7 0d 1a 3c 6d 38 21 bc 0a 9a 23 bc af 5a 1d bc
       0.009402729 -0.009840113 -0.009985456 -0.00960414
0001c0 15 b2 21 3c e1 9a 19 bc e2 2e 12 3c c7 1f 44 bc
       0.009869118 -0.009375305 0.008922311 -0.011970467
0001d0 04 c5 19 bc 44 ea 14 3c c0 09 45 3c 7d c7 05 bc
       -0.009385351 0.009089056 0.01202625 -0.0081652375
0001e0 a8 f4 1a 3c 95 c3 01 3c bd 18 3e 3c e3 8d 1e 3c
       0.009457745 0.007920166 0.011602578 0.009677383
0001f0 e5 84 11 bc 41 8d 3e bc 6a 54 19 bc e3 3c 1b bc
       -0.008881782 -0.011630357 -0.009358505 -0.009474966

predict.weight f4 [1, 128]
000000 b4 5f 9e 3d da 2b bd 3d 7a 2a 6a bc 20 1b 62 bd
       0.07733098 0.0923688 -0.014292354 -0.05520165
000010 4d c5 ab 3d 98 00 62 bd 1a ca 27 bc 4a 37 91 bd
       0.083872415 -0.055176347 -0.010241056 -0.07090624
000020 0f 4b b7 bc 3b 81 9d 3d 38 71 1a bd a6 e3 1b bd
       -0.022374658 0.076906644 -0.03770563 -0.0380589
000030 0c 6c 38 bc d5 ea 3c 3d ce 12 bd bd 2d a6 b7 bc
       -0.011256229 0.04612239 -0.09232102 -0.022418106
000040 92 de ad 3d f6 59 a3 bd db b3 6b bc f3 6b b2 bd
       0.084897175 -0.07976143 -0.014386143 -0.08711996
000050 9b 62 a9 3d 6d 31 b6 bd 5c 9d da 3c e4 57 c7 bd
       0.082707606 -0.08896146 0.026686363 -0.09733561
000060 9e 57 ca 3c b4 31 3e bd 4a 4b 97 bd 72 08 c7 bd
       0.024699982 -0.04643412 -0.07387407 -0.09718408
000070 7f e4 9c 3d fe 46 94 3c 51 2c 71 bd f4 ed 6a bd
       0.0766077 0.018100258 -0.058880154 -0.057355836
000080 95 64 6b 3d a0 5f 89 bd f9 0a 9d 3d d2 eb b4 3d
       0.05746897 -0.06707692 0.076681085 0.08834042
000090 39 27 8c bb 05 80 1e bc 26 88 a8 bd 69 44 35 3d
       -0.0042771366 -0.009674077 -0.08229093 0.044254694
0000a0 1c 5b 8e bd 89 2d c1 bd 1c 29 9f 3c eb ae 78 3d
       -0.069509715 -0.09432513 0.019428782 0.06071369
0000b0 1d 2b 50 3d ca 34 30 bd 13 95 9a bd 40 02 cd 3c
       0.050822366 -0.043019094 -0.07547965 0.025025487
0000c0 3a a9 be 3c 01 10 8f bc e7 e9 a6 3b 66 3a 88 3c
       0.023274053 -0.017463686 0.0050938013 0.016629409
0000d0 b7 92 4c bd be 98 43 bd 61 a5 53 bd 50 ad c7 3c
       -0.049944606 -0.04775309 -0.05167139 0.024374634
0000e0 ff 7e 36 3d 58 b5 69 3d b2 70 35 3d 03 1e 44 bd
       0.044554707 0.05705771 0.044296928 -0.047880184
0000f0 9d 81 9b bc ae 8d 15 3d b7 ea 0a bd 8e 1f 55 bd
       -0.018982703 0.03651207 -0.033915248 -0.052032046
000100 b7 b6 a6 bc af 58 1e 3d b7 0e 92 3d e3 22 51 3d
       -0.020350797 0.038658794 0.07131713 0.05105866
000110 f9 2a dc 3c ee a5 64 3d a5 90 bd bd 9d fc c4 3d
       0.02687596 0.055822305 -0.092561044 0.09618495
000120 9e 70 a4 bd a0 20 90 bc ee 78 a5 bd 4b ac c4 3c
       -0.080292925 -0.017593682 -0.08079706 0.024007937
000130 75 8e ff bc 11 3e f7 3c fd bf 0c bd 2c 40 b9 bd
       -0.031195858 0.030180963 -0.03436278 -0.09045443
000140 44 03 f5 3c 94 56 91 bd 51 a0 ba bd 97 6a 8e 3c
       0.029908784 -0.070965916 -0.09112609 0.01738481
000150 20 40 69 3d 48 81 ee 3c 3f 64 42 3c 73 c4 c5 3c
       0.05694592 0.02911438 0.011864721 0.024141526
000160 3f af ad bd 11 bd 83 3d 30 7a 19 bd f5 60 e8 3c
       -0.08480691 0.06432546 -0.037470043 0.028366545
000170 69 f2 94 3d ab 89 60 bd aa 92 c1 3d f9 ca 4a 3d
       0.072727986 -0.05481879 0.09451802 0.049509976
000180 e0 3c 7c 3c 78 91 e4 bc 48 9f 35 3d 9c f5 44 bd
       0.015395373 -0.027901396 0.044341356 -0.048085794
000190 e8 9b 82 bd ab c8 7e bd 76 42 b7 bd d9 c6 81 bb
       -0.06377393 -0.06220309 -0.08948223 -0.003960472
0001a0 0e 14 24 bd 29 2e d1 bc b7 c0 83 3c cb 92 c0 3d
       -0.04005819 -0.025534706 0.016083105 0.094029985
0001b0 c7 b0 ba 3d e6 1a 21 bd 96 94 03 bd 7d 77 39 bd
       0.09115749 -0.039332293 -0.032124124 -0.04527997
0001c0 db 0d 0b 3d e1 54 b5 bd b3 13 bf 3c 5f 96 92 bc
       0.03394876 -0.0885408 0.023324823 -0.017893968
0001d0 bb 2e ad bd e5 ff 1b 3d 11 ac 88 3c b4 92 23 bc
       -0.08456179 0.038085837 0.01668361 -0.009983707
0001e0 75 df 99 3d 20 1e f4 3b 3d ed 4e 3c 79 13 28 3d
       0.07513324 0.0074498802 0.012629804 0.041034196
0001f0 4e c8 88 bc f3 c8 59 bc 9a f0 c9 bd aa e7 9d bd
       -0.016697075 -0.013292539 -0.09860344 -0.07710202
