PERGAT_embbedding/data/emb/models/model_dim128_lay2_epo11.pth (torch, 137088 bytes, 7 tensors)

linear.weight f4 [128, 1]
00000000: 4893 8a3e f664 03bf 4055 47bd 3e1d 0ebf
00000010: d61d 6fbf 80b9 053c b27c 4abf e01c adbe
00000020: 60c1 2cbd 300a abbe 4879 66be 044a 4d3f
00000030: 4031 00bd 1ca5 823e 0049 9d3d 68ba 223f
00000040: b0a5 083e 54c0 f33e e691 33bf 8030 76be
00000050: 0cc5 313f bede 6c3f 189a 053e 9041 433f
00000060: 0c3d a2be bce0 353f 70b2 3cbf dcaf fbbe
00000070: 2862 bb3e 6ed9 41bf b06e ecbe 982d 5c3f
00000080: 8441 47bf 181b 2cbe 3e24 42bf 104c 10be
00000090: f084 923d 1088 56be 6060 fcbd 9c64 e9be
000000a0: 3c0c 68bf 2ee5 4e3f 344b ddbe 3801 973e
000000b0: 085c 40bf fc8c 3fbf e2b9 2ebf 9ce9 b63e
000000c0: ce90 2cbf 60bd cf3e 7e95 633f 0868 37be
000000d0: f059 92be febe 6cbf 6041 d6bd ba60 493f
000000e0: 9c80 a5be 282b 1bbf 4aa0 303f f438 debe
000000f0: 601e f53e 802d 41bd 122a 0b3f eaca 143f
00000100: ded8 5dbf 1057 a7be 6464 07bf e42e c7be
00000110: 0060 76bd 2001 73be 908c 4cbf 903a 5b3f
00000120: 8a95 263f 4870 0abf 90bf eabd a849 c3be
00000130: 26cc 2a3f 4832 21be cc9f 7d3f c8d4 903e
00000140: 3864 c3be fc4d f03e 4467 243f e095 03bd
00000150: ea34 7b3f 583e 753e 4827 5a3e 044b debe
00000160: c038 863d e09e 643d 7407 7d3f 946a c33e
00000170: 0aad 6abf 1287 34bf e0f1 95bd 7c1c 1a3f
00000180: 94ad 1bbf ec1b c03e 70b3 973d 5ad7 1fbf
00000190: 16b6 1ebf f4c5 9ebe 6087 57bd e009 7a3f
000001a0: 2002 58bf d482 fe3e ec0f 5cbf e43f 5bbf
000001b0: da8b 343f 2889 55be 680f b93e d0ad 113f
000001c0: 8022 56bf c4e0 25bf f2e7 023f 421b 153f
000001d0: 8827 3d3f 44a1 e6be 6040 3cbe 70bf 22be
000001e0: 28ed 3cbf 4407 f3be 5255 613f 208e 14bd
000001f0: 0076 3a3d c0df b13e a0b0 51bf a012 adbd
0.27065492 -0.5132593 -0.048665285 -0.5551337 -0.934049 0.008161902 -0.7909652 -0.33811092
-0.042176604 -0.3340621 -0.22507203 0.80191064 -0.03129697 0.25516593 0.07679939 0.63565683
0.13344455 0.47607672 -0.701445 -0.24041939 0.69441295 0.9252738 0.13047063 0.76271915
-0.316872 0.7104604 -0.73709774 -0.49157608 0.36598325 -0.75722396 -0.46178198 0.8600707
-0.77834344 -0.1680721 -0.7583655 -0.14091516 0.07154262 -0.20950341 -0.123230696 -0.4558457
-0.9064367 0.8081845 -0.43221438 0.29493117 -0.7514043 -0.748245 -0.68252385 0.35725105
-0.67408454 0.4057417 0.8889998 -0.17910779 -0.28584242 -0.9247893 -0.10461688 0.7866322
-0.32324684 -0.60612726 0.6899458 -0.43402827 0.47874737 -0.047162533 0.5436107 0.5812212
-0.8665904 -0.3268361 -0.5288756 -0.38902962 -0.060150146 -0.23730898 -0.7990198 0.85636234
0.6507193 -0.5407758 -0.11462319 -0.38142133 0.66717756 -0.15741837 0.99071956 0.2828734
-0.38162398 0.46934497 0.6422007 -0.032125354 0.98127615 0.23949564 0.21304047 -0.43416607
0.06553793 0.055815578 0.988395 0.3816725 -0.91670287 -0.705186 -0.073215246 0.60199714
-0.60811734 0.37521303 0.07407272 -0.62437975 -0.6199659 -0.310104 -0.052619338 0.9767132
-0.8437824 0.4970919 -0.85961795 -0.85644364 0.70525897 -0.20853102 0.36144567 0.5690584
-0.8364639 -0.6479609 0.5113517 0.5824472 0.73888445 -0.4504491 -0.18383932 -0.1589334
-0.7379937 -0.4746648 0.88020813 -0.036268353 0.04552269 0.3474102 -0.81910133 -0.08450818

linear.bias f4 [128]
00000000: c926 1bbf f042 393f 9034 ab3e 03ca 5b3f
00000010: 2f32 9b3e 01b0 4a3f bc15 2d3f 7af2 193f
00000020: 355d 70bf dc97 0f3f ce2e acbe e985 2e3f
00000030: a258 743f 464b 093f 0889 323f fc6b 6ebf
00000040: 02c9 fabd 2b2f 12bf 8beb 67bf 4286 7bbf
00000050: a89e 483f 7669 26bf bf67 693f 0f27 123d
00000060: 5ecd 523f 9765 bbbd 02da 033f b4ab 7b3f
00000070: 2b32 743e 3dc8 e43d c35f 4b3f af48 03bb
00000080: c3d6 78be 973c f4bd 6e3b 2b3d ac4c 26bf
00000090: 8819 28bf d3a7 01bf 51be 67bf fa6c 793e
000000a0: ab99 2a3f 8108 763f 8d16 3f3d 11c3 403d
000000b0: eab9 833d 93b4 023f 2754 49bf 4e37 dabe
000000c0: 2d47 88be 1861 343e d673 cabe 5cf2 6c3f
000000d0: a4f9 86be 5b29 1b3f 3017 493f cde3 00be
000000e0: 2316 a0be 6975 6bbe ca55 d0be 8041 54bf
000000f0: a1b1 abbe f7f0 80be 5a9c 053f d2f8 4c3f
00000100: 0c11 6f3f d811 603f 4dae 423f e735 74bd
00000110: b692 d4be d75c 9b3e 88dc 303f 3e04 24bf
00000120: a719 be3d 47c2 413d 6ddd 1c3f 3ec9 5cbf
00000130: c861 ad3e 211e 5c3d b62f 663f 7d86 fb3d
00000140: c97b 48bf b76f 093f 9586 0ebf f67d bd3e
00000150: 8c22 873e dbb4 d1be d193 4bbf cd74 afbe
00000160: 7043 2b3f d3dd 98bd cd7a 033f 340f 3e3f
00000170: 5ae6 7e3f d7ee 343e da92 81be bf15 1b3d
00000180: 8629 513f 5690 393f 2716 c8be 6856 6a3f
00000190: 09fd 1b3f 5630 be3d 24d2 553f cf49 25bf
000001a0: 5e76 c8bd 35c1 dc3e 5531 953d 7dca 16bf
000001b0: 8f49 9a3e 05b0 313f c231 d43e 3d4e 2f3d
000001c0: 34ac 6f3f feb4 dbbe c6a9 b93d 99da 49be
000001d0: d0cd 29bf cbfe 443f 4cb4 873e 2b84 00bc
000001e0: cb44 9abd 77dd a63e 92b1 b73e d760 e1be
000001f0: 968f 383e fc57 62bf 7937 72be 7ddd db3d
-0.60606056 0.72367764 0.3343854 0.8585512 0.30311725 0.7917481 0.6761129 0.60135615
-0.9389222 0.56091094 -0.3362946 0.6817308 0.9544774 0.53630483 0.69740343 -0.9313352
-0.122453704 -0.5710322 -0.90593785 -0.98251736 0.7836709 -0.6500467 0.9117393 0.03568178
0.82344615 -0.09150236 0.5150453 0.98308873 0.23847263 0.11171005 0.79442996 -0.0020032336
-0.24300675 -0.11925619 0.041804723 -0.6496074 -0.6566396 -0.50646704 -0.90524775 0.24357978
0.6664073 0.96106726 0.046652365 0.04706103 0.06431945 0.51056784 -0.7864403 -0.4262032
-0.26616803 0.17615163 -0.395415 0.9255731 -0.26362336 0.6060998 0.78551006 -0.12586899
-0.3126689 -0.22994007 -0.40690452 -0.82912445 -0.33533958 -0.25183842 0.521917 0.8006717
0.93385386 0.8752723 0.7604721 -0.059621718 -0.41518182 0.3034427 0.69086504 -0.64068973
0.092822365 0.047304418 0.6127537 -0.8624457 0.33863664 0.05373967 0.8991655 0.12281511
-0.7831388 0.5368609 -0.55674106 0.37010163 0.26393545 -0.40958294 -0.79522425 -0.342688
0.66899776 -0.074641846 0.51359254 0.7424195 0.9957024 0.17669235 -0.2530735 0.037862536
0.81703985 0.72485864 -0.390794 0.91538095 0.60932976 0.09286563 0.83523774 -0.6456575
-0.09788202 0.43116155 0.072848 -0.5890272 0.30134246 0.6940921 0.41444212 0.042799223
0.93622136 -0.42911524 0.09065585 -0.19712295 -0.6632967 0.76951283 0.26504743 -0.007844011
-0.075326525 0.3259084 0.35877663 -0.44019195 0.18023524 -0.88415504 -0.23653974 0.10735605

conv_0.weight f4 [128, 128]
00000000: b16d c13c b9d6 d7bc 2e02 05be f128 8bbd
00000010: 6478 6e3d c2df debd 1b09 f0bd 2e32 243c
00000020: 611e 183e f602 c2bd 1e64 0d3e 7452 bc3d
00000030: 3c97 923c 68c8 0f3d bf6d 06be 212b 063e
00000040: 3d3f 023e a241 593d e8de 01be 4f91 06be
00000050: fd71 763d a895 edbd 7ad9 03be f35d 16be
00000060: 3a4a 443d cea9 d23d 0f6a 293d f3d5 eb3d
00000070: b61c 59bd 498d 55bd f507 9bbd c2fa 3b3c
00000080: 6786 afbb 3f61 6fbd 7a86 9d3d d8c4 fbbd
00000090: eb6d d8bc f608 c43d d498 59bb 1828 ecbc
000000a0: 5183 c0bb aa45 d2bd 3f90 a53d db61 c03d
000000b0: 60d4 573c 8bbd 03be aa3d 7fbd 3047 8d3c
000000c0: b391 f63d 8dcc a1bc 1696 dabc 9241 f5bd
000000d0: 76f9 443d 66f9 c73d 3748 3c3c 237b d73d
000000e0: 7fe0 afbd f10b c4bd 65e3 0b3c 4a7b adbd
000000f0: 388f f6bd acd8 963d 0731 3dbd a4ad 07bd
00000100: eb9d 11be 0256 bfbd 4268 48bc 5421 12be
00000110: 7df9 a73d c53d b23d 830f 96bd 27e2 ce3d
00000120: 4377 1bbe e427 fe3d 20eb 803d 5507 1c3d
00000130: debd fc3d d128 813d 9141 f8bd a572 91bd
00000140: cb5b 383d 9624 26bd 1eca 21bd 090f d1bb
00000150: ef96 e5bd 76dc 42bd 1f63 cb3a 46fb d33d
00000160: 7cdc 06be a808 cbbd 3cbb a23c 5006 d1bc
00000170: 7165 093d 492e 7abc 1466 063e 425e d93d
00000180: 6c28 a9bd 9eb7 c1bd 0776 063e 24d3 ea3d
00000190: 90ec f23d 977e 6a3d 453f 093e 52b3 2f3d
000001a0: ecaa c53c 8e45 8dbc 5787 7a3c 3d01 9b3c
000001b0: 1b45 d23c cb69 cc3d 3988 be3d 301c 4e3d
000001c0: e81b 9fbd 166d 8cbc 7b6a 55bd dc6e adbd
000001d0: 9c8a d03d b30b 63bd 6e8a 053d 7b0c c9bd
000001e0: b71e e03c 2505 bd3d fa47 afbc 7ffe 843c
000001f0: 3efd fbbc d2d1 a13d 3e42 d7bd 3042 8d3d
00000200: 2ef3 e0bd f26b e53c a219 03be d192 ba3d
00000210: f444 3e3d fe20 283a 6754 f3bd dffa 583d
00000220: 0962 03be ca54 a0bd bb26 22bd be7a 4bbd
00000230: 5dd8 c53d 5a03 a1bd 0880 353d 93e7 e6bd
00000240: 5ad2 de3d 112b 6f3d 1c11 873c 5bd9 d23d
00000250: 83d8 18be c3ae 8b3d 69a0 953d 8702 c43d
00000260: 256a b5bd 6767 4dbd ca2f 1cbe a58a 0d3e
00000270: 3ba5 4d3c 3a0b 3dbc e6cd 5e3d 2dc8 a83d
00000280: af1b 07be 5648 86bd 726e 193e be80 afbd
00000290: f632 323d 8c16 8f3d 7027 aa3d 642f da3a
000002a0: 200d d0bc 473b f7bd c1f5 0b3d 563d 0dbe
000002b0: 380f d1bd 3bdd 99bd 64c9 893d 2140 d53d
000002c0: ce92 d43b b63a 78bd 3b53 d03d c03b f23d
000002d0: e65d ed3c 011e 80bd 3838 e53d acef adbc
000002e0: 18f8 82bd 496f 8ebd 9825 483d d7be e9bd
000002f0: 71c9 b5bc 5471 bebd dfbd d8bc 202b c93d
00000300: d56d 1bbe d63d 1cbe 0c16 2d3c 0f99 ea3d
00000310: 8cc5 033e 196f 6fbd 9fc1 a63d 0373 83bd
00000320: c8a0 8e3d a4ab d6bd ee46 133c 317f d5bd
00000330: 1e95 bfbd 2b4c 063d 5e48 19be 5135 0dbd
00000340: 67dc cfbc cbc0 c73d c198 523d 704d 94bd
00000350: fed1 3f3d 3be0 f6bd 4e6a 7cbd e1be 25bd
00000360: 5cb0 013e 0c1b b93c 8c52 90bd e88b b73c
00000370: 6e14 9abd 2e7f db3d 3b17 003e f8a5 873d
00000380: f6c1 f2bd c7cd 89bd f8b5 c0bd 9e5f 723d
00000390: facc 0ebe a66d 16be 7f1d 13bd fbff 4c3d
000003a0: 501e 093e 0514 adbd 8d07 06be 3e68 573d
000003b0: b2ac 5abd 8835 05bd 2e3d 1dbd 06df c73d
000003c0: f0c5 7a3d f3d5 b3bd a72a 0cbe e64e 50bd
000003d0: 051f 04be 0126 a9bd 048f 44bd d61c aebd
000003e0: 2e4d e6bd eea4 363d ae95 47bc d623 01be
000003f0: 16b0 6b3d 6ef4 bd3d 8af8 a83d ca62 1bbe
0.023611875 -0.026347505 -0.12989113 -0.06794918 0.058220282 -0.10882522 -0.11720487 0.010021729
0.14855339 -0.09473221 0.13807723 0.09195414 0.01789438 0.03510323 -0.13127802 0.1310239
0.12719436 0.053041108 -0.12682688 -0.13141368 0.0601673 -0.1160081 -0.1287593 -0.14684276
0.04792235 0.10286294 0.04136091 0.11515417 -0.053005897 -0.052136693 -0.07569877 0.01147336
-0.005356598 -0.05844235 0.07691665 -0.12293404 -0.0264196 0.09572022 -0.0033202665 -0.028827712
-0.005875029 -0.102671936 0.080841534 0.093936644 0.013173193 -0.12865274 -0.062314667 0.017245859
0.12039509 -0.019750858 -0.026682895 -0.11975397 0.048089467 0.09764366 0.011491827 0.10521533
-0.08587741 -0.0957259 0.008538102 -0.08470781 -0.120390356 0.07365546 -0.046189334 -0.03312458
-0.14220397 -0.093425766 -0.012231888 -0.14270526 0.08201883 0.08703188 -0.073271774 0.10101729
-0.15182213 0.12409952 0.062948465 0.03809293 0.12340902 0.06306613 -0.12121881 -0.07101945
0.045009416 -0.040562235 -0.039499395 -0.006379966 -0.11210429 -0.04757353 0.0015517211 0.10350661
-0.13170046 -0.099137604 0.019864671 -0.025515705 0.033544008 -0.015269824 0.13124877 0.106136814
-0.08259663 -0.0945885 0.13130961 0.11466053 0.11861527 0.05724963 0.13403042 0.042895623
0.024129353 -0.01724508 0.015291057 0.018921489 0.025667718 0.09981116 0.09303326 0.05031985
-0.077689946 -0.01714186 -0.0521035 -0.084684104 0.10182688 -0.05543108 0.03260272 -0.098168336
0.027358396 0.09229497 -0.021396626 0.016234634 -0.030760404 0.07901348 -0.105106816 0.0689739
-0.10983883 0.028005574 -0.12802747 0.09110034 0.046452478 0.00064136076 -0.11881333 0.052973624
-0.12830366 -0.07828672 -0.039587718 -0.049677603 0.09660409 -0.078619674 0.044311553 -0.11274638
0.10879965 0.05839068 0.01648765 0.102953635 -0.14926343 0.068204425 0.073059864 0.095707946
-0.08858136 -0.05014744 -0.15252605 0.1382242 0.012551601 -0.011538321 0.05439558 0.082413055
-0.13194154 -0.06556766 0.14983538 -0.085694775 0.04350563 0.06986722 0.08308303 0.0016646204
-0.025396883 -0.12071853 0.034169916 -0.13792929 -0.10207981 -0.075128995 0.06727865 0.10412622
0.006487227 -0.060602866 0.10172125 0.11827803 0.028975438 -0.06255723 0.111923635 -0.021232449
-0.063949764 -0.0695482 0.048863977 -0.11413353 -0.022190781 -0.092989594 -0.026457725 0.098226786
-0.15178616 -0.15257964 0.010564338 0.11454975 0.12868327 -0.05845556 0.08142399 -0.06418421
0.0696426 -0.104819566 0.008989079 -0.104246505 -0.09354614 0.032787483 -0.14969012 -0.034474675
-0.02537365 0.09753569 0.05141521 -0.072413325 0.046831124 -0.12054487 -0.061624818 -0.04046524
0.12664932 0.022595905 -0.070469946 0.02240558 -0.07523428 0.10717617 0.12508862 0.06623453
-0.11853401 -0.06728702 -0.09409708 0.05917322 -0.1394538 -0.14690265 -0.0359168 0.05004881
0.1339047 -0.08451084 -0.13088818 0.052589647 -0.05338735 -0.032521755 -0.038388424 0.09759335
0.061223924 -0.08781042 -0.13688146 -0.050856493 -0.12902458 -0.08259202 -0.047987953 -0.08501594
-0.112451896 0.044590883 -0.0121816825 -0.12611327 0.057540976 0.09275137 0.0825053 -0.15174404

conv_0.bias f4 [128]
00000000: a261 52ba e479 8d3a b500 3539 c606 8d3a
00000010: 6cf0 8e3a ad97 8b3a 0fd0 8c3a 6835 8c3a
00000020: 74ee 863a ca01 8f3a 0866 8bba 973b 8c3a
00000030: 2982 8dba 8728 8dba b99f 8dba 72d3 863a
00000040: e141 923a 0262 8e3a 9c86 8fba 2750 883a
00000050: 5f10 8f3a e288 8dba 53a3 8e3a e3c5 8e3a
00000060: 4296 8eba 8b85 8fba bc95 81ba 0e15 8d3a
00000070: a231 8d3a cb62 91ba 630f 90ba 316d 8eba
00000080: 6011 8d3a 9e3b 8dba 0147 8d3a 775a 3cba
00000090: 2cd4 8cba d908 803a 2d7b 8dba 907f 8f3a
000000a0: b79f 8eba a65e 8cba 1e55 67ba 0bf7 8fba
000000b0: 18e6 8a3a 78e0 8eba 6e78 7e3a 82bd 8eba
000000c0: 0446 86ba 4a4e 8fba ca6f 8d3a 0672 8f3a
000000d0: decb 8e3a 8659 8f3a 1a7b 8dba 627c 8f3a
000000e0: 2b40 8dba 6631 90ba 0d5b 8f3a 5c31 8cba
000000f0: 9e11 8dba 4a69 8aba 6d55 4e3a de2b 923a
00000100: 312f 90ba bfda 90ba 0f49 83ba 2add 8eba
00000110: ff72 8fba 1acf b739 7840 8d3a 55c0 8eba
00000120: aed0 903a 6065 90ba 5aca 8c3a 0874 8eba
00000130: 7581 8dba f99e 8e3a f54f 903a 8a71 8eba
00000140: b6fa 8c3a b0d2 8fba af8e 8cba 042e 87ba
00000150: 6a98 8c3a 8b25 20ba 4fd0 85ba 751d 8f3a
00000160: 3a9c 8d3a dcba 8e3a 16e7 8eba e826 8fba
00000170: 4e70 8dba 62d3 8eba 5278 8bba 208f 7e3a
00000180: 38da 8eba 5474 8eba 24e1 8b3a 4e89 8d3a
00000190: 7984 8f3a a48f 8eba 7e2b 88ba 0bcb 8dba
000001a0: 2e94 8cba 3a36 8cba f0a7 883a 937f 8eba
000001b0: f591 8fba 420b 8fba 41f1 8eba 64f0 8aba
000001c0: 8476 89ba 8952 8dba 323f 3cba 314e 90ba
000001d0: 6d5f 903a b64f 82ba af43 8f3a 5016 913a
000001e0: fcd7 8eba 6e1c 8cba dff3 8eba 33e7 8f3a
000001f0: 4eb3 8eba 3b69 8eba 65c8 8bba ec2b 7e3a
-0.00080254127 0.0010793773 0.00017261769 0.0010759465 0.0010905392 0.0010650061 0.0010743159 0.0010697069
0.0010294453 0.0010910567 -0.0010635266 0.0010698912 -0.0010796237 -0.0010769524 -0.0010805047 0.0010286404
0.001115855 0.0010862949 -0.0010950151 0.0010399864 0.0010914913 -0.001079824 0.0010882415 0.0010892715
-0.001087852 -0.0010949833 -0.0009886543 0.0010763721 0.0010772238 -0.0011092065 -0.0010990914 -0.0010866282
0.0010762624 -0.0010775214 0.0010778607 -0.0007185111 -0.0010744384 0.0009768262 -0.0010794156 0.0010948051
-0.0010881339 -0.001070936 -0.0008824634 -0.0010983659 0.0010597138 -0.0010900637 0.00097072765 -0.0010890218
-0.0010244255 -0.0010933366 0.0010790762 0.0010944016 0.0010894497 0.0010936714 -0.0010794133 0.0010947103
-0.001077657 -0.001100105 0.001093717 -0.0010695863 -0.0010762697 -0.0010559943 0.0007871006 0.001115199
-0.0011000392 -0.001105152 -0.001001628 -0.0010899652 -0.0010944306 0.00035058783 0.001077666 -0.001089106
0.001104852 -0.001101654 0.0010741458 -0.001086832 -0.0010796027 0.0010881118 0.0011010157 -0.0010867578
0.001075587 -0.0010972824 -0.0010723675 -0.0010313396 0.0010726575 -0.000610911 -0.0010209176 0.0010918813
0.0010804005 0.0010889429 -0.0010902609 -0.0010921629 -0.0010790916 -0.0010896737 -0.0010640717 0.00097106583
-0.0010898774 -0.0010868409 0.0010671956 0.0010798366 0.0010949514 -0.0010876548 -0.0010388938 -0.0010817958
-0.0010725313 -0.0010697313 0.0010426026 -0.001087176 -0.0010953533 -0.0010913389 -0.001090564 -0.0010600206
-0.0010487591 -0.0010782044 -0.00071810477 -0.0011009631 0.0011014767 -0.0009941969 0.0010930205 0.0011069272
-0.0010898109 -0.0010689625 -0.001090642 0.0010978937 -0.0010887177 -0.0010865101 -0.0010664581 0.0009695876

layers.0.weight f4 [128, 128]
00000000: b5f5 68bd 80d6 e63c 1710 c1bd 3cb4 12be
00000010: dd69 003e 38e3 f63d dc3f 2f3d 2665 e43d
00000020: 1cce 613d 8d5c 18bd 670c 15be 4e71 18be
00000030: 11eb 0dbe 5da3 853d 7324 58bd bd17 10be
00000040: f7cc 243d cd05 f33d 6e01 34bc e555 9a3d
00000050: e57b dc3d ba4f 6f3d 9042 c3bd 62f0 323d
00000060: 4105 aa3d 5967 f5bd 9c18 503d 2d29 1abe
00000070: ada0 cf3d 1d5b 34bc 0f2c 99bc 665a bcbd
00000080: d731 79bd 3232 1c3c 552f 003e 9273 05be
00000090: f059 07be d16e a53c 9a84 21bd 1218 b9bd
000000a0: 9ed4 693d 5290 3f3c d7c8 0c3d a22a 4a39
000000b0: 16c2 67bc 108e f1bd 4422 233c 9652 e4bd
000000c0: ed69 c93d 90d8 a23b 7007 cebd a2d7 90bd
000000d0: ebea e73d 0fc5 023d 37ba 083e b4e5 e73d
000000e0: b032 f0bd 6274 febd a1f4 b2bc 8ee1 4e3d
000000f0: 8eeb 923d 5543 d13c 2fa8 89bd a889 8dbd
00000100: b195 c1bc 934d 3c3d 79a0 bf3d bc71 2ebd
00000110: 8cca 853d 0e58 9e3d 11eb 34bd 64b1 bfbd
00000120: 3594 813c f33c 0abe 9f5f f63d ab5c 803d
00000130: 5cee a83d e095 c5bc cc0a 04bc 7288 133e
00000140: fd28 3c3d 63cf c9bc 1310 ec3d 9e33 4b3d
00000150: 6c2d e43d afd1 e53c 71f6 0ebe e4e0 cfbd
00000160: 8f3f 80bc 7c4a f63d 04be e7bc e257 b43d
00000170: 2ea2 c43d d780 10bd 0991 2c3c 36ef cc3d
00000180: 8901 8dbd 3870 083e fe25 873d ac71 da3d
00000190: 7403 6ebd 6cd6 16be b7bc a33b a58c 77bd
000001a0: 5a4d 05bd c0f8 413d b765 0ebe 7ab8 8c3c
000001b0: d103 f0bc edfa 683d 59b2 0f3d 9b8f 14bd
000001c0: 4a61 4b3d 7428 efbd e5fa 093e 2462 d9bd
000001d0: 3c39 18be 074b 01be 7d1e 3fbd 0cb1 303c
000001e0: f4a6 f3bd 3cfb 493d e2cd 2abd b3ec 99bd
000001f0: afa4 a93d d18e 3b3d 5a35 1e3d d0c0 c5bd
00000200: 8112 2b3d 0455 f3bd 7163 223d 45d2 efbd
00000210: 639f 2c3d 1331 ff3b 05de 0a3d 846b c53c
00000220: 6e3e 0dbe 75ac ecbd ef22 f43d c740 80bd
00000230: 9747 1bbe 0129 b13c afba a0bd 1791 1a3e
00000240: 4b9c f8bd eef4 efbc 0870 a9bb 6c6a 4b3d
00000250: 7053 1a3e ac33 8ebd 7306 78bd 26e8 0dbe
00000260: 4af0 4fbc dd94 e4bd bb43 f7bc 388e 05be
00000270: 9254 8b3d 878d 153e 658d 7abd 5755 11be
00000280: f889 e23d f321 8e3d cfa7 35bc 8a3d 0ebe
00000290: a4d9 f9bc 7eda a4bd 503c a43d 9f67 8d3d
000002a0: 98cd bc3d ab5c c2bd dccb bcbd 8ed2 8f3b
000002b0: 700f 8cbd b71d 16be 0cc2 91bc e8cc 103e
000002c0: 173e e03d 16e4 073e 6934 543d 2902 7d3d
000002d0: 4e74 433c 8e04 bf3d e6ae a9bd 8db0 16bd
000002e0: cf70 2abd 3744 93bd 29a9 7cbc df45 bbbd
000002f0: 2aa9 d7bd 3155 99bd 8f6d 0dbe aa09 bc3a
00000300: 6144 ecbc 9247 fa3d c2e7 ad3d 8510 e6bd
00000310: 0193 933d 2368 dbbd 7117 e8bd 4eee 14be
00000320: d45e 34bd be2a debd 781a a5bd 5821 9fbd
00000330: f464 96bd 8c2c abbc ee1b c7bd 2795 8ebd
00000340: 9003 463a 657c 85bd cced 2fbd 44a6 8b3d
00000350: 28cb 4c3d b1f7 f43d 3a15 dc3d fc71 133e
00000360: f2cb 183e 516c ccbb fc1f fc3d ccd7 c4bd
00000370: bec8 a8bc 0ab6 09be dc75 83bd 6416 a93d
00000380: bb59 e8bd 8d5b f2bc 0a2b 053e 61d8 333d
00000390: 3608 06be a3e3 8a3d 730b 00be 1b17 05be
000003a0: 9510 f8bb 4f87 25bd 50e6 94b9 9e78 1abe
000003b0: a675 553d 3611 a33d ef3d ae3d ecfb 893d
000003c0: 00d7 673d 09b8 00be 2b27 033e 8127 a93c
000003d0: cd36 b2bd 2f3a 803c 37e0 103e caa3 5ebd
000003e0: b9a7 13bc 97e9 b9bd a0df 843d f88e 7bbd
000003f0: 7d73 84bc 01cd a73b 6327 ec3d 684f 7fbc
-0.05687495 0.028178453 -0.09426897 -0.14326566 0.12540384 0.12055057 0.04278551 0.11152105
0.0551282 -0.03719764 -0.14555512 -0.14886972 -0.13859202 0.065253 -0.052769136 -0.14071555
0.040234532 0.11866341 -0.010986669 0.07535914 0.107658185 0.058425643 -0.0953418 0.04368628
0.08301783 -0.119826026 0.05080472 -0.1505477 0.10138068 -0.011008051 -0.018697767 -0.0919693
-0.060838547 0.009533452 0.12518056 -0.13032368 -0.13217902 0.020194443 -0.0394331 -0.09037794
0.057087533 0.0116921235 0.034371223 0.00019280103 -0.014145395 -0.117946744 0.0099569 -0.111485645
0.09834657 0.004969664 -0.10060012 -0.07072379 0.11324104 0.03192621 0.13352285 0.11323109
-0.11728418 -0.12424542 -0.021845164 0.050508074 0.07173835 0.025544802 -0.067215316 -0.069110215
-0.023630949 0.045972418 0.093567796 -0.042588934 0.065327734 0.07731639 -0.04416949 -0.093600065
0.015817741 -0.13499813 0.12029957 0.06267675 0.082485884 -0.024119318 -0.008059215 0.14407519
0.045937527 -0.024635023 0.115265034 0.049609773 0.11141476 0.028054086 -0.13961197 -0.10150316
-0.015655307 0.120259255 -0.028288849 0.08805825 0.09601246 -0.03527912 0.010532626 0.10006563
-0.068850584 0.13324058 0.06599043 0.106662124 -0.058108762 -0.14730233 0.004996862 -0.060436863
-0.03254447 0.047356367 -0.13905989 0.017177809 -0.029298695 0.056879926 0.035082195 -0.036269765
0.04965333 -0.11677638 0.13474615 -0.10614422 -0.14865583 -0.12626277 -0.046659935 0.010784399
-0.11897078 0.04931186 -0.04170025 -0.0751585 0.08283364 0.045790497 0.0386251 -0.09655917
0.041765694 -0.1188145 0.039645616 -0.117100276 0.04214419 0.0077878325 0.03390314 0.024099119
-0.13793346 -0.11556331 0.119207256 -0.06262355 -0.15164028 0.021625997 -0.07848107 0.1509441
-0.121391855 -0.029291596 -0.005170826 0.04966204 0.15070891 -0.069434494 -0.060553025 -0.13858089
-0.012691567 -0.11161206 -0.030183664 -0.13042533 0.0680324 0.1460477 -0.06117 -0.14192711
0.11061472 0.06940069 -0.011087372 -0.13890663 -0.030499287 -0.080494866 0.08019316 0.0690453
0.092189014 -0.09490331 -0.092185706 0.0043891137 -0.06838882 -0.14659773 -0.017792724 0.14140666
0.10949343 0.13270602 0.051807795 0.06176964 0.011929585 0.093270406 -0.08285312 -0.036789466
-0.04161149 -0.07190745 -0.01542119 -0.09144186 -0.10530312 -0.07486952 -0.13811325 0.0014346142
-0.0288412 0.12220682 0.0849147 -0.112336196 0.07205773 -0.10713222 -0.11332596 -0.14544031
-0.044035748 -0.10847996 -0.08061689 -0.07770032 -0.07343474 -0.020895265 -0.09722124 -0.06962042
0.00075536314 -0.06517867 -0.04295139 0.06818822 0.049998432 0.11961306 0.10746236 0.1439895
0.14921549 -0.0062384983 0.12310788 -0.096114725 -0.020603534 -0.13448349 -0.06418964 0.08256224
-0.1134524 -0.02958467 0.130047 0.043907527 -0.1308907 0.067816995 -0.12504368 -0.12997095
-0.007570336 -0.040412243 -0.00028400356 -0.15085074 0.05211415 0.07962267 0.08507907 0.067375034
0.056601524 -0.12570204 0.1280791 0.02064872 -0.08701859 0.015652744 0.14148031 -0.05435542
-0.009012156 -0.09077757 0.064879656 -0.061415642 -0.01616835 0.005120874 0.1153095 -0.015582897

layers.0.bias f4 [128]
00000000: 62a3 903a dfab 8fba b2d4 8fba 80e5 8f3a
00000010: f1e0 8f3a 6aac 8fba aad4 8fba 7920 8fba
00000020: 06e2 8fba cacf 8fba 1010 923a f6ab 8fba
00000030: de19 903a 4c91 8f3a 2680 8f3a 59d6 8f3a
00000040: fed4 8fba 7c9a 8f3a 13a3 8f3a ce8b 8f3a
00000050: 8ca4 8eba c212 8f3a 4ae6 8fba bba2 8f3a
00000060: 3b77 8fba 39cc 8f3a de4f 523a 0392 8f3a
00000070: d0d8 8f3a eacf 8fba a5de 8fba acd6 8f3a
00000080: d89d 8f3a 952b 90ba 3924 90ba fa9c 8f3a
00000090: 9cd4 8fba a399 8f3a 994d 903a e5d2 8f3a
000000a0: 80e2 8f3a 7fd5 8fba 7093 8fba ed6d 90ba
000000b0: 5fd0 8fba 0da2 8fba 84af 8f3a 7c90 90ba
000000c0: 50a8 8f3a 9a9f 8f3a d334 8f3a 05dd 8f3a
000000d0: 2fad 8f3a 43a4 8f3a 25a8 8f3a 7b4d 8e3a
000000e0: 7adb 8fba b6f9 8e3a a494 8fba 9ed4 8f3a
000000f0: 4cc5 91ba 3ad5 8f3a 8f99 8fba a71a 923a
00000100: 03d6 8f3a 63d6 8fba 98d1 8f3a d82b 903a
00000110: 3eb6 8fba 0bd5 8fba 999f 8fba f2a0 8f3a
00000120: 974c 903a 92aa 8fba b6d5 8fba 2da8 8f3a
00000130: 1f9a 8f3a 0a90 8fba 8767 90ba 58d5 8fba
00000140: 3fe8 8fba 1f90 8f3a aaaf 8fba fdd7 8f3a
00000150: 1614 90ba 2b48 8fba 0490 8f3a d875 8f3a
00000160: 3109 903a 7d95 8fba b69c 8f3a 38da 8f3a
00000170: c3ac 8f3a 5eac 8fba a0d0 8f3a 48ac 8fba
00000180: 9649 8f3a 4242 8f3a 6fab 8f3a e7a6 8fba
00000190: 90d6 8f3a 6195 8f3a 5de1 8f3a a920 913a
000001a0: 3037 8fba d3fa 8f3a 13ae 8f3a b12c 90ba
000001b0: 9c9d 8f3a c083 8fba 98ea 8f3a d079 8f3a
000001c0: 4bd4 8f3a 75a2 8eba 76db 8fba 9fd4 8f3a
000001d0: 97aa 913a b239 8fba 7ed0 8f3a 69d0 8f3a
000001e0: 47ef 8fba e1cf 8f3a a406 903a 4bef 8fba
000001f0: 2e7d 8f3a 1a5d 90ba 1ad5 8f3a 2bfc 8f3a
0.001103502 -0.0010961256 -0.0010973422 0.001097843 0.0010977072 -0.0010961418 -0.0010973413 -0.0010919712
-0.0010977394 -0.001097196 0.0011143703 -0.0010961283 0.0010994037 0.0010953336 0.0010948225 0.0010973915
-0.0010973511 0.0010956074 0.0010958634 0.0010951699 -0.0010882779 0.0010915624 -0.0010978666 0.0010958532
-0.0010945568 0.0010970897 0.00080227654 0.0010953549 0.0010974649 -0.0010971997 -0.0010976387 0.0010974011
0.0010957075 -0.0010999317 -0.0010997123 0.0010956817 -0.0010973397 0.0010955821 0.0011009454 0.0010972886
0.0010977536 -0.0010973661 -0.0010953974 -0.0011019089 -0.0010972134 -0.0010958329 0.0010962342 -0.0011029388
0.0010960195 0.0010957599 0.0010925777 0.0010975903 0.0010961647 0.0010958988 0.0010960145 0.0010856831
-0.0010975443 0.001090816 -0.0010954333 0.0010973399 -0.0011121421 0.0010973581 -0.0010955798 0.0011146859
0.0010973815 -0.0010973926 0.0010972498 0.0010999395 -0.0010964347 -0.0010973526 -0.0010957598 0.0010958
0.0011009154 -0.0010960868 -0.0010973725 0.0010960154 0.0010955966 -0.0010952961 -0.0011017182 -0.0010973616
-0.0010979249 0.0010952986 -0.0010962386 0.0010974404 -0.0010992314 -0.0010931542 0.0010952954 0.0010945154
0.0010989067 -0.0010954585 0.0010956738 0.0010975068 0.0010961521 -0.0010961404 0.0010972209 -0.0010961378
0.0010931964 0.001092978 0.0010961125 -0.0010959775 0.0010973979 0.0010954553 0.0010977198 0.0011072356
-0.0010926481 0.0010984786 0.0010961912 -0.0010999647 0.0010957005 -0.0010949299 0.0010979949 0.0010946337
0.0010973302 -0.0010882156 -0.0010975439 0.00109734 0.0011113462 -0.0010927229 0.001097217 0.0010972145
-0.0010981344 0.0010971987 0.0010988307 -0.0010981349 0.0010947341 -0.0011014075 0.0010973543 0.0010985186

predict.weight f4 [1, 128]
00000000: 109a e13b 838d a5bd 42bc 8cbd 1f92 213d
00000010: 9eca 343d 1170 a9bd 3179 8cbd 65ce 19bc
00000020: d34a 30bd 9947 b5bd 4181 2d3b a6d9 a5bd
00000030: 47c9 893c bf0f 083d 1787 c43c 679b 843d
00000040: dcfc 8bbd 7bf3 283d 85fa 4b3d 8d1c f13c
00000050: ab9d a5bb f4d5 0b3c 3f78 1cbd 32c5 5d3d
00000060: e430 abbc 1a81 8f3d 52f7 8b3a eb81 0a3d
00000070: a7a0 6f3d 42d8 b3bd e74e 42bd cca2 813d
00000080: d592 3c3d 4ff3 65bc 6970 7abc 2abb 373d
00000090: b015 83bd 8a9b 273d 0dd7 303c 4968 993d
000000a0: a8ea 2f3d 7f3d 89bd aae4 0ebd 52f0 10bc
000000b0: 4d8c aebd 3c1a 53bd 4982 a93d b7db f2bb
000000c0: c8dd 8a3d 870c 473d 127e 2f3c e0fd 4c3d
000000d0: 25c2 af3d 256f 6b3d 4fad 263d 077d 6c3b
000000e0: fcc3 56bd bb4e f33b 4faf 12bd cae1 8d3d
000000f0: e6fc 48bb aec4 883d fd26 26bd f0a5 b23a
00000100: 1b45 863d 2d4d 82bd 2f92 a53d bc14 673c
00000110: 17da 2ebd abdf 88bc d2c0 46bd 2a2f 4d3d
00000120: 9ea0 313c d22b 96bd d228 86bd 1b43 893d
00000130: 26f5 233d 0abc 03bd c86f 14bc e7ab 89bd
00000140: d218 16bd e8c4 043d 7117 9bbd 4c68 753d
00000150: 5a95 92bc 113d 4dbc 3d07 043d b749 9d3c
00000160: 83ec a73c 4721 16bd 544e 363d f536 613d
00000170: 4404 ac3d 9bf9 9fbd aeca aa3d d658 a9bd
00000180: 409e 4e3c 2d31 413c d80e a13d df3c 81bd
00000190: 0581 823d 9b9f 173d a9fa 2f3d fe71 903b
000001a0: 246b 32bc afa8 ce3c aff0 ae3d e6b2 63bc
000001b0: 1035 3b3d e0f6 c5bc 91a2 0d3d cce0 b13c
000001c0: 8f02 903d 3a01 a5bb 57eb 58bd 0e38 8e3d
000001d0: c0d1 533b b521 36bc 1176 af3d 63e3 ae3d
000001e0: 2852 01bd a2ee a53d ebd5 ad3c 4e7c 00bd
000001f0: 7d0f bb3c 2392 20bc 2946 8a3d 015a cc3c
0.0068848208 -0.08083632 -0.06871845 0.039445993 0.044138543 -0.08273328 -0.06859053 -0.009387587
-0.043040108 -0.08851547 0.0026474746 -0.08098154 0.01681961 0.03321814 0.023990197 0.06474953
-0.068353385 0.041247826 0.04979946 0.02943256 -0.005054196 0.008534897 -0.038200613 0.05414314
-0.020897336 0.07007046 0.0010678566 0.033815306 0.05850282 -0.08781482 -0.04743853 0.06329879
0.046038467 -0.01403506 -0.01528559 0.044856228 -0.06400621 0.040919818 0.01079346 0.07490594
0.042948395 -0.067011826 -0.03488604 -0.008846359 -0.08522854 -0.05153869 0.08276803 -0.007411446
0.06780583 0.04859593 0.01071121 0.0500468 0.08581952 0.057479043 0.040692624 0.0036085264
-0.052433 0.007425157 -0.03581172 0.069278315 -0.0030668317 0.06678139 -0.040564526 0.0013629775
0.065561496 -0.06362376 0.08084523 0.014104065 -0.042688455 -0.016708216 -0.04852373 0.050093807
0.010841517 -0.07332577 -0.065507546 0.067022525 0.040028714 -0.03216175 -0.009059854 -0.06722241
-0.036644764 0.032414347 -0.075728305 0.05991392 -0.017893482 -0.012526766 0.032233465 0.019200189
0.02049852 -0.03665283 0.044508293 0.05498405 0.08399251 -0.0781128 0.08339439 -0.08268897
0.012610972 0.01179151 0.07864159 -0.06310438 0.06372265 0.037017446 0.042963658 0.00440812
-0.010889802 0.025226919 0.085420005 -0.013897633 0.0457049 -0.02416557 0.034578864 0.021713637
0.07031738 -0.0050355466 -0.052958813 0.06944285 0.0032321066 -0.011116435 0.08567441 0.08539464
-0.03157249 0.08102156 0.021220168 -0.031368546 0.022834534 -0.009800467 0.06751663 0.024945261
