PERGAT_embbedding/data/emb/models/model_dim128_lay2_epo104.pth (torch, 137100 bytes, 7 tensors)

linear.weight f4 [128, 1]
000000 60 5a 8b 3e 1e 48 78 3f 98 63 80 be 26 34 71 bf
       0.27217388 0.9698504 -0.25075984 -0.942202
000010 c8 20 0b bf e8 49 bc be e4 e9 53 3f a0 f5 f7 3e
       -0.54346895 -0.36775136 0.82778764 0.48429585
000020 0c 73 5f 3f 0e b1 6c 3f 30 ac f8 3e 20 89 37 3d
       0.8728492 0.92457664 0.4856887 0.044808507
000030 40 72 ef 3c a2 5e 42 bf c2 35 5b bf ac 82 75 3f
       0.029229283 -0.7592565 -0.856289 0.95902514
000040 da 45 6c 3f 72 1b 57 3f 5a 66 46 3f fc 93 6a bf
       0.92294085 0.84026253 0.77499926 -0.91632056
000050 80 b8 68 3e ac 2a 84 be 06 44 60 bf be e9 5a 3f
       0.22726631 -0.25813806 -0.87603796 0.8551291
000060 68 a7 36 bf 06 e5 37 3f 40 2a fa be 8c af 40 3f
       -0.7134919 0.7183384 -0.4886036 0.75267863
000070 e8 39 28 3f f2 43 66 bf be 8d 2f bf 10 b9 14 be
       0.6571336 -0.89947426 -0.68575656 -0.1452372
000080 14 b9 d8 3e cc 5a 83 3e 80 95 bf bd 12 ee 32 3f
       0.42328703 0.2565521 -0.09354687 0.69894516
000090 2a 11 03 bf 90 65 d2 be 5c 94 66 3f 56 76 2c bf
       -0.51198065 -0.4109311 0.9007013 -0.67368066
0000a0 a0 52 34 3d a0 b1 f8 3d 22 ab 05 bf f8 c5 3c bf
       0.04402411 0.12143254 -0.5221425 -0.73739576
0000b0 64 ba a6 3e 08 0e 13 be 46 74 4d bf 54 fe f4 be
       0.3256408 -0.14360821 -0.80255544 -0.47850287
0000c0 80 fe 49 3f de e6 2c 3f 10 ec ff be c8 ae 66 be
       0.7890396 0.67539775 -0.4998479 -0.22527611
0000d0 34 ef 51 3f 3e 43 6f bf 20 b4 ea 3e e8 8a 7d bf
       0.8200562 -0.9346198 0.4584055 -0.9904008
0000e0 b8 49 42 be 58 8b 35 bf 24 2c c3 3e 20 71 2f be
       -0.18973434 -0.70915747 0.38119614 -0.17132998
0000f0 a0 89 40 3f ec b3 eb 3e 3e e5 7c 3f 30 cb ff bd
       0.7521 0.46035707 0.98787296 -0.12489927
000100 40 92 77 bf 42 2d 36 bf d8 35 5c bf e0 d7 b6 be
       -0.96707535 -0.7116281 -0.8601966 -0.35711575
000110 c0 4f 73 be c0 99 b7 3c 2c 5b b8 be 94 cd fc be
       -0.23760891 0.02241218 -0.3600706 -0.49375594
000120 f0 14 09 3f 10 34 44 bf 70 5c ae bd 70 85 eb 3d
       0.53547573 -0.7664194 -0.08513725 0.115000606
000130 b8 72 2c be 00 ed 07 3c 74 a3 8c 3e b4 47 5d 3f
       -0.16840637 0.008296251 0.27468455 0.86437535
000140 64 9c 55 3f 7e 04 5b 3f 86 49 49 bf c0 ac e0 3e
       0.8344176 0.8555373 -0.7862781 0.43881798
000150 96 98 35 3f 5c 49 77 3f 88 f3 3a 3e ac 6a 20 3f
       0.7093595 0.9659631 0.18256962 0.6266277
000160 b2 97 7e 3f 90 69 25 be 28 48 f6 3e 0a cf 35 3f
       0.9945022 -0.1615355 0.48101926 0.7101904
000170 e6 a7 54 bf 28 35 6e 3e b0 65 c6 bd 90 db 22 bf
       -0.8306869 0.23262465 -0.09687364 -0.63616276
000180 d0 6a 4f 3e f0 7a 1d bf 5a e8 78 3f 60 e7 1e 3f
       0.2025559 -0.6151571 0.9722954 0.620718
000190 9c bc ae be a4 9d cb 3e ca bc 65 3f 1a ea 6e 3f
       -0.34128273 0.39768708 0.89741194 0.9332596
0001a0 40 74 1e 3f bc 89 07 3f d0 48 c7 be ee d7 02 bf
       0.61896133 0.5294454 -0.3892274 -0.5111073
0001b0 fc b7 8e 3e 70 9c a2 bd 7a 7c 4b bf c8 80 29 3e
       0.27874744 -0.07939994 -0.7948681 0.16553032
0001c0 ec 80 e3 be 2c 39 68 bf 54 3b ce be b4 f3 5f bf
       -0.44434297 -0.9071224 -0.4027964 -0.87481236
0001d0 38 1a 55 be 78 db b6 3e 70 b1 33 be d0 2d ee bd
       -0.20810783 0.35714316 -0.17548156 -0.11629832
0001e0 fc f0 0f 3f f0 f8 82 bd 88 8b eb be 7e 4c 67 3f
       0.5622709 -0.06395137 -0.4600489 0.9035109
0001f0 b6 a4 33 bf 78 a9 c3 be c8 e8 b3 3e d8 26 7b 3e
       -0.70173204 -0.38215232 0.35138535 0.24526536

linear.bias f4 [128]
000000 39 a0 09 bf 33 20 8d be e3 b7 38 3f ba a3 82 be
       -0.53760105 -0.2756363 0.7215559 -0.25515538
000010 4f ca 72 bf b5 9e 76 3f 7f 36 3b 3f 0b 47 67 3f
       -0.9483995 0.9633592 0.7313003 0.9034278
000020 ac 4c 93 be 43 05 68 3e 34 7f cb bd d5 f0 84 bd
       -0.28769433 0.22658257 -0.099363714 -0.064912476
000030 7d f4 54 3f a5 6c d1 3e ca 78 66 3e f8 c4 ef 3d
       0.8318556 0.40903202 0.22507015 0.11707491
000040 74 32 24 3f 8a 59 b0 3e d1 7b 2f 3f 17 fd f5 3e
       0.64139485 0.34443313 0.68548304 0.48044655
000050 c3 da ee 3e 14 30 6a bf 37 85 5d 3f ee 92 52 bf
       0.46651277 -0.9147961 0.86531395 -0.82255447
000060 e7 91 f5 3e 20 8c a2 be 94 15 50 3e 0f 2c 24 3f
       0.47962877 -0.31747532 0.20320731 0.6412973
000070 78 46 34 3f 04 bc 73 3e 31 12 c8 3e 76 b2 26 bf
       0.70420027 0.23802191 0.3907638 -0.6511606
000080 9d 16 06 bf 2b 4c 35 3f 57 1d 65 3e 45 c3 66 3f
       -0.52378255 0.7081935 0.22374474 0.9014171
000090 af b0 43 bf 6d 75 18 bf e3 75 5e 3e 4e dc 1a bf
       -0.7644147 -0.5955418 0.21724658 -0.6049241
0000a0 63 d9 bb 3c 89 1b cd be 2d 5c 61 bf 23 4d 40 bf
       0.022930807 -0.4006007 -0.88031274 -0.751177
0000b0 ca 00 4f bf 2d a1 18 3e 54 c8 5c 3f d4 68 48 bf
       -0.8086058 0.14905234 0.86243176 -0.78284955
0000c0 3d 02 07 3e a8 fd 2a 3f d0 b1 df 3e 2a 54 8b be
       0.13184448 0.667933 0.43690348 -0.2721265
0000d0 94 e2 25 bf 88 40 20 bf 4b e5 49 3f 23 3d 09 bf
       -0.64798856 -0.62598467 0.788655 -0.5360891
0000e0 47 11 17 3e 6c 0d 29 3f e4 10 35 bf e1 6c 23 3f
       0.14752685 0.66036105 -0.707289 0.6383801
0000f0 29 32 6b be 04 77 49 3f ba a0 19 3f 06 33 4a bf
       -0.22968353 0.7869723 0.60010874 -0.78984106
000100 36 ac 21 3d 06 ef 03 bf 46 cf 54 bf 95 fc 51 3f
       0.039470874 -0.51536596 -0.83128774 0.82026035
000110 23 7d c7 3d 3e 32 bf be 96 2b 1b 3e e7 b6 4e bf
       0.09740665 -0.3734302 0.15153345 -0.80747837
000120 ce ea ed 3d e0 d9 f1 3e d5 e1 60 bf c6 87 0d 3f
       0.11617051 0.47236538 -0.8784459 0.552853
000130 24 82 4f 3f a5 89 bf be 09 4c a4 be f2 a5 d5 3e
       0.81057954 -0.37409702 -0.3208926 0.4172817
000140 80 33 53 3f 81 9e 0e 3f 8f 48 9a be 34 cd 17 3c
       0.8250046 0.5571061 -0.30133483 0.009265233
000150 cb 92 23 bf bd 04 3d 3f 83 fd 9f 3e 96 20 2c 3f
       -0.63895863 0.73835355 0.31248102 0.6723722
000160 fe a8 21 3e 52 bd f8 3e 48 91 41 bf 3e 2b 5c bf
       0.15787122 0.4858194 -0.75612307 -0.8600348
000170 35 df 4f 3e 6d 2b 28 3f 30 8f 32 3f 79 e4 37 bf
       0.2029999 0.6569126 0.69749737 -0.71832997
000180 f2 d8 06 3f 73 35 09 bf 3c e6 72 be cd 18 1c 3f
       0.5267478 -0.5359718 -0.2372064 0.60975343
000190 e1 3b 79 3f 32 d5 4f bf 59 b2 49 3f 02 a0 21 bf
       0.9735699 -0.81184685 0.7878776 -0.6313478
0001a0 06 fd 43 bf c9 29 33 3f 77 6d 04 3f b2 dd 40 bf
       -0.7655796 0.69985634 0.5172953 -0.7533828
0001b0 b5 ae e2 3e 18 c0 9f be 1d e1 0f 3f 77 c4 4a 3f
       0.44273916 -0.31201243 0.5620287 0.7920603
0001c0 47 42 cd be 04 e0 1d 3e 13 62 69 3f 9f 0a 72 3d
       -0.40089628 0.15417486 0.91165274 0.05909216
0001d0 ec d3 1c bd 91 c5 e4 3d 1f 13 a5 be 88 c1 bd be
       -0.038288042 0.11170495 -0.3224115 -0.37061715
0001e0 ea 4f e6 3e c7 95 a7 be 48 64 8f 3e 5e 60 e1 bd
       0.44982845 -0.3273146 0.28006196 -0.11004709
0001f0 6c 7c 09 bf aa dd 80 bf 27 7b 01 3e a9 36 02 bf
       -0.5370548 -1.0067647 0.12644635 -0.50864655

conv_0.weight f4 [128, 128]
000000 33 5c 21 3e f8 06 c0 bc 86 20 06 be d0 b6 1c be
       0.15757827 -0.023440823 -0.13098344 -0.15304112
000010 ba 8a 18 be c7 4c f6 3d 43 3c b1 3d 9a bc 3c 3d
       -0.1489667 0.12026363 0.08654072 0.046078302
000020 e7 3a c6 bc 65 f6 9c bd 75 03 12 bd e1 26 10 3e
       -0.024198009 -0.076641835 -0.035647828 0.14077331
000030 9e c8 28 bc a3 3f 23 be ca dc 22 3e 2a e9 90 bd
       -0.010301737 -0.15942244 0.15904537 -0.070757225
000040 44 33 a8 3b 5c 7a 83 bd 0c 9f 91 3d 38 ec 0b be
       0.0051330645 -0.064198226 0.07110414 -0.13664329
000050 11 40 27 bd 0b 72 32 3d f0 c5 09 be 7a 65 3b 3c
       -0.040832583 0.04356579 -0.13454413 0.011437768
000060 f6 27 1d 3e f6 c9 66 3d 5a 19 be 3d 79 60 04 3a
       0.15347275 0.05634495 0.09282179 0.0005049776
000070 be 12 5e 3d 21 a1 39 3d 72 d9 57 bd 29 9d 8e 3d
       0.054217093 0.04531968 -0.052697606 0.0696357
000080 7b c6 73 3d db 3e 66 bd 8a 39 07 3e 7a 63 94 3c
       0.059515458 -0.056212287 0.13205543 0.01811384
000090 f7 ca 97 bd 11 b2 4d 3c 3d 91 95 bd b1 e0 10 3e
       -0.07411759 0.012554661 -0.07303093 0.14148213
0000a0 1f 7a 14 3d 2d 73 c1 3d dd 48 ce bd 86 e9 a3 bd
       0.036249276 0.09445796 -0.10072491 -0.080035254
0000b0 33 87 dd 3d 1f 8f 16 be 05 ef 71 3d 7a 32 dc bd
       0.10816803 -0.14703034 0.059065837 -0.10751815
0000c0 bd 07 80 bd 28 08 fd bb 7d f5 a0 3d 46 0a a6 bd
       -0.06251476 -0.0077219196 0.07859323 -0.08107428
0000d0 70 a4 79 bc d0 10 67 3d d8 71 30 bd a9 87 02 bd
       -0.015236959 0.056412518 -0.04307732 -0.031867657
0000e0 95 76 6a 3d d7 ff db bd 54 86 fb 3d 9f 8f d1 3d
       0.057241995 -0.10742157 0.122814804 0.10232472
0000f0 96 1a 5c bd 0b 1b 12 bd dc 77 01 3e 6d c2 fb 3d
       -0.05373629 -0.03567032 0.12643379 0.12292943
000100 42 f0 aa bc 89 0a a6 bc 9f 92 19 3e f9 c4 bd bd
       -0.020866517 -0.020268695 0.14997338 -0.09266085
000110 96 18 d2 bd 8a 98 82 3d d0 81 18 3d f5 39 16 3e
       -0.10258596 0.06376751 0.037233174 0.14670546
000120 7d 22 e1 3b f8 34 f2 3d b7 cc 01 be 9a db 25 3d
       0.0068705664 0.11826509 -0.12675749 0.04049263
000130 fa a7 87 3d c9 9e 6f bd 39 54 f1 bd 31 1c db bb
       0.06623836 -0.05850104 -0.11783642 -0.0066867103
000140 ff 87 ca 3d 28 ca 1c 3e d0 de eb bd 42 89 11 bd
       0.098892204 0.15311491 -0.115171075 -0.03553129
000150 b7 2c 1f 3e b8 37 d8 bb b6 89 3c bd 34 03 eb 3d
       0.15544401 -0.006598439 -0.04602977 0.1147522
000160 22 89 fa 3d 76 32 3d 3c 40 f4 fd bc 66 29 0d be
       0.12233187 0.011547675 -0.031000257 -0.13785324
000170 45 f8 b3 bd 23 75 6b 3d 94 04 01 3e f6 2a d7 bc
       -0.08787588 0.057484757 0.12599403 -0.026265603
000180 9b b7 20 3e a8 ce a3 bd 5e 53 87 3d 09 d0 90 3d
       0.1569504 -0.07998401 0.06607698 0.070709296
000190 00 ce a5 3c 26 4d 03 3b bc 7b e2 bd 21 07 8f 3d
       0.02023983 0.0020034998 -0.11058757 0.069837816
0001a0 0c 53 7e bd 94 cd e0 bd d2 eb 49 3d 7a 59 1e be
       -0.06209092 -0.10976711 0.04929716 -0.1546382
0001b0 91 0e b7 bc 4a c7 23 3e 89 07 47 bd c3 b5 88 3d
       -0.022345813 0.15993991 -0.04859117 0.06675293
0001c0 f2 95 22 3d cc 9b 4a 39 98 ff 83 3d d2 c8 c2 3d
       0.03969378 0.0001932226 0.06445235 0.0951096
0001d0 ec 99 95 bd bb fb 94 3d c7 46 b4 bd 9b 9c e3 3d
       -0.07304749 0.07274576 -0.08802562 0.111138545
0001e0 02 4e a7 bd e3 29 09 3e 58 cb b5 3d 30 10 dd bd
       -0.08169176 0.13394885 0.08876675 -0.10794103
0001f0 6b f3 d9 bc 6a 04 16 be 00 c2 d2 bd 07 68 ef 3d
       -0.026605329 -0.14650121 -0.10290909 0.116897635
000200 c4 da 8d 3d e4 22 ba bd 44 d3 97 bd 3e 3d aa 3d
       0.06926492 -0.09088686 -0.074133426 0.08312462
000210 13 da ee bd c3 6f 92 bc 8c 9d 3a 3d f7 ca 1f 3e
       -0.11662688 -0.017875558 0.045560405 0.15604769
000220 d0 78 fa bd 45 34 bc bc 4a e2 1f 3e 8a 73 37 bd
       -0.122300744 -0.022974143 0.15613666 -0.04478792
000230 6f cf e5 3b 36 1d e3 3d 1f 42 a7 3d 9b 5e ee 3d
       0.0070132534 0.11089556 0.081669085 0.11639138
000240 26 66 88 3d 5f 04 d3 3d 6b 8c d3 3d 27 ae 98 3d
       0.06660108 0.10303568 0.10329517 0.07455092
000250 59 f4 2f bb 7d 4b 73 3b 1a da 87 3d f3 03 b8 bd
       -0.0026848523 0.0037123852 0.066333964 -0.08985128
000260 11 0f 0d be 67 6e 0f 3c 93 e1 98 bd 4f 8d 87 3d
       -0.13775279 0.008754349 -0.074649 0.06618749
000270 2a 75 f3 3d 56 d9 0e 3d e1 9c fb 3d eb 6e bc 3d
       0.11887582 0.034875236 0.12285782 0.092008434
000280 01 2e 11 be 4d 0c 9d 3d c6 e3 11 be 04 e0 fe bd
       -0.14177705 0.07668362 -0.14247045 -0.12445071
000290 01 af d0 3d 94 44 32 bb cf ae 01 be 80 97 a0 bd
       0.10189629 -0.002720152 -0.1266434 -0.07841396
0002a0 64 e1 eb 3b f0 4d 08 3e 52 81 43 bd 9c f4 61 bc
       0.0071984995 0.13310981 -0.04773075 -0.01379123
0002b0 d8 cd cb bd 73 25 4a 3d ac 1b 66 bd a8 8a c4 3d
       -0.09951371 0.04935212 -0.056178734 0.09596759
0002c0 18 2b 4e bb ab bd 49 3c 3e 7c 01 bd a9 b5 09 be
       -0.0031458791 0.012313287 -0.031612627 -0.13448204
0002d0 99 ba 99 bd 1b d3 af 3c 82 a8 1e bc 89 22 f2 3d
       -0.07506294 0.021462968 -0.00968373 0.11822993
0002e0 83 de f4 3c 5f 84 f4 3d cf 8b 24 3e 78 e8 81 bd
       0.029891258 0.1193931 0.16068958 -0.06343168
0002f0 9a 9a 8d bb ed 63 e9 3d 20 a5 96 bd 4d a9 63 3c
       -0.0043214085 0.113960125 -0.07355714 0.013895345
000300 96 03 6f bd 1d e3 25 3e d0 1d 46 3c 54 72 0d 3e
       -0.05835303 0.16199918 0.012092069 0.13813144
000310 d1 17 08 3e 9a 9b d0 bc 01 4a 0f 3e ba e3 02 3e
       0.13290335 -0.025464822 0.13993074 0.12782183
000320 5a cc f5 3c f9 00 91 3c ad 4a b0 3d 88 de f8 bc
       0.030004669 0.01770066 0.08607993 -0.030379549
000330 85 af 57 bd 2b e4 94 3d 53 b2 c2 3c 2a cb fb bc
       -0.052657623 0.07270082 0.023766672 -0.030736525
000340 08 e9 35 3d 23 ed 9e 3d de e4 ec 3d 56 5f be 3d
       0.04441169 0.07760074 0.115670905 0.09295528
000350 82 91 9b bd 59 23 0f 3e b7 3c 77 bc dd 94 99 bd
       -0.07596113 0.13978328 -0.015090159 -0.074990965
000360 75 15 01 3e 6b 5f dd bd 81 7f 07 be af c5 4a bc
       0.12605841 -0.10809215 -0.13232233 -0.012376233
000370 80 93 22 bc 08 d3 91 3d 4e d1 50 3d be db 92 3d
       -0.009922862 0.07120329 0.05098086 0.07170819
000380 54 bb 99 bd 90 c5 d2 ba 33 aa 16 3e ea 40 d0 bc
       -0.07506433 -0.0016080607 0.14713363 -0.025421578
000390 3e b6 07 be 1d 62 8a 3d 4a fd 0d 3e 17 bb de bd
       -0.13253114 0.06756995 0.13866153 -0.10875528
0003a0 5b ef 40 bd 23 cf 02 be b9 54 ef bd a7 f0 07 be
       -0.047103267 -0.12774329 -0.116860814 -0.13275395
0003b0 e6 bd 9e bd 02 5d 86 bd c2 27 9c bd 6a 44 a6 bd
       -0.07751064 -0.065607086 -0.07624771 -0.08118518
0003c0 d5 01 dd bd 07 04 be bd cf c3 bf 3d c0 62 f2 bd
       -0.10791365 -0.09278112 0.093635194 -0.11835241
0003d0 17 7b 52 bd fa 4a 79 bc 1a ed e5 3d 57 bf c8 bd
       -0.05138692 -0.01521563 0.11226864 -0.0980212
0003e0 13 87 35 3d 5e 9c fd bb 3c 82 06 3d 06 60 cd bc
       0.04431827 -0.0077395877 0.032839045 -0.025070202
0003f0 c1 33 0b 3e aa f0 09 3e ef d6 5f bd 41 0f 24 3d
       0.13593961 0.13470712 -0.054648336 0.04005361

conv_0.bias f4 [128]
000000 ac 6a 45 bc c9 e7 56 bb 1b 20 18 3c 65 de 4e 3c
       -0.012049358 -0.0032791963 0.009284998 0.012626265
000010 1a f7 06 bb 66 fe 2d bc 01 a6 f4 3b c6 9f 22 bc
       -0.0020594061 -0.010619735 0.0074660783 -0.009925788
000020 d5 b5 41 3c 57 35 26 3c d5 a1 39 bc 05 d0 89 bb
       0.011823137 0.010144553 -0.011330088 -0.004205706
000030 de d6 c5 3b ff b6 3a 3c 1e a2 1e bc ca 1a 2a 3c
       0.006037577 0.011396169 -0.009682206 0.010382364
000040 9a eb 37 3c 5a 32 20 3c 3c 69 df bb 65 e5 54 3c
       0.011225605 0.00977763 -0.006817965 0.012994145
000050 83 a8 47 3c 2f ed f2 3b b7 4b 51 3c 50 a6 f6 3b
       0.012186172 0.0074135284 0.0127743995 0.00752715
000060 74 54 32 bc 6b b2 03 bc 53 64 86 3b 64 99 d2 3b
       -0.010884393 -0.008038144 0.004101315 0.006426977
000070 80 a1 db 3b e3 71 c7 bb f3 d0 b3 bb 91 5f 27 bc
       0.006702602 -0.0060865744 -0.005487555 -0.010215656
000080 eb c0 1e 3c 46 08 1f 3c d4 ad 2f bc 43 2f 4a 3c
       0.00968955 0.009706562 -0.010722596 0.01234037
000090 c9 c4 45 3c 47 5f 32 bc 22 a1 44 3c 2d d5 be ba
       0.012070843 -0.010886974 0.012001308 -0.0014559381
0000a0 c7 4d dc 3b 08 5d e2 bb 48 62 31 bb 75 a5 33 3c
       0.006723139 -0.006908063 -0.0027066637 0.010964741
0000b0 26 4e 5b ba f9 e4 56 3c c6 1a 3d 3c 36 ce 4e bc
       -0.0008365832 0.013116115 0.011542028 -0.012622407
0000c0 3c c9 67 3b 8c 6d 2c bc cb d3 88 ba 2f 63 28 3c
       0.0035367748 -0.010524165 -0.0010439096 0.010277553
0000d0 1c fa 08 3c 6c 31 1c bc 8e d5 47 3c be 70 1d bc
       0.008360412 -0.0095332675 0.0121969115 -0.009609399
0000e0 6f ed 29 bc 92 32 22 3c 87 11 23 bc 8c 1a 20 bc
       -0.01037155 0.009899752 -0.009952909 -0.009771954
0000f0 cd 6e 47 3c 90 c0 38 3c 36 99 d0 bb 20 a6 9c bb
       0.012172413 0.011276379 -0.0063659204 -0.004780546
000100 d9 a7 b7 bb ff dc 20 bc 4f ec 2c bc 03 88 23 3c
       -0.005604726 -0.009818315 -0.010554387 0.009981158
000110 4b ad 2c bc 70 bc 2f bc 5f 07 3d 3c e1 fa 21 bc
       -0.010539363 -0.010726079 0.011537402 -0.009886474
000120 ec db 3f 3c 4d fe 17 bc 26 b1 d0 bb b6 5e 95 ba
       0.011710148 -0.009276939 -0.006368774 -0.0011396024
000130 10 31 39 3c 34 fe 1c bc 16 0f 36 3c cb 0c 02 3c
       0.011303201 -0.009582091 0.011111995 0.00793762
000140 54 de 3a bc 4e d7 1b bc e0 25 38 3c 9b c0 f2 ba
       -0.011405546 -0.009511782 0.011239499 -0.0018520536
000150 65 28 30 bc db cd 4f 3c f0 81 41 bc 1f 81 31 3c
       -0.010751818 0.012683357 -0.011810765 0.0108340075
000160 82 28 1e 3c 08 fb 35 3c 6f fd 2d 3c b9 d8 24 bc
       0.0096532125 0.011107214 0.010619505 -0.010061436
000170 54 f0 2a 3c 4b 7a 38 3c 24 7e 48 bc c5 ad 2c 3c
       0.010433275 0.011259626 -0.0122371055 0.010539477
000180 e2 6e 29 bc 2d 39 4b 3c 23 36 82 bb ef 28 1d bc
       -0.010341378 0.0124037685 -0.0039737388 -0.009592279
000190 59 5a 35 3c 4e 7f d4 3b fa 6d d6 bb b0 48 29 bc
       0.011068904 0.0064849025 -0.006543872 -0.010332271
0001a0 28 4d 99 3b 10 88 fa 3b 99 ba 1e 3c 15 a9 19 3c
       0.004678387 0.0076456144 0.009688043 0.009378691
0001b0 c0 1b 1e bc 8a fc 36 bc ef 39 20 3c de a0 25 3c
       -0.009650171 -0.011168608 0.009779437 0.0101091545
0001c0 ac e5 39 3c 43 7f 3b bc 82 81 1c bc 5c 9b 9e 3a
       0.011346262 -0.011443916 -0.009552361 0.0012100744
0001d0 e5 77 21 3c 42 64 b1 ba e6 e9 81 3b 27 6a 23 bc
       0.009855245 -0.0013533907 0.0039646504 -0.009974039
0001e0 48 d7 49 bc 66 d2 29 3c 2a 87 37 3c b3 ba 24 3c
       -0.012319393 0.010365104 0.011201659 0.010054278
0001f0 3d 06 1d bc d2 8c 1e 3c 9c ec 1f bc 96 2a a0 ba
       -0.009584007 0.009677129 -0.009761002 -0.0012219723

layers.0.weight f4 [128, 128]
000000 c7 8d 08 be cd b5 89 3c 20 1d e8 bc ce b8 28 3c
       -0.13335334 0.016810322 -0.0283342 0.010297967
000010 4a 1d f9 3d 6a 2e ed bd 9c 2d c4 bd 57 8f b8 3c
       0.121637896 -0.115811184 -0.09579012 0.022529287
000020 49 cc 50 bd 54 c1 fc 3d 99 c1 19 bc b2 2c 21 3d
       -0.05097607 0.12341562 -0.009384536 0.039349265
000030 16 1a 02 bc 21 24 6b bd 48 12 1d 3d 08 88 26 3e
       -0.00794079 -0.057407502 0.038347512 0.1626283
000040 a0 dc 04 be 70 10 6a bd 99 68 f6 bd 34 94 e4 3d
       -0.12974787 -0.057144582 -0.12031669 0.1116108
000050 5c 8e 77 bd 36 ee c0 3c 29 b6 02 be 99 2f 95 3c
       -0.0604385 0.023551088 -0.12764801 0.018211173
000060 40 f3 06 be a8 4f 22 3e 62 22 a8 bd e0 69 19 be
       -0.1317873 0.15850699 -0.08209683 -0.14981794
000070 c2 16 b5 bd 5e 7e 10 3e b5 f3 e3 3d af 96 d0 3d
       -0.08842231 0.14110705 0.11130468 0.101849906
000080 b7 f0 d1 3d 70 96 6c 3d 12 55 12 be 50 bd 0a be
       0.10250991 0.057760656 -0.14290264 -0.1354878
000090 c3 91 cd 3c 4b 57 d3 bc 87 3a eb 3d 4f 67 69 3d
       0.025093919 -0.02579846 0.114857726 0.05698329
0000a0 f1 f2 7a bd 42 21 0a 3e 07 7b c5 bc 68 57 7f bd
       -0.061266843 0.1348925 -0.024106516 -0.062339216
0000b0 3e 6e ad bd 2d 99 8a bc e0 4f 04 3e 51 e7 1f be
       -0.08468293 -0.016918743 0.12921095 -0.15615584
0000c0 e2 54 93 bc 19 dc dd bd dd 42 f7 3d 2b bb 53 3d
       -0.017984811 -0.10832996 0.120733 0.05169217
0000d0 04 d3 57 3c 22 13 b0 bc f9 cd 80 bd 2d 75 e8 bd
       0.013172869 -0.021493498 -0.06289286 -0.113504745
0000e0 e7 1f fc bd de e8 f2 3c fb 22 0b be fc 0b 3e bd
       -0.123107724 0.029652055 -0.13587563 -0.046398148
0000f0 4c 0a f1 3d e8 2e c7 bd f6 b6 f9 bd 12 f7 d8 3d
       0.11769542 -0.097257435 -0.121931 0.10594
000100 a3 41 17 bc 5e 2e 18 3e 23 f8 2d 3d d4 b8 a2 3d
       -0.009231958 0.14861438 0.04247297 0.079454094
000110 43 98 d9 bd db 8a e7 3d d5 47 e2 bd d4 77 9a bd
       -0.10624745 0.113057815 -0.11048857 -0.07542387
000120 c4 8a bd 3d d5 c1 f1 bd 65 63 5b bd d4 4b 0e be
       0.09254983 -0.11804549 -0.053561587 -0.13896114
000130 70 35 14 3e 8a ed b4 bd ad b8 68 3d 03 53 c3 3d
       0.1447351 -0.088343695 0.056816746 0.095373176
000140 6e c2 0f be e4 e7 6e bd a5 2f 1b be e0 07 65 3c
       -0.14039013 -0.058326617 -0.15154894 0.013978928
000150 78 bd 61 bd 68 34 84 3d f9 8c 68 3d 31 17 24 3e
       -0.055112332 0.06455308 0.056775067 0.16024472
000160 77 69 0b 3e 73 57 f7 3d 3b bc af bc b6 95 76 3c
       0.1361445 0.120772265 -0.02145206 0.015050342
000170 cd 9f 92 bd 0a 45 98 bd aa 41 0e be 3c 07 29 bd
       -0.07159386 -0.07435043 -0.13892236 -0.041266665
000180 f3 2f 06 3e e4 2d bd bc d7 00 b6 39 1b d9 06 3e
       0.13104229 -0.023093171 0.0003471437 0.13168757
000190 c9 2e bc bd cd b5 af 3d c3 64 cc 3c 5b d2 70 3d
       -0.09188611 0.085795976 0.02495039 0.05879436
0001a0 8b fe 7f bd 8e 7b 17 be e2 de a2 bd 7a 2e 63 bc
       -0.06249861 -0.14793226 -0.07952668 -0.013866061
0001b0 15 65 ee 3c f1 a1 1e 3e ad 8e da bd ba 80 f0 bd
       0.029100934 0.15491463 -0.106717445 -0.11743303
0001c0 09 c1 45 3d ad 69 93 bd 37 c9 20 bb df d9 7f bd
       0.048279796 -0.071978904 -0.0024533996 -0.062463637
0001d0 6e 9a c3 bc 01 c5 81 3c 8c 43 dc 3b 22 e9 71 3c
       -0.023877349 0.01584101 0.0067219194 0.014765056
0001e0 be b3 a1 3d 2b 86 0a 3d 61 0e c6 bd cc 98 18 3e
       0.07895611 0.03381936 -0.09670711 0.14902037
0001f0 73 dc 9c bd c3 6c b5 bd b6 58 d8 3d dc 64 47 bd
       -0.07659235 -0.08858635 0.10563795 -0.04868017
000200 04 88 0f 3d cc b0 1a be 75 0e b7 bb 2b ac 0f be
       0.035041824 -0.15106505 -0.00558644 -0.1403052
000210 b0 6f a9 bc c1 10 0f 3e bc 33 f1 3d 6a 7f bb 3d
       -0.02068314 0.13971235 0.11777446 0.09155162
000220 f3 3b 0f bd 87 28 6d bb da 4e 1b 3d e4 ec 10 3e
       -0.03496928 -0.0036187486 0.037916996 0.14152867
000230 23 5f 8e 3c 54 a9 25 bd 74 b8 d1 3c f7 00 02 3d
       0.01737935 -0.040444687 0.02560065 0.0317392
000240 f0 b1 cd bd c2 3d 08 3d bf fd 35 3d 49 2d 6d bb
       -0.100437045 0.03326202 0.044431444 -0.0036190322
000250 d7 e4 85 bd 1c 68 03 3e 19 7d 64 bd 22 b4 a1 3d
       -0.06537788 0.12832683 -0.055783365 0.07895686
000260 69 f5 04 3d 37 83 8c 3d a0 68 ce bd bf b1 dd bd
       0.032460604 0.06860965 -0.100785494 -0.10824918
000270 a9 70 39 3d e5 cb 3f bd 3e 8b cd bd 45 2d ca 3d
       0.045273457 -0.04682531 -0.10036324 0.09871916
000280 df 39 46 bc 31 d5 26 3d 79 60 ee 3c 4d 64 01 3e
       -0.0120987585 0.04073066 0.029098736 0.12635918
000290 01 69 23 3c 37 c2 4d bd e4 1f a2 bd 92 18 19 3e
       0.009973765 -0.050234046 -0.07916239 0.14950779
0002a0 e1 ba 47 bd 08 8e b6 3d 55 dc e7 3d 77 5d e3 bc
       -0.048762206 0.08913809 0.11321322 -0.027754528
0002b0 89 a3 f1 3d 2f d0 01 3e ce 9c 3e 3d 64 d1 8f bd
       0.1179877 0.12677072 0.04653626 -0.0702236
0002c0 58 bb 4e bc a3 5c 67 bd 3a de a5 3d 22 91 0a bd
       -0.012617908 -0.05648483 0.08099027 -0.033829816
0002d0 c7 3f 11 3e 59 9f c4 bd 26 e3 9f bd b5 2b e0 bc
       0.14184485 -0.09600706 -0.07806997 -0.027364591
0002e0 35 0f 98 bd 2a b0 1c 3e b6 95 e4 bd 64 fd fb bd
       -0.074247755 0.15301576 -0.111613676 -0.1230419
0002f0 fa 13 07 3e f9 42 12 3d 4c be 4a 3d 46 92 9c bd
       0.13191214 0.0357084 0.049497887 -0.07645087
000300 76 3f c2 bc 0a 93 37 3d 71 28 76 bd c0 c3 db b9
       -0.023711901 0.04481796 -0.06009716 -0.0004191678
000310 e4 e2 16 be 54 bb f3 bc 2e 84 23 3c 40 99 7c 3d
       -0.1473499 -0.029752411 0.009980245 0.061669588
000320 e0 e6 16 3d be 74 ba 3d 93 86 19 be 6c 04 0e be
       0.036841273 0.09104298 -0.14992742 -0.13868874
000330 8a 88 29 3d a5 47 05 bd d4 1f 0f be fe 60 15 3d
       0.04138998 -0.03253903 -0.13976985 0.036469452
000340 75 20 92 3d 47 05 95 bd d1 31 d4 3b e0 37 29 3d
       0.07135097 -0.07276397 0.006475665 0.041313052
000350 d0 11 eb bc c6 42 9b bd 9a af ef bd ff 63 c6 3d
       -0.028695017 -0.075810954 -0.11703415 0.096870415
000360 40 84 87 bd 29 f8 0d bd 1b 7e 00 3e ab 1d f3 3d
       -0.066170216 -0.034660492 0.12548105 0.11870893
000370 4e b5 36 3d a1 a9 42 3d 10 f4 58 3a f9 5b 2a bd
       0.0446065 0.047525052 0.0008276114 -0.04159162
000380 02 c6 9a 3d 53 51 86 3d c9 b7 59 3c 67 1f 89 3d
       0.07557298 0.0655848 0.013288447 0.06695443
000390 00 76 9f bd 24 e6 16 3e 06 79 c4 bd 96 bd 3c 3d
       -0.077861786 0.14736229 -0.09593396 0.04607924
0003a0 a3 99 63 3b 39 6b 18 3d 91 b7 c5 3d 80 3b 65 bd
       0.0034729026 0.03721163 0.09654153 -0.055964947
0003b0 18 29 c1 bd 14 4b 0b be a9 82 b1 bd 9e e1 7a 3d
       -0.09431666 -0.13602859 -0.086674996 0.06125032
0003c0 0e 22 02 3e f0 62 0a be 27 86 81 bd 9c 64 32 bd
       0.12708303 -0.13514304 -0.06324416 -0.04355298
0003d0 fa a0 16 3e bd b7 0e bd d3 ce 34 3d 88 9a b3 bd
       0.14709845 -0.034843195 0.044142555 -0.08769709
0003e0 0a 64 c8 bd 92 9f af 3d 99 7c 14 3d 47 bf 16 be
       -0.09784706 0.085753575 0.036251638 -0.14721404
0003f0 9e bb 08 bd af 11 22 bd 7d 38 15 bd 57 f4 18 3e
       -0.03338205 -0.039567646 -0.036430825 0.14936958

layers.0.bias f4 [128]
000000 1b 93 16 bc a4 34 15 bc ec 2f 15 3c 54 93 15 bc
       -0.009190346 -0.009106789 0.009105664 -0.009129364
000010 a5 45 02 3c a1 19 1b 3c 4c ee 15 3c 60 db 14 3c
       0.007951175 0.00946656 0.009151053 0.009085506
000020 cb 96 0f 3c 98 d3 20 bc 8a 1a 15 bc 98 a3 17 3c
       0.008763979 -0.009816073 -0.009100566 0.009255312
000030 3c e4 0e bc 6c 37 0b bc 0a d0 15 3c ea 50 17 bc
       -0.0087214075 -0.0084971 0.009143839 -0.0092356
000040 4a 7b 15 3c da 69 1c bc 86 61 0f 3c 30 c0 15 3c
       0.009123633 -0.009546721 0.008751279 0.009140059
000050 73 49 11 3c 41 51 16 bc b9 f6 14 bc de c2 0b bc
       0.008867609 -0.009174646 -0.009092026 -0.008530347
000060 eb f4 17 3c 7b 66 1c bc 56 89 16 3c 26 8f 0e 3c
       0.009274702 -0.009545918 0.009188017 0.008701121
000070 2c 50 0e bc 78 78 18 bc 2c b7 15 bc f4 c4 17 bc
       -0.008686107 -0.009306066 -0.00913791 -0.009263266
000080 5b 56 1a 3c 94 37 0f bc 8d b4 11 bc 34 88 12 bc
       0.009420003 -0.008741278 -0.008893144 -0.008943606
000090 49 41 15 bc 75 2f 0a 3c 14 a0 1d bc 8f 79 15 bc
       -0.0091098035 0.008434166 -0.009620685 -0.00912322
0000a0 59 f5 31 bc 98 a3 16 3c d9 ca 12 bc 50 f9 12 bc
       -0.010861718 0.009194277 -0.008959495 -0.008970574
0000b0 0f 0e 12 bc 81 e7 53 3b 02 22 0f bc 59 a4 e2 3b
       -0.008914485 0.0032334032 -0.008736135 0.0069165644
0000c0 ba bd 14 bc 63 88 4c 3c 5c 6c 00 3c f1 aa 1b 3c
       -0.009078437 0.012483689 0.007838335 0.009501205
0000d0 78 c4 15 3c eb e2 15 3c 75 b3 0f 3c 33 90 15 3c
       0.00914108 0.00914834 0.008770813 0.009128618
0000e0 5a 88 0e 3c d3 5f 23 3c b8 48 5c bc c4 3e 0e bc
       0.008699501 0.009971577 -0.013445072 -0.008681957
0000f0 e8 c9 0d 3c 53 16 15 bc 1a 02 12 bc 7a 68 17 3c
       0.008654095 -0.009099561 -0.008911634 0.009241218
000100 89 1e 24 3c 01 41 1e bc 89 6c 15 bc 1b e7 a6 bb
       0.010017046 -0.009659053 -0.009120115 -0.005093468
000110 8b 2e 1a bc 4d 55 1d bc a8 16 11 3c eb b6 ef 3b
       -0.009410511 -0.009602857 0.008855499 0.0073155067
000120 8e d1 12 bc 51 28 18 bc 45 08 17 3c c0 33 1a 3c
       -0.008961095 -0.009286956 0.00921828 0.009411752
000130 67 c0 41 bc d5 15 01 3c 30 7c 17 bc ba e6 0d 3c
       -0.011825657 0.00787874 -0.009245917 0.0086609665
000140 d6 51 15 bc cb 71 16 3c 3d 77 0f 3c 64 25 14 bc
       -0.0091137495 0.009182404 0.008756456 -0.009042118
000150 94 5a 0f bc 38 64 2d bc d5 20 0f bc e4 4f 53 bc
       -0.008749623 -0.010582976 -0.008735855 -0.012897465
000160 67 ef 14 bc ae 60 17 3c fa e0 1a 3c a8 57 1e bc
       -0.009090281 0.009239359 0.009453053 -0.009664454
000170 3b ff 14 bc f6 72 0e bc a2 dc 0a 3c af 5c 15 3c
       -0.009094055 -0.008694401 0.0084754545 0.009116336
000180 bb 55 18 bc 76 46 17 bc f2 c4 17 3c 75 c5 10 bc
       -0.0092977835 -0.009233108 0.009263264 -0.00883614
000190 9e 32 1d bc 1d 8a 17 3c 24 a2 08 3c d3 48 15 bc
       -0.009594588 0.009249237 0.008339439 -0.009111601
0001a0 6d 66 15 bc b5 9a 30 3c 60 3b 53 bc d5 e0 07 3c
       -0.0091186585 0.0107790725 -0.012892574 0.00829335
0001b0 8d 86 15 3c fd 29 1d bc 19 eb 0d 3c 91 9e 16 3c
       0.009126318 -0.00959253 0.008662009 0.009193079
0001c0 ea 81 16 bc 1a c2 15 3c e2 bd 0e 3c f9 52 1b 3c
       -0.009186247 0.009140516 0.008712264 0.009480231
0001d0 0e 07 0f 3c a1 ba 16 bc c9 8e 1e 3c 01 2e 09 3c
       0.008729709 -0.009199769 0.009677597 0.008372785
0001e0 6f 53 23 3c 53 0c 18 3c b6 28 17 bc c8 6e 18 bc
       0.009968623 0.009280282 -0.009226015 -0.009303756
0001f0 32 d3 18 3c 68 e2 16 3c 6c a2 0f 3c f5 b2 a5 3b
       0.009327697 0.009209253 0.008766752 0.0050567337

predict.weight f4 [1, 128]
000000 37 44 8e bd 10 b4 bc bd f4 be b2 3d 44 4d ca bd
       -0.06946605 -0.09214032 0.08727828 -0.098780185
000010 1b 5c 28 3c 34 7c 1d 3d 76 fb 9b 3d 1b a8 c0 3d
       0.010275866 0.038448527 0.07616322 0.094070636
000020 08 a6 65 3d 8c 05 e4 bc d3 99 b5 bd 08 25 2c 3d
       0.056066543 -0.027834676 -0.0886723 0.042027503
000030 aa 75 6e bd 40 ef 69 bc 5c 2f a0 3d ff 25 87 bd
       -0.058217682 -0.014278233 0.07821533 -0.06599044
000040 e2 80 bb 3d c4 0b f0 bc 74 c1 8c 3d 68 f6 be 3d
       0.09155442 -0.029302485 0.06872836 0.09324342
000050 b4 c9 29 3d e7 f8 aa bd 1d dc bf bd 05 95 07 bd
       0.041452125 -0.083482556 -0.09368155 -0.0331011
000060 e4 59 84 3d d1 89 1f bd 4d 13 9b 3d c1 a1 7b 3d
       0.06462458 -0.03894979 0.07572041 0.061433557
000070 9b 57 54 bd 11 6a 5f bd 2a fd a6 bd 1c a9 8a bd
       -0.05184136 -0.054544512 -0.08153756 -0.06770536
000080 90 ee 26 3d c8 94 dc bc b5 30 2d bd c5 e6 be bd
       0.040754855 -0.026926413 -0.04228278 -0.093213595
000090 f9 a4 c3 bd bb 79 9e 3c bf 84 05 bd 09 50 ba bd
       -0.095529504 0.019345155 -0.0325973 -0.09097297
0000a0 3e c1 77 bc 1f 17 83 3d 1f 15 62 bd cb a5 95 bd
       -0.015121756 0.064008944 -0.055195924 -0.07307013
0000b0 8e ee b5 bd 54 5c c7 3b b5 d1 7a bd b2 e8 12 3b
       -0.08883391 0.0060840044 -0.06123515 0.002241653
0000c0 5a 2d c0 bd 0b 83 2f 3c ea 97 04 3c c2 18 3b 3d
       -0.0938365 0.010712395 0.00809286 0.045677908
0000d0 d3 d7 a6 3d 9b 5b 99 3d 00 d1 23 3d be bd 90 3d
       0.08146634 0.074881755 0.03999424 0.070674405
0000e0 b8 48 4e 3d d9 4c b4 3c 72 19 55 bc 19 ad 19 bd
       0.05036232 0.0220093 -0.013006555 -0.037518594
0000f0 bc 71 28 3d 06 0e 8a bd b8 2e b6 bd 11 7f 8f 3d
       0.04112409 -0.06740956 -0.0889563 0.07006658
000100 89 4a e0 3c e0 76 04 bd 2a 7a a2 bd 2a 94 dd bb
       0.027379291 -0.03233993 -0.07933457 -0.0067620473
000110 a5 86 3f bd 34 ca 05 bd a9 61 06 3d 2a 90 c6 3b
       -0.046759266 -0.03266354 0.03280798 0.006059666
000120 03 17 86 bc 17 3f 4f bd de 91 95 3d 50 ac 28 3d
       -0.016368395 -0.050597277 0.073032126 0.041179955
000130 85 cd 6e bc 6e b9 b5 3b 79 3f 85 bd a6 6e 29 3d
       -0.014575367 0.0055457866 -0.06506247 0.04136529
000140 e2 42 c9 bd dd b0 9d 3d 8c 96 a7 3d 46 03 92 bd
       -0.0982721 0.076997496 0.081830114 -0.071295306
000150 f2 87 87 bd b2 b9 8a bc 53 79 04 bd 60 12 3d bc
       -0.066177264 -0.01693425 -0.032342266 -0.0115400255
000160 76 7e ba bd 80 ee 69 3d 52 f4 18 3d 39 76 fc bc
       -0.09106152 0.057112217 0.037342377 -0.030818092
000170 17 b3 b7 bd 74 4d 83 bd 71 00 df 3c 12 2a c9 3d
       -0.089697056 -0.064112574 0.02722189 0.098224774
000180 09 27 46 bd 14 8d 89 bd 3c cd 54 3d 66 f5 0e bd
       -0.04837707 -0.06716362 0.05195354 -0.034902
000190 12 64 0c bd ab 94 52 3d f8 8e ad 3c 82 57 a7 bd
       -0.034275122 0.051411312 0.021186337 -0.08170988
0001a0 74 d0 be bd dc 6a 7e 3c 2c 5e 67 bc 3c ad 97 3c
       -0.09317103 0.015528407 -0.014121573 0.018515222
0001b0 d1 c2 cd 3d 1d da de bc fc 6c a3 3c d3 d8 18 3d
       0.10046924 -0.027203614 0.019949429 0.037316155
0001c0 6b ec 8a bd 5d 62 a1 3d 8e 03 5e 3d 11 24 20 3d
       -0.067833744 0.078800894 0.05420261 0.039096896
0001d0 d2 75 a4 3d c2 03 8a bd d4 b7 df 3c d8 37 94 3c
       0.08030285 -0.06738998 0.027309336 0.018093035
0001e0 b4 6f c2 3c bb 10 48 3d 83 ac 95 bd 0b 0e 65 bd
       0.023734905 0.04884408 -0.073082946 -0.055921596
0001f0 88 b7 2c 3d 0c 27 8f 3d 39 a2 85 3d 6e 2b d5 ba
       0.042167217 0.069898695 0.06525082 -0.0016263553
