PERGAT_embbedding/data/emb/models/model_dim128_lay2_epo27.pth (torch, 137088 bytes, 7 tensors)

linear.weight f4 [128, 1]
0	0xbe36fcd8	-0.1786989
1	0xbf6edeb0	-0.93308544
2	0xbe5f71e0	-0.21820784
3	0xbdb68440	-0.089119434
4	0x3e9bacf8	0.30405402
5	0x3d82dbb0	0.06389558
6	0xbf7bfc84	-0.98432183
7	0xbf2ddae4	-0.67912126
8	0xbf6ac958	-0.91713476
9	0xbe1dddf0	-0.15416694
10	0x3ec00420	0.37503147
11	0xbf6910be	-0.9104117
12	0xbf5d3ba4	-0.8641913
13	0xbf59956e	-0.84993637
14	0xbf1ee446	-0.6206707
15	0xbeccb948	-0.39985108
16	0xbf6bf542	-0.9217111
17	0xbed27964	-0.4110824
18	0xbef6fe00	-0.48240662
19	0xbf15e760	-0.58556175
20	0xbe2e9f08	-0.17052853
21	0xbde139d0	-0.10997355
22	0xbf2404be	-0.64069736
23	0x3f48642c	0.7827785
24	0xbf51645a	-0.8179375
25	0x3e551298	0.20807874
26	0x3f1ca236	0.61185014
27	0x3f2d3542	0.6765939
28	0x3f34da28	0.7064538
29	0xbeb99518	-0.36246562
30	0x3f32e4b8	0.6988025
31	0xbf7c199e	-0.9847659
32	0xbf115c5a	-0.5678154
33	0xbf1e131e	-0.6174792
34	0x3e1b08a0	0.15140009
35	0xbe38a390	-0.18031144
36	0xbe229760	-0.15878057
37	0x3f5c2b1c	0.8600328
38	0xbd129680	-0.03578806
39	0x3f7abdbe	0.97945774
40	0xbea0c13c	-0.31397426
41	0xbd206720	-0.039160848
42	0xbe6ed7d0	-0.23324513
43	0xbee70244	-0.45118916
44	0xbf6e5572	-0.9309913
45	0x3f14f734	0.581897
46	0x3f3b1246	0.7307476
47	0xbd72ef80	-0.059310436
48	0xbe18d320	-0.14924288
49	0x3eab9710	0.3351369
50	0x3e03bb58	0.12864435
51	0x3f61540c	0.8801887
52	0xbf678bf2	-0.90447915
53	0xbf55e558	-0.83553076
54	0x3f0d2f92	0.5515071
55	0x3e65d740	0.22445393
56	0x3e9321e4	0.28736794
57	0x3e7709d8	0.24124849
58	0xbda38c60	-0.07985759
59	0x3ef99b38	0.48751235
60	0x3f5a959c	0.85384536
61	0xbdb7e5e0	-0.08979392
62	0x3d054000	0.03253174
63	0xbeca6544	-0.39530385
64	0x3f00d562	0.50325596
65	0x3f61429c	0.8799226
66	0xbf09e6b4	-0.5386765
67	0x3e0ccdb0	0.13750339
68	0xbf1a6b72	-0.603202
69	0x3f75b42a	0.95978034
70	0x3f35c0d6	0.7099737
71	0xbf7f4a60	-0.9972286
72	0x3f53357a	0.82503474
73	0xbf725764	-0.946646
74	0x3f0ff246	0.56229055
75	0x3f1191fc	0.5686338
76	0x3e6fe010	0.23425317
77	0x3ef1e5e4	0.47245705
78	0x3ead73b0	0.33877325
79	0xbf4bc4b0	-0.79596996
80	0xbf6e2cd4	-0.9303715
81	0x3ed091f8	0.40736365
82	0x3f45338a	0.7703177
83	0x3e9b95a8	0.30387616
84	0x3f758f2e	0.959216
85	0x3d229160	0.03968942
86	0x3f5659c8	0.83730745
87	0x3eadacdc	0.33920944
88	0x3f0bb982	0.5457994
89	0xbf3e643a	-0.74371684
90	0x3ebba824	0.3665172
91	0xbf2c428c	-0.6728904
92	0x3e32c170	0.17456603
93	0x3e4b9638	0.19881523
94	0xbefe5c00	-0.49679565
95	0x3f52a188	0.8227773
96	0x3e159a00	0.14609528
97	0xbeecc474	-0.46243632
98	0xbee31928	-0.4435513
99	0xbf714a4c	-0.94253993
100	0x3eb6cebc	0.357046
101	0x3f53b644	0.8269999
102	0x3d4d7ce0	0.05016792
103	0x3e3df888	0.18551838
104	0xbf353f8a	-0.7080008
105	0xbf148eca	-0.5803038
106	0xbea53e04	-0.32273877
107	0xbeb99864	-0.36249077
108	0xbea53434	-0.3226639
109	0x3f0012ea	0.5002886
110	0xbf600e54	-0.87521863
111	0xbf1d590e	-0.6146401
112	0xbf7c9e08	-0.98678637
113	0xbdaa2ac0	-0.08308935
114	0x3f4da706	0.8033298
115	0x3f199204	0.5998843
116	0xbebd2964	-0.3694564
117	0xbc40b000	-0.011760712
118	0xbedea9c4	-0.43488896
119	0xbf6679ce	-0.9002961
120	0x3eec22f4	0.46120417
121	0xbf76ab70	-0.9635534
122	0xbe9a5a24	-0.30146897
123	0xbca60a40	-0.02026856
124	0x3f402534	0.7505677
125	0xbf31bf2c	-0.6943233
126	0xbd459180	-0.048234463
127	0xbf55e5fe	-0.83554065

linear.bias f4 [128]
0	0xbf35bd6e	-0.7099217
1	0x3f493561	0.78597075
2	0xbf192872	-0.5982734
3	0x3eb6a2ae	0.3567099
4	0xbe72d6ba	-0.23714724
5	0xbedca40f	-0.43093917
6	0xbf7d0f65	-0.98851615
7	0xbe03995e	-0.12851474
8	0x3e90688c	0.28204763
9	0xbc8cb787	-0.017177356
10	0x3e3205e1	0.17385055
11	0xbf2b2345	-0.6685069
12	0xbf7e17ce	-0.99255073
13	0xbf15e8cb	-0.5855834
14	0x3f43ae38	0.7643771
15	0x3f3499e2	0.70547307
16	0x3f517f97	0.8183531
17	0xbf50b311	-0.81523234
18	0x3f13937b	0.5764691
19	0x3f2c3f49	0.67284065
20	0x3e9628ad	0.29327908
21	0x3cdfee97	0.027335448
22	0xbf17ff8d	-0.59374315
23	0xbf4c80b3	-0.7988388
24	0x3f59555a	0.8489586
25	0x3f65424f	0.89554304
26	0xbf65c2d6	-0.8975042
27	0x3e2d0cc8	0.16899407
28	0x3e311fef	0.17297338
29	0x3e9fc0d0	0.31201792
30	0x3f4a61b2	0.7905532
31	0x3f1ea433	0.619693
32	0xbf2d0c50	-0.6759691
33	0xbeac764e	-0.3368401
34	0x3f190900	0.5977936
35	0xbf397269	-0.724402
36	0xbf521c2e	-0.8207425
37	0xbf276f4c	-0.654042
38	0xbe7d6485	-0.24745376
39	0xbecd8d2e	-0.40146774
40	0xbb7c70a1	-0.003851928
41	0xbe043690	-0.12911439
42	0x3f6ec136	0.93263566
43	0x3f4da1a6	0.8032478
44	0x3e6dd420	0.2322545
45	0xbf06b3c1	-0.5261803
46	0x3f49c6ff	0.7881927
47	0xbf6868a0	-0.90784645
48	0x3f7a9d23	0.9789602
49	0xbec43c52	-0.3832727
50	0xbe43c118	-0.19116628
51	0xbf262edb	-0.64915246
52	0xbc463ea9	-0.0120999
53	0xbf158f68	-0.58421946
54	0xbf5549cc	-0.8331573
55	0xbf1a3415	-0.6023572
56	0xbe0ce896	-0.137606
57	0x3f425fce	0.75927436
58	0xbefc25ff	-0.4924774
59	0x3d843271	0.064549334
60	0xbd0f9686	-0.03505566
61	0xbf7c9df1	-0.986785
62	0x3d823d03	0.06359293
63	0x3e541b15	0.20713456
64	0x3f06b172	0.5261451
65	0xbf6533dc	-0.89532256
66	0xbf3f6cca	-0.74775374
67	0xbf633af8	-0.88761854
68	0x3f2afe4c	0.66794276
69	0x3e10584f	0.14096187
70	0xbdb35a06	-0.08757405
71	0x3ee067ce	0.43829197
72	0xbf62ddc6	-0.8861965
73	0xbf6a1f56	-0.91454065
74	0x3f0352c8	0.5129819
75	0xbf4bfcce	-0.79682624
76	0xbf6d39ac	-0.92666125
77	0x3e6d2cc2	0.23161605
78	0xbf7835f9	-0.96957356
79	0x3f611435	0.8792146
80	0xbdd4ab2a	-0.103842095
81	0xbeb3d46d	-0.35123006
82	0xbe47931e	-0.19489715
83	0x3ef6d1d4	0.4820696
84	0x3d673960	0.0564512
85	0xbf2094db	-0.62727135
86	0xbe139c00	-0.14414978
87	0x3f2e6f63	0.6813871
88	0x3f616b35	0.8805421
89	0x3d31d3c4	0.043414846
90	0x3ea0522e	0.31312698
91	0xbf756f0e	-0.9587258
92	0xbe69a77b	-0.22817795
93	0xbf4ff7de	-0.8123759
94	0xbf2f8e50	-0.68576527
95	0x3d9f6d16	0.07784478
96	0x3cc2bc84	0.023771532
97	0xbe793f94	-0.2434066
98	0x3c478e25	0.012179886
99	0xbea44a8d	-0.32088128
100	0xbec225ae	-0.37919372
101	0x3f59d631	0.85092455
102	0xbdc633c9	-0.09677846
103	0xbf596ce1	-0.8493176
104	0xbf4d064c	-0.80087733
105	0xbf2747ac	-0.6534374
106	0xbe2fe1f4	-0.17176038
107	0x3ed083dc	0.407256
108	0x3ec36a28	0.38166928
109	0x3f4fc26b	0.81156033
110	0x3f19dae8	0.6009965
111	0x3f15c09a	0.5849701
112	0x3f524efe	0.8215178
113	0xbed35575	-0.41276136
114	0x3f50a23b	0.81497544
115	0xbf442bdb	-0.7662942
116	0xbdde2676	-0.108471796
117	0x3f001b0c	0.5004127
118	0xbf617a6e	-0.8807744
119	0x3f1744a4	0.5908911
120	0x3f0348da	0.5128304
121	0xbf7b9503	-0.9827425
122	0xbe721164	-0.23639446
123	0xbdd9c2a5	-0.106328286
124	0xbeee5f64	-0.46557152
125	0x3f77385d	0.9657038
126	0xbd9b3a1d	-0.075794436
127	0x3e23e2d5	0.16004498

conv_0.weight f4 [128, 128]
0	0xbc91b984	-0.017788656
1	0x3d14e777	0.036353555
2	0x3de91b9c	0.11382219
3	0xbde7e348	-0.11322647
4	0x3d8cd974	0.068774134
5	0x3d8b9ac4	0.068166286
6	0x3c04c305	0.008103137
7	0x3dbd55ed	0.09244905
8	0x3ca54e3a	0.020178903
9	0x3daff39e	0.08591388
10	0x3d588ef9	0.052870724
11	0x3d80bf18	0.06286448
12	0x3d7c72c0	0.06163287
13	0x3cd8dada	0.026471544
14	0xbe117d8c	-0.14208049
15	0xbe0ce3f1	-0.13758828
16	0x3d3d83cc	0.04626827
17	0x3d0692a1	0.03285468
18	0x3db8dae2	0.090261236
19	0xbdf592b0	-0.11990869
20	0xbdc29562	-0.09501149
21	0xbde4b5fe	-0.11167525
22	0xbdb312ba	-0.08743806
23	0xbd2d2a35	-0.04227658
24	0x3b4cecb4	0.0031269016
25	0xbd2d214f	-0.042268094
26	0x3d34535b	0.044024806
27	0xbc7bed31	-0.015376375
28	0xbe06edf7	-0.13176714
29	0x3dcf17e6	0.1011198
30	0x3e11d4c9	0.14241327
31	0x3e0b1b6b	0.13584678
32	0x3dfd30f3	0.12362852
33	0x3d954cb6	0.07290022
34	0xbdc3e910	-0.095659375
35	0xbdb30383	-0.08740904
36	0xbb580f13	-0.003296797
37	0x3e1134d5	0.1418031
38	0xbe10e644	-0.1415034
39	0xbe0c61d4	-0.13709193
40	0x3c0e45e9	0.00868366
41	0x3d90bd08	0.07067305
42	0xbc83db56	-0.016095798
43	0x3e09810e	0.13428137
44	0xbc801954	-0.015637077
45	0xbe0b8953	-0.13626604
46	0x3d0e4dd1	0.03474218
47	0x3cef2909	0.029194372
48	0xbcf97ae7	-0.030454112
49	0xbe199f2e	-0.15002128
50	0xbe0ff3d9	-0.14057864
51	0x3e181e0d	0.14855213
52	0x3c48458c	0.0122236125
53	0x3df96860	0.12178111
54	0x3d8dc8c6	0.0692306
55	0xbdcb733b	-0.09934088
56	0xbdc3ce8e	-0.095608816
57	0xbdb4e4b9	-0.08832688
58	0xbde32411	-0.110908635
59	0x3e11e9dd	0.14249368
60	0xbac61c19	-0.0015114575
61	0x3e178b49	0.14799227
62	0xbdd9a3c1	-0.10626937
63	0x3d829c2b	0.06377443
64	0xbda5b5fb	-0.08091351
65	0xbdf040c7	-0.11731105
66	0xbdf2f591	-0.11863244
67	0xbdac918a	-0.08426197
68	0xbc9aee6b	-0.018912515
69	0xbc44fd30	-0.012023255
70	0x3dd258ea	0.10270865
71	0x3d814513	0.06312003
72	0xbd614e1a	-0.055006124
73	0xbdc53959	-0.09630079
74	0x3c9f09ce	0.019413855
75	0x3d854e5e	0.06509088
76	0xbe08d0c4	-0.13360888
77	0xbe0fc1fb	-0.14038841
78	0x3e169ab7	0.14707457
79	0xbdffcd81	-0.12490369
80	0x3dade9f8	0.084918916
81	0xbbf26ec4	-0.007398458
82	0xbd8194a3	-0.06327178
83	0x3ddb68d6	0.10713355
84	0xbcaaf39b	-0.020868113
85	0x3d5804d1	0.05273897
86	0x3e065758	0.13119256
87	0xbb185791	-0.0023245553
88	0xbde26adf	-0.1105554
89	0xbda5c14d	-0.0809351
90	0x3dffa0f8	0.12481874
91	0x3e1df553	0.15425615
92	0x3e11ebb2	0.14250067
93	0xbd888b8c	-0.066672415
94	0x3c48d997	0.012258909
95	0xbc965a03	-0.018353468
96	0xbd3be194	-0.045869425
97	0x3e143e16	0.14476809
98	0x3b773496	0.0037720553
99	0x3e08a111	0.13342692
100	0xbd8fe33c	-0.070257634
101	0x3cd85f83	0.026412731
102	0x3df5cbe2	0.12001778
103	0xbe0e1b57	-0.13877617
104	0xbdf1d159	-0.11807508
105	0xbd86ba61	-0.06578518
106	0xbb286cfb	-0.0025699723
107	0xbc1805fd	-0.0092787715
108	0x3a1d2a17	0.00059953466
109	0x3db2e767	0.08735543
110	0x3bcd94e0	0.006273851
111	0x3df92e8b	0.121670805
112	0xbc4808bd	-0.012209115
113	0xbd18b4a1	-0.037281636
114	0xbd3ac324	-0.045596257
115	0xbd40ed34	-0.047101215
116	0xbd57406f	-0.052551683
117	0xbdadfed3	-0.084958695
118	0xbdc32b73	-0.09529772
119	0xbda07adb	-0.07835933
120	0x3b8da534	0.0043226723
121	0x3dc54794	0.09632793
122	0xbdaa4b37	-0.08315127
123	0x3e0352c1	0.12824537
124	0x3d18897a	0.037240483
125	0xbd86058e	-0.06544028
126	0xbdfd8965	-0.123797216
127	0x3ca9ca8b	0.020726463
128	0xbe0f4d64	-0.13994366
129	0x3b201e1b	0.0024432007
130	0xbdeb93d1	-0.11502803
131	0xbda1b101	-0.07895089
132	0xbd504d1c	-0.050854787
133	0xbd7b4b78	-0.06135127
134	0x3ce58d8c	0.028021596
135	0x3d3cd612	0.04610259
136	0xbdefb371	-0.117041476
137	0x3cfab813	0.030605352
138	0x3d529712	0.051413603
139	0xbdff12f8	-0.1245479
140	0x3e190ad4	0.14945537
141	0xbdffe1e8	-0.1249426
142	0x3deb00b1	0.11474741
143	0x3bb61bff	0.0055575366
144	0x3e115b01	0.14194871
145	0xbcb67a0d	-0.022274995
146	0x3caaa0a1	0.020828547
147	0xbdee4b7c	-0.11635491
148	0xbe1975ff	-0.14986418
149	0xbcfdf210	-0.030999213
150	0x3e002b45	0.12516506
151	0xbd2760a3	-0.040863644
152	0xbca3c81b	-0.019992879
153	0x3c02900b	0.007968913
154	0x3ddf9370	0.10916793
155	0xbe1c4dbe	-0.15264031
156	0xbaef4c20	-0.001825694
157	0x3dfdcd59	0.123926826
158	0x3da58ac6	0.080831096
159	0xbdb7e6bb	-0.08979555
160	0xbd0d3321	-0.03447259
161	0xbba0ad56	-0.0049034758
162	0xbdf62705	-0.12019161
163	0xbc55a20d	-0.013039124
164	0x3e064509	0.13112272
165	0xbd6b2b01	-0.05741406
166	0x3daffd43	0.08593228
167	0xbd0f469d	-0.03497945
168	0x3e009708	0.12557614
169	0x3e12c27d	0.14332004
170	0xbe02f4c7	-0.12788688
171	0xbd15de58	-0.036588997
172	0x3c4174a4	0.011807594
173	0xbdf6d60d	-0.12052546
174	0xbdd4d28a	-0.1039172
175	0xbdc4fe10	-0.09618771
176	0x3d1a4b04	0.037669197
177	0x3cc79d07	0.024366869
178	0x3dd9ca44	0.10634282
179	0x3d51b3d0	0.051196873
180	0x3c3a99f2	0.0113892425
181	0xbd68e835	-0.056862075
182	0xbc6c146e	-0.014409168
183	0x3e1eb1df	0.1549754
184	0x3d0f6fc8	0.035018712
185	0x3e087953	0.13327532
186	0xbd7d8a07	-0.06189921
187	0xbd083402	-0.033252724
188	0xbc881205	-0.016610155
189	0x3e1b53ca	0.15168682
190	0xbd3b858e	-0.045781665
191	0xbce1dcc7	-0.027571095
192	0xbdd9e6ef	-0.1063975
193	0xbc1de77c	-0.00963771
194	0x3d2f57bf	0.04280829
195	0xbdcccdff	-0.10000228
196	0x3e10c2bb	0.14136784
197	0x3d8d6325	0.06903676
198	0xbdb4fe7e	-0.08837603
199	0x3dd11bb9	0.10210366
200	0xbdd2000a	-0.10253914
201	0xbc0a11f5	-0.008427133
202	0x3de98a58	0.1140334
203	0xbd1ac3cc	-0.037784383
204	0x3d4d90fa	0.05018709
205	0x3db0c67c	0.08631608
206	0xbd3d7679	-0.046255562
207	0xbd479f94	-0.04873617
208	0xbcc3ab87	-0.023885502
209	0xbdfbbd34	-0.12291947
210	0x3dc9d7a2	0.09855582
211	0xbd54b015	-0.051925737
212	0x39393134	0.00017661304
213	0xbd1f3af0	-0.038874567
214	0xbd4229c6	-0.04740312
215	0x3d4fb9f9	0.050714467
216	0x3cfbc28d	0.030732417
217	0xbe074dc4	-0.13213259
218	0xbd974c4e	-0.07387601
219	0xbdc931db	-0.09823962
220	0x3df3a45b	0.11896583
221	0x3dba25a9	0.09089214
222	0xbde27811	-0.11058057
223	0xbdbf487c	-0.09339997
224	0xbd2b33ea	-0.041797556
225	0xbb83e22b	-0.004024764
226	0x3b870be2	0.0041212896
227	0x3c9c9f28	0.01911886
228	0x3daeb5b1	0.08530749
229	0x3b6b99ad	0.0035949752
230	0xbd97ae2a	-0.07406266
231	0xbdd634b1	-0.10459269
232	0xbce9eeb3	-0.028556203
233	0x3e1d7cd8	0.15379655
234	0xbe0b6b84	-0.13615233
235	0x3d052a31	0.03251094
236	0xbdeff877	-0.11717313
237	0xbdbb4e09	-0.091457434
238	0x3dc2f388	0.09519106
239	0xbdd4246c	-0.103585094
240	0xbdf9a776	-0.12190144
241	0x3e0f8fba	0.14019671
242	0x3d2b9dd9	0.041898582
243	0x3d059936	0.032616816
244	0xbdd424bf	-0.10358571
245	0xbddc3059	-0.10751409
246	0x3d24f3a7	0.040271427
247	0xbd8bf74a	-0.06834276
248	0xbcfdbc77	-0.030973656
249	0x3aaa80b2	0.0013008325
250	0x3d259396	0.040423952
251	0x3c98210a	0.018570442
252	0xbe08af9b	-0.13348238
253	0xbdeb1c27	-0.11479979
254	0x3e058f72	0.13043001
255	0xbdaf7637	-0.085674696

conv_0.bias f4 [128]
0	0x3b0e4cc6	0.002171324
1	0xbb1d5efa	-0.002401291
2	0x3a9ab116	0.0011802043
3	0x3b26b37f	0.0025436578
4	0x3b222753	0.0024742677
5	0xbb1db482	-0.002406389
6	0x3b3d659f	0.0028899682
7	0x3b0fe5e1	0.0021957087
8	0xbb268c0f	-0.0025413071
9	0x3b0f47e0	0.002186291
10	0xbb1e9365	-0.002419674
11	0xbb15b641	-0.0022844227
12	0x3b1ec91e	0.0024228762
13	0x3b3cc4bb	0.0028803784
14	0x3b33be53	0.0027426674
15	0xbb1f4a79	-0.0024305864
16	0xbb1fe9d3	-0.0024400845
17	0xbb2beb51	-0.0026232789
18	0xbb3a5589	-0.002843233
19	0x3a98ddaf	0.0011662747
20	0xbb2b0502	-0.0026095514
21	0xbb2cf827	-0.0026393028
22	0x3af08ebb	0.0018353084
23	0x3b2aaa4a	0.0026041442
24	0x3b20ab4f	0.002451617
25	0x3b21208e	0.0024586054
26	0xba9a82a9	-0.0011788207
27	0xbb1f4dae	-0.0024307775
28	0x3b305c78	0.0026910584
29	0x3b27c96b	0.0025602232
30	0xbb181fb4	-0.0023212256
31	0xbb350611	-0.0027622024
32	0xbb1abdd9	-0.0023611693
33	0x3b2a7681	0.0026010575
34	0xbb26d1f5	-0.0025454734
35	0xbb182e5f	-0.0023220999
36	0x3b201b47	0.002443032
37	0xbb1fd8c6	-0.0024390682
38	0xbb29725f	-0.0025855524
39	0xbb28786b	-0.002570654
40	0xbb20f6e5	-0.0024561223
41	0x3b2661c4	0.0025387863
42	0x3b2fd432	0.002682936
43	0xbb2129f3	-0.0024591654
44	0xbb309244	-0.002694265
45	0x3b1a1c85	0.0023515534
46	0x3b1e2975	0.0024133597
47	0xbb31e978	-0.0027147215
48	0xbb1f493c	-0.0024305126
49	0xbb27106a	-0.0025491961
50	0x3b26f1b3	0.0025473654
51	0x3b2a8863	0.0026021234
52	0xbb35dfda	-0.0027751834
53	0x3b19696a	0.002340878
54	0xba5a32e8	-0.00083236257
55	0x3b333c6e	0.0027349251
56	0x3b2ff9a3	0.0026851676
57	0xbb1c58eb	-0.002385671
58	0xba9e7665	-0.0012089728
59	0xbb287ee6	-0.0025710403
60	0x3b07334a	0.0020629936
61	0x3b286fd6	0.0025701425
62	0xbaa9e708	-0.001296253
63	0x3b28ed28	0.0025776122
64	0x3b3ba6d4	0.0028633373
65	0xbb268d4d	-0.0025413812
66	0xbb1ce0c1	-0.0023937675
67	0x3b1f55b8	0.0024312567
68	0xbb1e635e	-0.0024168114
69	0xbb21d5cb	-0.002469408
70	0xbb2d1755	-0.0026411612
71	0x3accf897	0.001563805
72	0x3b2f34bb	0.002673431
73	0xbb28a1ca	-0.00257312
74	0x3b288056	0.002571126
75	0xbb368ad9	-0.0027853756
76	0xbb2fcf05	-0.0026826274
77	0x3b1fa266	0.0024358272
78	0x3af3dc08	0.0018605003
79	0x3b2a8775	0.002602068
80	0xbb1c8537	-0.0023883113
81	0xbb2b8aa8	-0.0026175175
82	0xbb21e0d7	-0.0024700665
83	0x3b1d5960	0.002400957
84	0x3b2f393c	0.0026736995
85	0x3b2a8aa0	0.0026022568
86	0x3b1d1b74	0.0023972662
87	0x3b28608a	0.0025692307
88	0x3b1dbb59	0.0024067967
89	0x3b3022d0	0.0026876219
90	0xbb284f42	-0.0025682007
91	0xbb2211da	-0.0024729879
92	0x3b194362	0.002338611
93	0x3b29dc8b	0.0025918807
94	0xbb27b134	-0.00255878
95	0xbb3bc96b	-0.002865399
96	0xbafcb585	-0.0019280171
97	0x3b2d86ab	0.0026477973
98	0x3b307566	0.0026925444
99	0xbb2742be	-0.002552196
100	0xbb27a5e4	-0.0025581056
101	0x3b270da0	0.00254903
102	0xba827e35	-0.0009955826
103	0x3b21d216	0.0024691871
104	0x3b2a7ace	0.0026013139
105	0x3b0bb5c8	0.0021318067
106	0x38adc90d	8.2867315e-05
107	0xbb2a26fa	-0.0025963173
108	0x3b1cedc0	0.002394542
109	0xbaa45a2e	-0.0012539083
110	0xbb066d12	-0.0020511788
111	0x3b2909a3	0.0025793097
112	0x3b19a946	0.0023446842
113	0x3b1c7859	0.0023875444
114	0x3b307689	0.0026926121
115	0xbaeb407c	-0.0017948295
116	0x3b2c307b	0.0026274014
117	0x3b2dbf7e	0.0026511843
118	0x3b215965	0.0024619934
119	0xbb1fa5f2	-0.0024360386
120	0xbb3745ba	-0.0027965144
121	0x3b1a931f	0.0023586226
122	0x3b1f610c	0.002431932
123	0x3b277f8b	0.00255582
124	0x3b34c80b	0.0027585055
125	0xbb191ee0	-0.002336435
126	0xbb2c63f6	-0.0026304699
127	0xbb26876c	-0.0025410308

layers.0.weight f4 [128, 128]
0	0x3e1a31ad	0.15058012
1	0x3d2eae7c	0.04264687
2	0xbd0393ff	-0.032123562
3	0xbbf4cb4d	-0.0074705244
4	0xbdf8df28	-0.12151939
5	0x3dec7ff4	0.115478426
6	0xbdffc71e	-0.124891505
7	0xbd1347c2	-0.035957105
8	0xbd101dd4	-0.035184696
9	0xbd03441b	-0.032047372
10	0x3dbcbb21	0.092153795
11	0xbdc6ef04	-0.09713557
12	0xbd90b762	-0.070662275
13	0xbdf3a12a	-0.11895974
14	0xbde8ea48	-0.113728106
15	0xbd553611	-0.052053515
16	0xbdef8102	-0.11694528
17	0x3cabc582	0.020968203
18	0x3d5fa42a	0.05459992
19	0xbde92b15	-0.1138517
20	0x3dd9efcd	0.106414415
21	0x3bcbc12b	0.006218096
22	0x3d92dfb7	0.071715765
23	0xbd05dbb0	-0.032680213
24	0xbdaf09c7	-0.08546787
25	0x3bcd1d43	0.006259592
26	0x3deae131	0.11468733
27	0x3dc95cb5	0.098321356
28	0xbd849ef5	-0.06475631
29	0x3de5f78f	0.11228859
30	0x3e1858be	0.14877602
31	0xbe0b7d73	-0.13622074
32	0xbe159bfa	-0.14610282
33	0x3e039d2b	0.12852924
34	0x3cdf1a32	0.02723417
35	0x3e086f1a	0.13323632
36	0xbd5f0a52	-0.0544532
37	0xbd815fc9	-0.06317098
38	0xbde3aff8	-0.11117548
39	0x3d3df2d9	0.046374176
40	0xbd75efd4	-0.06004317
41	0xbd8e13b1	-0.069373496
42	0xbe018fdb	-0.12652533
43	0x3df8f867	0.12156754
44	0x3d49afef	0.04924005
45	0x3e009923	0.12558417
46	0x3d83d4f0	0.06437099
47	0x3e1eb392	0.15498188
48	0x3e0034c5	0.1252013
49	0xbca52950	-0.0201613
50	0xbcda8c06	-0.026678097
51	0xbdad1b70	-0.08452499
52	0x3df1b714	0.118024975
53	0x3db343ab	0.08753141
54	0xbd5e6d77	-0.054303613
55	0x3d3da588	0.04630044
56	0x3cf0730c	0.029351734
57	0x3d0535d1	0.032522026
58	0x3d19c4fe	0.037541382
59	0x3da374b5	0.079812445
60	0xbde63f6b	-0.11242565
61	0xbdf7c630	-0.12098348
62	0xbddfc5b0	-0.10926378
63	0xbdd1549c	-0.10221216
64	0x3e0e0932	0.13870695
65	0xbe1aebc9	-0.15129007
66	0xbd3692b6	-0.04457351
67	0xbdbdbdd6	-0.09264724
68	0xbd61f121	-0.0551616
69	0x3e0d4f14	0.13799697
70	0xbd988022	-0.074463144
71	0x3dc3f903	0.095689796
72	0x3c200bde	0.009768454
73	0x3c70e4c7	0.014702982
74	0xbe018572	-0.12648562
75	0x3dc00177	0.093752794
76	0x3dc83591	0.09775842
77	0xbe034fce	-0.12823412
78	0x3c656e4a	0.014003346
79	0x3dd7f397	0.10544508
80	0x3d144a52	0.03620369
81	0x3e16fee5	0.14745672
82	0xbe0f5cb6	-0.1400021
83	0x3c2407dc	0.010011639
84	0xbe0720ef	-0.13196157
85	0x3da27564	0.07932547
86	0x3c35d083	0.011097076
87	0x3bb058d2	0.005381682
88	0xbe1728fb	-0.14761727
89	0xbdfce12c	-0.123476356
90	0xbde19106	-0.11013989
91	0x3dfe7124	0.124239236
92	0xbdc5fe88	-0.096676886
93	0xbdfc5511	-0.12320913
94	0xbe06a98f	-0.13150619
95	0x3e0f84fd	0.14015575
96	0x3df2b360	0.11850619
97	0x3e0ec535	0.13942416
98	0x3d960f4a	0.07327135
99	0xbe0c4f8a	-0.13702217
100	0xbc26959b	-0.010167505
101	0xbd2464b2	-0.040135093
102	0x3e09cdee	0.13457462
103	0x3da88ae6	0.08229618
104	0x3c2e98a4	0.01065651
105	0xbdb12013	-0.08648696
106	0xbde16655	-0.110058464
107	0x3db527ae	0.08845459
108	0xbd575552	-0.052571602
109	0x3b222870	0.002474334
110	0xbd05df5a	-0.032683708
111	0x3db0f9bc	0.08641383
112	0xbe17e170	-0.14832091
113	0x3dc3d78b	0.09562596
114	0xbdf94e4e	-0.121731386
115	0xbc15002e	-0.009094281
116	0x3dc6cb76	0.09706776
117	0x3dadfa9d	0.08495066
118	0x3e114c84	0.14189345
119	0xbe1bc8b7	-0.15213285
120	0x3da8cd0c	0.082422346
121	0x3dd2dbef	0.10295855
122	0x3d5b44bd	0.05353235
123	0xbdb0b561	-0.08628345
124	0xbd875346	-0.0660768
125	0xbdcc25a3	-0.09968116
126	0xbe0014e5	-0.1250797
127	0x3dcb787f	0.09935092
128	0x3c139c07	0.009009368
129	0xbda49d10	-0.0803777
130	0xbdc9f9d0	-0.09862101
131	0xbdbb77bf	-0.09153699
132	0x3dbcae6d	0.092129566
133	0x3d6d1b8e	0.057887606
134	0xbd9f3f8d	-0.07775793
135	0x3c5b977b	0.013402815
136	0x3db395ee	0.08768831
137	0xbd920fa3	-0.07131889
138	0x3c92e466	0.017931174
139	0x3b878e11	0.0041368087
140	0x3e17dae5	0.14829595
141	0xbe0184b9	-0.12648286
142	0x3dc05314	0.09390846
143	0xbdcaa348	-0.09894425
144	0x3daeb1ec	0.0853003
145	0x3b2900be	0.0025787796
146	0xbe065a77	-0.13120447
147	0x3cc0e91e	0.023548659
148	0xbda36793	-0.079787396
149	0xbd0f78d5	-0.035027344
150	0xbe01ed19	-0.12688102
151	0xbdc8f9ac	-0.09813246
152	0xbb493754	-0.0030703144
153	0xbca21b00	-0.019788265
154	0x3d35ad9a	0.044355012
155	0x3dccb383	0.09995177
156	0xbdac825a	-0.084233
157	0xbddaec58	-0.1068961
158	0x3e1c49ff	0.15262602
159	0xbe0a7611	-0.13521601
160	0xbc379d12	-0.011206882
161	0x3d30d7d2	0.043174572
162	0xbd27122e	-0.040788822
163	0x3cae6083	0.021286255
164	0xbd9564ab	-0.072945915
165	0xbd6b7a43	-0.057489645
166	0x3d940fb6	0.07229559
167	0xbdb1dc2a	-0.08684571
168	0xbd942547	-0.072336726
169	0x3dfdd875	0.123948015
170	0xbda0ae50	-0.078457475
171	0xbe0fc8d9	-0.14041461
172	0x3e173dd0	0.14769673
173	0x3df2541e	0.1183245
174	0xbcfc8a04	-0.03082753
175	0x3decff47	0.11572128
176	0xbd217b16	-0.039424025
177	0xbb8b660c	-0.0042541083
178	0xbd1800c5	-0.03711011
179	0x3d5676f1	0.052359525
180	0x3e190185	0.14941986
181	0xbde93335	-0.1138672
182	0x3df3a474	0.11896601
183	0xbe0c5a95	-0.1370643
184	0xbd6f1c41	-0.058376554
185	0x3cfdf929	0.031002598
186	0x3d7649d4	0.060129
187	0x3df41919	0.119188495
188	0x3d0b62d8	0.03402981
189	0xbe05d3e9	-0.13069119
190	0xbc947c0e	-0.01812556
191	0xbdb11a4f	-0.08647596
192	0xbdf8a4a0	-0.12140775
193	0x3e16fc6f	0.14744733
194	0xbdf13578	-0.117777765
195	0x3d2de62e	0.042455845
196	0x3debd0bd	0.11514423
197	0xbd0864b0	-0.033299148
198	0xbdf0e16d	-0.117617466
199	0xbe1884a4	-0.14894348
200	0x3dba5cd4	0.09099737
201	0x3df45901	0.11931039
202	0xbd6ba022	-0.05752576
203	0x3ddce2fd	0.10785482
204	0x3db557d3	0.08854642
205	0xbdcdad81	-0.10042859
206	0xbd9f022e	-0.077640876
207	0x3dce0907	0.100603156
208	0x3deb4bce	0.11489068
209	0xbc98f58c	-0.018671773
210	0xbe0882a0	-0.1333108
211	0xbd101b00	-0.035182
212	0xbdb2e7f4	-0.08735648
213	0xbcdd46af	-0.027011244
214	0x3df33796	0.118758366
215	0x3dfc42bc	0.12317416
216	0x3d4c23d2	0.04983885
217	0x3e08f832	0.13375929
218	0x3d527543	0.05138136
219	0x3d269c4b	0.040676396
220	0xbe0d65af	-0.1380832
221	0x3de3361a	0.110943034
222	0x3d6a97d1	0.05727369
223	0x3daada84	0.0834246
224	0x3d09ba84	0.03362514
225	0xbda8d6be	-0.08244084
226	0xbd01dba4	-0.031703606
227	0x3c3ca1ca	0.011513183
228	0xbd4f63f2	-0.050632425
229	0x3d9aeb16	0.0756437
230	0xbe114d9f	-0.14189766
231	0x3c9d0213	0.019166028
232	0xbdc8b16a	-0.09799464
233	0xbd2fe851	-0.042946164
234	0x3e199d78	0.15001476
235	0xbd7d1148	-0.06178406
236	0x3de0142e	0.10941349
237	0x3b4f7f2b	0.0031661491
238	0x3dea4d21	0.114404924
239	0x3db1490f	0.08656513
240	0xbd15278a	-0.03641466
241	0x3d94d6bc	0.0726752
242	0x3d3ba3cb	0.045810502
243	0xbd360e2b	-0.044447105
244	0x3e104f80	0.14092827
245	0x3e12536c	0.14289635
246	0x3d9170d7	0.071016006
247	0xbe0c4190	-0.13696885
248	0x3dfd1714	0.123579174
249	0xbe0f82d6	-0.14014754
250	0xbd838076	-0.06420986
251	0xbd81d7e4	-0.06340006
252	0x3dbf1831	0.09330786
253	0xbdd10922	-0.1020682
254	0x3dd06061	0.10174633
255	0xbd84eb1d	-0.06490157

layers.0.bias f4 [128]
0	0xbb2f28ac	-0.0026727123
1	0x3b2d2535	0.0026419882
2	0xbb2d96db	-0.0026487622
3	0xbb34df1c	-0.0027598804
4	0xbb2f2e0c	-0.0026730327
5	0x3b2ecde8	0.0026673023
6	0x3b2cff9d	0.0026397475
7	0xbb2fbf48	-0.0026816893
8	0x3b2d1b95	0.0026414145
9	0x3b2e8904	0.002663196
10	0xbb2f9365	-0.0026790735
11	0xbb2e5ce7	-0.0026605667
12	0xbb2f3d2f	-0.002673935
13	0x3b2eae41	0.0026654156
14	0xbb2e9b52	-0.002664287
15	0xbb2fd4fb	-0.0026829827
16	0x3b2ef812	0.0026698154
17	0xbb2db419	-0.0026505052
18	0x3b2c6807	0.0026307122
19	0xbb2efbcc	-0.0026700376
20	0xbb2bdb04	-0.0026223073
21	0x3b2dbc11	0.0026509801
22	0x3b2d7b94	0.0026471363
23	0x3b2ea651	0.0026649425
24	0x3b3a5607	0.0028432624
25	0xbb2f03f2	-0.0026705232
26	0xbb2ea802	-0.0026650433
27	0x3b315820	0.0027060583
28	0xbb17ab7c	-0.0023142984
29	0x3b2d5d4d	0.0026453317
30	0x3b2e8a43	0.0026632703
31	0x3b2dd1ff	0.0026522873
32	0xbb2d23c8	-0.0026419032
33	0x3b2feca6	0.0026843934
34	0x3b2e8d49	0.0026634505
35	0x3b2cc0ec	0.0026360108
36	0x3b2c1534	0.0026257755
37	0x3b2d7bbc	0.0026471457
38	0xbb2daddf	-0.002650134
39	0x3b2a092f	0.0025945415
40	0xbb2f3c30	-0.0026738755
41	0xbb2d9910	-0.0026488937
42	0xbb330bfd	-0.0027320378
43	0x3b2ce608	0.0026382226
44	0x3b2e94c0	0.0026638955
45	0x3b3267cc	0.0027222512
46	0xbb2d9c1f	-0.002649076
47	0xbb2ee5ca	-0.0026687258
48	0xbb2d5f9a	-0.0026454688
49	0x3b32eae3	0.0027300648
50	0x3b2ccff6	0.0026369072
51	0x3b18d336	0.002331925
52	0xbb2ca10f	-0.0026341116
53	0x3b2ed306	0.0026676073
54	0x3b2ea69d	0.0026649602
55	0x3b2c1434	0.002625716
56	0xbb27467c	-0.002552419
57	0x3b2e5b83	0.0026604838
58	0xbb2e9bb2	-0.0026643095
59	0x3b2f0509	0.0026705882
60	0x3b2eae4f	0.002665419
61	0xbb2da9f2	-0.0026499
62	0xbb2ebacc	-0.0026661633
63	0x3b2d5f86	0.0026454641
64	0xbb2d554f	-0.0026448553
65	0x3b2f255a	0.0026725144
66	0xbb271440	-0.0025494248
67	0xbb2d8816	-0.0026478819
68	0x3b2dcd13	0.002651994
69	0xbb2d8e45	-0.0026482504
70	0x3b2f218d	0.0026722879
71	0x3b2db0bb	0.0026503045
72	0xbb2ef5b2	-0.0026696739
73	0xbb2dbcc0	-0.002651021
74	0xbb30b7e7	-0.0026965083
75	0xbb2d4736	-0.002644015
76	0x3b2e95bb	0.002663954
77	0x3b2f8210	0.0026780404
78	0x3b2e0dd0	0.0026558526
79	0x3b2f5e61	0.0026759135
80	0x3b388731	0.0028156752
81	0x3b2ee5d0	0.0026687272
82	0xbb2e99c7	-0.0026641951
83	0x3b2cbf5b	0.0026359174
84	0x3b2fd7bf	0.0026831476
85	0x3b2e90ab	0.0026636522
86	0x3b2c9231	0.0026332254
87	0xbb2d8658	-0.002647778
88	0x3b2ef40b	0.0026695754
89	0x3b2e963a	0.0026639835
90	0x3b2da759	0.0026497452
91	0xbb2cf509	-0.002639117
92	0x3b2d959f	0.0026486886
93	0x3b37b68f	0.0028032397
94	0xbb32b9b6	-0.0027271337
95	0xbb2e8d20	-0.002663441
96	0x3b2e5211	0.0026599208
97	0x3b27fcc4	0.0025632838
98	0xbb2d4f86	-0.0026445105
99	0x3b2d92b7	0.0026485154
100	0x3b2daee4	0.0026501948
101	0x3b2b6c8a	0.0026157224
102	0xbb30c826	-0.0026974767
103	0x3b3093c1	0.0026943537
104	0xbb2daf89	-0.0026502332
105	0x3b33ce93	0.002743636
106	0xbb2db002	-0.0026502614
107	0x3b2de42d	0.0026533708
108	0x3b2da250	0.002649445
109	0x3b2d6fe7	0.0026464404
110	0xbb2c32c9	-0.0026275387
111	0x3b2d37b2	0.0026430902
112	0x3b2cb982	0.0026355688
113	0xbb2fdb53	-0.0026833608
114	0x3b2eb84a	0.0026660138
115	0xbb21c44c	-0.0024683652
116	0x3b2f578d	0.0026755065
117	0x3b2f906f	0.002678897
118	0x3b2db1c0	0.0026503652
119	0x3b23f3db	0.0025017175
120	0xbb2a5d1c	-0.002599544
121	0x3b2d2356	0.0026418767
122	0x3b2f2633	0.002672565
123	0x3b2da14a	0.002649384
124	0xbb308ed0	-0.0026940592
125	0x3b2d904f	0.002648372
126	0x3b2f54d9	0.0026753454
127	0xbb2f1232	-0.0026713726

predict.weight f4 [1, 128]
0	0xbd21f83f	-0.039543387
1	0x3d1627fb	0.036659222
2	0xbd7247a9	-0.05915037
3	0xbbe0afd9	-0.0068569
4	0xbd13787a	-0.036003567
5	0x3d7558ea	0.05989925
6	0x3cd5a0f5	0.026077727
7	0xbccb45b5	-0.024813512
8	0x3d1070d1	0.03526384
9	0x3d8cae23	0.068691514
10	0xbcdd604f	-0.027023463
11	0xbda88534	-0.082285315
12	0xbd0b782d	-0.034050155
13	0x3d8d727d	0.069066025
14	0xbd9fed75	-0.07808963
15	0xbcb92e4d	-0.022605086
16	0x3d385847	0.045006063
17	0xbda89a2d	-0.08232532
18	0x3c361216	0.01111271
19	0xbd3e943c	-0.046528086
20	0xbc76a57b	-0.015054102
21	0x3d94f318	0.07272929
22	0x3d5d42e7	0.05401888
23	0x3d96ab6c	0.07356915
24	0x3b815305	0.0039466643
25	0xbd31dfc9	-0.04342631
26	0xbd95b078	-0.07309049
27	0x3c5132f3	0.012768495
28	0xb9e50927	-0.00043685103
29	0x3d13196f	0.035912927
30	0x3db994fe	0.09061621
31	0x3d0967b7	0.033546176
32	0xbd140acd	-0.036143113
33	0x3cb5f692	0.0222123
34	0x3db3635a	0.08759184
35	0x3cbbdf15	0.022933522
36	0x3c85da32	0.016339395
37	0x3d57c4d6	0.05267795
38	0xbda695ed	-0.08134065
39	0x3bfcd2e0	0.007715568
40	0xbd0f4c68	-0.034984976
41	0xbd4f7970	-0.05065292
42	0xbc0f00f5	-0.0087282555
43	0x3cecf03d	0.028923148
44	0x3daf1066	0.0854805
45	0x3c2bbe4b	0.010482381
46	0xbd92ed08	-0.071741164
47	0xbd47824f	-0.048708256
48	0xbd48c140	-0.049012423
49	0x3c1451c8	0.009052701
50	0x3cde904e	0.02716842
51	0x3ab880a8	0.0014076428
52	0xbcb95e3d	-0.022627944
53	0x3d5e6015	0.05429085
54	0x3d954293	0.07288089
55	0x3c8ed2a7	0.017434431
56	0xbb877395	-0.0041336515
57	0x3cd6144b	0.026132723
58	0xbd9e4599	-0.077281184
59	0x3d3033cd	0.04301815
60	0x3d917200	0.07101822
61	0xbd6728b1	-0.05643529
62	0xbd85278f	-0.06501686
63	0x3d3c20c7	0.045929696
64	0xbd36e7af	-0.044654544
65	0x3cc65b97	0.024213595
66	0xbb7ee62d	-0.003889452
67	0xbd7aad94	-0.061200693
68	0x3da6f326	0.08151846
69	0xbd86b462	-0.06577374
70	0x3d1e8761	0.038703326
71	0x3d8ed62c	0.06974444
72	0xbd3f2e5b	-0.046675067
73	0xbd8e82fe	-0.069585785
74	0xbc81c130	-0.01583919
75	0xbd2792d1	-0.0409115
76	0x3da9c0b5	0.08288709
77	0x3ce6c02c	0.028167807
78	0x3d18aebb	0.03727601
79	0x3cfdba2a	0.030972559
80	0x3b975c46	0.004619154
81	0x3d4a2583	0.04935218
82	0xbda7bc17	-0.08190172
83	0x3cd2dd41	0.025740268
84	0x3cbf0612	0.023318324
85	0x3db90383	0.09033873
86	0x3cb51608	0.022105232
87	0xbd6df7a7	-0.058097508
88	0x3d3ac9a6	0.045602463
89	0x3da2d740	0.07951212
90	0x3d9ca0e3	0.07647874
91	0xbcfba047	-0.030716075
92	0x3d5c3faf	0.05377167
93	0x3b9f94f2	0.0048700506
94	0xbc28e50a	-0.010308513
95	0xbdb80010	-0.08984387
96	0x3da8d884	0.08244422
97	0x3b9bce12	0.00475479
98	0xbd38b698	-0.04509601
99	0x3d888026	0.066650674
100	0x3da34369	0.07971842
101	0x3c02752e	0.007962508
102	0xbc78c7e0	-0.015184373
103	0x3c868478	0.016420588
104	0xbdaef9b0	-0.08543718
105	0x3bcfd81f	0.0063429023
106	0xbda77efe	-0.08178519
107	0x3da89ded	0.08233247
108	0x3d987bb5	0.0744547
109	0x3d5c296a	0.053750433
110	0xbc8e475d	-0.017368013
111	0x3d25a3e7	0.040439513
112	0x3ccb3be9	0.02480884
113	0xbca5c352	-0.020234738
114	0x3d843c7d	0.0645685
115	0xbae6a219	-0.0017595916
116	0x3d01ada1	0.031659726
117	0x3ce6c4b3	0.028169965
118	0x3da91c73	0.082573794
119	0x3b1f1dbb	0.0024279195
120	0xbc0ec911	-0.00871493
121	0x3d1c81d9	0.03820977
122	0x3d20207a	0.039093472
123	0x3d97c9e9	0.07411558
124	0xbc89d5fe	-0.016825672
125	0x3d83ee4a	0.064419344
126	0x3d080e9a	0.03321705
127	0xbd254c57	-0.040356006
