PERGAT_embbedding/data/emb/models/model_dim128_lay2_epo31.pth (torch, 137088 bytes, 7 tensors)

linear.weight f4 [128, 1]
000000 10 ca 00 3e 0a 74 20 3f c0 99 3a bd 30 b1 89 be
       0.1257708 0.6267706 -0.045556784 -0.26892996
000010 7a 7f 33 bf 80 84 13 be 0c 02 f0 be 4c 0c 4a 3f
       -0.7011639 -0.14406013 -0.46876562 0.78925014
000020 22 74 77 3f 86 46 30 bf 9c 4a bd 3e 7e 79 71 bf
       0.9666158 -0.6885761 0.36970985 -0.9432601
000030 f0 be bf be cc 42 f4 3e a0 30 42 be 20 df a9 be
       -0.3745036 0.47707212 -0.18963861 -0.33178043
000040 dc 19 d2 3e dc 36 a1 be 18 76 1d be 80 86 fa 3d
       0.41035354 -0.31487167 -0.1537708 0.12232685
000050 80 60 d5 bc bc 9d 8e be 94 3e 35 3f 1c 41 61 3f
       -0.026046991 -0.27854717 0.7079861 0.87989974
000060 18 e7 38 be e8 56 8a 3e a0 6f 91 3e 98 c2 da be
       -0.18056905 0.2701943 0.28405476 -0.42726588
000070 72 86 40 bf f4 ef ef 3e 4c d5 cc be 08 24 53 bf
       -0.7520515 0.46862757 -0.40006483 -0.82476854
000080 a0 cd 61 bf 58 48 df be ca 08 23 3f 1e 16 61 3f
       -0.88204384 -0.4360988 0.63685286 0.87924373
000090 c8 fb 21 3f 40 34 3b 3f 40 33 08 3e 40 90 96 bd
       0.6327481 0.731266 0.133008 -0.07351732
0000a0 80 47 09 bd 46 58 0c 3f a4 a5 a1 be 5c 33 3f 3f
       -0.033515453 0.54822195 -0.31571686 0.74687743
0000b0 e0 1f 03 3f 38 4b 18 3f ba b0 1f 3f 40 9a 92 3e
       0.5122051 0.59489775 0.6237904 0.28633308
0000c0 b0 db e3 3d fc 71 ff be aa dc 1f 3f 1a 84 53 3f
       0.111258864 -0.4989165 0.6244608 0.82623446
0000d0 40 3e b7 3c 20 94 40 3f 1c a5 20 bf b6 36 4d bf
       0.02236855 0.7522602 -0.62751937 -0.8016161
0000e0 00 0a 95 3c da c6 53 3f 3e 11 15 bf 00 53 0b 3c
       0.018193245 0.827253 -0.58229434 0.008503675
0000f0 b0 f0 99 3e 7c f9 a3 3e 08 f1 b4 3e 52 67 1e bf
       0.30066442 0.3202628 0.35340142 -0.61876404
000100 b0 b2 74 bf 34 28 5d 3f 46 28 46 bf b4 ed 4d bf
       -0.95585155 0.8638947 -0.774052 -0.8044083
000110 40 bb 51 3d 5c a0 9b be 96 49 7f 3f e6 3d 70 bf
       0.051203966 -0.30395782 0.9972166 -0.9384445
000120 60 e9 9b 3e bc 94 d9 3e c4 ff 52 3f d4 d5 c6 3e
       0.30451488 0.42496288 0.8242152 0.38835013
000130 40 33 b9 3e 4e de 79 3f b8 a3 5d be 6e c1 61 bf
       0.36171913 0.97604835 -0.21644485 -0.88185775
000140 d2 ef 5e 3f f6 1b 21 3f d8 9e 1d 3e a2 41 7a 3f
       0.87084687 0.6293329 0.15392625 0.977564
000150 ac 35 10 3f 00 8b de 3b c4 2e 5c bf 5c 4a f0 be
       0.56331897 0.0067914724 -0.8600886 -0.46931732
000160 38 e3 fa 3e dc eb e2 3e 14 99 ec 3e 00 04 46 3d
       0.4900148 0.4432057 0.4621054 0.04834366
000170 b8 be 3f bf cc bc e5 be 8c 26 76 3f 24 1e a0 be
       -0.7490039 -0.44870603 0.9615257 -0.31272995
000180 58 52 74 bf 68 88 19 3e 00 78 13 bc c6 c9 67 3f
       -0.95438147 0.14993441 -0.009000778 0.90542257
000190 a0 9a 3b bd 98 33 78 3e b4 fc df be 0c e6 ce 3e
       -0.04580176 0.24238431 -0.43747485 0.40409887
0001a0 80 53 0a 3d 30 e8 12 bf 40 ae 29 be 20 1b 14 3f
       0.033771038 -0.5738554 -0.16570377 0.5785389
0001b0 b4 a7 e9 be f0 08 d6 bd bc 1d 99 3e 56 c1 66 3f
       -0.4563576 -0.104509234 0.29905498 0.9013876
0001c0 7c af 9c be 60 11 f1 3e ac 3d 96 be fe 5f 62 bf
       -0.30602634 0.4708357 -0.29343927 -0.8842772
0001d0 b0 e5 e8 3e 38 29 19 3e 5e aa 58 3f 28 44 1e be
       0.45487738 0.1495713 0.8463496 -0.15455687
0001e0 74 d9 d6 be c0 d7 82 be 64 b8 43 bf 90 ba a7 be
       -0.4196278 -0.2555523 -0.7645323 -0.32759523
0001f0 4a 1f 20 3f e4 0b 00 3f 30 77 46 be fc 1b 15 bf
       0.62547743 0.50018144 -0.19381404 -0.58245826

linear.bias f4 [128]
000000 a3 6c d4 3e d5 49 5a be d1 f6 99 3e 79 b8 4d 3f
       0.41489133 -0.21317227 0.30071118 0.8035961
000010 66 6a 05 3f 8c 3b 6b 3f 79 8f d1 be d5 11 01 3f
       0.52115476 0.91887736 -0.40929773 0.50417835
000020 97 82 07 3f f7 a9 60 bf ed 28 09 bf 5b 92 55 bf
       0.5293364 -0.87759346 -0.5357807 -0.83426446
000030 09 97 d4 3e 8a e2 47 3f fc 97 30 bf 44 dc 47 bf
       0.4152148 0.78080046 -0.6898191 -0.78070474
000040 d9 51 6f bf fd da 4a bf 98 d5 18 3f 4f a4 40 bf
       -0.93484265 -0.792404 0.5970092 -0.75250715
000050 94 c0 38 3e 6e b7 54 3f 09 d2 02 be fc 24 2a bf
       0.18042213 0.8309239 -0.12775435 -0.66462684
000060 e7 1a 4d 3f 4e 85 17 bf d9 e4 82 3e ae c2 71 bf
       0.80119175 -0.5918778 0.25565222 -0.9443768
000070 1b f7 69 3f 7d 31 a3 3e ca 24 33 3f 3e 13 c7 3e
       0.9139268 0.31873694 0.6997801 0.38881868
000080 63 e9 87 3e 62 56 b6 3e 77 2d 3d bf aa cc 47 bf
       0.26545247 0.3561278 -0.738975 -0.7804667
000090 9a 42 37 3f 30 26 44 3f ef 6a 05 be 35 f7 af 3e
       0.71586 0.7662077 -0.13029073 0.34368291
0000a0 e6 85 c9 3e f5 f6 00 3f 24 74 be 3e d2 10 ab be
       0.3935997 0.50376827 0.37197983 -0.3341127
0000b0 83 aa be be 52 8f 51 3e b6 77 d6 be 3c e8 70 bf
       -0.37239465 0.20464829 -0.41888207 -0.9410436
0000c0 03 03 5d 3f 43 70 73 bf 4f a4 1d bf 0c 39 a8 bd
       0.8633272 -0.9509317 -0.6157884 -0.08214006
0000d0 4e dc 42 3f 94 bd ec 3e e1 aa 3e bf a1 a4 07 3f
       0.7611741 0.46238387 -0.7447949 0.5298558
0000e0 34 d4 37 3e 24 4c fe 3e 51 e8 df be 80 88 0b bf
       0.17952043 0.49667466 -0.4373193 -0.5450516
0000f0 07 2b c5 39 66 06 ba bd 84 55 18 3e f5 f0 be 3d
       0.00037606826 -0.09083252 0.14876372 0.09323303
000100 90 ac 20 3f 42 ae fe 3e 35 8a 02 3f 7b ee 3b bf
       0.6276331 0.49742323 0.5099214 -0.7341077
000110 0a 16 72 bf d2 67 17 3e 5b 3f 8e 3e 1b 71 51 bf
       -0.9456488 0.14785698 0.2778271 -0.8181321
000120 d4 f2 77 bf f7 8d 3a bf 82 d1 3a bf f9 7d d0 3e
       -0.968549 -0.7287287 -0.72975934 0.4072111
000130 91 c2 74 bf 8e 7c 5e bf 56 5b 02 3f c6 95 69 3f
       -0.95609385 -0.86908805 0.5092062 0.9124416
000140 53 2f 96 3a bd f9 2d 3d 83 8c 2c bf cc 82 7d bf
       0.0011458196 0.042474497 -0.67401904 -0.99027705
000150 fb ec 5c 3f 09 5a bd be 7a 8c 44 bc 84 48 4f 3f
       0.86299103 -0.36982754 -0.011996383 0.80970025
000160 2d 00 3b 3f 39 8c 37 3e 24 58 77 3f 42 57 f0 be
       0.73047143 0.17924584 0.96618867 -0.46941572
000170 f5 88 17 3f 0a 04 73 3f 7f 39 30 3f 42 1e 75 3f
       0.59193355 0.9492804 0.6883773 0.95749295
000180 0e ca 29 bf 24 8c 2b bf 79 07 65 bf 2e 56 15 bf
       -0.66323936 -0.6701071 -0.8946453 -0.58334625
000190 ad ec 94 be 73 86 46 bf 46 7d 7a bf ac be 99 be
       -0.2908682 -0.77548903 -0.978474 -0.30028284
0001a0 eb de 7a 3e 0f 29 17 bf c3 94 c9 be be 5b 20 bd
       0.24499099 -0.59047025 -0.3937131 -0.039149992
0001b0 e8 dc 98 3e 21 14 32 3e 37 35 d3 be 78 4c 1b bf
       0.29856038 0.17390491 -0.41251537 -0.6066356
0001c0 d5 75 fd 3e b6 f2 64 bf 96 60 86 3d c1 45 aa be
       0.4950396 -0.8943285 0.06561391 -0.33256343
0001d0 3b f3 ce 3d b8 72 9c 3e fa 79 5e bf 05 88 04 bf
       0.10104986 0.30556273 -0.8690487 -0.5177005
0001e0 32 ff c4 be e0 f4 26 bf 55 b5 4a bf 79 18 14 3f
       -0.3847595 -0.652174 -0.7918294 0.5784984
0001f0 47 58 8f be 16 0a 11 bf 4e bd 4e 3f f0 d9 d7 be
       -0.27997038 -0.56656015 0.80757606 -0.4215846

conv_0.weight f4 [128, 128]
000000 ec a9 e8 3d e6 93 16 3c ab a3 9b 3d 76 79 c7 3d
       0.11360535 0.009190535 0.075995766 0.09739964
000010 d0 d5 f7 bd 51 d9 bc bd 51 eb 0e be 5b a0 01 3e
       -0.121013284 -0.09221137 -0.13956954 0.12658827
000020 f7 f9 05 3e 6e 06 11 3c 32 72 3a 3d 84 59 06 bd
       0.13083635 0.008851631 0.04551906 -0.032800213
000030 57 b2 3c 3c ee 8f 6a bd a0 5e 0d 3e ad 01 35 bd
       0.011517129 -0.05726617 0.13805628 -0.04419105
000040 9e 0c c7 bd 36 6e 34 bd 27 95 6e bd 4f c8 cb 3c
       -0.097192034 -0.044050418 -0.05824771 0.024875788
000050 01 7a 43 bd 59 a5 92 3c 37 d8 36 bc 7f 24 2d 3d
       -0.047723774 0.01790111 -0.011159948 0.042271134
000060 b3 aa 97 3d a2 91 a9 bd 51 90 16 be c3 64 8e bd
       0.07405605 -0.082797304 -0.1470349 -0.069528125
000070 16 78 08 be fd 22 83 bd 66 b5 b2 bd a5 96 c1 3d
       -0.13327059 -0.06403158 -0.08726005 0.09452561
000080 3a 67 c5 3d e0 07 78 bd 8d 98 10 3d 94 20 03 be
       0.096388295 -0.060554385 0.035301734 -0.12805396
000090 4a 4e e2 3c af b7 1a 3e c3 3b 3f bd ee c4 a4 bd
       0.027625222 0.15109132 -0.046687853 -0.08045374
0000a0 60 3e 7e bd a0 f3 cc bb 10 b2 fa bd 2f e4 9b bc
       -0.062071204 -0.0062546283 -0.12240994 -0.019029705
0000b0 73 06 b9 bc f6 35 12 be 19 e5 b9 bd 1e 5e 32 3c
       -0.022586083 -0.14278397 -0.090769 0.010886697
0000c0 bc 39 8b bd 60 c3 78 bc 03 82 62 bd af 15 12 be
       -0.06798121 -0.0151833 -0.05529977 -0.14266084
0000d0 87 6e ec 3d e3 9e 0c 3e ca ba 8a bd ae 41 b3 bd
       0.11544519 0.13732485 -0.067739084 -0.08752762
0000e0 73 eb 8a bd 3a da cc 3d 14 4f 79 bd ac 6b 39 bd
       -0.067831896 0.10002561 -0.06086643 -0.0452687
0000f0 ce b7 f9 bc d5 95 1a 3c 1e e8 fb 3d f3 6e b0 3d
       -0.030483153 0.009435137 0.12300132 0.08614912
000100 52 03 22 3d c0 84 ac bd d8 58 d3 3c f0 b7 6d bc
       0.039553948 -0.084237576 0.0257992 -0.014509186
000110 b6 3c 0a 3e 8f dc 85 3c 05 61 12 3e d9 a5 4e bd
       0.13499722 0.016340522 0.14294823 -0.050451133
000120 bc 2b 02 3e a6 36 05 3e 93 b1 22 bd 5c 89 d7 3c
       0.12711996 0.13009128 -0.03972013 0.026310615
000130 fc 23 85 3d d0 17 bf 3d 68 fd 03 be c9 31 16 be
       0.06501004 0.09330714 -0.12889636 -0.14667429
000140 15 37 a8 3d 90 84 69 bc 41 7a 0e 3e e0 43 a7 3c
       0.08213631 -0.014252797 0.13913824 0.020418108
000150 58 58 d2 bd ff c5 28 bd a1 d4 af 3d 7a a4 43 3d
       -0.102707565 -0.04120445 0.085854776 0.04776428
000160 f1 ce dd 3c d8 82 17 3d 93 1a 04 3e 04 a6 ac 3d
       0.027076216 0.036990017 0.12900762 0.084301025
000170 2f c4 b7 bd 49 ca a3 3d df fc dc bd 35 74 d2 bc
       -0.08972966 0.07997567 -0.10790419 -0.025690177
000180 ba 3a 9a 3c 2e cd e2 bc be 7d 23 3d ba e4 2a 3d
       0.018826831 -0.027685728 0.03991484 0.041722037
000190 53 4e 1c 3d a6 0c 6e 3d b5 7d 01 3c a9 1c dc 3b
       0.038160633 0.05811753 0.007903506 0.0067172837
0001a0 be 55 95 bc d4 f5 11 3d ce 03 d7 3d 19 6a 46 3d
       -0.018229362 0.03563483 0.104987726 0.048441026
0001b0 74 a3 81 bd 0e c7 ee 3d 1f 7b e1 bd f7 c0 a4 bd
       -0.06330004 0.116590604 -0.110098116 -0.080446176
0001c0 ef 34 d0 bd b8 96 da bd 2f 21 f3 bd e7 34 22 bd
       -0.10166346 -0.106732786 -0.11871564 -0.039601233
0001d0 52 f2 48 ba 1b 46 f7 3d 9b d8 a1 bc aa 45 1b be
       -0.0007665503 0.120739184 -0.019756606 -0.15163293
0001e0 1f 03 06 be b3 cc 19 be 1c 6e a2 3d 06 3f 3a 3d
       -0.13087128 -0.15019493 0.07931158 0.04547026
0001f0 b8 ec 0f be 6d ee af bd 80 27 80 3d 73 f2 b6 3d
       -0.14055145 -0.08590398 0.06257534 0.08932962
000200 1f c5 db bd f0 bd e9 bd 44 69 8e 3d 7b 32 5a 3c
       -0.10730957 -0.11413181 0.069536716 0.0133177
000210 f4 7c 20 3d dc 8b 3e bd d7 7f 8b bd a7 01 53 bc
       0.039181665 -0.0465201 -0.06811493 -0.012878812
000220 e6 04 6d 3d f9 d8 d1 bd 00 3a b1 bd b7 40 e6 bd
       0.057866 -0.102464624 -0.08653641 -0.11242812
000230 af d6 ad bc 76 bf b3 bd 53 8f 00 bc fe fb b4 3a
       -0.021220533 -0.08776753 -0.007846671 0.001380801
000240 be 35 d0 bd 6d 0d e7 bd af c0 36 bc f0 40 c3 bb
       -0.101665005 -0.11281858 -0.011154338 -0.005958669
000250 0e 6a d1 3d 7d a4 e0 bd 95 88 0c 3e 24 2d 37 3d
       0.102253065 -0.10968874 0.13723977 0.044720784
000260 84 74 0a 3c e3 71 55 3a 20 cf bc bd 14 1e b3 3c
       0.008450631 0.00081422756 -0.092191935 0.021864928
000270 62 3f b5 bc 41 46 1c be 33 cb 03 3c d5 57 a4 3d
       -0.02212495 -0.15261175 0.008044052 0.08024565
000280 80 07 93 3c a9 2e 90 3d 43 fa fe 3d eb 79 02 be
       0.017947912 0.0704015 0.124500774 -0.1274182
000290 24 26 1b bd 07 e3 16 3d 0f c3 91 3d cf a0 1a 3e
       -0.03787817 0.036837604 0.071172826 0.15100406
0002a0 e8 93 ea 3a be 95 c9 3c c2 6d bc bd 99 9e cb bd
       0.0017896863 0.024607535 -0.09200622 -0.099423595
0002b0 8b 51 5d bc 21 e1 96 3d 23 82 12 3e bc 75 11 bd
       -0.013508211 0.07367159 0.14307456 -0.03551267
0002c0 2b 50 72 ba aa 35 eb bd 1d 5e 8c 3c f2 c9 79 3d
       -0.00092435133 -0.11484845 0.01713472 0.060983606
0002d0 29 18 bc bd 7c 46 af bd e9 23 bd 3d 19 e6 17 be
       -0.09184296 -0.08558366 0.09235365 -0.14833869
0002e0 d3 e9 03 be 01 de eb 3d 6e e2 08 3e 02 b3 96 bd
       -0.12882166 0.11516953 0.13367626 -0.07358362
0002f0 32 ee b5 3d 89 bc c7 3c 64 18 1a be 3a a1 0b 3e
       0.08883323 0.024381893 -0.15048367 0.13635722
000300 46 e7 77 3d 7c 31 e3 bd 33 c3 c3 3d a5 68 19 3d
       0.060523294 -0.11093423 0.09558716 0.037453312
000310 46 f6 b5 bd 54 30 89 3d dd 7e 7e 3d 52 9c bf 3c
       -0.088848636 0.06698671 0.062132705 0.023389969
000320 5d 7e c9 bd 7c 02 11 3e d9 d7 1e bd ed 84 1f 3e
       -0.09838555 0.14161104 -0.038780067 0.15578051
000330 3e 1a 4a bd 1e 78 03 be 3a fc 75 bd e4 ef 7c 3d
       -0.049341433 -0.1283879 -0.060054995 0.061752215
000340 be 03 fd 3b d7 ea 03 3d ff 1e d4 bd 3c 16 f7 3c
       0.0077213934 0.032206383 -0.103574745 0.03016197
000350 57 2d df bb 22 6f 84 3d b5 bd 1a bd fa 14 07 3e
       -0.006810825 0.064665094 -0.037778575 0.13191596
000360 ae d8 61 bd fd a6 0b be 19 3c f4 bd f0 ef 7c bc
       -0.055138282 -0.1363792 -0.11925525 -0.015438065
000370 9a 29 1a 3d 20 e9 11 be b3 1f be bc a6 78 5a bd
       0.03763733 -0.14249086 -0.023208475 -0.053337716
000380 d0 5c 1f 3d a9 b3 ac 3d d2 11 43 bc b5 e8 1d be
       0.038906872 0.08432705 -0.011906104 -0.15420802
000390 12 ae dc bc d3 26 a4 bd 17 5b e1 3d d1 e9 0e be
       -0.026938472 -0.08015218 0.11003702 -0.13956381
0003a0 d6 7b ed 3c cb 33 d2 bc 77 61 a8 bd ea 21 a5 3d
       0.028989714 -0.025659462 -0.08221715 0.08063109
0003b0 c0 b0 16 3d d3 29 1f bd 86 98 c1 bd 4d 50 c8 3c
       0.036789656 -0.038858246 -0.0945292 0.024452353
0003c0 5f f3 82 bd ae 29 47 bd f5 29 13 3d 28 61 df 3c
       -0.063940756 -0.048623733 0.035928685 0.027268007
0003d0 68 ff 03 3e d9 d5 9a 3d fb 85 64 bb b7 51 09 be
       0.12890399 0.075603195 -0.0034869898 -0.13410078
0003e0 8d 80 92 3d 9e ef fd bd 8f ae 7b 3d ac 2c fe bc
       0.07153425 -0.12399219 0.06144577 -0.03102716
0003f0 9e fb dc bd 4b cc 93 3d 63 2d 0d 3e 33 e6 d4 3c
       -0.1079018 0.072167 0.13786845 0.025988674

conv_0.bias f4 [128]
000000 b4 ca 3d bb 70 a4 1c bb 43 ee 11 bb 3c 8d 34 3b
       -0.0028959932 -0.0023901723 -0.002226726 0.0027550003
000010 60 c4 2f bb 48 d1 58 bb ff c9 27 3b 63 fd 41 3b
       -0.002681993 -0.0033083726 0.0025602577 0.0029600493
000020 f6 a4 32 3b 7a 9c 4d bb 21 55 30 bb 2e 01 2a bb
       0.002725897 -0.0031373785 -0.002690621 -0.0025940645
000030 65 45 32 3b 6b db d0 ba 92 f6 31 bb 24 73 41 3b
       0.0027202007 -0.0015934532 -0.0027155024 0.0029518092
000040 c2 3a 4a bb 01 8a 4f bb 9e 89 41 bb d9 94 00 3b
       -0.0030857776 -0.003166795 -0.002953149 0.001961997
000050 f6 41 43 bb 48 02 42 3b b6 30 2a bb ee e2 41 3b
       -0.0029793954 0.002960341 -0.0025968975 0.0029584724
000060 00 bb 50 bb 17 50 4b bb 73 e5 42 3b b2 dc 32 bb
       -0.0031849742 -0.003102308 0.0029738813 -0.002729219
000070 05 e2 3f bb 76 db 4e 3b 54 fe 53 bb aa 41 32 3b
       -0.0029279005 0.0031563914 -0.0032347636 0.0027199783
000080 ca 05 42 bb 1a 6f 3d bb 1e 67 43 bb 55 86 46 bb
       -0.0029605501 -0.0028905333 -0.0029816101 -0.003029247
000090 d5 5b 3e 3b 5d d7 4f 3b af 7f 43 bb 06 1c 2c bb
       0.0029046435 0.003171406 -0.0029830744 -0.002626182
0000a0 a9 96 49 3b 9f f3 3e bb 84 dc 48 3b 72 af 35 3b
       0.0030759966 -0.0029136909 0.0030649016 0.0027722982
0000b0 af 68 3f 3b c0 b9 42 bb 8b fa 30 3b f3 7d 48 3b
       0.0029206683 -0.0029712766 0.0027004804 0.003059265
0000c0 c3 4e 30 bb 6f 7e 60 ba 08 48 40 bb 3e ef 34 3b
       -0.0026902414 -0.0008563762 -0.002933981 0.002760842
0000d0 5c 77 b7 ba a6 36 3d bb d5 b0 fd ba ba 76 41 3b
       -0.0013997364 -0.0028871684 -0.0019355068 0.002952023
0000e0 e1 5c 33 3b bb ef 34 bb 84 ac 3e bb 2e e7 27 bb
       0.0027368593 -0.002760871 -0.0029094527 -0.0025619972
0000f0 54 ff 2b bb 3e 80 37 3b a5 17 22 3b d4 c5 54 3b
       -0.0026244717 0.0028000022 0.0024733332 0.0032466548
000100 1f a7 3f bb 72 1d 40 3b e4 5d 35 3b 69 b4 25 3b
       -0.00292439 0.0029314426 0.0027674371 0.0025284535
000110 18 19 2e bb c0 2d 45 3b d3 65 46 3b 06 b5 43 bb
       -0.002656525 0.0030087084 0.0030273094 -0.0029862537
000120 56 6d 15 bb 8f c8 40 bb 6e 1f 44 bb fe aa 33 bb
       -0.0022800765 -0.0029416417 -0.002992596 -0.0027415152
000130 69 91 35 bb 31 45 2d bb 5e 19 48 3b 37 17 50 bb
       -0.002770508 -0.0026438946 0.0030532698 -0.0031752118
000140 bb e1 44 bb 69 f2 5e 3a 05 8b 44 bb d8 fd 47 3b
       -0.0030041772 0.000850475 -0.0029990089 0.0030516293
000150 87 cd 4a 3b c8 f4 54 3b a8 6d 46 3b 88 38 3f 3b
       0.0030945258 0.0032494534 0.0030277763 0.0029177982
000160 80 a3 44 3b 64 c0 27 bb 33 56 37 3b 17 05 3e bb
       0.003000468 -0.0025596851 0.0027974963 -0.0028994733
000170 ba f3 47 bb c8 55 3f ba 1e df 49 bb 51 ba 43 3b
       -0.0030510263 -0.0007298854 -0.0030803154 0.0029865692
000180 c6 e6 2f 3b e8 aa 46 3b 47 d7 42 3b 8f e4 3e 3b
       0.0026840433 0.003031427 0.0029730366 0.002912793
000190 fc c5 40 3b 78 6a 52 bb d8 8b 25 bb 2c ac 5a bb
       0.0029414883 -0.0032106917 -0.0025260355 -0.0033366783
0001a0 bc 94 41 3b 77 04 3f 3b 9b 19 4c 3b a0 e9 33 bb
       0.0029538115 0.0029146948 0.0031143192 -0.0027452484
0001b0 f2 8f 31 bb 75 6d 31 3b 52 2b 39 3b dc 26 40 bb
       -0.0027093855 0.0027073298 0.002825458 -0.0029320037
0001c0 e4 c9 49 3b 7d ff 34 3b 4f 28 20 3b 49 60 2c bb
       0.0030790502 0.0027618103 0.0024438088 -0.0026302508
0001d0 6d df 3e 3b 1e 11 3d bb b0 65 31 3b a3 c7 47 bb
       0.0029124871 -0.0028849314 0.0027068667 -0.0030483983
0001e0 86 a0 37 bb 86 04 19 bb 52 2a 51 bb 4f c7 0f bb
       -0.0028019263 -0.0023348643 -0.0031916094 -0.0021938866
0001f0 ff 0f 21 bb a9 94 50 bb 7c d8 34 bb f5 a0 03 bb
       -0.0024576185 -0.003182689 -0.0027594855 -0.0020084952

layers.0.weight f4 [128, 128]
000000 16 fc db 3b a7 1c b3 bd c7 9b bd 3c 30 e1 54 bd
       0.0067134006 -0.087456994 0.02314557 -0.051972568
000010 56 1a e2 3d 89 13 82 3d d0 f7 e8 3d 06 3d 30 bc
       0.110401794 0.06351382 0.113753915 -0.010756737
000020 ee 0b 0c 3e 65 65 98 3d 27 57 d7 3d b6 c7 09 3e
       0.13676426 0.074412145 0.1051467 0.1345509
000030 cf c4 03 3d b7 f8 74 3d 87 31 09 be 96 0e d2 3d
       0.032170113 0.059807505 -0.133978 0.10256688
000040 05 71 88 3d db 50 8e bd e9 09 b0 bd 98 03 36 3c
       0.06662182 -0.06949016 -0.0859564 0.011109255
000050 a2 7d 17 3d e8 7a a9 3a a9 ad 06 bd 8a 89 97 3d
       0.036985047 0.0012930306 -0.03288046 0.0739928
000060 81 72 27 bd 7d 6e fb 3d d9 c9 f3 bd d4 81 23 3d
       -0.040880684 0.12276933 -0.11903734 0.039918736
000070 26 3d 10 3d 1e a6 30 3c 40 c6 c8 3c 5b 97 10 3e
       0.035214566 0.010781793 0.024508595 0.14120238
000080 12 9d 11 3e c3 cd 2b 3d c7 5c 2c 3d d3 27 df bd
       0.14220074 0.041944277 0.042080667 -0.10896268
000090 79 69 39 bd 08 32 1a be 3c 3f 04 3e 5b f6 78 bd
       -0.045266602 -0.15058148 0.12914747 -0.060781818
0000a0 56 13 48 bd 75 6b 16 3e 67 35 bc 3c b4 68 d6 3d
       -0.048846565 0.14689429 0.022974683 0.10469189
0000b0 1e 4d 0c 3e 24 81 25 bd d9 ed 2a bc 68 af b9 bc
       0.13701293 -0.04040636 -0.010432684 -0.022666648
0000c0 8e 11 f8 3d ed 91 f8 bc fa f2 86 bd 8f a2 fc 3c
       0.12112723 -0.03034302 -0.06589313 0.030839233
0000d0 b0 5c 6a 3d 9e e9 b0 bc c6 1d 13 3e 67 32 ac bd
       0.0572173 -0.021595772 0.14366826 -0.08408051
0000e0 c8 01 ee ba f7 2f 94 bd 34 5f 56 3c 66 95 12 bd
       -0.001815849 -0.07235711 0.013084222 -0.03578701
0000f0 58 f1 c1 3d 0a 16 71 bd 56 34 18 ba 39 54 5e 3d
       0.09469861 -0.05885891 -0.00058061385 0.05427954
000100 28 6c 19 be ed ed d4 bd 30 cc 9e 3c 96 f6 09 be
       -0.14982665 -0.10396943 0.019384474 -0.13472971
000110 87 b0 a1 bd 7b ee ec 3d 9e e6 7c 3d ee 42 c5 3d
       -0.07894998 0.11568924 0.06174337 0.096319064
000120 99 ad 7e 3d 29 23 9b 3d 33 b2 13 be 57 68 08 bb
       0.062177274 0.07575066 -0.14423446 -0.0020814145
000130 be 16 bf bc e6 7a 39 bd ce 5b 15 3e 09 aa 1d be
       -0.023326274 -0.04528322 0.14585802 -0.15396895
000140 f2 84 42 3c 08 1f d8 bc 6a ff 81 3d f4 5a d8 bd
       0.011872517 -0.026381984 0.063475445 -0.10564223
000150 02 a3 88 bd 19 e1 42 3c 91 a1 b2 bd d0 c9 32 bc
       -0.06671716 0.011894488 -0.087222226 -0.010912374
000160 2d 94 c2 3d f0 e4 ec bd e6 06 0f bd f9 ac 9e 3c
       0.095009185 -0.11567104 -0.03491869 0.01936959
000170 0f 18 d8 3d fc 8b e2 bd 92 87 13 be 32 a1 e2 3b
       0.10551464 -0.11061856 -0.14407185 0.0069161886
000180 ea d2 27 3d 58 4c fa 3c 52 c4 0f 3e 5f 51 1a bd
       0.040972628 0.030553982 0.14039734 -0.037675258
000190 38 bd 59 3d de 25 59 bd 42 ab b5 3a ec ce 86 bd
       0.05315897 -0.05301463 0.0013860243 -0.06582436
0001a0 37 29 a9 3d 3c 4f 02 3e 1a f6 be 3b 96 f3 84 3d
       0.08259814 0.12725538 0.0058276774 0.06491773
0001b0 3c be eb 3b d5 3a ff bd 36 46 85 bd fb 7c 68 bd
       0.0071943086 -0.12462393 -0.06507532 -0.056759816
0001c0 1f 49 04 be 13 c8 01 3d 02 ed 1b 3e c9 15 f7 bd
       -0.12918518 0.031684946 0.1522713 -0.12064702
0001d0 30 7d 19 be 6c 1f 2d bd 74 5b bc 3d 39 07 09 3e
       -0.14989161 -0.042266294 0.09197131 0.13381661
0001e0 aa f6 74 3d 03 7c 8f 3c 57 43 40 bc 91 4d 11 be
       0.05980555 0.017515188 -0.011734805 -0.14189745
0001f0 58 ce 37 bd af e2 16 3e 37 8f 8e bd 0f 6c 98 bd
       -0.04487452 0.1473491 -0.0696091 -0.074424855
000200 46 64 5a bd 2a 23 b5 bd 13 87 18 3e 56 ca c7 3d
       -0.053318284 -0.08844598 0.14895277 0.097553894
000210 ea 51 f2 3d 5c 05 72 bd 66 07 e7 bc e1 f0 13 3e
       0.1183203 -0.059087142 -0.02820177 0.14447357
000220 97 a9 86 3d 60 b3 9a 3d 82 1d a8 bc a1 81 90 bd
       0.065753154 0.07553744 -0.020521883 -0.07055975
000230 fa 6f 0f be b8 95 88 bc aa f7 c3 bd 5b fd a4 3d
       -0.1400756 -0.016672954 -0.095687225 0.08056136
000240 58 c8 62 bd 46 61 0d 3e 70 bd a0 3d fb bf 21 3d
       -0.055366844 0.13806638 0.07848632 0.039489727
000250 e9 3c f6 3d 9d ed d6 3d 89 f9 0f bd 27 38 9e bc
       0.120233364 0.1049454 -0.035150085 -0.019313885
000260 be 6d 1d 3b 5e 95 5a 3d fa 2a 08 3e 51 b7 ac bc
       0.002402171 0.053365104 0.13297644 -0.021083506
000270 c6 a2 9e 3c 81 d6 28 3d b6 22 46 bd c0 92 14 3d
       0.019364726 0.041220192 -0.048372947 0.036272764
000280 f3 26 0d 3e 26 27 f8 bd f3 f7 f4 3d 1f be c4 bd
       0.13784389 -0.12116842 0.11961355 -0.09606575
000290 ed 3d e8 3d e5 32 5a bb ca 95 c5 3d 89 0c f9 bd
       0.113399364 -0.0033294496 0.096477106 -0.12160594
0002a0 25 2e 05 3e 9d 1d af bd 83 f8 5c 3d 43 e7 40 3d
       0.13005884 -0.0855057 0.053947937 0.04709555
0002b0 cb 8d 11 be 14 3f 87 bd 1b 53 ce bc 9a ac 8e bd
       -0.14214246 -0.06603828 -0.025186112 -0.06966515
0002c0 15 2d 0f 3e ac b7 10 be 51 25 64 3c 3a c0 1c be
       0.13982041 -0.14132565 0.013924913 -0.15307704
0002d0 76 8d 05 3d de fa 10 be 47 d9 16 be da 7b 01 bd
       0.03260561 -0.14158198 -0.14731322 -0.031612255
0002e0 03 76 d1 bc 62 27 fc bd 50 6f cc 3c 05 d2 e5 3d
       -0.025568968 -0.12312199 0.024955422 0.11221699
0002f0 32 18 80 3d 59 00 60 3d ce 29 e0 bd 9e 1a 56 bc
       0.06254615 0.05468783 -0.109454736 -0.0130678695
000300 55 ba 1f bd 27 f5 9b 3d c5 b4 ad 3d 15 c3 8e bd
       -0.03899606 0.076151185 0.08481745 -0.06970803
000310 d8 37 fb 3c 34 18 ef bd c0 e4 8a 3c da f7 e6 bd
       0.030666277 -0.11674538 0.01695478 -0.11277743
000320 c0 38 ea bc ec 90 7b bc 41 61 d3 3d 21 2b b9 3c
       -0.028591514 -0.015354376 0.10321284 0.022603573
000330 4c 23 b6 bd 81 da b5 bd ab c2 71 3c ad e6 d1 bd
       -0.08893451 -0.08879567 0.014755885 -0.10249076
000340 fb 05 fb 3d 8c c4 64 3d b7 3b b6 3d fd ed 7b 3c
       0.12257 0.055851504 0.088981085 0.015376565
000350 45 e3 c5 3d 49 d7 ba bd b0 35 c7 3d b2 94 02 3e
       0.09662489 -0.09123094 0.09727037 0.12752035
000360 ca 43 eb bd 50 d4 1e be f2 0c c5 bc e5 15 52 3a
       -0.11487539 -0.15510678 -0.024054024 0.0008014127
000370 c2 66 c9 bd fd 48 f5 3c 99 bb 64 3d 4c 95 65 3d
       -0.098340526 0.02994203 0.05584297 0.056050584
000380 6b 4b 13 be ed 59 09 be 3e fa 46 3d ac b7 87 bd
       -0.14384238 -0.1341321 0.048578493 -0.066268295
000390 bf 19 e6 3d 4f bd 76 bd 51 f6 ad bd 6d 47 2d 3d
       0.112353794 -0.060239132 -0.08494247 0.042304445
0003a0 01 54 02 3e 81 4a b0 bd 14 a9 e7 3d ef 88 ec 3d
       0.12727357 -0.086079605 0.11311546 0.115495555
0003b0 33 36 0c be 2a b8 e5 3d 37 9d 93 3c 38 0b 05 3e
       -0.1369255 0.11216767 0.018019302 0.12992561
0003c0 fb ec c8 3d ab a7 d2 3d 9e fc 13 be e0 3f e3 3d
       0.098108254 0.102858864 -0.14451835 0.110961676
0003d0 de 72 80 3d 25 c2 c9 3d e8 6f b9 3d 4d 03 f5 3c
       0.06271909 0.09851483 0.090545475 0.0299088
0003e0 32 1f 1f be 7c 6d ab 3c 8a ab 00 bd cf 32 5f 3d
       -0.15539244 0.02092623 -0.031413592 0.054491814
0003f0 09 f0 d8 3d 98 3d fc bd 66 4d 85 3d 65 0f f5 bc
       0.10592658 -0.123164356 0.06508903 -0.029914567

layers.0.bias f4 [128]
000000 10 4a 46 3b b1 e8 47 bb 79 29 48 3b 60 3f 49 3b
       0.0030256547 -0.0030503685 0.0030542298 0.003070794
000010 84 a2 45 bb 08 b6 4b 3b 06 3e 48 bb 04 1e 49 bb
       -0.0030156681 0.003108384 -0.0030554547 -0.0030688057
000020 6c 89 45 bb e6 7b 48 3b 45 95 46 bb db 25 47 bb
       -0.0030141724 0.0030591427 -0.0030301374 -0.0030387554
000030 8b eb 47 bb 03 24 48 3b 13 ee 45 3b 3a cc 4e bb
       -0.0030505385 0.0030539043 0.0030201718 -0.0031554834
000040 7f 1b 48 3b a4 40 45 bb 09 39 47 bb 9d d7 47 bb
       0.0030533967 -0.0030098343 -0.0030398986 -0.0030493506
000050 fc 10 45 bb f4 db 46 3b 2f 4f 48 3b 8a 57 48 3b
       -0.0030069938 0.0030343505 0.0030564775 0.0030569755
000060 99 9c 4c bb 9f 3b 49 3b 2e 07 49 3b db b0 4d 3b
       -0.003122127 0.0030705703 0.0030674445 0.0031385932
000070 95 52 1e bb a4 b3 45 bb 78 f7 47 bb 75 3d 48 bb
       -0.002415811 -0.0030166889 -0.0030512493 -0.003055421
000080 dd 59 48 bb 89 7c 47 bb 79 04 4a 3b 0f 0f 35 3b
       -0.003057114 -0.003043922 0.003082542 0.0027627384
000090 41 3f 46 bb f2 a8 46 3b ef ad 45 bb 2f 28 4e 3b
       -0.0030250105 0.0030313102 -0.0030163487 0.0031457057
0000a0 32 18 48 3b a8 38 48 bb 7b de 42 bb c2 90 46 bb
       0.0030532 -0.0030551348 -0.002973466 -0.0030298685
0000b0 5b 9a 46 3b a3 76 46 bb 01 18 40 bb 68 20 46 3b
       0.0030304405 -0.0030283115 -0.0029311182 0.0030231718
0000c0 2e 10 48 bb fb 8f 46 3b 8c 94 46 3b 69 01 48 bb
       -0.0030527222 0.0030298221 0.0030300943 -0.0030518419
0000d0 4d ad 46 bb 1e 7d 46 bb e3 5b 46 3b 85 5f 48 bb
       -0.0030315698 -0.0030286978 0.003026717 -0.0030574512
0000e0 ff 43 47 3b f0 f4 47 bb 7f f3 47 3b 7c 18 44 3b
       0.003040552 -0.0030510984 0.0030510125 0.002992182
0000f0 f4 12 46 bb 97 8c 46 3b 72 9b 46 3b b1 c2 4b bb
       -0.00302237 0.00302962 0.0030305055 -0.0031091387
000100 90 c5 48 3b e3 0c 48 3b 0c aa 43 bb 6b 93 49 bb
       0.0030635335 0.003052526 -0.0029855995 -0.0030758034
000110 5f 51 47 3b da cc 3e bb 9d c1 3d bb 3f 61 47 3b
       0.0030413491 -0.00291138 -0.0028954514 0.0030422953
000120 7f 93 46 bb 66 4a 48 3b 17 f7 47 3b be be 49 3b
       -0.0030300317 0.0030561923 0.0030512267 0.0030783857
000130 9e f1 10 bb f5 84 4a bb 15 33 46 bb 61 3c 46 3b
       -0.0022116671 -0.0030902002 -0.003024285 0.003024839
000140 32 f9 46 bb 3a 19 48 3b be 5d 46 3b 53 63 48 bb
       -0.0030360934 0.0030532614 0.0030268277 -0.003057678
000150 86 53 46 3b 31 24 4a bb df 4e 49 3b ab e0 47 bb
       0.0030262186 -0.0030844326 0.0030717177 -0.0030498903
000160 3c 55 46 3b 2a bf 49 bb 4c 4f 46 3b 78 2a 46 3b
       0.0030263206 -0.0030784109 0.0030259667 0.0030237716
000170 e0 8d 44 3b ab 3b 48 bb 6c 32 48 bb f9 9b 48 3b
       0.002999179 -0.0030553143 -0.0030547632 0.0030610545
000180 ca 97 47 3b fe 5c 49 3b 14 4f 46 bb a9 c3 5c bb
       0.0030455464 0.0030725594 -0.0030259537 -0.0033685958
000190 d0 19 46 bb d2 ed 4a bb 13 88 45 3b c5 64 46 bb
       -0.0030227788 -0.0030964506 0.003014092 -0.0030272466
0001a0 cd 6a 46 bb 01 3c 46 bb e6 44 46 3b b2 a8 47 3b
       -0.003027606 -0.0030248167 0.003025347 0.003046554
0001b0 78 91 5f 3b 6e 7d 46 bb ea 82 4b bb 27 6b 46 bb
       0.0034113806 -0.0030287164 -0.0031053373 -0.003027627
0001c0 e9 33 43 bb 1d 32 44 3b 13 7b 48 bb 82 1b 48 3b
       -0.002978558 0.0029937096 -0.0030590936 0.0030533974
0001d0 fb d2 45 3b 50 32 49 3b fc 92 46 bb 1a 13 48 bb
       0.0030185569 0.0030700155 -0.0030300012 -0.0030528964
0001e0 be 2d 49 bb 42 90 49 3b 1b f6 45 3b f3 45 44 3b
       -0.003069743 0.003075615 0.0030206505 0.002994892
0001f0 cc 99 3c bb 53 22 3b bb 64 d4 47 3b dd 7b 46 3b
       -0.0028778194 -0.0028554394 0.0030491585 0.003028623

predict.weight f4 [1, 128]
000000 72 57 6a 3d 17 05 a8 bd 05 2b 85 3d 39 04 ef 3c
       0.0572123 -0.08204096 0.06502346 0.029176818
000010 e5 94 00 bd 53 20 5a 3c d6 6a 5e bd 1d aa f9 bc
       -0.031391997 0.013313371 -0.054301105 -0.030476624
000020 0d 42 94 bc 6a 8e 36 3d 02 c7 a7 bd 9f 0c 89 bd
       -0.018097902 0.04456941 -0.081922546 -0.066918604
000030 4d 0c a3 bd 9d cf 87 3d 46 c0 25 3d 99 de 0a bc
       -0.079613306 0.06631396 0.04046657 -0.008475923
000040 7d 1f 84 3d b0 83 c5 bc 7e 3f 57 bd c7 78 b7 bd
       0.064513184 -0.024110645 -0.052550785 -0.08958583
000050 90 27 be bc e1 83 31 3d 1e 76 58 3d aa 74 4e 3d
       -0.023212224 0.04333866 0.05284702 0.05040423
000060 f5 5d 45 bc a1 58 f9 3c 01 9a 05 3d 2b 3e 33 3c
       -0.012046327 0.03043777 0.032617573 0.010940115
000070 ce 1a 88 38 81 71 09 bd 2a c4 9d bd 31 09 62 bd
       6.489978e-05 -0.03355551 -0.07703431 -0.055184547
000080 ff 5b 16 bc 3e 1a 9e bd bb 26 ab 3c 9b 2d c6 3a
       -0.009177207 -0.07719849 0.020892492 0.0015119793
000090 b2 f0 50 bd 44 6b 65 3d 4d ae 05 bd 42 15 16 3c
       -0.051010795 0.0560105 -0.03263693 0.009160342
0000a0 4a 0c 81 3d e1 3a 5c bd 02 42 31 bc 60 6e 9a bd
       0.06301172 -0.05376709 -0.01081896 -0.075405836
0000b0 12 f4 a3 3d 24 25 75 bd 24 6e c5 bb 28 10 3f 3d
       0.08005537 -0.059849873 -0.0060250927 0.046646267
0000c0 c6 65 8f bd c2 0b 8b 3d ae bb a5 3d eb 16 99 bd
       -0.070018336 0.06789352 0.08092438 -0.074750744
0000d0 fa c7 95 bd 34 ea 8a bd 49 08 6a 3d 0e 1a 4d bd
       -0.07313533 -0.06782952 0.057136808 -0.050073676
0000e0 ed d9 5d 3d 64 93 90 bd 85 e1 9f 3d d7 aa 80 3c
       0.05416291 -0.070593625 0.07806686 0.015706463
0000f0 d5 00 1c bd 25 d3 53 3d 1c e3 9d 3d f8 0c 5b bc
       -0.03808673 0.051715035 0.07709333 -0.013369791
000100 5c fc 21 3d cf 05 98 3d eb 31 52 bc 75 98 b9 bc
       0.03954731 0.07422983 -0.012829284 -0.022655705
000110 9c 25 ab 3d 4d d3 95 bb eb a0 89 bb 50 02 ab 3d
       0.08356783 -0.004572308 -0.004200091 0.083500504
000120 f9 a8 a0 bd 45 8c 41 3d a4 97 a2 3d c6 54 cf 3c
       -0.07844729 0.047252912 0.079390794 0.025308978
000130 34 b1 11 3a d6 ee 9b bc 14 85 57 bd 7c 09 50 3d
       0.00055577164 -0.019034784 -0.052617148 0.050790295
000140 59 c9 28 bd c3 72 89 3d 68 7b 79 3d e5 43 4b bd
       -0.041207645 0.06711342 0.060908705 -0.049625296
000150 cf e2 6a 3d 9a c7 ac bc 5c f2 e2 3c db 55 b4 bd
       0.057345208 -0.021091271 0.027703457 -0.08805438
000160 19 3b 6e 3d 14 da c5 bc a7 c6 68 3d ce 8d 48 3d
       0.05816183 -0.02415184 0.056830075 0.04896336
000170 46 3d 87 3c de 81 7a bd 31 8c 72 bd 90 11 29 3d
       0.01650871 -0.061159007 -0.05921573 0.041276515
000180 dd 02 02 3d 73 7c df 3c 95 df 5a bd a8 1f 80 bb
       0.031741012 0.027281022 -0.05343588 -0.0039100237
000190 3a 36 33 bd 6b 1e 82 bc a9 bc f4 3c b4 df 7f bd
       -0.043752886 -0.015883645 0.029875116 -0.0624692
0001a0 1f a1 7d bd fe 52 2d bd 90 e4 b7 3c 5e 62 b1 3d
       -0.061921235 -0.042315476 0.022447854 0.0866134
0001b0 5c 0e 55 3b b1 f5 8a bd 71 d6 6f bc b7 d4 80 bd
       0.003250978 -0.06785143 -0.014638529 -0.06290572
0001c0 a2 6b 3e bc a8 d3 6f 3c f0 86 38 bd ba 8b 89 3d
       -0.011622341 0.014637865 -0.04505056 0.06716104
0001d0 c9 12 07 3d d0 88 ed 3c 18 49 9c bd 23 bc 88 bd
       0.0329769 0.028995901 -0.07631129 -0.06676509
0001e0 73 7f f0 bc 8b a3 bf 3c 2d f6 1e 3d 55 b6 78 3c
       -0.029357648 0.023393413 0.03880899 0.01518019
0001f0 10 05 6b bb 61 67 44 bb de af b8 3d 31 df 74 3d
       -0.0035861172 -0.0029968845 0.09017919 0.059783164
