PERGAT_embbedding/data/emb/models/model_dim128_lay2_epo106.pth (torch, 137100 bytes, 7 tensors)

linear.weight f4 [128, 1]
00000000: 80df c0bc a471 193f 0023 a43b 3a48 413f
00000010: 349f 66bf 0cd8 45bf 80d2 6d3e 1681 203f
00000020: e07f 593e 3082 2dbe 90d1 dcbd f076 f8be
00000030: 7a5c 39bf 406b 7b3f c664 1d3f 8cdd 6d3f
00000040: ac74 113f 827b 2ebf a020 71bf 0460 7dbf
00000050: 1809 bf3e ccc2 75bf 140e 483f c0c3 443e
00000060: aa5d 7c3f 769e 313f 4e05 513f 3087 473f
00000070: 6482 4c3f 5e0d 51bf 3ce6 393f 8cde 7dbf
00000080: 2885 d73e e40d 05bf c06d 633f 5c47 f03e
00000090: 1830 29bf dc83 223f fc28 013f a0c9 003d
000000a0: 48b0 773f b067 94bd 2815 9a3e c070 7d3d
000000b0: 68d0 7a3f c82e 2d3f 24d9 a03e 4034 b63d
000000c0: a8b8 4a3f 9679 7cbf 002c c13d 38b0 3ebf
000000d0: 5056 083e c420 673f 6847 7f3e 0615 063f
000000e0: 601e d9be 40fd 2dbf 201c 1dbd a252 00bf
000000f0: 601d 13bf 5ec6 23bf 28cf eabe b495 4d3f
00000100: 7000 15bf 2069 593d 38c2 66be 22ac 633f
00000110: 9072 afbe 004c 2bbc d065 bf3d 8079 553f
00000120: e871 81be c809 1b3f c8d8 f53e 3059 853e
00000130: a671 223f 2c57 d2be 6809 2d3f 2a8c 02bf
00000140: e0bf 8cbe 9886 59be 44ec ec3e 00aa b6be
00000150: 00c0 cdba c8cb 51be 9677 26bf f844 f5be
00000160: fe70 663f e875 183e 1ab3 403f 400d 6b3e
00000170: 0020 b7bd 28e3 c3be 840d 60bf 80a7 5e3e
00000180: 88ed 123f 96ec 62bf 287b f63e e017 793f
00000190: eebc 0bbf d492 a03e 2eb4 4c3f 00c4 cdba
000001a0: 6017 583d 30ba 593f f69e 67bf c016 c8bc
000001b0: 10a9 323f 70b3 a73e b64c 263f 86e9 73bf
000001c0: 3262 163f 9455 bbbe 3c7d 333f 8c0c 853e
000001d0: 8a4d 0bbf 7809 5b3f 6c32 833e e47c b13e
000001e0: 5c1a f2be a05b 4a3f a84d 3b3e 8465 333f
000001f0: f47c bd3e e803 a63e 1268 263f 101d 273f
-0.023544073 0.59939027 0.005009055 0.75500834 -0.90086675 -0.77282786 0.2322483 0.6269697
0.21240187 -0.16944194 -0.107821584 -0.48528242 -0.72406733 0.98210526 0.61481893 0.9291618
0.5681865 -0.6815721 -0.94190407 -0.98974633 0.37311625 -0.9600036 0.7814648 0.19215298
0.9858042 0.6938242 0.8164872 0.77940655 0.7988646 -0.8166102 0.72616935 -0.99167705
0.42093778 -0.5197432 0.8883934 0.46929443 -0.6608901 0.6348245 0.5045316 0.031442285
0.9675336 -0.07246339 0.30094266 0.061875105 0.9797425 0.6764951 0.31415665 0.08896685
0.79188013 -0.98623025 0.094322205 -0.7448764 0.13314176 0.9028437 0.24929583 0.5237583
-0.42405987 -0.67964554 -0.0383569 -0.5012609 -0.574667 -0.6397456 -0.45861173 0.80306554
-0.5820379 0.05307877 -0.22535026 0.8893453 -0.34267092 -0.0104551315 0.09345591 0.8338852
-0.25282216 0.605618 0.48016953 0.26044607 0.63454664 -0.41082132 0.6759248 -0.50995123
-0.2749014 -0.2124275 0.46274006 -0.35676575 -0.0015697479 -0.20487893 -0.65026224 -0.4790418
0.9001616 0.14888728 0.7527329 0.22954273 -0.089416504 -0.38259244 -0.87520623 0.21743584
0.57393694 -0.8864225 0.48140836 0.97302055 -0.5458516 0.3136202 0.7996243 -0.0015698671
0.052756667 0.85049725 -0.9047693 -0.02442491 0.6978922 0.32754087 0.649608 -0.95278203
0.58743584 -0.36588728 0.7011297 0.25986135 -0.5441519 0.85561323 0.25624406 0.34665596
-0.47285736 0.7904606 0.18291342 0.70076776 0.37009394 0.32424855 0.6500255 0.6527872

linear.bias f4 [128]
00000000: d150 febe c4e6 283f dfb2 6d3f 6ac8 8bbe
00000010: 690d 41bf d103 03bf c81f bcbe 42d0 5dbf
00000020: 3953 e0bd 86e5 46bf 5797 3fbf 3891 b9be
00000030: 3119 80bf 8431 083f ad5f 7c3e 78ed bbbe
00000040: 4f3c 583f 126e e4be 2c42 763f 4019 dabe
00000050: 3466 47bf 5a80 64be 4b46 be3e 7656 0bbf
00000060: 0a93 363f a298 583d 438a cd3e d183 30bc
00000070: 5ac3 5a3f bee0 7b3e 42c5 3ebf 437f 3d3f
00000080: ceec e93e 401e a5be 7e6d 343f b9d7 78be
00000090: 580a aa3e 3732 693f 2a86 50bf 05a3 64bf
000000a0: d449 f9bd 6441 cebe a514 5e3f 9886 6abf
000000b0: 84a2 1cbf d454 11bf 8529 4a3e 4e82 00bf
000000c0: 26e9 94bb 026d 0f3e ca79 1e3e 9d2d bf3e
000000d0: f520 32be 304f f53d c305 483f 2efd 7d3f
000000e0: 8d54 35bf 506a 5d3e 1522 e13e 4aeb 5bbf
000000f0: 4378 1e3f 22e4 75bf 1bd7 793f cf55 7d3f
00000100: a200 c33e 9127 abbe b6fe 79bf cf56 6a3f
00000110: 94ef 6cbe d737 3d3f 9290 2cbd 13c3 0a3d
00000120: c7e0 543d f14c 953e a3a7 57bf dad9 553e
00000130: 717e 65bf 96f0 27bd 4aef fcbc 9fe0 da3e
00000140: 3f9c 433e 0e25 25be 5ca0 0b3f d9a3 393f
00000150: 73b3 9abe 2d73 7ebf b3bb 283e 2ed4 443e
00000160: ce55 18bf 64f8 90be d14c 043e 8ad0 3f3f
00000170: fa78 d8be fa46 f43e 0b9a 143f b43c e8be
00000180: ed8e 603f c6b2 59bf f492 f8be 652a b3be
00000190: b9bc 063f 673b a43e 1f2a 853e 1fa4 e8be
000001a0: e7e5 b0bd b6af 373f 4125 2dbf 7810 b93d
000001b0: 2232 933e 4a8d b33d d187 ec3e a7aa 333f
000001c0: cd7d a6be 6127 073f e3e6 6c3f 6176 31bf
000001d0: 0e21 88be b6e5 243f 0966 f2be 72f9 00bf
000001e0: 3760 a8be 2d7f 163f 1ab5 00bf 2119 c3be
000001f0: 2925 e3be 6b7d 8abe ec30 45bf 44ae 15bf
-0.49671033 0.6597712 0.9285106 -0.2730134 -0.7541109 -0.511777 -0.36742997 -0.866459
-0.109533735 -0.77693975 -0.748403 -0.36243606 -1.0007688 0.53200555 0.24645872 -0.36704612
0.84467024 -0.44615227 0.9619472 -0.4259739 -0.77890325 -0.22314587 0.37163004 -0.54428804
0.71318114 0.052879937 0.40144548 -0.010773615 0.8545433 0.24597451 -0.7451974 0.7402231
0.4568848 -0.3224964 0.7047957 -0.24301042 0.33211017 0.91092247 -0.8145472 -0.8931125
-0.12172285 -0.40284264 0.8675025 -0.91611624 -0.6118548 -0.5677006 0.19742401 -0.5019883
-0.004544395 0.14006427 0.15476146 0.37339488 -0.17395385 0.119779944 0.7813379 0.99214447
-0.7083214 0.21622586 0.43971315 -0.859059 0.61902255 -0.9605123 0.9759385 0.9895906
0.3808642 -0.33428624 -0.97654283 0.9153871 -0.23138267 0.7391333 -0.04213006 0.033877444
0.051972177 0.29160264 -0.8424017 0.20883885 -0.8964606 -0.041000925 -0.03087582 0.42749497
0.19102572 -0.16127416 0.54541564 0.72515637 -0.30215034 -0.99394494 0.16477852 0.19221565
-0.5950593 -0.28314507 0.12919928 0.7492758 -0.42279798 0.477104 0.5804755 -0.45358813
0.8771809 -0.8503841 -0.48549616 -0.34993282 0.5263172 0.3207657 0.26008698 -0.45437714
-0.086376004 0.7175249 -0.6763497 0.09036344 0.28749186 0.08767183 0.4619737 0.7018227
-0.32517853 0.5279446 0.92539805 -0.69321257 -0.2658772 0.6441301 -0.47343472 -0.50380623
-0.32885906 0.58787805 -0.5027634 -0.3810511 -0.44364288 -0.2704881 -0.77027774 -0.58469033

conv_0.weight f4 [128, 128]
00000000: 84b6 ff3d af06 06be d759 893a 9fb8 c33d
00000010: fbde 47bd 2882 a3bd 29e3 3bbc 82ec eebd
00000020: 1b3e 15be 61ec 9cbd 8ced 743d ff02 f93d
00000030: ff2c d93c e219 1d3e 5718 d0bb cd27 973d
00000040: 0c13 2e3d 8627 1cbe 3446 c63d 23b7 023c
00000050: bd10 9f3c cbc8 cc3c cac2 8d3d 1a55 863d
00000060: e1ef 1dbc 5797 693d 35c8 043e dc5f 0f3e
00000070: df9e c8bc da9f 1a3e beee 88bc ed05 3cbd
00000080: 9e8a d6bd 3996 01be 89a1 ac3d 915b fe3c
00000090: 0b8e e4bd d233 0d3e dd34 cdbc 7126 053d
000000a0: 595b 92ba c4dd 19be 1eb4 a2bd fa5e 12be
000000b0: a35c 29bd 5f6a 11bd caf0 dabd 6f80 313d
000000c0: 7db3 993d 7c62 d23d 107c 90bd 4987 d03d
000000d0: 77cc 13be 3c04 b8bd f93d ca3b deec 9fbd
000000e0: 0d30 f6b9 92d3 03be 6f53 7c3c f0da 083e
000000f0: 2ea0 f039 6e11 fabd 92bd e7bc d9dc ca3d
00000100: 665e e43d e4ec 913d b43a 833d 7232 87bd
00000110: 771c 08be 008a d4bc 8cfc d73d a168 d1bd
00000120: 2e16 f0bd d462 08be 1757 113e 1f0a edbd
00000130: aac5 f03d f410 ccbd 20ed 03bd 8fc2 113e
00000140: 0b91 e83d 94f0 ef3c 25da c8bd 06f9 ad3d
00000150: dfc9 5bbd 3cfd 0b3e ba96 093e 7210 c13d
00000160: 2211 0fbe 66d3 d83b 278c 293c d990 173e
00000170: fc55 073d abe9 09bd 2985 8ebd a1e2 c73c
00000180: 3541 38bd ecf8 f33d e67e 02bd c77f edbd
00000190: 0886 723d 1d55 bebc b427 ecbd 0dc6 0bbe
000001a0: fe38 f2bd f18b 913d c759 f63d a38a 01be
000001b0: 8322 f03d 662f d3bb 797a 173e 979c bdbd
000001c0: 7559 2f3d c232 543d 765d 00bd 0fb7 78bd
000001d0: deb4 7b3d 17e0 0b3e 6f9a 933d 0443 91bd
000001e0: 055d 17bd cf95 f23c 6df6 c2bd a4ef cdbc
000001f0: d300 dc3d 9013 b43d 81e9 953d 1cfc 233e
00000200: debc ab3d 4139 903d e870 77bc f137 b13d
00000210: a9e6 c23d 1c16 5dbd 04ef 523d 56cb aa3d
00000220: f059 d1bd 7cdd ae3d 69fa a3bd da99 9dbd
00000230: b760 e53d 9481 b03d 09db 5fbd ec8e 4c3d
00000240: 7ef5 30bd e881 0c3e c921 22be 9289 b6bd
00000250: 2ad8 3cbd c273 1c3e 0b78 e43c 5258 113e
00000260: c155 f1bd 0ab5 e63d 7579 0bbe 9e3a db3d
00000270: 4bfa 203e 86ca 123e 949a 433c e2c0 943d
00000280: d25c 69bd 5e75 28bd 44c5 a9bc d467 f8bd
00000290: c2e3 183e 5c79 233d f62c f4bd 82b0 7abd
000002a0: 1219 91bb 445b b8bc 5472 0fbe 0b33 f03d
000002b0: 8eaa e2bd 182a d23c 8379 a7bd 7655 b13d
000002c0: 2ad4 fdbd 66de 11bd 7dbb 2d3d f17f 843d
000002d0: ed05 e0bd f0b1 e7bd a7fb 133d 30f0 13be
000002e0: c42e 213e 363f eabd 9a34 e53d acb0 7e3d
000002f0: 6928 113e 9c7e 4bbd c050 01b8 f251 ebbc
00000300: d38e 5d3a a6c0 12be 2415 573d 0270 3dbd
00000310: 1242 d43d 166d 0dbe a1bb 08bd f7a6 b43c
00000320: 552a fbbd afac 443c 886e de3d 4123 303c
00000330: 7566 d43d af34 103e e1b2 79bd a33d aabd
00000340: 384e ea3d 480e c03d 9ce2 bebb 651b 083e
00000350: 23a5 c3bd 8ca1 08bd 0409 3fbd 10ab 07be
00000360: 2364 c13c 2239 bd3d a044 c9bb 40c9 a83d
00000370: 5189 fb3d f765 ebbc 30ec 4abd 10d9 493d
00000380: 618e a5bd d5a9 11be 95ee b3bd d31a 48bd
00000390: 6bd4 393d 82dd b6bd 3e93 443d 1660 0c3e
000003a0: 6f4c 48bd 9b63 d2bd 7853 8c3d e215 22bd
000003b0: 7ae7 05be 853a 0cbe 71a2 7ebd ab93 76bc
000003c0: a3f7 233e c3ce 45bc 657b 023c 39c3 14be
000003d0: 273f fd3d e1d7 07bc f642 b33d 4ef5 923d
000003e0: cecc 10be 22e2 c3bd 4b3c 5bbd 4c75 7dbd
000003f0: 2f8f 12bc 6bcb 073e 9319 d2bd 3738 b53c
0.12485984 -0.13088487 0.0010479045 0.09556698 -0.048796635 -0.0798381 -0.011467733 -0.11666204
-0.14574473 -0.07662273 0.059796855 0.121587746 0.026510714 0.15341905 -0.006350558 0.07380638
0.042498633 -0.15249452 0.09681359 0.0079782335 0.019417161 0.02499809 0.06921919 0.065592006
-0.009639711 0.057029095 0.12966998 0.14001411 -0.024489818 0.15100041 -0.016715404 -0.04590409
-0.10475658 -0.12654962 0.08429248 0.031049522 -0.11159905 0.13789299 -0.025049621 0.032507364
-0.001116614 -0.15026003 -0.07944511 -0.14294043 -0.04134811 -0.035501834 -0.10690458 0.043335374
0.07504938 0.10272691 -0.07054913 0.101820536 -0.14433466 -0.08985183 0.0061719385 -0.07808851
-0.00046956577 -0.12873676 0.0154007515 0.13364768 0.0004589571 -0.12210356 -0.028288636 0.099054046
0.111508176 0.071252614 0.06407681 -0.066014186 -0.13292108 -0.02594471 0.10546216 -0.102250345
-0.117229804 -0.1331895 0.14193378 -0.11574196 0.117564514 -0.09964171 -0.032208562 0.14234374
0.1135579 0.029289521 -0.09807233 0.08494763 -0.053659316 0.1367082 0.13436404 0.09426965
-0.1397138 0.0066169975 0.010348356 0.14801349 0.033040985 -0.03367011 -0.06958992 0.024400057
-0.04498406 0.119127125 -0.0318593 -0.11596637 0.059209853 -0.023233945 -0.1153101 -0.13649769
-0.11827277 0.0710677 0.120288424 -0.12650542 0.117253326 -0.0064448593 0.14792813 -0.09258383
0.042809922 0.05180622 -0.03133913 -0.060721453 0.061451785 0.13659702 0.0720719 -0.0709286
-0.036953945 0.02961245 -0.09519658 -0.025138684 0.10742345 0.08792794 0.07319928 0.16014141
0.08385633 0.0704217 -0.015102603 0.08653248 0.09516651 -0.053976163 0.051497474 0.083395645
-0.10222232 0.085383385 -0.08006746 -0.076953605 0.112000875 0.08618465 -0.054652248 0.04994099
-0.04320287 0.1372143 -0.158332 -0.08912958 -0.046104588 0.15278533 0.027889272 0.14193848
-0.117839344 0.11264999 -0.13620551 0.1070454 0.15720479 0.14335069 0.01193871 0.07263352
-0.056973286 -0.041127555 -0.020723946 -0.12129179 0.14930633 0.03991066 -0.11922638 -0.061203487
-0.0044280374 -0.022504456 -0.14008456 0.11728486 -0.11067687 0.025654837 -0.081774734 0.086588785
-0.12393983 -0.035612486 0.04241513 0.064697154 -0.1093863 -0.11313236 0.036128666 -0.14447093
0.15740496 -0.11437838 0.111916736 0.062180206 0.14175572 -0.04968129 -3.08312e-05 -0.028725598
0.00084517634 -0.14331302 0.052510396 -0.046249397 0.103641644 -0.13811144 -0.033382062 0.022052271
-0.122639336 0.012004062 0.10860926 0.010750593 0.10371105 0.14082597 -0.060961608 -0.083125375
0.114407 0.09377724 -0.005825354 0.132917 -0.09552982 -0.033357188 -0.046639457 -0.13248849
0.02360732 0.09239413 -0.006142214 0.082415104 0.122820504 -0.028735144 -0.049541652 0.049279273
-0.08083797 -0.14224942 -0.0878574 -0.048853707 0.045368593 -0.08928968 0.047991984 0.13708529
-0.048901018 -0.102729045 0.06851858 -0.03957165 -0.13076583 -0.13694198 -0.062166635 -0.015049855
0.16012435 -0.012073222 0.00796399 -0.14527597 0.12365561 -0.008291216 0.08753006 0.071756944
-0.14140627 -0.09564616 -0.053524297 -0.06187944 -0.00894527 0.13261192 -0.10258784 0.022121532

conv_0.bias f4 [128]
00000000: 9dbf 21bc 64f6 30bc 0481 1abc db5c 293c
00000010: b556 42bc 2b2a 3cbb dda3 2d3c 003e deba
00000020: 8687 4e3c 0063 20bc 5d24 4d3c fc57 463c
00000030: 48c7 1dbc 8b11 52bb 26f9 433c cde3 4abb
00000040: 7de9 4d3c e1d0 2e3c 6776 33bc 8ae6 453c
00000050: 1839 0fbc a8a0 353c 4238 2fbc e16f 35bc
00000060: 4b3e 203c 7d81 22bb df27 483c 3cb6 1f3c
00000070: aad7 eb3b 7333 1cbc 5b60 163c 8ea8 12bc
00000080: 486a 33bb 2696 b23b e3ce 3d3c 44aa 15bc
00000090: b206 233c 6cb8 18bc 8a9b 313c a1bb 1d3c
000000a0: 616b b5bb 2a81 3f39 bbf2 e73b c295 383c
000000b0: 89ea bcbb 5e22 dcba 6882 353c 0738 0ebc
000000c0: 4f6c c9bb 727a 233c 75a6 e73b 93a3 0ebc
000000d0: 5563 423c 0b59 1dbc e42c 413c 394f e43b
000000e0: 46b8 063c 5752 e33b b913 3fbc f663 2b3c
000000f0: 19b2 debb 1462 623c 7b97 d6bb ea1a 683c
00000100: 7b24 6bb9 ef25 193c 7e09 c3bb 04c8 1fbc
00000110: 1793 56bb 89cd 17bc 0586 203c cd0b 393c
00000120: 8432 203c 8ff6 9d3b 51db cdbb 79fa 283c
00000130: cc67 b5bb 3163 363c 07dc 2fbc c022 90bb
00000140: 8fc8 7a3b e64a 123c 6b6d dbba c006 393c
00000150: 5e3c 1cbc ac07 283c 2b0f 173c d4ab 39bc
00000160: c935 47bc 985e e7bb 0704 1abc f50f 36bc
00000170: 62c2 213c 0c22 503c c1c5 bcbb f1ce 583c
00000180: 8d0e 273c 6550 20bc 30fe 5a3c d391 163c
00000190: 38aa 4ebb e502 be3b b582 533c 4523 383c
000001a0: 1fb9 293c d8ce 3f3c a09b 20bc cd8f edbb
000001b0: 8ce5 28bc 0c97 f1bb 2479 a43b 6684 3f3c
000001c0: 189e 553c aaaa 173c 16be f03b 3a66 c33b
000001d0: c69d 183c 631b 8dbb 6595 523c 35f7 b3bb
000001e0: 3bdf 0ebb ac69 2d3c 7f7f 2a3c d4e5 1fba
000001f0: 97a1 b9bb 4316 3d3c 8a0f df3b 4fe1 15bc
-0.009872344 -0.010800932 -0.009430174 0.01033708 -0.011861493 -0.0028711658 0.01059815 -0.0016955733
0.0126055535 -0.009789228 0.012520877 0.012105938 -0.009630032 -0.0032053913 0.011961257 -0.0030958534
0.012567875 0.010669918 -0.010953522 0.012078891 -0.00874164 0.011085667 -0.010694565 -0.011074037
0.009780477 -0.002479642 0.012216537 0.009748038 0.00719734 -0.009533751 0.009178246 -0.008951319
-0.002737658 0.005450028 0.01158497 -0.009134833 0.009950327 -0.009321313 0.010840306 0.009627254
-0.005536482 0.00018263297 0.0070784963 0.011266174 -0.0057652635 -0.001679491 0.011078455 -0.00868035
-0.0061469446 0.009977924 0.007069404 -0.008705991 0.011864503 -0.009603749 0.011790488 0.006967452
0.008222645 0.006937306 -0.011662417 0.010460844 -0.0067961332 0.013817329 -0.0065488196 0.014166573
-0.00022424936 0.009347423 -0.0059520593 -0.009752277 -0.003274148 -0.009265312 0.009797578 0.011294317
0.009777669 0.004820652 -0.006282248 0.010313624 -0.005536055 0.0111320475 -0.010733611 -0.004398674
0.0038266515 0.00892899 -0.0016740983 0.011293113 -0.009535877 0.010255735 0.009219925 -0.011332471
-0.0121588195 -0.007060837 -0.009400374 -0.011112203 0.009873005 0.01270343 -0.005760879 0.013232932
0.01019634 -0.009784793 0.013366267 0.009190041 -0.0031534564 0.005798685 0.012909581 0.011238878
0.010359078 0.01170703 -0.009802729 -0.0072498084 -0.0103086345 -0.0073727425 0.005019324 0.011689281
0.013038181 0.009256998 0.0073468788 0.005963114 0.00931496 -0.0043062433 0.012853001 -0.005492116
-0.0021800536 0.010584276 0.010406374 -0.0006099616 -0.005665015 0.011540952 0.0068072723 -0.009147956

layers.0.weight f4 [128, 128]
00000000: 3c6b 073e 5376 25be 5b2f c0bd 6c52 67bd
00000010: 44ce ccbc 0e32 16be 6e3b ea3d 89ac e1bd
00000020: a99a 66bd 6e5e 03be 0db1 ca3c c702 063d
00000030: 9033 49bd bd40 ae3d 5fb1 86bb 9297 f43d
00000040: 0719 7d3d bbb4 0cbe 2ab8 aabc ef09 42bd
00000050: 130f cebb dc1c 02be 394a a93d 0136 0dbe
00000060: c13b 023e 5255 50bd 3a7f 0c3e b45c 18be
00000070: 6df0 c43d 245a 663d b9b3 193d 4ae4 933c
00000080: ca36 17bd 4e51 59bd 3614 03bd 721e 083e
00000090: f52f 10bd 2e25 cdbc 6d9e ff3c 721f c63c
000000a0: 3c33 0a3e 4cff 813d ab46 5cbd a1bf 703d
000000b0: 3cfb 95bc a4e8 163e a4c2 17be ae74 033e
000000c0: 1884 8b3d fc3a be3d d827 263d 1f97 a6bd
000000d0: ef70 843d 7b28 cbbd b16d c73d 4a9c 9e3d
000000e0: c982 993c 9cc0 20bd 0d6b 4cbd 4f39 08bd
000000f0: a73d 263d 0d46 1e3e 53cc 96bc 48e1 0a3e
00000100: c15e 56bc a95a 003e f3f8 14bb da82 223e
00000110: 4157 a6bd d87f f53d 2ea4 b4bd 6773 c43d
00000120: 7ebb de3d 5e03 443d 2d3f a63d d6af e83c
00000130: 01e9 fbbd af9c 0cbc f5c1 07be dec5 153e
00000140: b7c3 d7bd a2a8 d8bc f3dd fabd 16a6 87bd
00000150: a343 223d 91cd 253e bd34 78bc b2db adbd
00000160: 8b91 d13c 4792 88bd 465c bd3d 9ae4 3fbd
00000170: 76dc 1ebe 40ce 083e c114 17be 2ac1 103e
00000180: cc51 afbd 61fe fdbc 1b2c 1abe f418 393d
00000190: 4585 cdbd 6547 2abd 9f44 ebbc e886 d3bb
000001a0: 2619 7bbd 0f26 a43c 5737 483d c8e9 f7bd
000001b0: 51ac a73d 8430 913d d725 103e 258e 95bd
000001c0: f668 9fbd f279 023e 27f9 fcbd 5a6b a43d
000001d0: 471e 0abd 40f4 e73d 7bfd acbd b62c 13be
000001e0: 172f e03d c862 c83d fdf1 fa3c c633 49bd
000001f0: 3df8 ab3c 0d97 a0bd 3305 1a3d 97fb 1bbe
00000200: e4a3 133d 8b8b 633d 7dc9 dfbc 3945 70bd
00000210: d347 3cbd 9891 873d d56b 6d3d b6d5 963d
00000220: b7de d7bd 2b5a 133e 525f 06be c06b 70ba
00000230: 3f42 8abd 8f1e ad3d c3cf 693d 2ae9 9ebd
00000240: 8658 963d 3e7e d63b 0329 bd3d c7c9 a13c
00000250: c44e 3a3d e6a4 d7bc cae8 36bd c6f4 023e
00000260: 1be5 113e b7d9 123e b82e aa3d f254 e53d
00000270: d511 e1bc dca7 c8bd 4640 a23b fcee f23d
00000280: b82e a3bd c4bc 123e 1521 1d3c eadc b83d
00000290: 25c6 013e 6997 893d 84f2 093e 378a 3aba
000002a0: 2b8f 58bd f369 a1bb f148 f63d 802f 91bd
000002b0: fbb6 eb3d c1ca b33d 5f73 0f3e b3ca a13d
000002c0: 76c8 e53d 1c51 05bc 5302 473d d383 d83d
000002d0: 3464 76bd 8193 083e e6a5 0abe 36a3 ed3c
000002e0: 6153 1b3e dae0 bcbd 3423 b33c 24b1 e23d
000002f0: 990a c43d 35dc d8bd 0e04 833d 0630 a8bd
00000300: d627 f43d 5a5c 0bbe fcc8 79bc c7e1 96bd
00000310: ef48 babb ef14 083e 887b 00be c86d f7bd
00000320: 2c42 e3bd 113e f83d 6bec bf3d 9e15 0b3e
00000330: 6c85 f8bd 616a f2bc a30e cebc db51 02be
00000340: 52ae 0dbe bfce 19bd 0ca3 59bd 7617 223e
00000350: 06cc bd3d 016b a3bd bf1f 18be 0848 043e
00000360: 1dbc c23d ca2e 113e 2bf6 c1bd a7a7 0fbe
00000370: 0ba2 023e a902 3f3c 08c4 753d 7b0d b3bc
00000380: 0eeb 5fbd b6d9 183e be8f db3a bb85 1ebd
00000390: 9182 213d 307d ec3c d3b5 8fbd b686 823d
000003a0: a637 14bd b30e 9e3d 2ce1 ff3d c5b7 94bc
000003b0: 2d0f 06bd 30ff 0bbe 5786 87bc 3015 efbd
000003c0: d34b ccbd 67ad 1c3c 693f 0c3d 1a25 d1bc
000003d0: cc51 fa3d 0f4f d7bd f871 d03d d538 cf3d
000003e0: 41c0 19be 4fe2 323c 4436 fc3d 27c7 143e
000003f0: 82a8 c13d 5b9c 553d 916c af3d e56b 533d
0.132245 -0.16158418 -0.09384032 -0.056475088 -0.025000699 -0.14667532 0.114371166 -0.110192366
-0.05629984 -0.12828991 0.024742628 0.032717492 -0.04912144 0.085084416 -0.0041104998 0.11942972
0.061791446 -0.13740818 -0.02083977 -0.047372755 -0.006288418 -0.12706321 0.0826611 -0.13790132
0.12718107 -0.050862618 0.13720408 -0.14879113 0.0961617 0.05623831 0.037524913 0.018053193
-0.036917485 -0.053056054 -0.032001697 0.13292864 -0.035201985 -0.025042143 0.031203473 0.024184916
0.13496107 0.06347522 -0.05377833 0.0587765 -0.018308274 0.14737183 -0.14820343 0.12837479
0.06812304 0.09288594 0.04056534 -0.08134293 0.06466853 -0.099198304 0.09737719 0.077446535
0.018739121 -0.039246187 -0.04990678 -0.03325778 0.04058614 0.1545641 -0.018407976 0.135625
-0.0130841145 0.12534584 -0.0022731393 0.15870228 -0.08122111 0.11987275 -0.08820377 0.09592324
0.10875605 0.047854774 0.081175186 0.028404158 -0.12300301 -0.008582278 -0.13257582 0.14626262
-0.105353765 -0.026447598 -0.12249365 -0.06623475 0.039615285 0.16191699 -0.015149293 -0.08489169
0.025582096 -0.06668525 0.092461154 -0.04684887 -0.15513787 0.13359928 -0.1475401 0.14136186
-0.085605234 -0.031005086 -0.15055887 0.045189813 -0.10035185 -0.041571993 -0.028719245 -0.006455291
-0.06130328 0.020037679 0.0488809 -0.12105137 0.081871636 0.07089332 0.14076935 -0.073025025
-0.077836916 0.12741831 -0.123522095 0.08028288 -0.03372028 0.11325884 -0.08446785 -0.14372525
0.10946482 0.09784466 0.030632967 -0.04912164 0.020992393 -0.07841311 0.037602615 -0.15232693
0.03604497 0.055553 -0.027317757 -0.058659766 -0.045966934 0.06619567 0.057964165 0.07364981
-0.10540526 0.14389865 -0.131223 -0.00091713294 -0.06750917 0.08453094 0.057082903 -0.07759316
0.07341103 0.006545811 0.09236338 0.019749535 0.045485273 -0.026323747 -0.0446556 0.12788686
0.14247553 0.14340864 0.08309692 0.11197843 -0.027474323 -0.09797642 0.0049515096 0.11861989
-0.07967895 0.14329821 0.009590407 0.09026511 0.12673242 0.06718332 0.13471419 -0.00071159325
-0.05287091 -0.00492596 0.12025631 -0.07089138 0.1150951 0.087789066 0.14008854 0.0789999
0.112198755 -0.008137014 0.0485862 0.105720185 -0.060154155 0.13337518 -0.13539848 0.02900849
0.15168525 -0.092225745 0.021867372 0.11068943 0.09572334 -0.10588876 0.06397258 -0.08212285
0.119216606 -0.13609448 -0.015245672 -0.07367282 -0.005684964 0.13289236 -0.12547123 -0.12081486
-0.11096606 0.12121213 0.09371265 0.13582465 -0.12134823 -0.029591741 -0.025153464 -0.12726538
-0.13836029 -0.037550684 -0.05313401 0.15829262 0.0926743 -0.07979394 -0.1485586 0.12918103
0.09508536 0.14178005 -0.09470781 -0.14028798 0.12757127 0.011658349 0.060001403 -0.021857014
-0.054667525 0.149268 0.0016751213 -0.038701754 0.03943116 0.028868288 -0.07017102 0.0637335
-0.036185883 0.077176474 0.1249412 -0.018154034 -0.032729317 -0.13671565 -0.01654355 -0.11673963
-0.099754 0.009562827 0.03424016 -0.025530387 0.12222633 -0.10513126 0.10177988 0.10118262
-0.15014745 0.010918214 0.12315038 0.14529096 0.094559684 0.052151065 0.08565629 0.051616568

layers.0.bias f4 [128]
00000000: 074e 0f3c 7634 523c e518 0bbc c071 193c
00000010: c434 113c 3421 0f3c 5349 19bc e11d 193c
00000020: f4c0 01bc 99f4 0fbc 19eb 1f3c 0b9a 18bc
00000030: 5017 193c c979 103c df28 19bc a5c4 11bc
00000040: 9df7 173c 176a 123c f2c2 103c 35c1 12bc
00000050: 3cc7 19bc 1e74 173c 9f67 18bc c36d 18bc
00000060: d4dd 16bc 9ab6 18bc 1bb0 18bc a0c5 1d3c
00000070: 1858 18bc 4ba5 173c b3f5 133c fbb5 1a3c
00000080: 766f 29bc be1f 18bc 164b 1a3c 1a6c 003c
00000090: a568 16bc 65c4 2d3c f388 323c 7cd7 123c
000000a0: bba4 133c c5ff 103c be05 1a3c 0f56 18bc
000000b0: 7c54 fc3b d5ae 21bc 50dd fe3b 882e 1abc
000000c0: fc33 183c cc8a 273c 8631 18bc 8c9e 063c
000000d0: b495 1dbc d38c ddbb a0ad 183c 47ab 1b3c
000000e0: e4ae 17bc 3992 1a3c fb69 193c e9e7 1bbc
000000f0: 232a 19bc 0c02 16bc 0fa4 0dbc 92ee 10bc
00000100: 15c6 1c3c e643 26bc 13c5 113c 8004 14bc
00000110: 0c11 19bc 38af 193c 9e12 0f3c 7f73 113c
00000120: 8381 1bbc 68df 10bc 904f 213c 7900 113c
00000130: 945f 113c f13e 163c 50a5 293c 11ef 18bc
00000140: b2e3 12bc f2d6 15bc 191b 19bc 47fb 26bc
00000150: 9eca 083c 25ce 18bc a6ce 103c 1d82 193c
00000160: 5c37 0abc 9098 1cbc d75d d93b e8dc 183c
00000170: 2038 113c 8b17 19bc 056f 163c 7a37 18bc
00000180: fd2d 103c a45f 18bc a97f 053c 71a2 10bc
00000190: b7b7 193c a543 123c 6760 14bc daa1 34bc
000001a0: fb55 0a3c f885 35bc d4a3 1ebc a47b fa3b
000001b0: 07ec 183c 93d4 103c 7592 193c 469d 40bc
000001c0: a00c 263c 157d 20bc c494 18bc 59e4 1bbc
000001d0: f067 1b3c 140c 1b3c c07a 2abc d4c9 14bc
000001e0: 7392 0e3c 8a2c 21bc 5837 1f3c 59ce 12bc
000001f0: ff76 233c 249e 0f3c 6a0e 0cbc 0521 1c3c
0.0087466305 0.0128298905 -0.008489822 0.009365499 0.008862678 0.008735944 -0.009355861 0.009345503
-0.007919539 -0.008786344 0.0097606415 -0.00931407 0.009343937 0.008818098 -0.009348123 -0.008896981
0.009275344 0.008936427 0.008835541 -0.008957197 -0.00938588 0.009243993 -0.009302049 -0.009303513
-0.009208161 -0.009320879 -0.009319331 0.009629637 -0.009298347 0.0092557175 0.009030747 0.009442802
-0.010341516 -0.009284912 0.009417316 0.007838273 -0.009180223 0.010605906 0.010896909 0.008962508
0.009011443 0.008850043 0.009400783 -0.009297862 0.007700501 -0.009868343 0.0077778473 -0.009410508
0.009289738 0.010225963 -0.009289151 0.008216511 -0.009618212 -0.0067611723 0.009318739 0.009501285
-0.009258006 0.009434276 0.009363647 -0.009515741 -0.009348425 -0.009155761 -0.008645072 -0.008845942
0.009568711 -0.010148024 0.008897084 -0.009034276 -0.009342443 0.009380154 0.008732466 0.008877634
-0.009491327 -0.008842327 0.009845629 0.00885021 0.008872885 0.00917028 0.010354355 -0.009334342
-0.00896542 -0.009145485 -0.0093448395 -0.010191745 0.008349089 -0.009326492 0.008838331 0.0093694
-0.00843605 -0.009557858 0.006633501 0.009330012 0.008863479 -0.009343992 0.009181743 -0.00929057
0.008800027 -0.009300146 0.008148112 -0.008827792 0.00938218 0.0089272605 -0.009056187 -0.011024917
0.008443351 -0.011079304 -0.009682614 0.0076441336 0.009333617 0.008839744 0.009373297 -0.011756247
0.010134846 -0.009795447 -0.009312812 -0.009514892 0.00948523 0.009463329 -0.010405242 -0.009081323
0.008701908 -0.009837279 0.009717785 -0.00896033 0.009977101 0.008765731 -0.008548358 0.009529357

predict.weight f4 [1, 128]
00000000: 425c 0f3d beca 2d3c d70d 7ebc 09e8 7f3d
00000010: 448b 333d f584 de3c 5286 a4bd 8e61 833d
00000020: ad48 e2bb 03ec 25bd c0d3 113d 4cd6 bbbd
00000030: 6ae0 863d fb60 2e3d 4518 aebd 75ac 80bd
00000040: 1cf8 c43d bc50 8b3d 1d4b 403d b5b9 a4bd
00000050: 65ac 7dbd 450d bb3d 80b4 a8bd f120 bbbd
00000060: 3d0c 13bd 2885 bbbd d72f bebd 76ae 1d3d
00000070: 5d3c bdbd 03b6 c63d 26ba 673d ef49 603d
00000080: 1621 9bbc ae4a babd 315d 893d 00e9 db3b
00000090: a392 43bd 1a96 953c b1a5 023c 8214 7b3d
000000a0: 0899 883d 9431 383d d5a0 893d 1d7a b0bd
000000b0: 240a b53b eb42 08bd b3c2 cd3b 3fe4 84bd
000000c0: 255e a53d 1639 a23c b37c a4bd 6307 243c
000000d0: b0da 27bd 4d3b c4ba 3cc0 af3d d057 483d
000000e0: f099 c5bd d1d7 7f3d 162e 5f3d e1f6 20bd
000000f0: 0656 aabd b7ed a8bd dba3 10bd b743 0fbd
00000100: 24db 2a3d ea47 bdbc f586 a13d ad7a 68bd
00000110: 1213 8fbd a4d2 9c3d 2df2 3e3d a118 6a3d
00000120: 2129 4dbd 4d37 4bbd fcfd 0a3d eaf2 6a3d
00000130: 5870 523d 00d5 823d f585 d33c 99a3 8abd
00000140: f896 92bd cec3 1cbd 67a2 93bd 46c6 e6bc
00000150: 2522 3f3c b943 abbd 0dad 6d3d d26d 723d
00000160: 3ae7 88bc 6ec3 1bbd a02e 893a 3450 803d
00000170: b4ce 063d 58bf adbd 243d a53d 1eee 96bd
00000180: 22d6 483d 1b68 c4bd 92f6 7d3c 2964 3fbd
00000190: 7be6 913d b222 9e3d c48f aebd 1b17 74bc
000001a0: 72ab 723c 328f 82bc 6026 28bd a7bf aa3b
000001b0: 251e 943d 2151 263d de60 4b3d dda1 35bc
000001c0: d29f c73c 6bb7 17bd 82ff c1bd f9d5 51bd
000001d0: 0996 513d ba8a 523d 9600 d3bc a6f8 a2bd
000001e0: caa2 053d f938 d5bc 1640 1c3d c16a 05bd
000001f0: 0a13 ca3b 832a 113d ea87 79bc 6df3 433d
0.035000093 0.01060742 -0.015506229 0.062477145 0.043833986 0.027163008 -0.08033432 0.064150915
-0.0069056363 -0.04050828 0.03560233 -0.09171733 0.06585772 0.042572957 -0.08500723 -0.062828936
0.096176356 0.06802508 0.046946634 -0.08043233 -0.061931986 0.0913339 -0.08237553 -0.091371424
-0.035900343 -0.09156257 -0.092864685 0.038496457 -0.09240029 0.09702685 0.05657401 0.05475801
-0.018936675 -0.09096275 0.06707228 0.0067111254 -0.047747266 0.01826005 0.007974074 0.061298855
0.066698134 0.044969156 0.067201294 -0.08617041 0.0055248905 -0.033266943 0.0062793135 -0.06488847
0.08074597 0.019802611 -0.08031597 0.010011527 -0.04098004 -0.0014971286 0.08581588 0.04891187
-0.09648502 0.062461678 0.05448731 -0.039297942 -0.08317189 -0.082484655 -0.035312515 -0.034976687
0.041712895 -0.02310558 0.07887069 -0.056757618 -0.06986059 0.07657364 0.046617676 0.057152394
-0.05008805 -0.049613286 0.033933625 0.057360567 0.05137667 0.06388283 0.025820712 -0.06769485
-0.07157701 -0.03827267 -0.0720871 -0.028170716 0.011665856 -0.083625264 0.058026362 0.059186764
-0.01671182 -0.038028173 0.0010466166 0.062652975 0.03291197 -0.084837615 0.08068302 -0.07369636
0.049032338 -0.09590169 0.0155006815 -0.04672638 0.07124039 0.07721461 -0.08523515 -0.014898087
0.014811384 -0.015937421 -0.041052222 0.005210835 0.07232312 0.040604714 0.049652927 -0.0110859545
0.0243682 -0.037040155 -0.094725624 -0.05122945 0.051168475 0.05140183 -0.025757115 -0.07957582
0.03262595 -0.026028143 0.038147055 -0.03257251 0.0061668204 0.035440933 -0.015230158 0.04783957
