PERGAT_embbedding/data/emb/models/model_dim128_lay2_epo28.pth (torch, 137088 bytes, 7 tensors)

linear.weight f4 [128, 1]
000000 ce d6 31 3f f8 a5 9b 3e 64 ba 7f bf c0 4e 0e 3e
       0.6946839 0.30400062 -0.99893785 0.13897228
000010 70 9f b0 3e 70 32 a8 be e0 1b 41 bf d4 f5 cc be
       0.3449664 -0.3285098 -0.7543316 -0.40031302
000020 b6 3e 7f bf a0 25 38 bf 92 2c 28 bf 80 fe fb 3e
       -0.99705064 -0.7193241 -0.6569301 0.49217606
000030 4a f7 22 bf 50 a4 8b 3e 64 9a 5a bf 30 80 bc be
       -0.63658583 0.27273798 -0.8539183 -0.3681655
000040 68 e6 b0 be 94 e3 36 bf 1c 5b 71 3f 00 56 cd 3e
       -0.34550786 -0.71441007 0.94279647 0.40104675
000050 60 00 65 be 20 96 c2 3d e0 6c 4a 3f b2 e6 01 3f
       -0.22363424 0.0950129 0.7907238 0.5074264
000060 f0 f5 43 be b4 f1 04 3f 32 5e 1a 3f 24 dc 41 bf
       -0.19136786 0.5193131 0.6029998 -0.7572653
000070 64 fb 9d 3e 32 50 3f 3f 00 10 79 3b 78 4f 3d 3e
       0.30855858 0.74731743 0.0038003922 0.18487346
000080 f8 de f9 3e 30 88 fc bd c4 63 9c 3e 70 4d 66 3f
       0.48802924 -0.12330663 0.30544865 0.8996191
000090 70 dc 45 3e 00 80 45 ba 60 93 7b 3e e6 cc 21 bf
       0.19322371 -0.0007534027 0.24567938 -0.63203275
0000a0 e0 4b d5 3d 68 18 7a 3e 38 13 f2 3e 4c b0 1f bf
       0.10414863 0.24423373 0.47280288 -0.6237838
0000b0 c0 7a 10 3d 30 fd 4f bf 72 6c 61 3f e0 4f 15 3d
       0.035273314 -0.8124571 0.880561 0.036453128
0000c0 ac 84 bc be 68 5a 27 bf 40 79 f5 bc 68 4b 9e 3e
       -0.3681997 -0.65372324 -0.029965043 0.30916905
0000d0 86 54 0f bf 58 ba df 3e 40 9b 44 3e 7a c5 53 3f
       -0.5598835 0.43696856 0.19199848 0.827232
0000e0 90 0c 5e be 80 fc 79 bf 2a 53 73 bf 1a 0c 0d 3f
       -0.2168448 -0.9765091 -0.95048773 0.5509659
0000f0 00 4a 61 bd 92 64 06 bf a0 05 51 3d 74 eb 41 bf
       -0.055002213 -0.5249721 0.051030755 -0.757499
000100 ec a9 70 bf 2a fa 57 3f b8 74 5a 3f f4 86 1a 3f
       -0.9400928 0.84366095 0.8533435 0.6036217
000110 88 53 a9 be f8 6f 6a bf 96 76 77 bf bc e5 da be
       -0.33071542 -0.915771 -0.9666532 -0.42753398
000120 ca a5 38 bf d0 84 cf 3d 32 af 7b bf 4e 68 5f 3f
       -0.72127974 0.10132754 -0.983142 0.8726853
000130 ec 2c 6f bf d0 18 d1 3e 62 59 17 bf 92 ea 5b bf
       -0.9342792 0.40839243 -0.5912076 -0.859048
000140 00 3e bf 3e 3e 61 1a 3f 80 6f 7c bf 12 02 75 3f
       0.3735199 0.6030463 -0.98607635 0.95706284
000150 94 01 e0 3e 30 47 20 bf 22 e6 59 bf c0 d1 78 3d
       0.43751204 -0.62608624 -0.8511678 0.06074691
000160 cc 1a a9 3e 70 77 4e bf 78 22 17 bf d6 f0 36 3f
       0.33028257 -0.80651 -0.5903697 0.71461236
000170 dc a4 ab be f8 c6 69 bf c4 aa e8 be f0 cf bd be
       -0.33524215 -0.9131923 -0.45442784 -0.37072706
000180 94 5c f2 be e0 29 d8 3d 84 74 de 3e d4 c6 ec 3e
       -0.47336257 0.10554862 0.4344827 0.46245444
000190 70 a0 df 3e d6 09 30 bf f0 36 01 bf 60 46 1f 3d
       0.43677092 -0.6876501 -0.5047445 0.038885474
0001a0 d0 c8 06 3e 8a f4 5c 3f c0 d5 8a 3c 70 96 e2 be
       0.13162541 0.86310637 0.016947627 -0.442554
0001b0 40 b2 c2 be c4 d0 22 bf 58 c0 50 bf a0 fc 63 3d
       -0.3802662 -0.635998 -0.81543493 0.055660844
0001c0 74 ce 6a bf aa fe 1d bf b8 a3 f6 be c4 0d 55 bf
       -0.9172127 -0.6171671 -0.48171782 -0.8322413
0001d0 54 41 0a 3f c0 42 43 3d 78 2a 8e 3e 2e bb 7f 3f
       0.5400593 0.04767108 0.27766776 0.9989499
0001e0 ce d6 3d bf 2e a2 56 bf ae ac 60 bf dc 85 47 bf
       -0.7415589 -0.83841217 -0.8776349 -0.7793863
0001f0 44 f6 1f 3f fc b3 5a 3f 0c 44 51 3f 60 b4 60 3f
       0.62485147 0.85430884 0.81744456 0.8777523

linear.bias f4 [128]
000000 29 3f 22 bf fd 52 6a 3e a2 06 33 3e 4c b4 5e 3f
       -0.63377625 0.2288322 0.17482999 0.8699386
000010 a3 87 ed 3e 26 05 37 3f 58 99 57 be 90 70 4a bf
       0.46392545 0.7149223 -0.2105459 -0.79078007
000020 af d8 39 3f 15 4b 08 bf 09 24 55 3f ba fc 7a 3f
       0.7259626 -0.53239566 0.8325811 0.9804188
000030 12 80 19 bf 51 ec 30 3f a5 b8 39 bf 02 4e 69 bf
       -0.59961045 0.6911059 -0.7254737 -0.91134655
000040 b5 49 00 bf 39 e6 28 3e de f7 2d bf 79 ce 85 bc
       -0.5011247 0.16494073 -0.6795634 -0.016333805
000050 2d c6 15 be e4 0c 04 be f2 d4 29 bf c3 93 b8 bd
       -0.1462638 -0.12895542 -0.66340554 -0.09012558
000060 41 78 16 3f 81 9b dd be b4 ce 7b 3f df 42 75 bf
       0.5877724 -0.43282703 0.9836228 -0.9580516
000070 c0 fa 0f 3e a4 de 40 3f 76 3b f5 3e b5 38 67 bf
       0.14060497 0.7533972 0.47896928 -0.90320903
000080 af 91 7f bf 32 9b 93 3e 59 e8 57 bd 8b 5f 75 3e
       -0.9983167 0.28829342 -0.05271182 0.23962228
000090 1e 22 28 3f c9 88 ee be 95 94 ae 3e a0 2f c9 3e
       0.6567706 -0.46588734 0.34097734 0.39294147
0000a0 9c 8a a2 3e 48 6d 9a bd 9c a8 43 be cd 8e 0e 3f
       0.31746376 -0.07540375 -0.19107288 0.55686647
0000b0 23 c5 be 3e d9 23 7f be 2c 2a 89 3e 68 c7 45 3e
       0.37259778 -0.24916019 0.26789987 0.19314349
0000c0 7a 47 14 bf 19 7a 98 be d8 a7 d7 bd e1 68 03 bd
       -0.57921565 -0.29780653 -0.105300605 -0.032082442
0000d0 f8 a4 55 bd 8a 09 cc 3e 7e bc a4 3d a5 9f 7e 3e
       -0.05215928 0.39851028 0.080437645 0.24865587
0000e0 42 3c 3d bf 2c 9a a7 be 6d 5c ce be 11 60 46 3f
       -0.7392007 -0.3273481 -0.4030489 0.77490336
0000f0 bf f6 f7 be f7 be 30 3f f3 4a df be d1 99 48 3f
       -0.4843044 0.6904139 -0.4361187 0.78359705
000100 85 98 71 3f 42 67 9f bc d5 b0 18 bf d5 cd 62 3f
       0.9437335 -0.019458417 -0.59644824 0.88595325
000110 6b 8f 56 be aa a4 99 3e 3e ff 25 3f 8a 65 19 3f
       -0.20953147 0.3000844 0.64842594 0.5992056
000120 5b 44 9c be 7a 74 08 bf fa 14 9f be 78 4f 24 3f
       -0.305209 -0.5330273 -0.3107069 0.6418376
000130 84 59 d8 bd 6c b1 f3 be 8c 11 9e be 5e 3c 66 3e
       -0.10563949 -0.475963 -0.30872762 0.22483966
000140 74 36 40 3f a3 45 58 bf 33 55 36 bf 43 96 93 3e
       0.7508309 -0.8448126 -0.71223754 0.28825578
000150 f3 9d 69 3b 27 84 39 bd 9c f8 f6 3c 07 3c 69 bf
       0.0035647124 -0.045292046 0.030147843 -0.9110722
000160 8d 22 26 3f 8d 14 53 3c 66 06 c7 be 70 07 36 be
       0.6489647 0.012883318 -0.3887207 -0.17776275
000170 ea 4f 86 be 27 f5 09 be c1 17 5e bf a9 b1 cf be
       -0.26232845 -0.13472424 -0.86754996 -0.4056523
000180 d1 6a 57 bf 88 16 4f bf 8f f6 a5 bc ae 4b 4a be
       -0.84147364 -0.80893755 -0.02025917 -0.19755432
000190 78 fe df 3e fa 83 e7 be 25 af 20 3f 5f 7b 63 3f
       0.43748832 -0.45217878 0.6276725 0.88860124
0001a0 65 f6 6e bf f9 3d 6b 3f 9c 41 03 bf a0 db d0 be
       -0.9334472 0.9189144 -0.51271987 -0.4079256
0001b0 e5 31 c5 be 14 51 56 bf 56 8b a4 3e e7 7c b3 3e
       -0.3851463 -0.83717465 0.32137555 0.3505623
0001c0 70 00 11 be e6 fc f0 3e d3 87 4f bf cf c9 14 bf
       -0.14160323 0.47067946 -0.81066626 -0.58120435
0001d0 1b d5 5f bf e9 db d0 3d a2 47 47 3e c9 e7 d6 be
       -0.8743455 0.101981945 0.1946092 -0.41973713
0001e0 85 ca 8c 3e 8a 89 f7 3c a3 37 cd be 9e 2c 80 bf
       0.2749826 0.03021695 -0.4008151 -1.0013616
0001f0 a1 bd 6e 3f 9c a1 34 bf b5 7c f7 be ae 6a 1a bf
       0.932581 -0.70559096 -0.4833733 -0.6031903

conv_0.weight f4 [128, 128]
000000 a4 a7 6f 3c 43 6d d0 bd 5c 6b 20 3d 9f c4 da 3d
       0.014627371 -0.1017709 0.039164886 0.10682034
000010 0b dd c9 bd 4a 01 63 bd 78 94 41 bc 87 bd b1 3d
       -0.09856614 -0.05542115 -0.011815183 0.086787276
000020 06 25 5b bd df 0f 10 be c2 2a 12 3c 76 c1 02 be
       -0.053502105 -0.14068554 0.008921327 -0.12769112
000030 2c a7 89 3d 39 b5 0b 3d fa 99 b9 3d 7c 89 05 be
       0.06721339 0.034108374 0.09062572 -0.13040727
000040 de ae e8 3d 52 39 72 3d db 4c a8 bd f4 c9 11 3c
       0.11361478 0.059136696 -0.08217784 0.008898247
000050 3d 3d 04 3e 06 76 04 bd 2f 4c ea bd 93 f0 19 3e
       0.12913986 -0.03233912 -0.11440312 0.15033178
000060 66 46 43 3d fd 6a 0f bb c9 4b e9 3d e4 db 16 bd
       0.04767456 -0.0021883838 0.11391408 -0.036830798
000070 db 25 d1 3d a2 62 33 bd be eb b2 3b df 77 5e 3d
       0.102122985 -0.043795235 0.0054602316 0.054313537
000080 63 ef 17 3e a3 0c 0c 3c c8 9b 2a 3c ee ab e9 bd
       0.14837413 0.008547935 0.010413118 -0.11409746
000090 5d 82 10 3d 3e d7 15 3c 9e cb b5 3d 75 85 a5 3c
       0.035280574 0.009145556 0.088767275 0.020205239
0000a0 b0 cf 01 be 14 66 89 bd ee 96 fe 3d 48 1c 9e bd
       -0.12676883 -0.06708923 0.12431131 -0.07720238
0000b0 74 74 da bd 64 2a 47 bd 8d 52 a1 bd 0a c5 9a bd
       -0.10666743 -0.04862441 -0.078770734 -0.075571135
0000c0 e4 a4 10 be 1c f4 c6 bd 8e 29 70 bd 3d 6c 0c 3e
       -0.14125401 -0.09714529 -0.05863338 0.13713165
0000d0 78 78 07 be d0 51 01 bd 4a 02 e6 3b 87 d9 f0 bd
       -0.13229549 -0.031572163 0.007019316 -0.1176024
0000e0 07 d5 1e 3e ec 5f 14 3d b0 7d d8 bd 1f e2 e8 3b
       0.15510951 0.03622429 -0.10570848 0.007107034
0000f0 be c0 d5 3d 8f b9 f1 bd 71 97 ef 3d 20 15 75 3d
       0.10437153 -0.118029706 0.11698807 0.0598346
000100 08 60 90 bd 17 13 05 3e a2 67 a2 bd 04 b3 90 3d
       -0.070495665 0.12995563 -0.07929923 0.070653945
000110 3e 6b 90 3d ec 43 0c 3c ec f4 71 bc 68 43 16 be
       0.07051705 0.008561116 -0.014767867 -0.14674151
000120 be 32 ec 3d c9 1d e7 bd 3b bb c6 3d 8f c9 f7 3d
       0.11533116 -0.11284978 0.0970368 0.12098991
000130 56 13 36 3d 6d c0 c5 bd ab 4b a4 3d d2 12 19 3e
       0.044452034 -0.09655843 0.08022245 0.14948586
000140 f0 90 ed 3d e3 c0 cc bc 84 24 00 bd c7 0b f2 bd
       0.1159991 -0.02499432 -0.031284824 -0.118186526
000150 5d 9c 04 3d aa d7 75 3d ee f7 8d bb 02 aa 05 be
       0.032375682 0.060020126 -0.004332534 -0.13053134
000160 b7 2b 23 bb 25 8d 18 3e 37 c2 bb bd 3e dd 05 3d
       -0.0024897882 0.14897592 -0.09167903 0.032681696
000170 70 3b 85 3d 76 46 31 3d c0 de 14 be 36 bf 21 bd
       0.065054774 0.043280087 -0.14538097 -0.039488994
000180 93 07 3e bd c8 ad 06 be 03 d9 96 bd 9b ad c5 3d
       -0.046393942 -0.1315223 -0.073656105 0.09652253
000190 95 e3 e9 3d a1 67 08 3d 6a 05 09 be 40 79 01 be
       0.11420361 0.033301953 -0.13380972 -0.1264391
0001a0 80 9b e5 3d 87 cc ba 3d 1b 8f 04 be 44 2c ae bd
       0.112113 0.09121042 -0.12945215 -0.08504537
0001b0 70 00 14 3e 57 23 4c 3d fc 7e e1 bc 59 9e 48 3d
       0.14453292 0.04983839 -0.027526371 0.048979137
0001c0 23 6d 9c bc 75 1c 82 bd b6 5a 9c bd 3a e8 8a bc
       -0.01909501 -0.06353084 -0.07634489 -0.016956437
0001d0 c6 54 e6 bd 7a 94 dc 3d d5 91 be bd 56 c5 a2 bd
       -0.11246638 0.10770507 -0.09305159 -0.07947795
0001e0 6f ee 2d bd 9b 67 1f 3d aa 44 fc bd 51 8e ee bd
       -0.042463716 0.038917165 -0.12317784 -0.116482385
0001f0 11 11 ec 3d e3 29 40 3d cc cd 02 3d 71 0a 11 3d
       0.11526693 0.046914946 0.031934544 0.03541035
000200 dd 45 11 3d 26 98 0b be c6 1d 80 3d 56 7f fa 3c
       0.035467017 -0.13632259 0.06255679 0.030578297
000210 af 2e 35 bd 07 66 97 bc 4d c8 8f 3d 3c 3e 5e bd
       -0.044233974 -0.018481268 0.07020626 -0.05425857
000220 d4 f0 dd 3d 9a da 0d 3e 6c 96 09 3b 8d d9 dc 3d
       0.1083695 0.13852921 0.00209942 0.10783682
000230 d1 2f 80 bc ee 2b 6b 3c ee d4 e7 3b db b0 cb bd
       -0.0156478 0.014353735 0.0070749437 -0.09945842
000240 80 13 e2 bd 8f 9e 62 3d fc 0d c4 bd d5 90 8b 3d
       -0.110388756 0.055326995 -0.0957298 0.06814734
000250 bd 58 ae 3c 1d 15 78 bd 4d 2c 9a bd ba 63 f1 3d
       0.021282548 -0.06056701 -0.07527981 0.117865995
000260 f2 69 8e 3d f9 98 01 3e 2d 0f 13 bc 40 0e 2e bd
       0.06953801 0.1265601 -0.008975786 -0.04249406
000270 c0 98 0a 3e 93 76 01 be e4 d1 b1 bd 37 49 09 be
       0.13534832 -0.12642889 -0.086826116 -0.13406835
000280 15 cb 12 be 56 4b 0f 3d 21 14 ec 3c 61 87 05 be
       -0.14335282 0.034983955 0.028818192 -0.13039924
000290 0c 29 17 3e 2b 28 42 3d 40 c5 6d bd e3 d0 8c bb
       0.14761752 0.04740159 -0.05804944 -0.004297362
0002a0 99 62 8c 3d 05 e5 f3 bd 31 28 05 be 75 ac c1 3d
       0.068547435 -0.119089164 -0.13003613 0.09456722
0002b0 0e 62 b1 bd 14 13 92 3d 92 72 b4 bd 42 bc c4 3d
       -0.086612806 0.07132545 -0.08810915 0.0960622
0002c0 69 ab aa 3d be 14 17 be f6 ec e0 3c 3e 10 ab 3c
       0.08333475 -0.14754006 0.027456742 0.020881768
0002d0 48 f2 e4 3d aa f4 aa 3d 7a 65 4e 3d 97 5e 2e 3c
       0.11179024 0.08347447 0.050389744 0.010642669
0002e0 d5 9e c9 3d c5 b0 54 bc 90 3f 6a 3d 67 91 41 bd
       0.09844748 -0.012981598 0.057189524 -0.047257807
0002f0 10 34 f0 3c 44 fb 1a 3e 17 2e 7f 3d dc 03 53 3d
       0.0293217 0.15134913 0.062299814 0.051517352
000300 49 32 4d bd a2 8a 32 3c 2d b8 01 be 70 64 6d 3d
       -0.050096784 0.01089731 -0.12667914 0.057957113
000310 d6 5b 08 be d5 21 7c 3d 9b e4 01 3e 83 e7 06 be
       -0.13316283 0.061555702 0.12684862 -0.13174252
000320 98 89 af 3d 0c 95 e2 bd 3a f1 c8 bd b4 4a 1b 3e
       0.08571166 -0.11063585 -0.09811635 0.15165216
000330 75 f6 2b bd 84 0e 30 3d d8 11 ed 3d 6e 06 ef 3d
       -0.041983087 0.042982593 0.11575669 0.11671148
000340 ba 9f 31 bd 2f 66 b4 bd 7d c9 0d be f0 8f 0b be
       -0.043365218 -0.088085525 -0.13846393 -0.13629127
000350 b8 9e 40 bd 37 2a f0 bd 93 d7 0d be 1d 3e c0 bd
       -0.047026366 -0.11726802 -0.13851766 -0.09386847
000360 b0 ce 13 be 05 e1 c0 bd 0e 35 2f bb fc 6d 15 be
       -0.14434314 -0.09417919 -0.0026734504 -0.14592737
000370 61 11 58 3b f2 27 98 3d 41 68 c0 bd 8b 4c bd 3d
       0.0032969343 0.07429494 -0.09394885 0.09243115
000380 19 f5 35 3d 12 ef 0c bd 4c 8f bd bd b1 fe bf bd
       0.044423196 -0.034407683 -0.09255847 -0.093747504
000390 6c 6b 70 bd 7d d2 43 3d 37 b3 a1 3d 51 72 2d bd
       -0.058696195 0.04780816 0.07895511 -0.04234535
0003a0 64 fc b7 3c 3e 3d c1 3d d5 78 00 be 31 34 56 ba
       0.022459216 0.09435509 -0.12546094 -0.0008171229
0003b0 be 7f a9 bd 11 cd 99 3c 81 db 0c 3e 26 d6 8a bd
       -0.08276318 0.018774541 0.13755609 -0.06779127
0003c0 82 71 b9 3d 99 26 a6 3c 3f dc 15 be ea ca 18 3e
       0.09054853 0.020282077 -0.14634798 0.14921156
0003d0 b6 92 1b be 74 9e 05 3e b5 f0 ae 3d 5d cf 1a bd
       -0.15192685 0.13048726 0.08542005 -0.037795413
0003e0 06 c8 62 bd 43 11 92 bd bc 47 ae bd a4 a9 51 bc
       -0.05536654 -0.07132199 -0.08509776 -0.012796793
0003f0 bf 04 27 3b 5e 22 b2 3c ac dc e7 bc 2e 75 a6 3d
       0.0025485007 0.021744903 -0.028303467 0.08127819

conv_0.bias f4 [128]
000000 e6 ee 1e 3b 43 11 29 bb ca 64 89 ba 30 04 3e 3b
       0.0024251281 -0.0025797642 -0.0010482308 0.0028994195
000010 ed f3 2d 3b b3 e6 2e bb 51 9f 3b bb 3c 25 2f 3b
       0.0026543096 -0.00266878 -0.0028628896 0.0026725074
000020 87 af 35 3b bf 9d 2f 3b 85 2f 39 3b b5 87 5c ba
       0.002772303 0.0026796905 0.0028257084 -0.0008412556
000030 b7 dd 14 3b 6e 52 36 3b 9b f2 2e 3b 13 88 c0 b9
       0.002271516 0.0027820128 0.0026694897 -0.00036722477
000040 e2 b8 33 3b a4 7c 38 bb e2 e8 3f 3b b4 39 36 bb
       0.0027423431 -0.0028150463 0.0029283096 -0.002780539
000050 69 dd 36 bb 5e e0 33 bb f7 d4 23 bb 16 8e 25 bb
       -0.0027902967 -0.0027446966 -0.0024998763 -0.0025261692
000060 a2 a5 de ba 67 69 37 3b d9 80 37 3b 06 57 26 bb
       -0.0016986618 0.0027986409 0.0028000383 -0.002538146
000070 34 3b 35 bb 7f 4b 3b bb d6 9c 27 3b ad b0 39 3b
       -0.0027653696 -0.0028578935 0.002557566 0.0028334067
000080 77 63 b5 ba 49 28 3c bb 40 ee 38 bb c7 9f 34 3b
       -0.0013838847 -0.0028710535 -0.002821818 0.0027561055
000090 dd d1 70 3a 49 2d 37 3b ac a9 2c 3b 62 68 2b bb
       0.00091865455 0.0027950576 0.002634625 -0.0026154746
0000a0 b7 89 2a bb c5 ec 1f 3b 97 21 22 3b 4e 54 33 bb
       -0.0026022026 0.00244026 0.002473926 -0.0027363482
0000b0 8e 0e 2b bb c4 b7 4e 39 1a 82 27 3b ea e9 32 3b
       -0.0026101205 0.00019714149 0.0025559724 0.0027300068
0000c0 86 60 37 bb ec eb 34 bb 96 03 36 3b 4d 47 40 3b
       -0.0027981116 -0.002760644 0.0027773133 0.0029339374
0000d0 71 db 34 3b c4 28 3d bb 89 f2 87 ba 9a a0 3d bb
       0.0027596618 -0.002886341 -0.0010371964 -0.0028934837
0000e0 10 84 40 bb f0 7a 84 ba 7a 67 3e bb 79 c2 34 3b
       -0.002937559 -0.0010107439 -0.0029053376 0.0027581735
0000f0 f4 50 2d 3b 7e 1c 38 3b e4 d7 e6 ba 22 e1 38 bb
       0.0026445957 0.0028093155 -0.0017611948 -0.0028210361
000100 04 66 39 3b 06 1e 38 bb 8c 4e 2e 3b 1d e3 2b 3b
       0.0028289566 -0.0028094067 0.002659711 0.00262279
000110 17 34 3a bb 70 76 2d 3b 91 c0 3b ba b5 a9 33 bb
       -0.0028412396 0.00264683 -0.00071621785 -0.0027414386
000120 47 e6 38 bb 7a 66 32 3b 86 4e 26 3b cd eb 22 3b
       -0.0028213428 0.0027221725 0.0025376393 0.0024859786
000130 1d 9e 14 bb 8e a0 33 3b 3f 54 3c 3b cd 9c 33 3b
       -0.002267725 0.002740893 0.0028736738 0.0027406693
000140 fc cd 3b bb bc a2 6d b9 98 53 35 3b 73 c3 3b 3b
       -0.0028656712 -0.00022662705 0.0027668234 0.0028650432
000150 4a d9 e3 ba bf 5a 42 bb d3 34 35 3b 63 c5 2f 3b
       -0.0017383483 -0.002965614 0.0027649894 0.0026820533
000160 d2 bc e1 b9 d4 13 34 bb 40 33 7c b8 ca 22 f2 ba
       -0.00043056026 -0.0027477639 -6.0129212e-05 -0.0018473503
000170 a2 09 08 bb 49 fc 25 3b 64 70 2b bb 06 4a 36 3b
       -0.0020757695 0.0025327376 -0.002615952 0.0027815118
000180 56 34 28 39 a1 d8 2c bb e5 49 46 3b 1c be 34 bb
       0.00016041225 -0.0026374238 0.0030256447 -0.0027579134
000190 0d 2b 5e ba 82 47 66 ba a7 21 28 bb b3 7b 34 3b
       -0.0008475043 -0.0008784459 -0.0025654824 0.002753955
0001a0 2f ef 3c 3b 44 1f 3a 3b 37 f7 33 3b b2 a5 34 bb
       0.0028829088 0.0028399983 0.0027460584 -0.0027564582
0001b0 e2 35 66 3a a4 83 ed b9 d9 1d 2c 3b 5d 86 33 3b
       0.0008781833 -0.00045302243 0.0026262908 0.002739332
0001c0 ae c5 3c 3b f4 3d 0e bb 5a 33 03 bb 4e a7 2e 3b
       0.002880435 -0.0021704407 -0.0020019622 0.0026650014
0001d0 86 b3 20 bb aa 85 3e 3b 33 69 2f 3b 4e 17 38 3b
       -0.0024521067 0.002907137 0.0026765584 0.0028090063
0001e0 e1 ae 40 3b 5a a2 37 3b 04 25 84 ba 7e 09 38 3b
       0.002940111 0.0028020353 -0.0010081832 0.002808183
0001f0 43 43 3c 3b 17 3f 2e 3b f5 e2 2e 3b 51 03 3b bb
       0.0028726615 0.0026587897 0.002668557 -0.0028535912

layers.0.weight f4 [128, 128]
000000 6b 7a fb bd 2d 68 a5 3d ee 78 b4 3d cb 91 f5 3d
       -0.12279209 0.080765106 0.08812128 0.119906984
000010 5e 9b 02 be 99 eb 39 bd fd da 89 bd 11 38 be 3d
       -0.1275458 -0.0453907 -0.06731222 0.092880376
000020 58 8a 55 3d fd 39 38 3d 77 db f5 3d ae 84 cd 3d
       0.052133888 0.044977177 0.1200475 0.10035072
000030 59 1d b4 bd c1 4d 05 3e bd c3 14 3d 11 52 c1 bd
       -0.0879466 0.13017942 0.036319483 -0.09439481
000040 19 d5 aa 3d ce 6d 07 3e 9c bf 46 3d ce f7 24 bd
       0.083414264 0.13225481 0.048522577 -0.040275387
000050 6a 71 49 3c ba 9f 8d bd 47 73 be bd 6c 62 0d 3e
       0.012295106 -0.06915231 -0.09299331 0.13807076
000060 24 f7 69 3d 1f 05 bf bd f8 53 4f bd 14 bc 09 be
       0.057120457 -0.09327149 -0.05061719 -0.13450652
000070 ac d1 a8 bd 03 b5 b6 bd 18 d9 6e 3d 9d 0c e9 3d
       -0.08243117 -0.08921244 0.058312505 0.11379359
000080 cf ab b0 bb be 50 52 bd 89 9a 5c 3d fe 39 0f be
       -0.005391575 -0.051346533 0.053858314 -0.13986966
000090 15 15 9b bd 94 62 06 be d7 5e 8a 3d bc 7e fb 3d
       -0.075723805 -0.13123542 0.067563705 0.12280032
0000a0 29 64 c3 bd 80 d6 b4 bd 53 71 ae 3d e9 b3 af 3c
       -0.095405884 -0.08829975 0.08517709 0.021448093
0000b0 56 90 e9 3d 0e 53 9c 3d 1a b4 15 be 0b e7 bf 3c
       0.11404483 0.07633029 -0.14619485 0.0234256
0000c0 05 75 1c 3e eb 99 da bd be ec e3 3d 2e 36 70 3d
       0.15279014 -0.10673889 0.11129139 0.05864542
0000d0 bc 35 bb 3d e7 61 00 3e 4f 47 de bd 4d c7 47 bb
       0.091411084 0.12537347 -0.10853445 -0.0030483783
0000e0 89 73 e2 3d d9 52 d7 bd 2f cf a8 bd bb 63 fb bc
       0.11057193 -0.10513849 -0.08242642 -0.030687204
0000f0 e5 1f a2 bd 96 47 b2 3d e9 cf 5d 3c f5 9c a2 3d
       -0.0791624 0.0870506 0.013538339 0.079400934
000100 2b b9 d5 3d d6 f9 dd 3d 74 45 5e bd b9 c6 e5 bd
       0.104357086 0.10838668 -0.054265454 -0.11219544
000110 fd a9 15 be 25 5f 63 bc 87 a8 b6 bb ea 5c e9 bc
       -0.14615627 -0.013877665 -0.0055742892 -0.028486688
000120 29 09 fd 3d f4 f9 93 3d 62 3b c2 3d 88 f7 a9 bd
       0.12355263 0.07225409 0.094839826 -0.08299166
000130 a9 41 03 3d 08 00 11 be bb 07 0d be 1d b3 1e ba
       0.03204504 -0.14160168 -0.1377248 -0.00060539116
000140 25 ab 10 3c 8f c8 e2 bc c0 15 97 3d fd 76 57 3d
       0.008829867 -0.027683524 0.07377195 0.05260371
000150 53 a4 2f bd ae 8b 5a bc 77 1a b9 bd d0 7a a2 3d
       -0.04288132 -0.013338966 -0.09038251 0.07933581
000160 81 38 ef 3d 02 7c 12 3c 16 2a 07 be 1b 6d ff 3d
       0.11680699 0.008940699 -0.13199648 0.12471982
000170 3c a6 df 3d d7 93 65 3c 52 32 94 bd be 95 4e bc
       0.109203786 0.014012299 -0.0723616 -0.0126089435
000180 fd ce 0d 3e 9b 8d b5 3d a1 b4 cd bd f9 02 09 3e
       0.13848491 0.088649 -0.10044218 0.1338004
000190 1c be 67 bd f9 e3 0d 3c 48 fd 1d be e6 70 0b 3d
       -0.056577787 0.00866031 -0.1542865 0.034043215
0001a0 70 2d dd 3c ec 07 bb bc 9e 07 79 bd 31 29 94 bb
       0.026999205 -0.022830926 -0.06079828 -0.004521512
0001b0 a8 b1 d5 bc 84 e4 16 bd 31 b4 f7 bc cc 40 03 3d
       -0.02608569 -0.036839023 -0.03023729 0.032044217
0001c0 ef 13 94 3d cc 59 03 be bb 73 da 3d 1e ee 11 3e
       0.072303645 -0.12827224 0.10666605 0.14250991
0001d0 a6 ca d1 bd ec fb fa 3d 7f 18 fe 3d 1b 1e c0 3d
       -0.1024373 0.122550815 0.12407016 0.09380742
0001e0 d6 0d 27 3d b4 9f bd bd 0b 1a dc 3c 40 a2 0f 3d
       0.04078468 -0.092589766 0.026867887 0.035066843
0001f0 54 61 a6 3d 00 28 ff bd 3d e2 d0 3d e0 91 5c bd
       0.081240326 -0.12458801 0.101994015 -0.053850055
000200 66 35 6f 3d dd 39 fa 3d 0a 86 b1 bd 83 ae 1c bd
       0.058400534 0.12218068 -0.08668144 -0.038252365
000210 82 a3 b4 3c 2e a0 0b be 46 7b 2a bd 24 b8 d8 bd
       0.022050623 -0.13635322 -0.04162147 -0.10581997
000220 d4 0c c6 3d a2 39 14 be 28 bf eb 3d be 42 9c bd
       0.096704155 -0.1447511 0.115110695 -0.076299176
000230 60 9a 51 bd 25 2a 54 bc 67 3a be bd 7a 0f 8b 3c
       -0.051172614 -0.012949501 -0.09288483 0.016975153
000240 36 c8 b5 3b 8d f3 07 bc a4 56 d1 bc 34 df 01 bd
       0.0055475486 -0.008297813 -0.025554009 -0.031707004
000250 cd dc c8 bc 5e a8 50 3d c5 7b 0d 3d 80 3b bd bd
       -0.024519349 0.050941817 0.034541864 -0.09239864
000260 dc af d1 bd 40 18 af bd b0 8e cf 3d 96 18 bc bd
       -0.10238621 -0.08549547 0.10134637 -0.09184377
000270 06 07 d8 3b 39 b4 bc 3d 73 75 0f 3e 4f b4 d4 bd
       0.006592634 0.09214062 0.14009647 -0.10385954
000280 50 ed 3c 3c e0 17 1d bd 42 09 66 3d 77 6e 9d 3c
       0.011531189 -0.038352847 0.056161173 0.019217713
000290 76 f9 f0 3d 82 73 d7 bc 05 55 7f 3c 38 bd 1b 3c
       0.11766331 -0.026300196 0.015584235 0.0095055625
0002a0 25 39 02 3e f9 15 b2 bc 2c f8 64 bc e3 96 c5 3d
       0.12717111 -0.021738993 -0.013975184 0.0964792
0002b0 0d a9 c0 3d b8 e0 01 3e 2c 5e ee bd 8a a1 bb 3b
       0.09407244 0.1268338 -0.116390556 0.005726044
0002c0 9e 5e 94 3d f4 c1 f9 3d 85 a9 00 be 62 09 57 3d
       0.07244609 0.12195197 -0.12564667 0.052499183
0002d0 45 6d 1d bd 83 51 82 bd 02 10 85 3a 78 8f b8 3b
       -0.038434286 -0.063632034 0.0010151865 0.005632337
0002e0 a9 84 f3 bd 93 b5 9a bd d9 a4 33 bd 06 72 ec bc
       -0.11890537 -0.07554164 -0.043858383 -0.028862964
0002f0 b8 d1 06 3e dd fc ff bc 27 02 f3 3c 84 88 ac 3c
       0.13165939 -0.031248504 0.029664112 0.02106119
000300 9c 50 17 be 5d 60 1a bb a9 58 df 3d 30 7c b0 bc
       -0.14776844 -0.0023555972 0.109055825 -0.021543592
000310 cd 5e c6 3d 65 2c dd bd 06 fa 0f 3d 17 5e c6 bd
       0.096860506 -0.10799483 0.03515055 -0.09685915
000320 93 38 1d bd e9 79 fb 3d 0b 18 ff bc b7 0e d2 bc
       -0.03838403 0.12279112 -0.031139394 -0.025641782
000330 fc 1e 1a be 49 c0 0c be 7c a6 01 bc 63 33 be 3d
       -0.15050882 -0.13745226 -0.007913228 0.09287145
000340 62 7d f4 bd ee dd 37 3b f5 3a 50 3a 62 cd fa bd
       -0.119379774 0.0028055864 0.00079433556 -0.12246205
000350 6b 49 16 3e bb 0e 78 3d 3a fe 7f bd d9 60 70 3d
       0.14676444 0.060560923 -0.06249831 0.05868611
000360 5e 9a 36 bd 13 e7 a2 bd 3f 53 0c be 4c af b0 3c
       -0.04458081 -0.0795423 -0.13703631 0.021567963
000370 4e 14 bb 3d 4d 52 6f bd e3 c1 d5 3d 4a a9 0b 3e
       0.09134732 -0.058428098 0.104373716 0.13638797
000380 70 94 b1 bd dd 50 8b bd 4d e2 a8 bd 59 09 5d 3d
       -0.0867089 -0.06802533 -0.082462884 0.053963993
000390 33 44 05 3d bb 34 eb bd 50 0c 32 3d 4f f5 35 bd
       0.032535743 -0.11484667 0.043468773 -0.044423398
0003a0 19 57 00 be 38 23 a5 3d 13 9f 0a 3e 4f 75 8e 3d
       -0.12533225 0.08063358 0.13537244 0.069559686
0003b0 73 0b e4 3d 31 6f dc bd d3 8c bd 3c fd 15 d2 3c
       0.11134996 -0.107633956 0.02313844 0.02564525
0003c0 36 48 e9 3d 8f 35 9a bd fe 11 89 bd 87 cc 62 3d
       0.11390726 -0.07529747 -0.06692885 0.055370834
0003d0 a0 cb fb 3d 7b 25 4a bd a9 d9 de 3d 80 a0 bd 3d
       0.12294698 -0.04935215 0.10881359 0.092591286
0003e0 f8 08 3b 3a 6c 40 95 bd a8 b8 bf 3b fb 25 dd bd
       0.00071348203 -0.07287678 0.00585087 -0.1079826
0003f0 c1 be ce 3d 3d 45 42 bd 16 e9 93 3d 68 2e 5a 3d
       0.10094977 -0.047429312 0.07222192 0.053266913

layers.0.bias f4 [128]
000000 4a ef 30 3b fd af 35 bb 4d 64 35 3b f8 03 34 3b
       0.0026998096 -0.0027723305 0.0027678192 0.0027468186
000010 03 c4 35 3b ab 37 34 3b b6 b2 35 bb 7b 17 33 3b
       0.002773524 0.0027499 -0.0027724928 0.0027327228
000020 a7 77 34 3b 90 c6 35 bb 8d 88 34 3b c5 ad 35 bb
       0.0027537139 -0.002773676 0.002754721 -0.0027721983
000030 a2 9f 38 bb a5 26 39 3b 8d 99 35 3b 18 0b 36 3b
       -0.002817132 0.0028251794 0.0027709932 0.0027777608
000040 4a ae 33 bb 83 b0 35 3b bd 61 32 3b a6 b7 34 3b
       -0.0027417117 0.0027723617 0.00272189 0.0027575283
000050 88 a5 34 bb d2 c2 33 3b 2f 7a 36 bb 1d ac 35 bb
       -0.0027564485 0.0027429354 -0.0027843823 -0.0027720996
000060 a8 f3 33 3b 1e b0 31 3b e3 2f 3b 3b de 5a 35 3b
       0.0027458463 0.002711303 0.0028562478 0.002767257
000070 f1 c5 35 3b 89 6e 3a bb 0b bd 35 3b 56 cc 3b bb
       0.002773639 -0.0028447232 0.0027731087 -0.002865573
000080 9d a4 35 bb 64 20 30 bb 04 66 34 bb 3d b1 36 bb
       -0.0027716525 -0.0026874775 -0.0027526626 -0.0027876638
000090 94 9f 35 bb ea 7d 36 3b 8d cd 31 bb d9 2c 36 3b
       -0.0027713524 0.0027846047 -0.0027130574 0.0027797727
0000a0 69 46 33 3b 2d 18 34 3b e9 b5 34 bb 4f 4e 38 bb
       0.00273552 0.002748023 -0.0027574247 -0.0028122847
0000b0 d7 58 38 bb 25 32 36 3b ef a1 35 3b 41 7b 35 bb
       -0.0028129125 0.0027800885 0.0027714928 -0.0027691873
0000c0 6e b6 36 bb dd ae 32 3b 58 f3 33 3b 43 8e 34 bb
       -0.0027879733 0.0027264871 0.0027458277 -0.0027550615
0000d0 96 8d 34 3b e4 ca 33 3b 10 41 34 bb 52 f5 33 bb
       0.0027550212 0.0027434165 -0.00275046 -0.0027459455
0000e0 86 87 34 3b 92 82 36 3b 4f 7f 34 3b b9 2e 34 3b
       0.0027546599 0.0027848822 0.0027541702 0.002749367
0000f0 76 2b 36 bb 66 41 35 bb 7c 17 36 bb d5 b3 35 bb
       -0.00277969 -0.0027657389 -0.0027784994 -0.0027725596
000100 66 65 36 3b 0c 15 30 bb 31 c6 32 3b bd 6b 34 bb
       0.0027831434 -0.0026868014 0.0027278776 -0.0027530037
000110 db c8 31 bb db c9 34 bb 1e 1c 37 bb a9 42 13 3a
       -0.0027127776 -0.0027586136 -0.0027940343 0.0005617538
000120 d6 b1 34 3b a2 09 36 bb 43 5a 3a 3b ff aa 35 bb
       0.0027571819 -0.0027776738 0.0028435148 -0.002772033
000130 94 4c 3d bb d8 3b 34 bb 08 9c 35 3b eb fa 35 3b
       -0.0028884755 -0.002750149 0.002771141 0.0027767967
000140 5c 97 35 bb 06 ce 35 bb 0f a4 35 3b f9 c9 33 3b
       -0.0027708625 -0.0027741208 0.0027716195 0.0027433618
000150 91 37 39 3b f9 f6 34 bb 0c 82 34 bb 60 59 36 3b
       0.002826188 -0.0027613027 -0.0027543334 0.0027824268
000160 c4 40 34 bb 4d fe 35 3b 94 bf 42 3b a7 23 38 bb
       -0.0027504424 0.0027769983 0.002971624 -0.0028097422
000170 9a 9c 35 3b e8 c6 33 3b ad e1 38 bb be 09 36 3b
       0.002771175 0.002743179 -0.0028210685 0.0027776803
000180 0e bf 35 3b 28 97 37 bb 79 97 34 3b 18 a5 35 bb
       0.0027732286 -0.002801368 0.0027556105 -0.0027716812
000190 7c d1 2e 3b a2 4d 37 3b cf 9f 35 3b a4 99 35 3b
       0.0026675155 0.0027969857 0.0027713662 0.0027709985
0001a0 4e 9a 35 bb 76 ab 34 bb 42 16 3d 3b c7 ca 35 3b
       -0.002771038 -0.002756802 0.0028852378 0.0027739273
0001b0 52 a6 35 bb f0 9e 35 bb 8a 28 34 bb 67 0b 36 3b
       -0.0027717543 -0.0027713142 -0.0027489983 0.0027777792
0001c0 4d 18 34 bb d1 b6 32 3b 3d a2 34 bb 7d 8f 35 3b
       -0.0027480305 0.0027269612 -0.0027562522 0.0027703934
0001d0 92 f9 35 3b 39 a9 35 3b cd b5 34 3b 4e a6 35 bb
       0.0027767164 0.0027719273 0.0027574182 -0.0027717534
0001e0 03 37 36 3b 02 82 34 bb da 70 35 3b b4 1e 36 3b
       0.0027803786 -0.002754331 0.0027685673 0.0027789297
0001f0 d8 ca 35 bb 06 17 39 3b 33 78 34 bb 3f 30 35 bb
       -0.0027739312 0.0028242483 -0.0027537465 -0.0027647165

predict.weight f4 [1, 128]
000000 72 9a 0b 3c 35 7e a1 bd 54 98 81 3d b6 80 0b 3d
       0.008520709 -0.078854 0.063278824 0.034058295
000010 e7 6f 85 3d a9 c7 21 3d 05 89 96 bd 87 45 9c 3c
       0.06515484 0.03949705 -0.07350353 0.019076122
000020 01 26 84 3d 9b f4 89 bd 5f 87 90 3d 74 17 9d bd
       0.06452561 -0.06736108 0.0705707 -0.07670489
000030 5f a5 5d bc 2a 71 43 3c a1 60 b2 3d 24 ac 38 3d
       -0.013528197 0.011928836 0.08709837 0.04508604
000040 0f 8a cf bc 58 de 97 3d eb 29 5e 3c c8 65 99 3d
       -0.025334386 0.074154556 0.013559799 0.07490116
000050 78 b3 87 bd 25 3f e4 3c 14 19 03 bd 18 6c 9f bd
       -0.06626028 0.02786214 -0.03200634 -0.07784289
000060 fd 47 0a 3d e5 53 2d 3c 3e 04 07 3c 6f 68 8d 3d
       0.03376006 0.010579084 0.0082407575 0.06904685
000070 9a 5f 89 3d 3b 28 15 bc a8 9a 8a 3d 30 6f f8 bb
       0.06707688 -0.00910383 0.067677796 -0.007581614
000080 ab f4 a3 bd 84 84 9c bb 9c 49 43 bd 97 55 e7 bc
       -0.08005651 -0.0047765393 -0.04767762 -0.028239055
000090 ee a8 ad bd d5 31 04 3d 8b a1 32 bc 48 b9 27 3d
       -0.084794864 0.032274086 -0.010902773 0.040948182
0000a0 fe db a5 3c 1a 7e 1e 3d 9f 25 9f bd 61 66 68 bc
       0.020246502 0.03869448 -0.077708475 -0.014184565
0000b0 df b6 72 bc c4 8e 23 3d 24 b1 a7 3d d1 b6 a7 bd
       -0.014814108 0.039931074 0.08188084 -0.08189166
0000c0 22 38 ee bc 4f 0b 81 3c f8 c2 0a 3d 5c 6d 94 bd
       -0.0290795 0.015752463 0.033877343 -0.07247421
0000d0 3b 27 92 3d 54 b9 f4 3c 0c aa 11 bd 20 82 f4 bc
       0.07136389 0.029873528 -0.03556256 -0.029847205
0000e0 fc 52 58 3d 3d 55 fe 3c cc 4c 82 3d 5c 60 02 3d
       0.052813515 0.031046504 0.06362304 0.031830177
0000f0 98 73 25 bd 81 35 b9 bc bb 22 3d bd 69 6b 93 bd
       -0.040393442 -0.02260852 -0.0461757 -0.07198221
000100 ea 3f 10 3d 76 f1 ee bb d7 7d 85 3c f9 72 6d bd
       0.035217203 -0.007291968 0.016295357 -0.057970975
000110 b3 ad 33 bc 17 5e 99 bd 0c 76 bd bc ee 2c 4a ba
       -0.010966706 -0.07488649 -0.023127578 -0.00077123835
000120 7d 89 77 3d 96 8d 40 bd 3b d8 1a 3c 43 f2 9b bd
       0.060433853 -0.047010027 0.009450967 -0.07614567
000130 b2 10 cf bb 1e 41 30 bd cc cf af 3d f2 61 39 3d
       -0.006319129 -0.04303085 0.08584556 0.045259424
000140 ad 03 b7 bd 9a 30 7c bd 93 3e a6 3d ee 13 39 3c
       -0.08936248 -0.061569788 0.08117404 0.0112962555
000150 16 ab 3a 3c c2 2f 96 bd c3 f1 88 bd dc 10 12 3d
       0.011393329 -0.07333328 -0.066867374 0.03566061
000160 07 3c 3e bd 33 fa 4e 3d 89 19 8c 3b 1e 5f 77 bc
       -0.046443965 0.050531577 0.004275505 -0.015098361
000170 83 ba b3 3d 7e 16 e6 3c ad 60 48 bc 2f 89 3d 3d
       0.08775809 0.028086897 -0.012230081 0.046273407
000180 10 07 8d 3d 43 bd 95 bc 4a be 4e 3d 97 51 a4 bd
       0.06886113 -0.018278724 0.050474443 -0.080233745
000190 3e b8 ac 3b c1 62 a4 3c 58 45 a8 3d 03 e3 b2 3d
       0.005270987 0.02006662 0.08216351 0.08734705
0001a0 44 22 b1 bd 65 2a 86 bd 30 47 d2 3b 80 8d 88 3d
       -0.08649114 -0.06551055 0.0064171776 0.06667614
0001b0 cb e2 a6 bd 06 50 aa bd 71 24 2b bd d1 7f 3d 3d
       -0.08148726 -0.083160445 -0.0417828 0.046264473
0001c0 80 94 1f bd e6 aa 53 3c de ce 30 bd a4 ed ab 3d
       -0.03895998 0.012919163 -0.043166034 0.08394936
0001d0 59 44 4b 3d f2 6e a4 3d 20 7d 9e 3d 45 fe a3 bd
       0.04962573 0.08028974 0.077387094 -0.080074824
0001e0 19 a8 28 3d 5f 84 7e bd 89 a6 b4 3d 35 4f 31 3d
       0.041175935 -0.062137958 0.088208266 0.04328843
0001f0 bf d1 7f bd eb a1 41 3c b9 2d 5a bd 6b 73 36 bd
       -0.06245589 0.011818389 -0.05326626 -0.044543665
