PERGAT_embbedding/data/emb/models/model_dim128_lay2_epo103.pth (torch, 137100 bytes, 7 tensors)

linear.weight f4 [128, 1]
00000000: 70f3 4ebe 12f9 7c3f 8a1a 2f3f e005 793f
00000010: 8070 a93e 7c25 54bf 30eb 1c3e a2de 213f
00000020: 78ab 0dbf 0877 b4be da5c 193f 0042 51be
00000030: c8a6 553f a006 8e3e 9c82 b2be 3c1e 953e
00000040: d059 d43d f4c6 ecbe 8e90 70bf 225f 04bf
00000050: 72d9 6dbf 00e1 85bd 1088 c9be 74d1 dd3e
00000060: f8c4 703f 50fc ac3d 2e1d 49bf e864 8b3e
00000070: 40ec 723e 009a 093d c02d 68bd 461d 123f
00000080: 60dc 083f f82c edbe 50fd bfbd d010 a2bd
00000090: 1e56 4cbf aafc 7bbf 1272 043f 20b5 a1bd
000000a0: d865 d7be b0f7 dbbe 3ab4 23bf 9892 cb3e
000000b0: 7048 c0be c817 b33e 886e eebe 7efd 04bf
000000c0: d03c 4dbf 7efe 75bf 24cf c7be 9cab 0c3f
000000d0: dce1 093f 2080 2dbf ac6d f83e 708e 6ebf
000000e0: 66ec 62bf 0803 2a3e 9438 9bbe 5297 4abf
000000f0: 80ff 13be 4ab7 713f 4e4d 69bf 70b8 c0bd
00000100: a2b9 43bf 2a3f 7f3f c046 48bf 006f 1bbd
00000110: be55 503f c0e5 e23d b863 48be 2a9f 70bf
00000120: da7c 453f b0a1 c23d 8ccf fd3e 4855 743f
00000130: 4c01 36bf d8cd de3e c462 293f b273 2b3f
00000140: 8055 f83e 20e4 083e c6b3 043f f895 96be
00000150: 0454 df3e 800b 0ebe ecd9 6d3f 503a 883d
00000160: 4099 503d a05f 173d 3485 033f d4f9 a1be
00000170: e05c 563d be85 3e3f b4ba 523f 1a7a 013f
00000180: 0ce6 1abf 9c4d d3be f0fb a93d 3031 863d
00000190: 24bf ad3e 7c4c a0be 909b c03d 6874 8c3e
000001a0: bc2e f73e 24a7 e8be 9e10 573f de23 733f
000001b0: 1c6d 943e 8a79 70bf d06b 51bf 7446 e9be
000001c0: 4496 263f 0068 9abe 3e8c 503f 14dc 8fbe
000001d0: a00c 743f 940f a93e 1c40 23bf a0a7 ccbd
000001e0: 3465 84be 86c9 79bf 80e1 083f 5e54 66bf
000001f0: 0457 7e3f f024 6a3e 2056 923e 487c 3b3e
-0.20210052 0.9881755 0.6839987 0.9727459 0.33093643 -0.82869697 0.15324092 0.63230336
-0.55339766 -0.35247064 0.59907305 -0.20435333 0.83457613 0.2773943 -0.34865272 0.2912463
0.10368693 -0.4624554 -0.9397057 -0.5170766 -0.9290992 -0.06537056 -0.3936162 0.43323863
0.9405055 0.08446562 -0.7856015 0.27225423 0.23722935 0.03359413 -0.056684256 0.5707592
0.53461266 -0.4632337 -0.093744874 -0.07913363 -0.79818904 -0.9843241 0.5173656 -0.07895875
-0.42069888 -0.42962408 -0.6394688 0.3976028 -0.37555265 0.3497908 -0.46568704 -0.519493
-0.8017092 -0.9609145 -0.39025223 0.54949355 0.5386026 -0.6777363 0.48521173 -0.9318609
-0.88641965 0.16602719 -0.30316603 -0.79137146 -0.14452934 0.944203 -0.9113358 -0.09410179
-0.7645513 0.99705756 -0.78232956 -0.037947655 0.8138083 0.110789776 -0.1956929 -0.93992865
0.77143633 0.09503496 0.49572408 0.9544263 -0.7109573 0.4351642 0.6616633 0.6697341
0.4850273 0.13368273 0.5183681 -0.29411292 0.43618786 -0.13871574 0.9291065 0.06651747
0.0509274 0.03695643 0.51375127 -0.31635916 0.052334666 0.74422824 0.82316136 0.5057694
-0.60507274 -0.4127015 0.083000064 0.065523505 0.3393489 -0.31308353 0.09404671 0.2743256
0.48277843 -0.45440018 0.8400973 0.94976604 0.28989494 -0.93935454 -0.81805134 -0.45561564
0.6507304 -0.3015747 0.8146399 -0.28097594 0.95331764 0.33019698 -0.637697 -0.099929094
-0.25858462 -0.97573125 0.53469086 -0.89972484 0.99351525 0.22865653 0.28581333 0.18309128

linear.bias f4 [128]
00000000: 905c bbbd 2821 2e3f 9bbd 563f 1bdf 563f
00000010: f923 ee3e 45bf 443f 0d12 cdbe f190 ef3e
00000020: 8df6 023f 97f6 273d 05f5 a4be 43b4 89be
00000030: fb59 7fbf e5a6 67bf 8299 68bf f65e 3cbf
00000040: a288 3c3f 8719 6bbf c6b9 5a3f 948d 703f
00000050: 13ad aebe 3acf 543f ff04 a9be 6301 2cbf
00000060: a7f1 bb3d 6609 6bbd 938c 07bf 7a4a af3d
00000070: 9b32 2cbe f717 75bf 1f9e 083f 32ba 9fbe
00000080: c975 dcbe e147 5a3f 658a c33e a92b 6cbf
00000090: 5624 a0bd d0a4 593f bcef 73bf 8534 5a3f
000000a0: f9e5 debe a929 793d 269b 28bf 16a1 62bf
000000b0: 5228 26bf bc61 db3e ff4a dcbd e6ae 4a3f
000000c0: 88da 1b3f eb84 5e3f aa02 5b3f e972 40bf
000000d0: 8b09 7e3f 5489 4b3f 6be3 663f c0c8 5abf
000000e0: ac51 02bf 82f0 84be 575d 723f b33c 6d3f
000000f0: c054 0cbf 12ee 053e aa47 6fbf c83c 733c
00000100: f01e 723f 9024 b83e d46a 4fbd 8588 283f
00000110: fb83 573f 8a1e 563f 8d71 bf3d 422d 183f
00000120: fe49 b33e d8f4 763f 1e80 283e af61 863e
00000130: 97b0 613e 9e76 243c 491a 2dbe 6bc3 07bd
00000140: 3801 0ebf 3ad8 23bf 3c45 e13e 05b8 303f
00000150: cb1d 973e 022d fabe 5874 233d 83f9 a33e
00000160: 9b46 3a3f be75 1c3f 2fd7 173f cf7a f03e
00000170: 6dc9 83bd 5ad0 4fbf 21e3 6cbf 6a56 a63d
00000180: 826a d53e 2ca9 e63e 49de ce3e 2782 a1be
00000190: 536b 34bf 71fc 3fbf 79bd bcbe 88b9 983c
000001a0: 407d 6bbf f6d1 1bbf ad60 5cbf a8aa 74bf
000001b0: 7025 60bf 3558 043f 1b56 103f afcd 43bf
000001c0: 93ca 1ebf fd03 743f a7b0 56bf 10ab 99bd
000001d0: e894 d73e 8b0b 3b3f 6b07 083f a4fd 40bf
000001e0: 772d cd3e 9dff 74bd c96c d63e 6eba 4d3f
000001f0: 4fad 1f3f 14a3 2bbf 0140 f33d fd01 2bbe
-0.09148514 0.6801934 0.83883065 0.8393418 0.4651182 0.76854354 -0.40052834 0.4679027
0.51157457 0.04100665 -0.32218185 -0.2689534 -0.99746674 -0.90489036 -0.90859234 -0.735824
0.73645985 -0.91835827 0.8543972 0.9396603 -0.3411642 0.831287 -0.33011624 -0.67189616
0.09176951 -0.05738201 -0.52948874 0.08559127 -0.1681618 -0.9573969 0.53366274 -0.31196743
-0.43058613 0.8526593 0.38191524 -0.9225412 -0.078194305 0.8501711 -0.9528768 0.8523639
-0.4353483 0.060830746 -0.6586174 -0.8852705 -0.64905274 0.42848003 -0.10756492 0.79173124
0.6088033 0.86921567 0.8555094 -0.7517534 0.9923331 0.7950642 0.9019076 -0.8546257
-0.5090587 -0.25964743 0.94673675 0.92670745 -0.5481682 0.13079098 -0.93468726 0.014846034
0.94578457 0.35965395 -0.05063899 0.6583331 0.8418576 0.8364035 0.0934783 0.5944406
0.3501739 0.9646735 0.16455123 0.26246402 0.2204002 0.010038046 -0.16904558 -0.03314535
-0.5547061 -0.6400181 0.43998134 0.6903079 0.29514918 -0.48862463 0.039905876 0.320263
0.72763985 0.6111716 0.5931272 0.46968696 -0.06434903 -0.81177294 -0.9253407 0.08121951
0.41682822 0.45050943 0.40403965 -0.3154461 -0.70476264 -0.7499457 -0.36863306 0.018643156
-0.9198799 -0.6086725 -0.86085016 -0.955729 -0.87557125 0.51697093 0.56381387 -0.76485723
-0.62027854 0.95318586 -0.838633 -0.07503331 0.42105794 0.7306449 0.5313632 -0.75387025
0.4007375 -0.059814084 0.4187987 0.80362594 0.6237382 -0.6704571 0.11877442 -0.16699977

conv_0.weight f4 [128, 128]
00000000: c409 59bc d40f 8cbc 4692 b4bd da69 a3bd
00000010: f70f a53d 2e43 c8bd f0fe 9b3d 07e5 89bd
00000020: fcb4 fe3d 1f74 bd3d cfe3 113e 2edb 8abd
00000030: e3b6 7a3d 2401 0abd 85d0 343d 3580 58bd
00000040: 9dfc c73c ddd9 05bd a4eb 93bd e6e4 7b3a
00000050: 6d87 f7bd 966a 313d 5399 c63d 13a2 fd3d
00000060: 3d8f 093e 6f43 04bc 20dc ce3d d6e5 e03c
00000070: b027 d33d 0de0 cbbd 4760 9f3d 00e6 b03b
00000080: f0a5 0a3e f368 703d a684 b93a 66a2 58bc
00000090: 4df0 003e e630 89bd 8780 dbbc 10c0 1c3e
000000a0: 79a4 fabd a8b9 0e3e 03a1 8b3c 6efd 0dbe
000000b0: 07bb a4bc 8379 133e fcd5 16be bee8 17bd
000000c0: f0ed 183e e083 013d 99d9 e7bd 0b6a 1cbe
000000d0: e8e8 ecbd b682 4ebd 4f0e ef3d 58d4 4bbd
000000e0: 13af 1abe f520 17be a5af 3a3d e6b2 76bd
000000f0: b7e0 45bd ff43 0fbe a620 903d 426e bbbb
00000100: 44f9 de3c b926 1d3e 8b78 df3d 250e eb3d
00000110: 2717 0a3e fa35 87bd 6016 2d3d 5f2a 183e
00000120: b9d6 cdbd 457f 02bd f619 ae3d 8ae3 10be
00000130: e764 8ebd bd39 24bd 4155 ffbc 0223 02be
00000140: 113f a83c 9e98 e63d 23c4 b9bc 1b0c d83d
00000150: f640 0a3d 0c77 0bbe 9760 0cbe 0dc3 a3bd
00000160: 72e0 593d f379 32bd 16b1 f3bd 6932 123e
00000170: 1f4c 46bd 0bc7 63bd 26e4 edbd 7b2e b63d
00000180: ae53 04be 8089 8b3d 4c3c 23be c50f 1e3e
00000190: 4efb 22bc 88ed 0f3e c2eb 013d b4eb 19be
000001a0: e271 953d 4366 80bd 2e9b 05be d5b0 0c3e
000001b0: 134b 96bd d942 2ebc 2e56 92bd 2c58 eebd
000001c0: e284 8dbd a6d2 a23c f1c4 28bd 15cb 26be
000001d0: b862 f23d d890 a2bc b3a3 183d 54a1 103d
000001e0: c3fc 813d d5e3 3dbd 9e2f 72bd 36d0 843d
000001f0: a64f 16bd c5f9 7fbd b9ec aa3d dce2 c33d
00000200: 03b5 1a3d 81ad 5dbd c0d9 193e 4edb cebc
00000210: fd47 b1bd c8e9 993d 6da2 153e 114e 973c
00000220: a661 9f3d 2a8b aa3d 9847 673d da3a 573d
00000230: 1864 4b3d 127e fc3b ebc6 61bd 7fe6 0b3e
00000240: 64a1 043e d635 003e 1d07 b1bd 8a8f f4bc
00000250: 539d 843c 13d3 14be 0599 673d b1bb 1b3e
00000260: 4f29 25be 4ff0 77bd 5537 cb3d 7610 053d
00000270: 4011 093e 6b3a 703d fbbb 8cbb b229 123e
00000280: 2764 ebbc 9d80 f3bc a5cb 0dbe 8dc6 37bd
00000290: 4be2 f3bd 406c f73d aded 3ebc f540 f6bd
000002a0: ae16 e0bd c5eb c43d d9c1 acbd cbd5 f63d
000002b0: 7e3b c63d eef7 093e 36f2 c6bd d739 dbbd
000002c0: 6b68 1bbe 2d75 f93d 189b fc3c 87e0 f03d
000002d0: 1685 debc e54b cf3d 2997 0e3e 8fbd 0ebd
000002e0: 65c8 fe3d 6149 0c3e b980 63bd 073a 47bd
000002f0: 1ee2 f03c 07df f9bd 4d03 be3d 47af 073e
00000300: 9fb4 103e ebb4 e4bd 5183 d8bc 839c 803d
00000310: 734b 343c 8aeb 17be a989 b9bd d6fd 063e
00000320: a95d 03bd 20f9 813d 6993 7e3d ba76 0b3e
00000330: 72e2 bd3c ef0f 71bd e6e1 ab3d 27e7 9fbd
00000340: 40a7 0b3e 6da4 cbbd 4d69 8fbd b0d9 583d
00000350: 12a1 0f3e 0254 d33d 6e8b 54bd 2ac9 16bd
00000360: b43b 17be 3537 153d 54ed 953d 1418 f0bc
00000370: 3aa6 7e3d ca86 813c 195a 5c3d 02d6 7fbc
00000380: 9904 1b3e b09b c9bd 4e75 86bc d475 3a3d
00000390: 106b e2bd b353 643c 457a f2bd 5c01 8b3d
000003a0: 44bb e93c c26a 0abe 3502 883d be0d 1abe
000003b0: 97f6 3abd b261 fabc bb6f 763a 1182 dbbd
000003c0: 7ef7 8abd 24a4 81bc f688 513d ea7b abbd
000003d0: f452 163e e0f8 aab9 bceb b73c 7051 bebd
000003e0: cdaf d93d 12fe b93d e078 83bd c887 7cbc
000003f0: fd7b b43d aa88 0b3d e13b a7bd ead2 24bd
-0.013246957 -0.017097391 -0.08816962 -0.07979174 0.08059686 -0.097784385 0.07616985 -0.067331366
0.12436864 0.09250664 0.14247058 -0.067800865 0.06120957 -0.033692494 0.044144172 -0.052856643
0.024412448 -0.032678474 -0.07222679 0.00096089987 -0.12086377 0.04331454 0.09697213 0.12384429
0.13433547 -0.008072718 0.10100579 0.027453344 0.10310304 -0.09954844 0.07782035 0.005398512
0.13539863 0.058693837 0.0014153912 -0.013222313 0.12591667 -0.0669878 -0.026794685 0.15307641
-0.12238402 0.1393801 0.01704455 -0.13866207 -0.020108713 0.14401822 -0.14730066 -0.037087195
0.14934516 0.031619906 -0.113208 -0.15274827 -0.11567861 -0.050417624 0.11672651 -0.049763054
-0.15105848 -0.14758666 0.045577664 -0.060229205 -0.048310008 -0.13990782 0.07037477 -0.005719931
0.027218468 0.15346803 0.109116636 0.11477307 0.13485394 -0.06602092 0.042257667 0.14859913
-0.10050721 -0.031859655 0.085010454 -0.141493 -0.06952839 -0.040094126 -0.031168582 -0.12708667
0.020537885 0.11259578 -0.022676533 0.10549184 0.033753358 -0.13619632 -0.13708721 -0.07996187
0.053192563 -0.04357333 -0.11899011 0.14277042 -0.04841244 -0.055609744 -0.116157815 0.08895584
-0.12922546 0.068133354 -0.1594097 0.15435703 -0.009947611 0.14055455 0.031718977 -0.1503132
0.07297112 -0.06269505 -0.13047478 0.13739331 -0.07338538 -0.010636055 -0.07145344 -0.11637911
-0.06910111 0.019875836 -0.041203443 -0.16288407 0.11835235 -0.019844458 0.03726549 0.035310104
0.063470386 -0.046359856 -0.059127443 0.064850256 -0.036697052 -0.06249406 0.083459325 0.09564754
0.037770282 -0.054120544 0.15024471 -0.025251057 -0.08656309 0.07515293 0.14612742 0.018469842
0.07782297 0.08327325 0.05646476 0.05254636 0.049656004 0.0077054584 -0.055121344 0.13662146
0.1295219 0.12520537 -0.08643935 -0.029853601 0.0161883 -0.14533643 0.056542415 0.15208317
-0.16129039 -0.06053191 0.09922663 0.0324864 0.13385487 0.05864946 -0.00429487 0.14273718
-0.02873428 -0.029724414 -0.13847215 -0.044867087 -0.11908396 0.12081194 -0.011653346 -0.12024108
-0.10941826 0.09615282 -0.08435411 0.120524965 0.09679316 0.13473484 -0.09714167 -0.107043914
-0.15176551 0.12180553 0.030835673 0.11761575 -0.02716307 0.101218976 0.1392485 -0.034848746
0.12440566 0.13699867 -0.05554268 -0.048639324 0.029404696 -0.12200742 0.09277973 0.13250457
0.14131401 -0.1116732 -0.026429804 0.06279852 0.011004317 -0.14835945 -0.0905946 0.13182768
-0.032071743 0.06346345 0.0621523 0.1361951 0.023179267 -0.058853086 0.08392696 -0.07807761
0.1363802 -0.09943471 -0.070025064 0.052941978 0.14026287 0.103187576 -0.051890783 -0.03681294
-0.14768869 0.036429603 0.07320657 -0.029308356 0.062170245 0.015811343 0.05379686 -0.015614988
0.15138473 -0.09844148 -0.016413357 0.045522526 -0.11055577 0.013935971 -0.11839727 0.06787369
0.028531678 -0.13517287 0.06641046 -0.15044305 -0.045645323 -0.030564163 0.00094008044 -0.107181676
-0.06785487 -0.015825339 0.051156007 -0.08373244 0.14680082 -0.00032610353 0.022451274 -0.09292877
0.106292345 0.09081663 -0.064195395 -0.015413232 0.088127114 0.03406588 -0.08165718 -0.040240206

conv_0.bias f4 [128]
00000000: 4e64 1b3c b1e5 84bb b4c0 333c 8918 1c3c
00000010: a607 0d3c c819 573c fda5 203c 9917 083c
00000020: 4d44 0ebc 6530 0dbc 1a14 9f3b 1dd3 a9bb
00000030: 39f5 0e3c 02c1 0ebb 0484 0d3c 2f79 3a3c
00000040: 9117 1abc fea2 453c 1d29 16bc 2e43 103c
00000050: f121 373c f6a3 0dbc eaa8 463c 9231 1e3c
00000060: 15b1 2ebc e247 4b3c f56a 163c 65bf cbbb
00000070: 0e27 123c 7303 c9bb 1e5b 323c 8017 463c
00000080: 314d 99bb efd6 0cbc fdbe 0bbc a654 173c
00000090: 1ac0 aebb 5782 4c3c dbd9 263c bd12 bfba
000000a0: 1965 16bb 326d 21bb 9a1b d4bb 18f2 07bc
000000b0: 4b21 a93b 6923 0f3c bba4 44bb 4ece 7dbb
000000c0: 7f53 1ebb c51f 13bc b307 aabb d1d4 0f3c
000000d0: 0959 b8bb 954c 37bc 08bb 493c 3e25 23bc
000000e0: 08a6 5b3c 42de 1a3c d9d7 6e3b 2bad 06bc
000000f0: 2db7 33bc aefc 1a3c ffde 09bc 8d60 4f3c
00000100: ac0e 0fbb 0bb3 beba b47f 21bc 2302 583c
00000110: 3172 133c ea58 dabb 6703 383c 68c5 0abc
00000120: b615 143c b461 3b3c 5963 2e3c fd70 253c
00000130: 0a5a 263b 4eaf 2b3c ca5e 8cbb 8143 163c
00000140: 40be a93b 2348 09bc a0e0 d03b 8be0 463c
00000150: 74c8 1e3c d835 343c 523f 15bc 42c5 84bb
00000160: 648a 45bb eac0 9fbb 76c3 81bb 6698 1f3c
00000170: 2c8a 30bb e1b5 053c c96e 1bbc 2dbb 4b3c
00000180: 0924 1f3c cb61 02bc c990 3d3c 4835 37bc
00000190: e5f7 343c 3ecc 36bb e1b5 19bc d4bc dc3b
000001a0: 2044 163c 5808 16bc de3f a5bb 4753 07bc
000001b0: 5a95 12bc d0b7 0f3c 20ad 513c 1a90 0c3c
000001c0: d06a 3eb9 617c 263c 1691 123c 4d4d 2e3c
000001d0: 4852 abbb 3415 abbb fe4d ae3b af33 df3b
000001e0: 0076 dd3b b20e 12bc 5ca6 74bb d9cd 233c
000001f0: 3cfa 0ebc 9704 2bbc 41ba 1ebc e681 293c
0.009484364 -0.0040557017 0.010971237 0.009527334 0.008607781 0.013128705 0.0098052 0.008306407
-0.008683276 -0.008617495 0.004854691 -0.0051826374 0.008725458 -0.0021782522 0.008637432 0.0113814315
-0.009405033 0.012062786 -0.009165076 0.008805079 0.011177526 -0.008645048 0.012125233 0.009655373
-0.010662337 0.012407275 0.009180774 -0.0062178844 0.008920444 -0.0061344444 0.010885982 0.012090564
-0.0046783914 -0.008596166 -0.008529422 0.00923649 -0.005332959 0.012482247 0.010183777 -0.0014577728
-0.0022948442 -0.0024631736 -0.006473017 -0.008297466 0.0051614395 0.00873647 -0.0030005414 -0.0038727704
-0.0024158654 -0.008979742 -0.005188906 0.008778767 -0.005625848 -0.011187692 0.012312658 -0.00995761
0.013406284 0.009452404 0.0036444573 -0.008219997 -0.0109689655 0.009459658 -0.008414983 0.012657297
-0.0021828813 -0.0014549209 -0.009857107 0.013184103 0.008999393 -0.0066634314 0.01123128 -0.008469917
0.009038379 0.011436868 0.0106438035 0.010097739 0.0025383257 0.010478808 -0.0042837607 0.009171368
0.0051801503 -0.008379015 0.0063744336 0.012138496 0.009691346 0.0109991655 -0.009109335 -0.0040518353
-0.0030142302 -0.004875292 -0.0039600683 0.009740924 -0.0026937826 0.008161039 -0.009486862 0.012434763
0.009713181 -0.007957886 0.011570164 -0.011182137 0.011045431 -0.0027892734 -0.009381742 0.0067363773
0.009171516 -0.009157263 -0.005043014 -0.008259601 -0.008946741 0.008771852 0.012797624 0.008579278
-0.00018159603 0.01016149 0.008945724 0.010638547 -0.0052283145 -0.0052210335 0.005319356 0.006811581
0.0067584515 -0.008914636 -0.0037330603 0.009997808 -0.008726653 -0.010438106 -0.009687961 0.010345912

layers.0.weight f4 [128, 128]
00000000: 2808 d438 c0bf c33c 93d6 00be 70aa 6cbd
00000010: 309b 523d e08a 233e b2ff c63d 63a4 003e
00000020: bded 9d3d 0354 99bd d0ab efbd ee39 b0bd
00000030: 8328 19bc 030c 023e e22a 133e 163f 8c3d
00000040: d39d 053e 5b10 0a3e c098 fbbd 43f2 933d
00000050: f3df 16be e231 ca3c d9d1 c33d 0f63 563c
00000060: 0ce5 0dbe dd5c babd 3a7a 1d3d f8aa f83b
00000070: 927d 2c3d 980a 09be 3908 a33d 0d7d 58bc
00000080: 941d e1bb e5de 02be be78 c93d 272f 043e
00000090: c456 b4bd 5029 19bd 0769 b4bd 9900 89bd
000000a0: 2ce9 843d 571b d2bd 4ca6 95bd 2a65 22be
000000b0: e9aa 82bd 5d86 adbc cbf4 163d cd83 07bd
000000c0: f81c c93d 0f03 f33d cd73 9f3d aacf 12be
000000d0: 4737 f83d 00f9 c23d 3074 813d a9f6 f0bd
000000e0: 564f 67bd c58d 433d 81bc d33d d0f6 513d
000000f0: 6fa2 963d dbd5 7c3d 38b0 0cbe bf2c 01be
00000100: 6fde a1bd 8817 28bd 27fe 903d e340 4bbd
00000110: e808 133d 7325 e4bd d4a6 50bc cab2 a2bc
00000120: 0d32 0ebe 28b0 923d 9b36 21be 24ff 88bd
00000130: 521e 453d a1a3 27be 0962 a2bd 32da e5bc
00000140: 491b 08be 83f7 4e3d 4df1 eebd 8159 3bbd
00000150: 9c13 5f3c 479d a3bd 8a22 9d3d e646 b0bd
00000160: 6713 af3d b7f5 ad3d b488 1ebe af27 72bd
00000170: 27aa fe3d 0d70 d83d 4fa7 b33d 375e a13d
00000180: 62c8 13bc 32fe cd3d 9e6d 203b 2bd5 0bbd
00000190: bb69 02bd 6ec1 153e 76df b6ba a2fd e03d
000001a0: c6fb 8e3d 091d ccbd 29d9 0a3e e0af 25bd
000001b0: 0eb6 cebd 5366 fabc 0cd7 d33d fdac d1bd
000001c0: 66cc 783d 7db6 303a 5b2e 983d 3150 cbbc
000001d0: 36e8 20bd 353b 013d a423 423d 2d5c d2ba
000001e0: 70ae e33d 99cf ef3c 287e 0d3e da4d 083c
000001f0: 7649 1ebd 3730 d13d 9bc5 d6bd 1116 16be
00000200: 2544 46bd 1443 55bd 063e ec3d a70c 99bd
00000210: 2ff0 1ebd 9144 8f3d fa07 b8bd 2355 db3d
00000220: 7f38 583d 1f5d 1f3e 7e46 e33d 756f 6a3d
00000230: 0429 13bc 63c4 163e 0d36 1a3e 3f7c cfbd
00000240: c53e cdbd cfa9 0ebe 81bd 4d3d fbe0 10bd
00000250: 0e6e febc 266e 153e ca57 1e3e cba0 723d
00000260: 698c f73d 3487 3dbd 754b b83c 4689 28bc
00000270: 8295 01be 2216 08be 40cd c23c 7de1 853c
00000280: 3c9e 05be b0b0 d03d 606f 6dbd 6a02 07be
00000290: d21c 0b3e cda8 b5bd fb49 ab3d bb5f 4fbc
000002a0: 035e 54bd 8495 b03d 9144 0abe d509 1ebe
000002b0: 9c20 06be 4477 7ebd 88bd b93d 84b5 50bb
000002c0: 29a0 18be 28cd f43d ee9b 093e 1826 133e
000002d0: eae1 123e 3b1d ea3d f103 85bb 7f69 b73d
000002e0: ff21 cbbd 09b8 0e3e 8902 f33b c85c 8f3d
000002f0: 3031 a2bd 56cb 65bd 9c9b 043b ee55 aebd
00000300: 27b6 07be 3ffd fc3d 6fe1 01bb d94d 0d3e
00000310: a593 47bd 4d0f 11be fef3 bbbd 14d0 e9bd
00000320: 865a 843d 2057 a63d 3069 c0bd 4aef 90bd
00000330: 00f7 8abd ab56 b83c ddf8 623d 4065 0cbe
00000340: 876d 363d 6c45 c0bd 4782 c93d f247 843c
00000350: 7ed9 4fbd 5843 eebd 1e9c debd 8a5b e9bd
00000360: 499e 47bd ce21 c3bd e90e 30bd bf44 9d3d
00000370: 07ef bebd c79b a63d 1249 e63c fed3 0c3e
00000380: 7765 373d 476f 30bd cf9c 1fbe 4dab e7bb
00000390: 9e75 cdb9 06f0 e23d e28c eb3d 0341 803d
000003a0: 9e57 23bd 28e8 0b3c 9ded bd3c 123c 85bc
000003b0: 6a69 1fbc f3c0 f5bd f22e 58bd d3fa f8bd
000003c0: 7db8 803d 77e4 dfbd 234f 50bd fb63 10be
000003d0: fb06 8fbd efe4 8e3d 6008 0e3e ecdb c73c
000003e0: 3845 1fbc 0edd 33bd ec3f 3c3d 3b5d 143c
000003f0: c038 023e 3c90 bfbc d522 aebd 8e6d 72bd
0.00010110467 0.023895144 -0.12581854 -0.05777973 0.05141753 0.15970945 0.09716739 0.12562709
0.077113606 -0.07486727 -0.117026925 -0.08604799 -0.009348038 0.12699895 0.14371827 0.0684797
0.13048486 0.13482802 -0.12284994 0.07223942 -0.14733867 0.02468199 0.0956151 0.013085141
-0.13856906 -0.090997435 0.038446642 0.0075887404 0.04211194 -0.13382947 0.07960553 -0.013213408
-0.006869981 -0.1278034 0.09837483 0.12908612 -0.08805612 -0.037392914 -0.08809095 -0.06689567
0.064897865 -0.10259121 -0.07307109 -0.15858904 -0.06380255 -0.021182233 0.036854547 -0.03308468
0.098199785 0.11865818 0.07785759 -0.1433703 0.12119918 0.09520149 0.06320989 -0.11765797
-0.056472145 0.047742624 0.10338689 0.05126077 0.073552005 0.061727386 -0.13739097 -0.12614726
-0.07903754 -0.041038066 0.07079726 -0.049622428 0.035897166 -0.11139955 -0.012735087 -0.019860644
-0.1388628 0.071625054 -0.15743487 -0.06689289 0.04812462 -0.16371013 -0.07928855 -0.028058145
-0.13291658 0.050529014 -0.11667118 -0.045739654 0.013615515 -0.07988983 0.076726034 -0.08607273
0.085486226 0.08494132 -0.15481836 -0.059119876 0.12434798 0.10568247 0.08772146 0.07879298
-0.009019943 0.100582495 0.00244794 -0.03413884 -0.031839114 0.14624569 -0.0013952095 0.109858766
0.06981616 -0.099664755 0.13559403 -0.04045093 -0.10093318 -0.03056637 0.10343751 -0.10238073
0.060741805 0.000674106 0.074307166 -0.024818512 -0.039283954 0.031550605 0.04739727 -0.0016049199
0.11117256 0.029273795 0.13817656 0.0083193425 -0.038644277 0.102142744 -0.10486909 -0.14656855
-0.04840483 -0.052065924 0.115352675 -0.07473116 -0.038803276 0.069955 -0.089858964 0.10709598
0.052788254 0.15562867 0.1109743 0.0572352 -0.008981947 0.14723353 0.15059681 -0.1013112
-0.10021738 -0.13931964 0.050229553 -0.035370808 -0.031058338 0.145928 0.15463176 0.059235375
0.12087328 -0.046271518 0.022496918 -0.010286635 -0.12654689 -0.13289693 0.023779511 0.016342873
-0.13048643 0.101899505 -0.057967544 -0.13184515 0.13585213 -0.08870087 0.0836372 -0.012657101
-0.05184747 0.08622268 -0.13502719 -0.15433438 -0.13098377 -0.06212546 0.09069353 -0.0031846473
-0.14904846 0.11953193 0.13438389 0.1437 0.14343992 0.114313565 -0.0040593077 0.08955669
-0.099185936 0.13937391 0.0074160737 0.070001185 -0.07919538 -0.05610212 0.0020234352 -0.085124835
-0.1325308 0.1235299 -0.0019818207 0.13799228 -0.04872479 -0.14165993 -0.09177397 -0.11416641
0.064625785 0.081220865 -0.09395063 -0.07076891 -0.06785393 0.022502264 0.055413116 -0.13710499
0.044538047 -0.09388241 0.098393016 0.016147587 -0.050744526 -0.116339386 -0.10869621 -0.11394413
-0.048734937 -0.09527932 -0.04298297 0.07679128 -0.093229346 0.08135181 0.028111015 0.13752744
0.0447745 -0.043074872 -0.15587161 -0.007069981 -0.0003918828 0.11080937 0.11501481 0.062624
-0.03987848 0.008539237 0.023184592 -0.016263995 -0.0097297225 -0.11999693 -0.052779146 -0.12157216
0.06285188 -0.10932248 -0.05085672 -0.1410064 -0.06983753 0.06977259 0.13870382 0.02439686
-0.009721093 -0.043911986 0.0459594 0.009055431 0.12716961 -0.023384206 -0.085027374 -0.05918651

layers.0.bias f4 [128]
00000000: 1cd4 c0b9 4b6e 0d3c 6777 0dbc c99a 0fbc
00000010: a474 2b3c 172a 0e3c bbf3 09bc 181e a0bb
00000020: 0bab 0f3c 7407 1a3c 6721 173c e483 033c
00000030: 41f8 103c 01b2 0d3c cfbf 223c f130 01bc
00000040: 7e31 0c3c 14f0 14bc e09a 103c 0914 10bc
00000050: c0ac 12bc f291 0b3c 0a83 103c cac5 0fbc
00000060: 7711 0abc dcda 10bc 9a0d 153c e331 12bc
00000070: f6e7 133c f78d 093c 3266 083c e549 153c
00000080: 835f 3e3b 6e17 06bc 136e 0e3c 90b6 06bc
00000090: c954 0fbc e0a8 16bc 538d 0f3c 6ca8 10bc
000000a0: 44e8 08bc 9f9c 09bc 8b65 12bc cbcf 0fbc
000000b0: a248 093c f8cf 323c eb6e 10bc 4277 123c
000000c0: cf05 0abc b5e3 11bc cdc7 0fbc 72a7 14bc
000000d0: 7078 143c 0765 11bc b23d 173c 575b 033c
000000e0: a42c 0fbc 77a3 263c 3b06 13bc 9abe 3f3c
000000f0: 3e2f 0abc 4da1 103c 6884 193c ec62 083c
00000100: 8642 09bc c617 143c dbdd 0d3c 17d3 0ebc
00000110: d2d4 0f3c 4345 0fbc 6a29 113c 2dec cfbb
00000120: 6c47 f6bb 7fe9 103c 6db7 10bc 8756 18bc
00000130: 2c12 103c bb54 0bbc a8ec 0f3c 8c25 0f3c
00000140: 04cd f6bb bf65 043c 554d 0dbc 70f5 0ebc
00000150: 4e81 0b3c 5845 103c 1b83 063c 288a 23bc
00000160: fb06 10bc a934 13bc c42e 10bc ba76 1c3c
00000170: 4229 103c d714 0d3c afcf 123c 6f90 123c
00000180: 918c 043c 12de 0bbc 46bb 4dbc b67c 0fbc
00000190: ce18 0a3c 3eba 0f3c aab9 133c 2faf 0bbc
000001a0: d1c4 0c3c 465b 0fbc 0dad 02bc 401b 24bc
000001b0: 9484 023c 7dd6 f13b 9afe 093c ddfe 0e3c
000001c0: 861f 0fbc 184c 0b3c e558 0f3c e095 033c
000001d0: 9044 0bbc b1c3 093c a992 033c c059 dabb
000001e0: 00b8 123c 06b2 0bbc 27f9 173c 6364 0cbc
000001f0: 8214 10bc 66fc 20bc 83cf 0e3c 9d10 0cbc
-0.00036779128 0.008632253 -0.008634425 -0.008764931 0.010464821 0.008677027 -0.008419926 -0.0048864
0.008768807 0.009401191 0.009224272 0.008027051 0.008848251 0.0086483965 0.009933426 -0.007885204
0.008556722 -0.009090442 0.008825988 -0.008793839 -0.00895232 0.008518683 0.008820305 -0.008775184
-0.0084270155 -0.008841243 0.009097481 -0.008923027 0.009027472 0.008395663 0.0083251465 0.009111856
0.0029048629 -0.008184297 0.008693236 -0.008222237 -0.008748242 -0.009195536 0.008761722 -0.008829217
-0.008356158 -0.008399158 -0.008935343 -0.008777569 0.008379133 0.010913841 -0.008815507 0.008939566
-0.008424236 -0.008904387 -0.008775664 -0.009073125 0.009061918 -0.008874184 0.009231018 0.008017383
-0.0087386705 0.010170809 -0.008973653 0.011703158 -0.008434115 0.00882752 0.009369947 0.008324366
-0.008377677 0.009038871 0.0086588515 -0.00871732 0.008778768 -0.008744541 0.008859972 -0.006345293
-0.0075158384 0.008844732 -0.008832795 -0.0092979735 0.008793395 -0.008504088 0.008784451 0.008736979
-0.007531764 0.008080899 -0.008624394 -0.008725509 0.008514715 0.008805595 0.008209969 -0.0099816695
-0.008790727 -0.008984723 -0.008800212 0.009549791 0.008798899 0.008610926 0.008960648 0.008945568
0.008090154 -0.008536832 -0.0125568565 -0.008757761 0.008428765 0.008772431 0.009016434 -0.008525654
0.008591847 -0.008749789 -0.007975829 -0.0100162625 0.007966179 0.0073803053 0.008422518 0.008727756
-0.008735543 0.008502029 0.008749221 0.008031338 -0.008500233 0.008408473 0.008030572 -0.006663531
0.008955002 -0.008526331 0.009275711 -0.008568856 -0.008793952 -0.0098258015 0.008716467 -0.008548883

predict.weight f4 [1, 128]
00000000: 23cb 9d3b 40d0 3f3d 4c7e 7dbd 4d54 94bd
00000010: 5964 383c a9a3 e33c 7795 89bd 26e0 5b3b
00000020: e8b5 ad3d 0d29 c93c cc31 e73c 274a 9f3c
00000030: c559 5d3d a60f 7e3d 2018 2d3c 25b7 7bbc
00000040: 945c ab3d c859 0abd c3ad 8f3d 24d9 99bd
00000050: 2939 51bd c441 263d fbec 8c3d 664b b7bd
00000060: 03eb 9abd 890c a9bd 0e8e 0d3d 2de0 53bd
00000070: 561c 493d e4cb 6a3d 1ef4 323d 8b99 3e3d
00000080: 1804 4d3b b5c0 e1bb 2240 a83d 4fcb 08bd
00000090: 1c9a c8bd f739 f5bc 64c7 b93d d5d7 81bd
000000a0: 3a5e 2cbd f846 86bd be49 5fbd 5f09 bfbd
000000b0: e92a 673d 7e86 813c 239a 7abd 3b6b 763d
000000c0: e69f a4bd 6564 9dbc 1b6f 9fbd a4ad 3fbd
000000d0: b73f 0b3d 4c7e 9bbd e28e 9c3c 6028 8c3c
000000e0: 3554 c2bd 6c15 4c3c ef7a 26bd f92e 3b3c
000000f0: 0db8 70bd a0eb 593d eee3 cd3c 6101 363d
00000100: 941b 63bd 791e 083d 47fe a53d a0dd bcbd
00000110: 8c40 aa3d bd74 1dbd 0266 7d3d 044f b9ba
00000120: 34ef 04bc 7eb1 8b3d cd5b 6bbd b1bd 10bd
00000130: a306 9e3d 1db4 b3bd 55ba c03d 53ca c23d
00000140: 34dd f6bb 3593 663c 080a b6bd 7936 b7bd
00000150: fbb5 693d 7482 b13d d8e9 0c3c 6702 70bc
00000160: 97de 94bd bfc5 57bd e0a7 19bd ed42 c33c
00000170: e80e ad3d e471 b63d aba6 263d c646 4d3d
00000180: 9ecc 763c 4d4f 9dbd cee9 4fbc 5b2e c6bd
00000190: c25d 883d 8f2b a93d d737 2e3d b61a 67bd
000001a0: a3e1 bc3c 0e1b adbd aeab 56bc 010c 81bc
000001b0: e31c 843c 06c6 cd3b 47bc a33d 255b c43d
000001c0: a0f0 adbd c560 9d3d 40d4 9f3d d5fc a23c
000001d0: bbd8 59bd 9aa4 693d 333f 8f3c 56ea 20bb
000001e0: 490b 4a3d 2ed1 4bbd e3ad de3c f46d 02bd
000001f0: 45b5 b6bd 8744 88bc eb1b 7a3d c48c a7bd
0.0048154755 0.046829462 -0.061888024 -0.072426416 0.0112543935 0.027788 -0.06717961 0.003355035
0.084819615 0.024555707 0.028221987 0.019444538 0.05404069 0.062026642 0.010564834 -0.015363489
0.08367267 -0.03377703 0.07015564 -0.075121194 -0.051079903 0.040590063 0.06881138 -0.08949928
-0.07564356 -0.08254344 0.034559302 -0.051727463 0.04909929 0.05732335 0.04368984 0.04653315
0.0031282958 -0.0068894275 0.08215357 -0.033397015 -0.09795019 -0.029934866 0.09071234 -0.06339995
-0.04208205 -0.06556505 -0.054513685 -0.09327959 0.056437407 0.015811201 -0.061182152 0.060160857
-0.08038311 -0.01921291 -0.077848636 -0.046796456 0.03399631 -0.075924486 0.0191111 0.017109096
-0.094887175 0.012456279 -0.040644582 0.011424773 -0.058769275 0.053203225 0.0251331 0.04443491
-0.055446222 0.033232186 0.0810514 -0.09221959 0.083130926 -0.03844141 0.06186486 -0.0014137928
-0.008113671 0.06820963 -0.057460595 -0.035337154 0.077161096 -0.08774588 0.0941054 0.095112465
-0.0075336937 0.014073183 -0.08888632 -0.08945937 0.057058316 0.0866746 0.008600675 -0.01464901
-0.07269018 -0.05267882 -0.037513614 0.023835624 0.08450109 0.08908442 0.04068629 0.050116323
0.015063433 -0.07681141 -0.012690021 -0.0967681 0.06658508 0.08260261 0.04253372 -0.056421958
0.02305681 -0.08452426 -0.013102455 -0.015752794 0.016127056 0.0062797097 0.079948954 0.09587697
-0.08493161 0.07684473 0.07804155 0.01989595 -0.053185206 0.057041742 0.01748619 -0.0024553738
0.04932717 -0.049760036 0.027182525 -0.03184314 -0.08921293 -0.016634239 0.06106178 -0.08181146
