PERGAT_embbedding/data/emb/models/model_dim128_lay2_epo10.pth (torch, 137088 bytes, 7 tensors)

linear.weight f4 [128, 1]
000000 df ab 53 bf 1d 68 4b bf a0 f2 ca 3e 2f ea 37 bf
       -0.8268413 -0.7945574 0.39638233 -0.7184171
000010 f6 90 19 bf 78 d8 7a bf 48 e7 31 bf e3 f3 61 bf
       -0.5998682 -0.97986555 -0.6949353 -0.88262767
000020 88 ae e0 be 8e 15 1b 3f 14 f8 eb 3e c4 18 6a 3f
       -0.43883157 0.60579765 0.46087706 0.9144404
000030 76 05 62 3f c5 d4 ae be ee 8c 66 bf 3b 4b ce bd
       0.8828958 -0.34146705 -0.9005879 -0.10072943
000040 de 7c 66 3f 75 87 ed 3e 7c e5 36 3d e5 67 e7 3e
       0.9003428 0.46392408 0.044652447 0.45196453
000050 8b 15 30 bf cd 68 50 bf fc 00 66 3f 20 2b 93 3e
       -0.6878287 -0.81409913 0.8984525 0.2874384
000060 73 43 1e bf 67 61 1a bf 22 2d 08 be b8 63 64 3f
       -0.6182167 -0.60304874 -0.13298467 0.8921466
000070 c4 92 56 3f 01 99 79 be 08 4b 92 3e b0 c4 8c 3e
       0.83817697 -0.24374773 0.2857287 0.2749381
000080 f7 e1 0a bf 7b ae 56 3f d4 fd b5 be 30 46 23 3f
       -0.54251045 0.83859986 -0.35545218 0.6377897
000090 60 99 30 bf ef ec 15 3f f3 bb 55 bf 13 56 8c be
       -0.6898403 0.58564657 -0.8348991 -0.2740942
0000a0 11 f5 4e bf 60 25 76 bf 2f 85 48 bf 06 f1 07 3f
       -0.8084269 -0.9615078 -0.7832822 0.5310215
0000b0 5c e0 7a be d2 92 22 3f 0d 4c 15 bf 52 45 a1 be
       -0.24499649 0.6350528 -0.5831917 -0.314982
0000c0 b7 e5 ac 3d 63 4d 2b be 52 f7 6f bf 03 02 2e 3f
       0.08442252 -0.1672874 -0.93736756 0.6797182
0000d0 87 5d 6a bf b1 ec 53 3f 1a 3a 3d 3f a8 80 1e bf
       -0.9154896 0.8278304 0.7391678 -0.61915064
0000e0 e0 bd 4b bf db 20 e6 be 13 33 4c 3e a0 58 d0 be
       -0.795866 -0.44946942 0.19941358 -0.40692616
0000f0 c5 d5 b8 3e 84 e7 21 bf 3f 93 34 bf ae ba 50 3f
       0.36100593 -0.6324389 -0.7053718 0.8153485
000100 1c d1 28 3f a3 57 53 3f 78 03 bd 3e cb b0 b3 3d
       0.65944076 0.825556 0.3691671 0.08773955
000110 c3 04 4f 3f d0 9b 54 3f 9b eb 69 bf c0 1f e7 3e
       0.8086664 0.8305025 -0.9137513 0.4514141
000120 21 d7 18 be 18 21 17 bf 6f 23 1a 3f c4 93 48 bf
       -0.14925815 -0.5903487 0.6021032 -0.7835047
000130 39 32 0a 3e 1e e5 57 bf b0 cd 30 3d 1a ef 45 3f
       0.13495721 -0.8433398 0.04316491 0.77317965
000140 49 09 25 3b 03 e6 9f be 90 02 60 3f a2 25 fe be
       0.0025182536 -0.31230173 0.8750391 -0.49638087
000150 a4 25 93 be b1 bd 00 3f d3 a1 64 bf 28 74 73 3d
       -0.28739655 0.50289446 -0.89309424 0.059436947
000160 66 55 e4 be 32 76 ba 3e 19 93 c2 be 39 bd ea 3e
       -0.44596404 0.364183 -0.38002852 0.4584749
000170 60 c2 35 3e 9e 45 f5 be f8 f8 52 3f e3 a4 00 bf
       0.1774993 -0.47904676 0.82411146 -0.502516
000180 5a ed 67 be 40 6b 46 bf fb 13 e0 bd c7 7f 54 3d
       -0.22649136 -0.775074 -0.10941311 0.05187967
000190 fb b8 ad be b6 e6 d4 be fb e1 bf be 14 d7 a7 3c
       -0.3393019 -0.41582268 -0.37477097 0.0204883
0001a0 01 69 97 3d 5d d7 15 3d c2 3f 10 3f e8 3d 6a bf
       0.07393075 0.03658234 0.56347287 -0.9150071
0001b0 50 2c 6a 3f ab 7c be bd 4d 8c a0 be 67 5f 5a bf
       0.91473866 -0.09301122 -0.3135704 -0.8530182
0001c0 7c dc cc 3c 4b b4 bf 3e 4c 60 25 3f 2e d1 75 3f
       0.025007479 0.3744224 0.6460006 0.9602231
0001d0 ce a5 01 bc 49 6b 33 3f ec d0 13 3f fc 79 43 3f
       -0.007913066 0.7008558 0.57740664 0.7635801
0001e0 79 3b e2 be 3c 9e 4b be 65 16 11 3e 15 b3 21 3f
       -0.44186 -0.1988458 0.14168699 0.6316388
0001f0 c7 2a 08 3f 89 79 01 3e 31 33 f8 bc e8 2f 06 be
       0.53190273 0.12644018 -0.030297847 -0.13104212

linear.bias f4 [128]
000000 15 cc 08 be 13 1d f6 3e 83 65 d3 3e c3 a3 0b 3e
       -0.13359101 0.48069057 0.41288385 0.13636689
000010 08 85 c2 bc db a5 c6 3e 10 65 1c bf e5 63 68 bf
       -0.023745075 0.38798413 -0.6109171 -0.90777427
000020 19 ab 8c 3e ab 7b 05 3f 9f 6a 5f bf e1 cb 72 be
       0.27474287 0.5214183 -0.87272066 -0.23710586
000030 45 4f 37 3f 3f fd 77 bf 86 fb 20 3f e3 cf 0e bf
       0.7160533 -0.968708 0.62883794 -0.5578596
000040 cc 78 26 bf 7d df 75 3f c0 9e 05 bf 40 99 51 bf
       -0.6502807 0.9604414 -0.5219536 -0.81874466
000050 bf 8e 30 bf 0c a6 f8 be c0 73 14 3d 1d 42 bc 3e
       -0.68967813 -0.48564184 0.0362432 0.3676919
000060 c7 4e 27 3f 53 8f 5e bf 8f ff 5b 3f 49 fc b0 3d
       0.6535458 -0.86937445 0.85936826 0.086418696
000070 c0 37 f6 be 21 30 d2 be dd 30 9a bd 33 0b e8 3e
       -0.4808941 -0.41052344 -0.07528851 0.45321044
000080 ee 1a 2a 3f 1b 5e 72 bf 33 9c 37 bf 36 be 4f bf
       0.6644734 -0.94674844 -0.71722716 -0.81149614
000090 e3 cd 11 bf c8 17 fc 3e a2 e2 8d ba 23 bf 58 3e
       -0.56954783 0.49236894 -0.0010824988 0.21166663
0000a0 6b d7 00 bf 91 20 43 3f 74 d6 71 3f f6 a4 d9 be
       -0.503287 0.7622157 0.94467854 -0.42508668
0000b0 90 41 e3 bd 03 36 08 3f f8 72 41 3f b7 41 e0 be
       -0.110964894 0.53207415 0.75566053 -0.43800136
0000c0 70 8f 37 3e 38 0e 2b bf 3d 7e 79 be fb fb c3 be
       0.17925811 -0.6681857 -0.24364562 -0.38278183
0000d0 12 84 7c 3f b8 02 b9 3d 44 88 f1 3d 3a 84 0f 3f
       0.98639023 0.09033722 0.11793569 0.56061137
0000e0 06 40 c7 be bd 0c 97 be 31 c7 26 3f bb 34 01 3f
       -0.38916034 -0.29501906 0.6514769 0.50471085
0000f0 32 65 3b 3e 2e 80 29 3f e8 c8 46 3f fe 14 9f 3e
       0.18300322 0.6621121 0.7765031 0.31070703
000100 e4 da 61 3f 17 fa a4 bd 02 e8 ce 3e 59 33 c5 be
       0.88224626 -0.08055513 0.40411383 -0.38515738
000110 88 65 00 bf 8e 3a 2e 3f 66 6c 24 3e 35 5e 5c be
       -0.50154924 0.680581 0.16056976 -0.21520312
000120 72 49 1e bf f8 1e 2c bf 41 3a 48 be 45 1c 92 be
       -0.6183082 -0.67234755 -0.19553472 -0.28537193
000130 53 7d 74 bf f7 96 9f 3d 07 dc 1e bf 58 95 2e 3f
       -0.9550373 0.07792466 -0.62054485 0.6819663
000140 ed da 70 bf 49 b9 5b 3f 47 fd 7e bf 60 44 7b 3f
       -0.94084054 0.858296 -0.9960522 0.98151207
000150 9e 46 0c be ce bc 6b 3f 37 e2 25 be 45 a4 79 bf
       -0.13698813 0.9208497 -0.16199575 -0.9751628
000160 b3 70 26 3f da 03 40 3f 74 35 af 3d e3 7d a6 be
       0.65015715 0.75005877 0.08555117 -0.3251792
000170 3b 84 39 bf 62 2f 35 bf 07 3b 40 bf b0 a2 09 bd
       -0.7246739 -0.70775425 -0.7509007 -0.033602417
000180 76 1e e5 be 39 93 0f bf ec df f3 3e 79 b0 3d bf
       -0.44749802 -0.5608402 0.47631776 -0.740974
000190 6e 52 da be af 23 17 bf b4 9c 50 bf d7 8b b7 be
       -0.42641014 -0.59038824 -0.8148911 -0.35848877
0001a0 ad 71 21 bf fb 12 07 3f f2 55 b4 bd af 27 8b bd
       -0.6306408 0.52763337 -0.08805455 -0.067946784
0001b0 6b 00 2f bc fa 72 79 3e 0d 79 39 3c 48 fb 76 3f
       -0.010681252 0.24360266 0.011320365 0.96477175
0001c0 0b 8b 9f 3c 5c 39 d9 3e cb 17 63 bf 92 24 54 bf
       0.01947548 0.42426574 -0.8870818 -0.828683
0001d0 7e 90 3f bf e4 2e 2f bf 81 2c 7c 3b 59 52 56 bc
       -0.7482985 -0.68430924 0.0038478675 -0.013081157
0001e0 de df 88 3c 6b 73 a6 3e d3 d4 7c bf a3 b6 3f bf
       0.01670831 0.32509932 -0.98762244 -0.74888057
0001f0 eb 85 0d bf 71 74 bb be e4 fd c3 3c 9f fe 3d bf
       -0.5528247 -0.36612275 0.023924775 -0.74216646

conv_0.weight f4 [128, 128]
000000 a8 91 a3 3d 70 79 2c bd 7f 16 07 be c1 eb 8f bd
       0.07986766 -0.042108 -0.13192175 -0.07027388
000010 a0 37 21 3d 2f 68 a0 3d 4e c3 a0 3c 2a d7 99 bc
       0.03935969 0.078323714 0.019624379 -0.018779356
000020 9d 87 a7 bd 5c c9 fa 3d 05 32 c2 bd 6d d7 19 3e
       -0.08180163 0.122454375 -0.09482197 0.15023585
000030 67 3c 04 be 72 8f 74 bb 71 9c 9f bd d4 bf c4 bd
       -0.12913667 -0.0037316945 -0.07793511 -0.09606901
000040 7d 74 52 bd 45 cd ea bd c9 6a 9f 3d 4a ac cf bd
       -0.051380623 -0.11464933 0.077840395 -0.101402834
000050 c3 3a bc 3d ed 59 25 3d 02 8b ef 3d f0 1a b5 bb
       0.091908954 0.040368963 0.116964355 -0.005526893
000060 93 a9 b7 bc 3a 8c 95 bc c0 38 fd bd 7d 7a 06 be
       -0.022419726 -0.018255342 -0.1236434 -0.13132663
000070 b7 fe 02 3e 9f 52 5b 3d 08 94 57 bd 71 a1 e6 bd
       0.12792479 0.05354559 -0.052631408 -0.11261261
000080 31 53 b2 3d 9e ce 01 be 2d b0 58 3d cf 4b 09 be
       0.08707274 -0.12676474 0.05290239 -0.13407825
000090 b2 b6 98 bd d7 c8 16 3e c6 75 93 3d e1 57 90 bb
       -0.07456721 0.14725052 0.07200198 -0.004405007
0000a0 c0 dc cb bd 47 88 7b 3d 26 da 8d 3d c0 69 b5 3d
       -0.09954214 0.06140926 0.06926374 0.08858061
0000b0 a1 a0 49 bd b9 cb a8 bd 8e f2 7c 3c f7 bb 48 3d
       -0.049225453 -0.08241982 0.015438689 0.049007382
0000c0 eb 8a a4 bc 58 ad 55 bd 88 63 ed bd 2e a5 e6 bd
       -0.020085772 -0.052167267 -0.1159125 -0.11261974
0000d0 40 e6 bf 3d c6 f8 17 be 76 5b fa 3d a2 c4 8b bd
       0.093700886 -0.14840993 0.12224476 -0.06824614
0000e0 0d 38 b4 bd cb 75 0c 3e 1c 2b b6 3c e0 64 b2 3c
       -0.08799753 0.1371681 0.022237353 0.021776617
0000f0 83 81 1b be a4 83 06 bd 5d e2 43 bd 53 8e 19 3d
       -0.15186124 -0.032840386 -0.0478233 0.037489247
000100 b6 8b 4a bb e5 d1 9e 3d 4e 41 b0 bb 07 30 b5 3d
       -0.0030906028 0.07754878 -0.0053788787 0.08847051
000110 2d 1b ec bd b1 77 a6 3d d1 75 1a 3e 09 e1 aa 3d
       -0.11528621 0.08128298 0.15084006 0.08343703
000120 3e 08 e4 3d 6b 36 fd bd 90 db 1d bc 93 c2 08 be
       0.111343846 -0.12363895 -0.009634867 -0.13355474
000130 3c 62 fb 3c 59 e5 b8 3c 68 00 67 bc 4c 97 14 be
       0.03068649 0.022570299 -0.014099218 -0.1451084
000140 c8 a7 f4 3d 51 25 a0 bd 24 3d 8f 3d 9d 7f b7 b9
       0.11946064 -0.078196175 0.069940835 -0.0003499956
000150 89 38 d3 bd 2c a5 87 bd ec ee c8 3d 49 e6 e6 bd
       -0.103135176 -0.06623301 0.09811196 -0.11274392
000160 1d a5 16 3e 11 27 ce bd d0 9e 92 bd d1 0f 9d 3d
       0.14711423 -0.10066045 -0.07159197 0.07669032
000170 4d 85 55 bc 71 cc 87 3c 28 52 77 bd ab 01 c3 ba
       -0.01303227 0.016576977 -0.060381085 -0.0014877816
000180 b4 2e 37 bd bd 31 f7 3d 4d 2f 02 3e a5 66 ac bc
       -0.044722274 0.12070034 0.12713356 -0.021045038
000190 1b 33 34 3c df 88 e1 bc 94 c3 35 ba 60 da db bd
       0.010998513 -0.027531086 -0.00069337455 -0.10735011
0001a0 85 b4 8e 3d 83 d6 06 3d a2 46 92 bd 8b 1d e8 bd
       0.06968025 0.032919418 -0.071423784 -0.1133376
0001b0 77 0f f9 3d 47 e2 64 3d a1 40 09 be 16 39 df 3d
       0.12161153 0.055879857 -0.1340356 0.1089956
0001c0 02 a0 e7 bb ed ef aa 3b 78 6b f3 bd 55 17 1a be
       -0.007068635 0.0052165897 -0.118857324 -0.15047963
0001d0 5b 59 13 be 0d 78 f4 3c 78 0f 16 be 00 cc 19 3e
       -0.14389555 0.0298424 -0.14654338 0.15019226
0001e0 56 6f fd bd eb 0d 31 3d 94 d8 60 3d 1f ad 16 3e
       -0.12374751 0.043226164 0.054894045 0.14714478
0001f0 50 e6 88 3d 82 8c 54 bd af 35 e2 bc 6a ba fd bd
       0.066845536 -0.05189181 -0.027613489 -0.12389071
000200 6b 7c 5b 3d 45 db 87 bd 02 b5 0f 3e aa fd c2 bd
       0.05358545 -0.06633619 0.14033893 -0.09521039
000210 01 46 05 3e 1c 79 7a 3d 4f 20 0c 3e 26 ad e8 3c
       0.13014986 0.061150655 0.136842 0.028402876
000220 43 06 69 3c 63 79 33 bd 38 48 4c bc 16 e5 65 3b
       0.014222684 -0.043816935 -0.01246839 0.0035079173
000230 f9 d6 cd 3d 34 a1 e6 bd c4 2b 81 3d 18 f4 96 3d
       0.100507684 -0.11261216 0.06307176 0.07370776
000240 aa bd bf 3d 84 31 58 3d d9 c6 f6 bd ca 8a a2 3d
       0.093623474 0.052781597 -0.12049646 0.07936628
000250 a2 b5 0a be ab d5 ea 3d 49 84 ef 3d 85 0b 9e 3b
       -0.1354585 0.11466535 0.11695153 0.0048231506
000260 5b 7a 1d be ed 99 f9 bc 3d 21 a7 3a 4f e5 92 bd
       -0.15378706 -0.030468905 0.0012750995 -0.071726434
000270 42 6b 34 3d 87 52 71 3c 6c e2 15 be 03 0d 3c 3d
       0.0440476 0.014729149 -0.14637154 0.045910846
000280 d2 62 03 3e 6d 63 c3 bd 40 60 02 be aa 37 d0 3d
       0.12830666 -0.09540448 -0.12732029 0.10166867
000290 12 71 df bd dc de 15 3e a8 d7 05 3c 57 39 87 3d
       -0.10910238 0.14635795 0.008169092 0.066027336
0002a0 6e dc a9 bd ca 4a 17 be 0a a2 61 bd be 67 c3 bd
       -0.08293997 -0.14774624 -0.055086173 -0.095412716
0002b0 fc 6b 1b 3e 65 4e 74 bd 78 7a 44 3c 00 4f 1c 3e
       0.15177912 -0.059645075 0.011992089 0.15264511
0002c0 dc ba f4 bc ac 2c ba bd 0b cf 29 bd 99 12 38 3d
       -0.029874258 -0.09090552 -0.041457217 0.04493961
0002d0 ab c7 0d 3d ff 2d 76 bd 6f 96 be 3b 74 81 e3 3d
       0.034614246 -0.06010246 0.005816273 0.111086756
0002e0 6d 04 9c bd af 96 44 3d 7e 8d fe 3d 69 24 2f 3d
       -0.07618032 0.047995266 0.12429331 0.042759333
0002f0 64 2f 97 3d 85 90 1a 3d 1b a0 9e bd a5 3d 11 3d
       0.07382086 0.03773548 -0.077453814 0.03545918
000300 e9 b4 37 3a d4 bd 05 3d 18 fa cc bc fe 09 1a 3e
       0.0007007854 0.032651737 -0.025021598 0.15042874
000310 d5 6f e7 3d c9 81 56 3d 0b c3 db 3c 08 7a 96 3d
       0.11300627 0.052369867 0.026826402 0.07347494
000320 e2 b3 c1 3d dc c8 ee ba 4d 8d 60 3d e3 12 e1 3a
       0.09458138 -0.001821782 0.054822255 0.0017171766
000330 40 8b c9 bc 80 b0 10 bc 9e 0f 16 be 58 2b a8 bc
       -0.024602532 -0.008831143 -0.14654395 -0.02052848
000340 5d bb 70 3d 06 93 ec 3d 9b b5 cd 3c 3f 4f ca 3c
       0.058772434 0.1155148 0.02511101 0.02469599
000350 11 f8 1a be c9 57 00 be 50 7f b3 bd dd 62 f0 bc
       -0.15133692 -0.12533487 -0.08764517 -0.029344017
000360 80 88 d4 3c f7 56 b6 bd 44 6a ba bc e8 d5 b5 bc
       0.025943995 -0.08903306 -0.02275575 -0.022196725
000370 a3 c4 f6 bd 83 06 47 3c e4 12 20 bd e8 6c 99 3d
       -0.12049224 0.012147549 -0.039080516 0.07491475
000380 92 d2 14 bb e7 f8 86 bc 57 2e af bd b6 c1 da bd
       -0.0022708517 -0.016476108 -0.085537605 -0.10681479
000390 fd b9 06 bd b4 54 06 3e b3 3b e4 3c 4e 40 be 3c
       -0.032892216 0.13118249 0.027860498 0.023224022
0003a0 07 5a 0a 3e cb 82 dd 3d e4 a8 b0 bb a9 a8 d6 3d
       0.13510905 0.108159624 -0.005391227 0.10481388
0003b0 dc e1 fa 3d 0a c9 0a 3e 9e 7d 01 3e f1 06 2c 3d
       0.122501105 0.13553253 0.12645575 0.041998807
0003c0 e6 4d c7 bc 4c 76 52 3c 5e fc 32 bd da 45 44 3c
       -0.024329137 0.012845587 -0.043697707 0.011979545
0003d0 76 28 06 be 5e 60 f9 bd dc c7 93 3d 7e 15 0b be
       -0.13101372 -0.12176584 0.072158545 -0.13582417
0003e0 13 32 4f bc 16 e0 00 3e 10 d0 e5 bd 92 ae 5d 3d
       -0.012646216 0.12585482 -0.112213254 0.05412156
0003f0 48 a1 73 3d bb 0b 99 bd 0b d0 ef bd e0 53 9e bd
       0.05947998 -0.074729405 -0.11709603 -0.07730842

conv_0.bias f4 [128]
000000 ac d9 81 3a 08 ef 7e ba dc 54 80 ba 82 84 81 ba
       0.000990679 -0.00097249495 -0.0009790915 -0.0009881409
000010 ad 08 84 ba 50 61 80 ba 5e 4e 80 ba 46 fa 81 3a
       -0.0010073386 -0.0009794626 -0.000978898 0.0009916506
000020 d1 9d 75 ba 3b 1e 81 ba 5f 25 7f ba c5 cf 7f ba
       -0.0009369525 -0.0009850928 -0.0009733047 -0.0009758438
000030 9a 1d 81 3a fd 69 4d ba 4c 08 81 ba af bb 7c ba
       0.0009850741 -0.0007835923 -0.0009844392 -0.0009641004
000040 2b f5 80 3a 87 a9 81 3a 51 b4 81 3a cd d9 81 3a
       0.0009838691 0.0009892442 0.0009895657 0.0009906829
000050 af 4c 80 3a e3 67 60 3a ef 74 81 3a e1 53 81 3a
       0.0009788478 0.0008560402 0.0009876768 0.0009866917
000060 43 f7 80 ba 57 52 80 3a 06 6f 80 3a dd 5d 82 3a
       -0.0009839315 0.0009790164 0.0009798713 0.0009946186
000070 81 0d 80 3a 80 30 81 ba 98 59 81 3a e1 eb 81 ba
       0.000976965 -0.0009856373 0.000986862 -0.0009912216
000080 5c 83 7f 3a a3 cc 7f ba f2 41 83 ba 80 d6 81 ba
       0.0009747052 -0.0009757971 -0.001001416 -0.0009905845
000090 11 28 84 3a 49 7a 7f 3a 91 5a 81 3a da fb 75 3a
       0.0010082742 0.00097457 0.000986891 0.0009383537
0000a0 a3 23 81 ba 10 c9 79 3a 71 7f 81 3a dc a7 7f ba
       -0.000985254 0.0009528557 0.00098799 -0.0009752491
0000b0 2a a7 82 3a d1 a8 81 3a 11 a8 81 3a 79 2c 82 3a
       0.0009968032 0.000989223 0.0009892007 0.0009931467
0000c0 f1 f5 7f ba a5 72 82 3a bb 48 83 3a a3 ff 7f 3a
       -0.0009764126 0.000995238 0.0010016182 0.0009765571
0000d0 27 14 81 ba 8a f7 82 ba 00 a3 64 3a 68 0b 80 ba
       -0.0009847925 -0.0009991985 0.00087217987 -0.0009769024
0000e0 fa 9f 82 3a 53 f2 81 ba 19 3a 78 3a 16 5d 80 3a
       0.000996589 -0.0009914137 0.00094691064 0.0009793367
0000f0 0d a5 7d 3a 43 5a 84 3a d9 ac e4 b9 6c a0 7a ba
       0.00096757786 0.0010097701 -0.0004361633 -0.0009560648
000100 84 fb 75 ba ee 75 80 ba 9b 61 81 ba ff 4c 81 3a
       -0.0009383487 -0.0009800771 -0.0009871008 0.0009864866
000110 5f cf 7b 3a 8b 98 7f 3a 06 eb 7f 3a b2 14 81 3a
       0.0009605791 0.00097502087 0.0009762499 0.0009848087
000120 5a 32 70 3a 42 24 81 ba a2 85 81 3a b0 3b 81 3a
       0.00091627764 -0.0009852725 0.0009881745 0.0009859707
000130 5c 21 82 3a dc 2c 79 3a bc 02 82 ba 07 31 74 3a
       0.0009928155 0.0009505281 -0.0009919028 0.0009315167
000140 76 27 81 ba a0 51 84 39 e1 1f 82 ba b9 03 7d ba
       -0.0009853679 0.00025237817 -0.0009927714 -0.0009651739
000150 3b 53 81 3a b6 5b 79 ba 2e 56 80 ba 9f 07 84 ba
       0.0009866724 -0.0009512262 -0.0009791309 -0.0010073072
000160 c8 05 81 ba d8 49 80 3a 96 36 7a ba 1c 53 80 ba
       -0.0009843642 0.0009787632 -0.0009544877 -0.0009790394
000170 25 90 7f 3a 4c 67 80 3a fb fb 7f ba d0 17 7c 3a
       0.0009748957 0.000979641 -0.0009765026 0.00096165854
000180 4e 7f 81 3a 28 0d 81 3a 31 3f 81 3a d4 ba 81 ba
       0.0009879859 0.000984584 0.0009860751 -0.0009897598
000190 9c 77 80 ba d6 b5 7f 3a 60 69 83 3a 61 d5 82 ba
       -0.0009801271 0.00097545737 0.0010025911 -0.0009981805
0001a0 13 34 81 ba 8b c2 81 3a 74 70 7d 3a dc 95 7a 3a
       -0.0009857438 0.0009899897 0.0009667941 0.0009559074
0001b0 ae cc 81 3a 51 3e 7d ba d3 87 7e 3a 48 08 82 ba
       0.0009902918 -0.000966047 0.00097095704 -0.0009920681
0001c0 57 3e 4b ba 8c 09 80 3a 1f bc 82 ba b7 d5 7b ba
       -0.0007753125 0.000976847 -0.0009974277 -0.0009606736
0001d0 5d f2 80 ba b3 04 80 ba ad 2d 81 ba 84 fa 84 3a
       -0.0009837855 -0.0009767025 -0.0009855531 0.001014546
0001e0 0d 6c 83 3a f4 6e 7f ba f6 66 80 ba 78 69 7f ba
       0.0010026708 -0.00097440113 -0.000979631 -0.0009743194
0001f0 82 3a 81 3a 7a f6 80 ba 00 fb 7a ba 3a 9d 6d ba
       0.0009859356 -0.0009839081 -0.0009574145 -0.0009064261

layers.0.weight f4 [128, 128]
000000 55 3f b6 bc e9 88 eb bd cc 3a 13 be 3a 83 ab 3d
       -0.022246996 -0.11500723 -0.14377898 0.08374639
000010 2e 51 b8 bd 60 dc 67 3d 1d 8f 9d bd d0 72 2c bc
       -0.08999859 0.05660665 -0.07693312 -0.01052542
000020 c3 13 8b bd 4e e9 4e bd b1 f5 4e 3d 4c cd ca bd
       -0.067908786 -0.050515465 0.05052728 -0.099024385
000030 f6 1e 82 3d 65 96 ce bd ce 96 13 be ed e0 19 3e
       0.063535616 -0.10087279 -0.14412996 0.15027209
000040 f9 bf 0c be eb 95 06 3d 7b 04 00 3e 23 bb a0 bd
       -0.13745107 0.032857817 0.12501709 -0.078481935
000050 23 60 d5 bd 4c 40 e3 bb 4d df c5 3d aa 01 04 be
       -0.10418727 -0.006935155 0.09661732 -0.1289126
000060 78 d4 77 bd 8e 0b 04 bd b3 de f9 bb c2 24 f2 bd
       -0.06050536 -0.032237582 -0.007625425 -0.11823417
000070 fb 1f 14 3d e6 44 fb 3d 0d b8 c7 3d 87 18 0b 3d
       0.03616331 0.12269001 0.09751902 0.033958938
000080 c9 1d 99 bc df 10 40 bd 9d 07 01 3e 76 c1 f0 bd
       -0.01869096 -0.04689109 0.1260056 -0.1175565
000090 1a 1e 1a 3e 26 43 63 bd cf 9e 2b bd d3 11 8d 3d
       0.15050545 -0.05548396 -0.0418995 0.06888165
0000a0 21 56 62 3d a4 4a d8 3d 69 51 23 bd 9b 45 e8 3d
       0.05525792 0.105611116 -0.03987256 0.11341401
0000b0 cd 80 36 bd 48 a7 d3 bb 55 0a f6 bd 1d 3e b0 3d
       -0.044556428 -0.0064591505 -0.120136894 0.08605597
0000c0 5c b5 ca bd f8 f1 27 bd 3b 04 8d 3d 49 58 9a 3d
       -0.09897873 -0.041002244 0.068855725 0.0753637
0000d0 cc 53 c5 bd 3f a3 d0 bd 26 e1 e1 3d 2b 38 ba 3d
       -0.096351236 -0.10187387 0.11029272 0.090927444
0000e0 c2 49 f4 bd 93 e7 3b 3d 83 e5 10 be d7 a4 c8 bd
       -0.11928131 0.045875143 -0.14150052 -0.09797066
0000f0 bb 24 2c bd 36 a6 55 bd 9f 56 13 3e 2e 4e a8 bd
       -0.042027216 -0.052160464 0.14388512 -0.082180366
000100 e8 d7 04 be f6 9f f2 bb 59 1c 0c 3d eb c2 14 3e
       -0.12972987 -0.0074043227 0.034206722 0.1452748
000110 20 83 73 3d d1 e0 c9 3d d0 e5 d2 bc 7b 70 04 bd
       0.059451222 0.098573335 -0.025744349 -0.032333832
000120 09 c8 2e bd da df 48 bd 26 7a 1d 3e 0d df ae 3d
       -0.042671237 -0.049041606 0.15378627 0.08538637
000130 77 e8 58 3d 92 ae 5f bd be 74 dd bd c7 af bf bd
       0.05295607 -0.054609843 -0.108132824 -0.09359699
000140 8e 21 8e bd 3c be ad 3c a4 56 47 bd 70 ed bd 3d
       -0.06939994 0.021208875 -0.04866661 0.09273803
000150 77 88 02 be 71 ab eb bb ac 17 9b bd cc 14 c0 3d
       -0.1274737 -0.0071920683 -0.075728744 0.09378967
000160 2c ab db 3d bf b8 02 3e f1 df 00 be de 98 03 3e
       0.10726008 0.12765788 -0.12585427 0.12851283
000170 77 86 ca bd 3c a6 8c bd 44 0d cf bd dd e8 fd bc
       -0.098889284 -0.06867644 -0.10109952 -0.030994827
000180 21 2b ec 3d 47 30 0f 3e fd 2f 1b 3e 95 76 6f bd
       0.11531664 0.1398326 0.15155025 -0.058462698
000190 3b de 52 3d 8d 6b d1 3c 02 df 92 bd 1d 0d 01 be
       0.051481467 0.02556398 -0.071714416 -0.12602659
0001a0 11 cd 94 3d 01 ac 83 bd 41 5e d5 bd 41 b3 63 bc
       0.07265676 -0.064292915 -0.10418368 -0.013897718
0001b0 ff 48 e9 3d 78 8b ff 3b 63 30 86 bd a7 47 17 bd
       0.11390876 0.0077986084 -0.06552198 -0.036933567
0001c0 b6 36 01 3c 74 78 df bd 68 f2 10 3d fa 0d d5 bd
       0.007886579 -0.109116465 0.035387427 -0.104030564
0001d0 a1 81 2b bd b5 8c 2d 3d f3 fe b8 3d aa 9b 11 3e
       -0.04187167 0.042370517 0.09033003 0.14219537
0001e0 29 4e 46 3d 46 ac 0b be f6 42 16 bb 80 de 2d 3c
       0.048414383 -0.13639936 -0.0022928095 0.01061213
0001f0 ca c4 92 3d 47 ec 14 be 39 35 0e 3e 36 3b e5 bd
       0.07166441 -0.14543258 0.1388749 -0.11192934
000200 b9 25 19 3e 1f 0b b3 bd 5e 47 cc bc 3f db e6 bd
       0.14955796 -0.087423556 -0.024936374 -0.112722866
000210 15 70 b8 3d 20 33 c7 bd 3d ca 8f 3d ec bf cd bd
       0.09005753 -0.09726548 0.07020996 -0.10046372
000220 7b 8b af 3d db dc 96 bd 3d 46 17 3e f2 8f f7 bc
       0.08571526 -0.073663436 0.14772888 -0.030220006
000230 f4 c0 5c 3d cc 2d ad bd e2 c1 a1 3d 86 bd 99 3d
       0.053894952 -0.08456001 0.07898308 0.07506852
000240 41 31 07 3e 2d 01 b7 bd 1a 05 a3 bd 26 e4 c0 bd
       0.13202383 -0.08935771 -0.079599574 -0.09418516
000250 d3 42 c5 bd 21 e0 12 3e 0f 9a d3 bd ba 07 c5 3c
       -0.09631886 0.14343311 -0.10332119 0.024051536
000260 01 d3 36 bd 6a 71 e6 3c 17 e8 04 3e dd 29 6f 3d
       -0.044634823 0.028130252 0.1297916 0.058389533
000270 9f 44 18 be c6 3a e5 3d a9 b7 16 be c2 87 e8 bd
       -0.14869927 0.11192851 -0.14718498 -0.11354019
000280 46 11 b6 3c 18 ed 8c bc e6 a9 df bd 9e ed 92 bd
       0.022225033 -0.017202899 -0.109210774 -0.07174228
000290 69 76 a8 bd 61 72 fb bd 6e 51 b9 3d 33 b6 93 3d
       -0.0822571 -0.122776754 0.090487346 0.07212486
0002a0 b3 57 e5 3c ba 88 fd bc 27 8f 85 bd 00 a8 2f 3c
       0.02799592 -0.030948985 -0.06521445 0.010721207
0002b0 11 e0 ce bd e4 8c 59 bd 69 67 95 3d 41 53 1a 3e
       -0.10101331 -0.05311288 0.072951145 0.15070821
0002c0 ed 30 d1 bd 20 c6 59 3d 54 8d 7e bd 74 83 72 3d
       -0.1021441 0.053167462 -0.0621465 0.059207395
0002d0 ea e2 ff 3c 0f 3c dd bd 4d a8 7e 3d e5 d0 b5 3d
       0.03123613 -0.10802471 0.062172223 0.08877734
0002e0 58 2e 0b 3e b5 26 b5 3d 04 0b de 3c d0 37 32 bc
       0.13591897 0.088452734 0.027104862 -0.010877565
0002f0 9a 93 90 3d f2 11 d7 3d 3f f5 fc bc dd ab 46 3d
       0.07059403 0.1050147 -0.030878661 0.048503745
000300 fc c3 e6 bd 2d 8c a5 bb 4a 11 3a 3d 3b da 37 bc
       -0.1126785 -0.0050521106 0.045426644 -0.011221464
000310 af dd ca bd b6 da 46 bd f5 98 47 bd 77 3d 19 be
       -0.09905564 -0.048548423 -0.048729856 -0.14964853
000320 9b 89 81 3d 91 5c d8 bd bf 53 f8 bd 32 67 70 3d
       0.06325074 -0.10564531 -0.12125348 0.058692165
000330 c3 43 de 3d 1b fd c1 bd b0 10 03 be f9 22 d4 bd
       0.10852768 -0.09472104 -0.12799335 -0.10358233
000340 cd 8a 82 3d 6c 19 7b bd b4 0d ff bd ec 2d 6a 3d
       0.063741304 -0.06130354 -0.124537855 0.0571727
000350 6c 3e ba bd 1b 63 67 3d b6 7a a7 bd 0a 1f 0c 3a
       -0.09093937 0.056491 -0.08177702 0.00053452014
000360 23 43 06 be 59 61 b7 bd 83 35 ef bc 33 75 88 bd
       -0.13111548 -0.089541145 -0.029200321 -0.06662979
000370 1e 36 b3 3d 43 03 07 be 6e 5f f6 bd dd d5 13 3e
       0.087505564 -0.13184838 -0.120299205 0.14437051
000380 3f 94 7a bd 58 09 27 3d eb 3b 30 bd 1a 8b 4f 3d
       -0.061176535 0.040780395 -0.043025892 0.050669767
000390 b5 84 07 be 92 1c ea 3d e8 6f c2 bd 7c cf 81 3c
       -0.13234217 0.114312306 -0.09494001 0.015846007
0003a0 92 ed b1 3d da 28 ff bd e4 45 20 3d 8a 5e bb 3d
       0.08687891 -0.12458964 0.039129153 0.09148891
0003b0 d4 ae 1c 3d f4 06 14 3e 66 c6 10 3d 5e af 6a 3d
       0.038252667 0.14455777 0.035345457 0.05729615
0003c0 8b 2e d7 3c 6e ae 14 be 5f b9 8f bd 4d 6d 07 be
       0.02626731 -0.14519665 -0.070177786 -0.13225289
0003d0 ae 91 89 bd 4e b5 8f bd ca ad ce bd b3 a8 14 3e
       -0.06717239 -0.07017003 -0.100917414 0.14517479
0003e0 26 9b 0c 3b 47 7b 19 3e a0 9d 71 bd de fc 16 be
       0.002145478 0.14988433 -0.058988214 -0.14744899
0003f0 26 41 14 3e 6f df 86 bd 7e 45 82 bd ec 10 d2 bd
       0.14477977 -0.06585585 -0.06360911 -0.10257134

layers.0.bias f4 [128]
000000 50 c8 82 3a 28 70 82 3a a1 02 83 ba cc c2 82 ba
       0.0009977911 0.0009951638 -0.000999529 -0.0009976267
000010 72 7e 82 3a 0d 9c 82 3a 3f bd 82 3a 4c bd 82 3a
       0.0009955897 0.000996472 0.0009974613 0.0009974628
000020 b8 52 82 3a 9d 19 83 3a 72 99 82 3a ea 8b 82 3a
       0.0009942865 0.001000214 0.0009963943 0.000995991
000030 e1 c1 82 ba 32 d4 82 ba 39 9c 82 ba 5c 96 82 3a
       -0.0009975993 -0.0009981452 -0.0009964771 0.0009963023
000040 a9 bc 82 ba bf 9e 82 3a 57 9f 82 ba 98 bf 82 ba
       -0.0009974438 0.0009965523 -0.00099657 -0.0009975312
000050 80 bc 82 ba b6 97 82 3a 6c a0 82 3a fd c7 82 3a
       -0.000997439 0.0009963426 0.0009966022 0.0009977814
000060 ac bc 82 ba 08 c9 82 ba f3 a0 82 ba dc 92 82 3a
       -0.0009974441 -0.0009978125 -0.000996618 0.000996198
000070 c6 bf 82 ba 7b 9e 82 3a d4 7b 82 ba 7e 94 82 ba
       -0.0009975366 0.0009965444 -0.0009955117 -0.0009962467
000080 e1 97 82 3a 90 9e 82 ba 7c 9e 82 ba 89 73 82 ba
       0.0009963476 -0.0009965468 -0.0009965445 -0.0009952645
000090 c4 9c 82 3a 7d c1 82 ba 82 74 82 ba 3d 96 82 ba
       0.0009964933 -0.0009975877 -0.0009952935 -0.0009962987
0000a0 4c c1 82 ba 64 92 82 3a 94 9b 82 3a c5 20 82 ba
       -0.000997582 0.0009961841 0.0009964579 -0.0009927979
0000b0 af c2 82 ba 9c cd 7f 3a 23 bc 82 ba 72 c1 82 3a
       -0.0009976233 0.0009758116 -0.0009974282 0.0009975864
0000c0 c5 82 82 3a 17 85 82 ba f9 51 82 3a 2c d6 82 ba
       0.0009957185 -0.0009957877 0.0009942643 -0.0009982041
0000d0 8f ce 82 3a 3b 9f 82 3a 02 97 82 ba 90 e5 82 3a
       0.0009979772 0.0009965667 -0.0009963217 0.0009986628
0000e0 83 e8 82 3a 94 cc 82 ba de a0 82 ba a5 c9 82 ba
       0.0009987507 -0.0009979182 -0.0009966155 -0.0009978308
0000f0 29 bd 82 3a 11 a1 82 ba 3e 74 82 ba e1 c3 82 3a
       0.0009974587 -0.0009966214 -0.0009952856 0.0009976589
000100 6a 66 82 3a ee 98 82 ba dc 85 82 ba 4d c9 82 3a
       0.0009948735 -0.000996379 -0.0009958106 0.0009978205
000110 da 8b 82 ba cf bb 82 3a 0a 9b 82 3a 1c 9a 82 3a
       -0.0009959892 0.0009974184 0.0009964418 0.0009964141
000120 dc 3b 83 3a 3a 8b 82 3a 27 8b 82 3a 37 af 81 ba
       0.0010012346 0.0009959706 0.0009959684 -0.0009894137
000130 b3 d5 83 ba 31 90 82 ba 40 7c 82 3a 88 9a 82 3a
       -0.0010058194 -0.0009961185 0.0009955242 0.0009964267
000140 1c 6d 82 3a 4b 16 83 3a e0 5b 83 ba 34 31 80 3a
       0.000995073 0.0010001151 -0.0010021888 0.0009780289
000150 bd 99 82 3a 88 d4 82 ba 4c 9f 82 3a d0 bb 82 3a
       0.000996403 -0.0009981552 0.0009965687 0.0009974185
000160 42 c8 82 3a 0b 99 82 3a 59 c5 82 ba 7b 9f 82 ba
       0.0009977894 0.0009963823 -0.0009977027 -0.0009965742
000170 53 79 82 ba fa 8b 82 3a fe 98 82 3a bc d9 81 ba
       -0.000995437 0.0009959929 0.0009963808 -0.0009906809
000180 aa 99 82 3a 17 9a 82 ba ba 9e 82 3a ee 99 82 3a
       0.0009964008 -0.0009964135 0.0009965517 0.0009964088
000190 02 c1 82 ba bf 9f 82 ba 90 6e 82 3a 7c fe 82 ba
       -0.0009975734 -0.0009965821 0.0009951163 -0.0009994055
0001a0 25 d5 82 3a 7b d8 82 3a 36 87 82 ba 10 2b 83 3a
       0.0009981735 0.0009982729 -0.0009958509 0.001000734
0001b0 87 be 82 3a e5 c3 82 3a 84 6a 34 ba 0d c3 82 ba
       0.0009974994 0.0009976594 -0.0006882327 -0.0009976343
0001c0 54 be 82 3a f5 bd 82 ba 8f 9e 82 ba 16 7c 82 3a
       0.0009974935 -0.0009974824 -0.0009965467 0.0009955193
0001d0 52 af 82 ba 8d be 82 3a 9f 90 82 3a be 0b 82 ba
       -0.0009970462 0.0009975001 0.0009961313 -0.0009921712
0001e0 9c c7 82 3a 59 be 82 ba 28 d4 82 ba 0c c6 82 ba
       0.0009977701 -0.0009974941 -0.000998144 -0.0009977235
0001f0 47 a1 82 ba b2 9c 82 3a c3 9f 82 ba 4c 96 82 3a
       -0.0009966277 0.0009964912 -0.0009965826 0.0009963005

predict.weight f4 [1, 128]
000000 78 96 3a 3d 2f a2 92 3c 5c 6e 65 bc ec ef 6e bd
       0.045553654 0.0178996 -0.0140033625 -0.058334276
000010 3a 67 c3 3c c5 44 7a 3d bd 29 a4 3d a2 eb a3 3d
       0.023852933 0.06110074 0.080157734 0.08003928
000020 7f c0 48 3c 44 cb 34 3c 70 10 60 3d 28 9d 07 3d
       0.012252926 0.01103479 0.054703176 0.03310886
000030 7f 00 7a bd 57 a1 fe bc 45 8a 7f bd 01 f6 41 3d
       -0.06103563 -0.031082792 -0.062387723 0.04735375
000040 d8 2f ab bd aa 89 94 3d 90 b4 9a bd dd f4 8c bd
       -0.08358735 0.0725282 -0.07553971 -0.068826415
000050 6a ab ac bd 63 7d 42 3d ce ea a5 3d c8 db 3c 3d
       -0.08431132 0.04748286 0.08101426 0.046108037
000060 38 1f ab bd b3 be 36 bd 8b 37 ac bd e8 29 29 3d
       -0.08355564 -0.04461546 -0.084090315 0.04129973
000070 a7 6a 8b bd 86 f8 90 3d 8d 6b 76 bc d2 e6 34 bd
       -0.06807452 0.07078652 -0.015040291 -0.04416544
000080 20 3b 4f 3d 8d df 92 bd 19 58 92 bd 1c 41 9c bc
       0.050593495 -0.07171545 -0.071457095 -0.019074015
000090 18 1c 83 3d 89 ac 7d bd b9 7c 9d bc e3 77 40 bd
       0.06401843 -0.06193212 -0.019224511 -0.046989333
0000a0 53 c1 81 bd 7e 21 27 3d 67 5d 77 3d fc 42 02 bc
       -0.06335702 0.040803425 0.06039181 -0.007950541
0000b0 14 7d 6e bd 09 64 af 3a a7 1b b2 bd c6 40 7f 3d
       -0.058224753 0.0013381253 -0.086966805 0.062317632
0000c0 55 dc d6 3c fe 8c 93 bc 55 3f 4a 3c 04 9d f1 bc
       0.02622811 -0.018011566 0.012344201 -0.029493816
0000d0 98 f1 16 3d b6 bd 98 3d e1 99 47 bd 13 2a ae 3c
       0.036851496 0.074580595 -0.048730735 0.021260297
0000e0 77 27 a6 3c 2f 93 1f bd e2 40 a5 bd 0b ac 32 bd
       0.02028249 -0.038958725 -0.08069016 -0.043621104
0000f0 d4 6c a6 3d 68 62 a9 bd ff fd a0 bc 1e c8 62 3d
       0.08126226 -0.08270723 -0.019652365 0.055366628
000100 ec 13 82 3c a4 a7 59 bd 9e 79 e7 bc 22 c0 33 3d
       0.01587864 -0.05313839 -0.028256234 0.043884404
000110 d9 57 07 bd 47 c7 b6 3d a8 5d 41 3d 51 b2 66 3d
       -0.033042762 0.08924728 0.04720846 0.0563224
000120 72 1b 09 3c 78 97 05 3d d0 2d 03 3d 62 d5 8c bb
       0.00836836 0.032615155 0.032026112 -0.004297898
000130 e8 bf 81 bb 6c 37 1b bd 0d 6e ba 3c 6a 9f 69 3d
       -0.0039596446 -0.03789465 0.022757554 0.057036795
000140 b9 d6 8f 3c 80 fb 39 3c a3 20 e0 bb c2 32 c8 3a
       0.017558442 0.011351466 -0.006839828 0.0015273916
000150 ed 93 61 3d b9 57 fd bc 43 63 99 3d 76 11 b6 3d
       0.055072714 -0.030925618 0.07489636 0.08890049
000160 65 e5 3a 3d c7 f8 52 3d 1b cd 52 bd 39 9c 9b bd
       0.045628924 0.051506784 -0.051465135 -0.075981565
000170 35 57 b0 bc d9 e4 07 3d 2b 51 58 3d 50 fc aa bb
       -0.021525959 0.03317723 0.052811783 -0.0052180663
000180 a7 11 61 3d 3c 34 66 bd 3a fd 93 3d 83 ce 63 3d
       0.054948475 -0.05620216 0.072260335 0.055616867
000190 66 f1 81 bd c9 ed 9a bd 71 ce 91 3c 07 bc 71 bc
       -0.06344871 -0.07564885 0.017798634 -0.014754302
0001a0 83 68 f8 3c fe 93 e0 3c 72 41 e9 bc 4f 2f 1c 3c
       0.030323273 0.027414318 -0.02847359 0.009532764
0001b0 2d 6c 96 3d 03 86 61 3d b4 13 df 39 5d 20 6a bd
       0.07344852 0.055059444 0.00042548554 -0.05715977
0001c0 00 e5 99 3d 16 8f 9c bd d3 e5 91 bd a4 04 b8 3c
       0.075143814 -0.07644479 -0.071239136 0.02246315
0001d0 ba 00 53 bd 5a b1 96 3d b2 f4 1c 3d f6 90 e2 bb
       -0.051514365 0.07358046 0.038319297 -0.0069142533
0001e0 a0 5a 40 3d 7c da 98 bd 78 9d ff bc 22 72 4c bd
       0.046961427 -0.074635476 -0.031203017 -0.049913533
0001f0 50 02 a6 bd bc 96 83 3d 18 8c 9a bd a1 77 3f 3d
       -0.0810591 0.06425235 -0.07546252 0.046744946
