PERGAT_embbedding/data/emb/models/model_dim128_lay2_epo107.pth (torch, 137100 bytes, 7 tensors)

linear.weight f4 [128, 1]
0.45540392 0.45212305 -0.27963126 0.25862217 -0.73433125 -0.60793865 0.8191674 0.597538
-0.46934938 -0.22791696 -0.82315433 0.2198366 0.3023752 -0.6784718 0.56010306 0.2467891
-0.87468994 -0.58543015 -0.3174126 -0.047436833 -0.7197348 0.11538887 0.7946615 0.39119995
-0.89498544 -0.1288917 -0.7705282 -0.65921915 -0.42938912 -0.0898 0.5527885 -0.39603043
-0.5391997 0.86894155 -0.9316195 0.47120035 0.47846115 -0.15340233 0.8160471 -0.99514115
0.6975441 -0.2283305 -0.75223875 0.23213577 -0.07974994 -0.243034 0.17658043 0.5202681
-0.90044594 0.040708303 -0.014989853 0.38625145 -0.02805841 -0.467407 -0.3603959 -0.687636
0.5081965 0.81944025 0.32450354 0.29673183 0.85583055 -0.08217883 -0.3227842 -0.63051975
-0.40021372 0.92154574 -0.66464484 0.59311616 -0.99985456 0.49745107 -0.8774921 0.60124433
0.7626816 -0.2240094 0.84291315 -0.45308316 -0.19562912 0.28831625 -0.70107424 0.6929517
0.049134374 0.447384 -0.5411676 0.8495145 0.7812424 -0.3278501 0.84292305 -0.03901577
0.076274276 -0.2783717 0.07296538 -0.5669309 -0.66475415 -0.41879213 -0.9573026 -0.5638503
0.12641227 -0.6334119 0.47072148 0.39370728 0.41218758 0.7439567 -0.42709446 0.6629225
-0.34550703 0.55482554 -0.6488267 -0.88904893 0.94348955 0.15273106 0.80030024 0.08264625
0.3056612 0.36861825 -0.56087923 -0.6667738 0.9892957 0.29517365 -0.63347864 -0.717064
-0.72653997 -0.76548827 -0.7803929 0.778275 -0.3000977 -0.9374721 -0.17701066 -0.9058081
00000000: b42a e93e ac7c e73e d42b 8fbe 206a 843e
00000010: 22fd 3bbf dea1 1bbf f4b4 513f 40f8 183f
00000020: 904e f0be 1063 69be 3eba 52bf d81c 613e
00000030: ecd0 9a3e 54b0 2dbf ea62 0f3f 48b6 7c3e
00000040: aeeb 5fbf c0de 15bf e883 a2be 204d 42bd
00000050: 8a40 38bf 0051 ec3d f06e 4b3f 5c4b c83e
00000060: c41d 65bf 30fc 03be 5641 45bf 96c2 28bf
00000070: e4d8 dbbe 10e9 b7bd 8c83 0d3f 80c4 cabe
00000080: fe08 0abf f472 5e3f 9e7e 6ebf 2c41 f13e
00000090: dcf8 f43e 8015 1dbe 76e8 503f 92c1 7ebf
000000a0: 4092 323f 78cf 69be b892 40bf 00b5 6d3e
000000b0: f053 a3bd e8dd 78be 80d1 343e 4a30 053f
000000c0: a083 66bf c0bd 263d 0098 75bc c0c2 c53e
000000d0: c0da e5bc f84f efbe d085 b8be ea08 30bf
000000e0: 2a19 023f d6c6 513f 5425 a63e 3ced 973e
000000f0: b617 5b3f 604d a8bd f843 a5be be69 21bf
00000100: d0e8 ccbe 6cea 6b3f 2a26 2abf 76d6 173f
00000110: 78f6 7fbf e8b1 fe3e 52a3 60bf 26eb 193f
00000120: 1a3f 433f b862 65be 28c9 573f 84fa e7be
00000130: 0053 48be 309e 933e 9a79 33bf 4865 313f
00000140: 2041 493d 840f e53e f689 0abf c879 593f
00000150: 80ff 473f f8db a7be cec9 573f 00cf 1fbd
00000160: b035 9c3d bc86 8ebe e06e 953d 6222 11bf
00000170: 542d 2abf ec6b d6be c811 75bf 7e58 10bf
00000180: 3872 013e 4827 22bf 6802 f13e 0094 c93e
00000190: 400a d33e f273 3e3f 20ac dabe 4ab5 293f
000001a0: 4ce6 b0be 0c09 0e3f 8219 26bf b698 63bf
000001b0: 8888 713f 8865 1c3e 7ae0 4c3f 7042 a93d
000001c0: a07f 9c3e 88bb bc3e c895 0fbf b0b1 2abf
000001d0: 7c42 7d3f 0021 973e a82b 22bf 8291 37bf
000001e0: 86fe 39bf 0af7 43bf d4c7 47bf 083d 473f
000001f0: 68a6 99be 2cfe 6fbf 4842 35be 0ae3 67bf

linear.bias f4 [128]
-0.31165653 0.98966736 -0.22093566 0.7351732 -0.24569456 0.5172239 -0.37879682 0.68371975
-0.8247976 -0.6288885 0.9991637 0.9830743 0.24653473 -0.10683471 -0.90458345 0.6330584
0.35593137 0.3967932 0.66811085 0.8932374 -0.9117165 -0.26334545 -1.0043744 -0.46846363
-0.3747099 1.0077537 0.29174823 0.7520207 -0.25125057 -0.8584177 0.063078605 0.6720099
0.7794169 -0.6629919 -0.32861844 -0.38217184 0.980872 0.77472687 -0.7308859 0.60140646
0.22736521 -0.87914866 0.57824016 -0.31768784 -0.85122156 -0.4863135 0.16198869 -0.18264371
0.13036238 0.60665035 0.48630542 0.81778497 0.43460348 0.7595021 -0.11830129 -0.00065497955
-0.63633543 -0.37027156 0.7575572 0.08454758 0.19805619 -0.59007865 -0.59693384 0.69195086
-0.9186221 0.96659595 0.5734122 0.31683472 0.4882449 0.8858123 -0.5238476 0.46002537
-0.1659416 0.36213893 -0.37585464 0.1218899 0.32155052 -0.96023715 -0.25525078 0.47081867
-0.11210591 0.9264338 0.19915849 0.31726354 -0.61237746 0.09014071 0.26253775 -0.18833382
-0.524943 -0.30660444 0.9804103 -0.8052368 0.0022310491 -0.39086592 -0.21715373 0.14331137
-0.8697523 0.06399916 0.7709168 -0.18789946 -0.9184318 0.49702984 -0.39291364 0.80128545
-0.051992957 0.7318284 -0.4874802 0.7461883 -0.17646623 -0.6439406 -0.6184768 -0.57891595
-0.09424642 0.75026625 0.6023118 -0.6348805 0.6292627 -0.40372366 0.9580161 -0.15781967
0.22172157 0.7833507 0.8033832 -0.6868105 -0.88001394 -0.68144155 0.30122527 0.18122607
00000000: 7291 9fbe d75a 7d3f f53c 62be 5034 3c3f
00000010: 5b97 7bbe c968 043f a8f1 c1be 4208 2f3f
00000020: ef25 53bf d6fe 20bf 31c9 7f3f c2aa 7b3f
00000030: 9a73 7c3e 28cc dabd c892 67bf 1e10 223f
00000040: a33c b63e 7a28 cb3e 5009 2b3f 35ab 643f
00000050: 4166 69bf 37d5 86be 578f 80bf 77da efbe
00000060: fad9 bfbe 13fe 803f 0660 953e 6e84 403f
00000070: eaa3 80be 43c1 5bbf 5b2f 813d d708 2c3f
00000080: de87 473f d6b9 29bf ad40 a8be 07ac c3be
00000090: 6d1a 7b3f 8054 463f 571b 3bbf c6f5 193f
000000a0: 6dd2 683e e30f 61bf 8c07 143f fba7 a2be
000000b0: a8e9 59bf 15fe f8be 5de0 253e f406 3bbe
000000c0: b77d 053e 704d 1b3f 06fd f83e 5b5a 513f
000000d0: 5984 de3e bb6e 423f f247 f2bd efb2 2bba
000000e0: e1e6 22bf 3c94 bdbe 45ef 413f 4827 ad3d
000000f0: 3ecf 4a3e 650f 17bf a8d0 18bf b123 313f
00000100: d12a 6bbf d572 773f 24cb 123f 2938 a23e
00000110: 3cfb f93e 98c4 623f e01a 06bf 7288 eb3e
00000120: 98ec 29be 466a b93e 0570 c0be 69a1 f93d
00000130: 45a2 a43e 1ad2 75bf 3bb0 82be 250f f13e
00000140: c997 e5bd c42a 6d3f 34f0 4b3e 5e70 a23e
00000150: c5c4 1cbf b19b b83d 596b 863e 95da 40be
00000160: aa62 06bf 42fb 9cbe 2bfc 7a3f 0024 4ebf
00000170: cb36 123b 941f c8be 8c5d 5ebe 37c0 123e
00000180: 16a8 5ebf fe11 833d ce5a 453f b768 40be
00000190: 591e 6bbf b27a fe3e fa2b c9be 0b21 4d3f
000001a0: 91f6 54bd 1b59 3b3f 0197 f9be 3206 3f3f
000001b0: 90b3 34be 4bd9 24bf 7f54 1ebf d633 14bf
000001c0: 4404 c1bd 7311 403f 1b31 1a3f 8787 22bf
000001d0: 5c17 213f deb4 cebe 8b40 753f 7b9b 21be
000001e0: fb0a 633e ac89 483f 85aa 4d3f d0d2 2fbf
000001f0: 9848 61bf f472 2ebf 333a 9a3e 5493 393e

conv_0.weight f4 [128, 128]
-0.00093862624 -0.031432893 -0.12943913 0.014811632 0.0016141152 -0.0022642447 0.033712324 -0.15496475
-0.018243238 -0.04256282 -0.09229784 -0.08579357 -0.06623728 0.13189153 -0.13097757 -0.014045978
0.1306735 0.07870049 0.035737917 -0.026362771 0.030291693 -0.044846755 -0.026000643 -0.02168709
0.07981762 -0.13437843 0.13629004 0.016567482 -0.020389086 0.15480079 0.1523027 0.059392832
-0.026706686 0.07263827 -0.14187892 -0.02560314 0.101504676 -0.10490928 0.0030251662 -0.048812836
-0.0766796 0.032936726 -0.037419375 0.010849198 -0.0024791195 -0.027533036 0.120864786 -0.13311778
-0.0803545 0.062492464 -0.010411058 0.09228013 0.04615716 -0.089287594 -0.15269221 -0.07300946
0.15441418 0.10137319 0.06164348 -0.0782413 -0.08915371 -0.0812717 0.048307747 0.09648819
-0.11029334 -0.10938245 -0.099681236 -0.11561407 -0.018844968 -0.13643074 -0.13151997 0.07451231
0.026405275 0.12458355 0.082097955 -0.13191016 0.13139796 -0.088104874 0.03572905 -0.040982895
0.03728435 0.048353866 -0.04883481 0.013292713 0.038616937 0.09373482 -0.04418267 0.11029767
-0.048807267 0.027845135 -0.15552269 -0.06771043 0.09658567 -0.0136934845 0.110999055 0.11128217
-0.022184635 0.05875346 -0.019961553 0.14157869 -0.044560324 -0.037158784 -0.13859402 0.13835327
0.017207904 -0.15694325 0.098151155 -0.10122947 -0.103548266 -0.13524763 0.15236135 0.093566604
0.11889122 0.056225497 0.095862046 0.010268363 -0.14846994 0.03256556 0.10817373 -0.04030418
-0.08445752 -0.117434815 0.091173865 -0.084792465 0.11775323 -0.007832688 -0.10688526 -0.12801044
-0.14331354 0.15365414 -0.1355034 -0.055120718 0.102024056 -0.014498984 -0.14283338 -0.008960848
-0.03765841 -0.05642836 -0.15670773 0.081351034 0.012267569 0.06963509 0.05920318 -0.12041455
-0.007126127 -0.07770322 -0.010267187 0.014687416 -0.10697283 -0.05536724 -0.056817856 0.11641709
0.03389002 0.11454621 -0.11234194 -0.13665457 -0.08126445 0.104016304 -0.13889079 0.12919798
0.05702923 -0.097040184 -0.10695783 -0.111308016 0.035129905 0.030172713 -0.11731049 -0.16428913
-0.11468771 0.14857343 0.1651487 0.06104037 0.05302492 -0.1327464 -0.011880025 0.05192517
-0.028783387 0.056354642 0.08158236 -0.07457882 0.07051426 -0.13615747 -0.12638429 0.07744122
-0.07158645 -0.11823725 -0.05463687 0.13226634 -0.032696452 -0.15240324 -0.094962634 -0.15081494
0.005477522 -0.1378952 0.025529498 -0.0981711 -0.037878443 -0.10660466 -0.01153931 -0.03978816
-0.04088545 -0.12073994 0.1382214 -0.028758183 0.018059993 0.10293542 0.04655946 -0.018439408
0.10272537 0.06588401 0.07079246 0.030125562 0.03826774 -0.0028877961 -0.004186415 -0.12797157
0.13792253 0.1101444 0.017852934 0.10636362 0.06000035 -0.041455064 0.048156254 0.06309143
-0.022636095 -0.12591574 0.12702852 -0.056417618 0.003698093 -0.09817564 0.058575857 0.021439236
0.122719005 0.036451515 -0.120289765 -0.028843062 0.09841197 -0.094971254 -0.054248706 -0.044924796
0.10879704 -0.14204425 0.0683571 -0.041254476 -0.06683206 -0.103247136 -0.08045392 -0.02993843
0.056083195 0.06275531 0.066493176 -0.046322074 -0.13315313 0.070723265 0.11896186 0.01248047
00000000: 240e 76ba c7bf 00bd b18b 04be 7dac 723c
00000010: b890 d33a b963 14bb ef15 0a3d 14af 1ebe
00000020: d872 95bc 5a56 2ebd a606 bdbd 8ab4 afbd
00000030: 69a7 87bd 930e 073e fc1e 06be 1a21 66bc
00000040: 46cf 053e b92d a13d ec61 123d bdf6 d7bc
00000050: 4926 f83c 3bb1 37bd 4dff d4bc 20a9 b1bc
00000060: 6c77 a33d 809a 09be 9e8f 0b3e 87b8 873c
00000070: 0307 a7bc 1984 1e3e 3df5 1b3e e645 733d
00000080: fbc7 dabc 60c3 943d b548 11be adbd d1bc
00000090: afe1 cf3d adda d6bd de41 463b f8ef 47bd
000000a0: 320a 9dbd a9e8 063d 0f45 19bd d6c0 313c
000000b0: b978 22bb f68c e1bc f587 f73d 0750 08be
000000c0: e690 a4bd 19f8 7f3d 2493 2abc 5dfd bc3d
000000d0: 4a0f 3d3d 6adc b6bd 595b 1cbe fc85 95bd
000000e0: c01e 1e3e bf9c cf3d e07d 7c3d fa3c a0bd
000000f0: 3896 b6bd c771 a6bd 58de 453d 9a9b c53d
00000100: 7ae1 e1bd e803 e0bd ad25 ccbd 12c7 ecbd
00000110: c360 9abc 80b4 0bbe 2cad 06be e999 983d
00000120: e04f d83c a925 ff3d f922 a83d 7513 07be
00000130: 308d 063e 5470 b4bd a058 123d aedd 27bd
00000140: 79b7 183d b40e 463d 0207 48bd aec9 593c
00000150: cb2c 1e3d 0bf8 bf3d e3f8 34bd bfe3 e13d
00000160: 21ea 47bd 7b1b e43c 5741 1fbe c4ab 8abd
00000170: b5ce c53d a35a 60bc 7953 e33d e8e7 e33d
00000180: 8dbc b5bc 78a7 703d 6986 a3bc 01fa 103e
00000190: e384 36bd cf33 18bd 97eb 0dbe 7bac 0d3e
000001a0: 97f7 8c3c bbb5 20be 7903 c93d 6551 cfbd
000001b0: 1d11 d4bd 5b7e 0abe 9d04 1c3e d99f bf3d
000001c0: 3d7d f33d b54c 663d 5253 c43d a33c 283c
000001d0: 8108 18be 7763 053d 308a dd3d ff15 25bd
000001e0: 10f8 acbd aa81 f0bd 5db9 ba3d aca7 adbd
000001f0: 9b28 f13d ad54 00bc a9e6 dabd 2b15 03be
00000200: c9c0 12be 8357 1d3e 67c1 0abe 43c6 61bd
00000210: fdf1 d03d 268d 6dbc ea42 12be 85d0 12bc
00000220: b43f 1abd 6d21 67bd fe77 20be 5f9b a63d
00000230: eafd 483c d89c 8e3d 097f 723d e79b f6bd
00000240: 4982 e9bb de22 9fbd b437 28bc 7da3 703c
00000250: 9214 dbbd c2c8 62bd d7b9 68bd 156c ee3d
00000260: 43d0 0a3d 3497 ea3d 8813 e6bd 2def 0bbe
00000270: fa6d a6bd 8006 d53d 6339 0ebe 7a4c 043e
00000280: 7b97 693d 01bd c6bd b50c dbbd 75f5 e3bd
00000290: 60e4 0f3d c42c f73c 7b40 f0bd 693b 28be
000002a0: 64e1 eabd a223 183e be1c 293e 7805 7a3d
000002b0: a930 593d acee 07be 70a4 42bc 7daf 543d
000002c0: 23cb ebbc 20d4 663d a714 a73d c8bc 98bd
000002d0: c869 903d dd6c 0bbe e26a 01be 8199 9e3d
000002e0: eb9b 92bd 5f26 f2bd e9ca 5fbd d470 073e
000002f0: b7ec 05bd 980f 1cbe c57b c2bd 3b6f 1abe
00000300: c97c b33b 6634 0dbe 3d23 d13c ee0d c9bd
00000310: 6d26 1bbd 8b53 dabd 600f 3dbc e9f8 22bd
00000320: 8077 27bd 8046 f7bd e989 0d3e 4896 ebbc
00000330: 8df2 933c cecf d23d 22b5 3e3d 3e0e 97bc
00000340: ae61 d23d 32ee 863d a3fb 903d e2c9 f63c
00000350: a2be 1c3d 2e41 3dbb 322e 89bb fb0a 03be
00000360: 903b 0d3e 6393 e13d 5140 923c 2bd5 d93d
00000370: edc2 753d c9cc 29bd 7e3f 453d 1436 813d
00000380: 556f b9bc 0ef0 00be c413 023e 2916 67bd
00000390: b45b 723b 4f10 c9bd 3ded 6f3d 56a1 af3c
000003a0: 1a54 fb3d 2f4e 153d 7b5a f6bd 4948 ecbc
000003b0: 378c c93d 4a80 c2bd e433 5ebd 1003 38bd
000003c0: fcd0 de3d 0c74 11be cffe 8b3d 74fa 28bd
000003d0: 3fdf 88bd 3c73 d3bd 06c5 a4bd 7041 f5bc
000003e0: 7eb7 653d db85 803d 932d 883d 37bc 3dbd
000003f0: 4b59 08be 5cd7 903d 47a2 f33d e37a 4c3c

conv_0.bias f4 [128]
-0.009643452 0.0066098906 0.009822962 -0.00077773596 0.011685834 0.012597881 0.01071313 0.010369929
0.012198715 -0.0042162817 -0.009847822 -0.0067310086 -0.012346648 0.009443227 -0.012945423 0.011910402
0.0041806726 -0.011303164 -7.436418e-05 0.010176105 -0.0071562114 0.0134115685 0.012276606 0.011916191
0.013562578 -0.012908096 0.0105912145 0.0114120655 0.009836065 -0.011496782 -0.0117443865 -0.0057115303
-0.010568375 -0.0077023804 0.012703344 -0.0065729953 0.010928972 0.011982292 -0.0096003665 -0.012857735
0.01001553 -0.0043439986 0.013917159 0.013360014 -0.0049207774 -0.0021404705 0.01039112 -0.008061414
-0.0099135 0.012149836 0.0055224146 -0.00969394 0.01299079 0.010790729 0.011420665 -0.002526862
-0.0119858915 -0.0102273235 0.012611127 0.00971228 -0.010434988 -0.0058974447 0.00726796 -0.0062014996
0.0049056876 0.010499128 -0.004953416 -0.010129049 0.012195049 0.011960311 0.011758188 -0.0106126815
-0.0016559914 -0.012674547 -0.0010173006 -0.01312282 -0.0030196712 0.01022127 -0.009346944 0.00758734
-0.007073524 0.010293653 -0.0062000435 -0.0103815105 0.010073987 0.011525119 0.010831797 -0.0126395365
-0.006390596 0.007050895 0.010965755 0.011465914 -0.010540539 -0.0050110007 0.0037065279 0.009818561
0.009951859 0.0053194 0.009964068 -0.005492642 -0.004018061 0.013355976 0.00355778 -0.0075897533
0.01232212 0.0108674625 -0.010776934 -0.0027846678 0.010666386 0.0125675285 -0.007411122 0.013482842
0.0033655998 -0.009777902 -0.01023994 0.012451296 0.0070311446 0.0122531075 -0.001329543 -0.01184841
0.009772189 -0.01104481 0.009466155 0.011827238 -0.010924073 -0.0050604376 -0.013001777 -0.0067255395
00000000: 92ff 1dbc c897 d83b 7df0 203c fae0 4bba
00000010: f175 3f3c 5867 4e3c 2086 2f3c a2e6 293c
00000020: 1edd 473c bc28 8abb c258 21bc cb8f dcbb
00000030: 9849 4abc c4b7 1a3c 0a19 54bc d923 433c
00000040: 06fe 883b e830 39bc f7f3 9bb8 aeb9 263c
00000050: a77e eabb 32bc 5b3c d123 493c 213c 433c
00000060: 9335 5e3c 7b7c 53bc c686 2d3c acf9 3a3c
00000070: 7227 213c 005d 3cbc 876b 40bc ca27 bbbb
00000080: fa26 2dbc 4064 fcbb b021 503c 4862 d7bb
00000090: 6e0f 333c 6051 443c db4a 1dbc 40a9 52bc
000000a0: 2d18 243c 1a58 8ebb cc04 643c f6e3 5a3c
000000b0: 793e a1bb 2347 0cbb 843f 2a3c 0514 04bc
000000c0: 3c6c 22bc 1b10 473c 5ff5 b43b 55d3 1ebc
000000d0: 53d7 543c 99cb 303c be1d 3b3c b699 25bb
000000e0: 7960 44bc 8190 27bc e79e 4e3c 4120 1f3c
000000f0: 83f7 2abc 5a3f c1bb 1128 ee3b f335 cbbb
00000100: e4bf a03b 8904 2c3c 4450 a2bb 50f4 25bc
00000110: becd 473c 2ef5 433c 6aa5 403c d0e0 2dbc
00000120: da0d d9ba e7a8 4fbc f256 85ba 1901 57bc
00000130: ade5 45bb 1d77 273c ed23 19bc 399f f83b
00000140: 05c9 e7bb b6a6 283c bc29 cbbb 3617 2abc
00000150: 5d0d 253c dad3 3c3c d977 313c 0f16 4fbc
00000160: 3468 d1bb 320b e73b b6a9 333c 87db 3b3c
00000170: 3ab2 2cbc 5233 a4bb 38e9 723b 08de 203c
00000180: 1f0d 233c 5d4e ae3b 5540 233c 9ffb b3bb
00000190: f0a9 83bb 06d3 5a3c a529 693b 77b3 f8bb
000001a0: b8e2 493c 710d 323c bd91 30bc f97e 36bb
000001b0: 11c2 2e3c 09e8 4d3c ffd8 f2bb 23e7 5c3c
000001c0: 6591 5c3b 7e33 20bc 6cc5 27bc 8500 4c3c
000001d0: 8465 e63b 42c1 483c 0f44 aeba d51f 42bc
000001e0: 881b 203c 4af5 34bc ef17 1b3c 08c7 413c
000001f0: e2fa 32bc 07d2 a5bb 6805 55bc ea61 dcbb

layers.0.weight f4 [128, 128]
-0.06471864 0.061271757 -0.025277404 -0.11045074 -0.00014301972 -0.13132824 0.12713104 0.005486325
-0.10098077 0.08391188 0.14594266 -0.073120676 -0.012839942 -0.15960817 0.0369199 -0.06033631
-0.019072007 0.002040348 0.13240166 -0.13196942 0.005979502 0.027673649 -0.13584706 0.117998235
-0.032280255 0.13761489 0.031569444 0.04602874 0.039080102 0.009990261 -0.060187753 0.07271994
-0.1569384 -0.13490012 0.16292454 -0.16103953 0.04044372 -0.08181116 -0.028646486 -0.041413087
0.056765053 0.10681541 0.042989783 0.027578175 0.06940444 -0.13988604 0.14654112 -0.105258524
-0.13564225 0.07457652 -0.03714434 0.06069174 -0.051788438 0.020537931 0.107173845 0.13091095
0.026167415 0.13642728 -0.13096479 0.10979656 -0.10533768 -0.13390087 0.019702956 0.15089342
0.117373064 0.024148576 0.04593133 0.15658583 -0.11550046 -0.073546365 0.113678865 -0.03390159
0.12231863 0.08671727 0.03601162 -0.0333507 -0.009283791 -0.025542937 -0.0003651533 0.11867757
-0.13088638 0.13919967 0.00091864646 -0.1355452 0.02372635 -0.15210617 0.1309783 0.13650413
-0.10793529 -0.12271736 0.012474629 -0.05046722 -0.100666545 0.041482326 -0.060266275 -0.05591135
-0.028697364 -0.03357107 0.055471018 0.15267815 -0.017570462 0.12748742 0.08196251 -0.08668028
0.039011687 0.056551147 0.08917572 0.08966358 0.10087964 0.01901186 0.053264614 0.0762775
-0.037399963 -0.023329047 0.10402736 -0.14373446 -0.10530975 0.058660746 -0.027994655 0.15130118
0.09876457 -0.11221813 -0.089193754 0.04910813 -0.14190887 0.010668961 -0.14080651 -0.082536496
0.058111433 -0.062345523 0.049151424 0.053563334 -0.084804334 0.09478236 -0.030726852 -0.08385296
0.057540253 0.1305224 -0.066450045 -0.04340767 0.068556175 -0.018637475 0.1134312 0.14281712
0.06863038 0.08690611 -0.06594234 -0.07614477 -0.01440948 -0.12516114 0.08921292 0.066804565
-0.116551965 0.048562456 -0.05497943 0.0379233 -0.13693777 -0.011259038 -0.010304421 0.0034087286
-0.08636567 0.033994135 0.097850755 -0.10233381 -0.03815239 -0.07291719 0.10994056 0.09595115
0.039671995 0.060113363 0.036607467 0.12317222 -0.12697816 0.12870866 0.11816644 -0.026922802
-0.042157877 0.047786333 -0.1095951 0.05602602 0.049460307 0.027835075 0.09926508 -0.047449026
0.12914672 0.13119228 0.013781557 0.08826739 0.0318643 -0.124008864 -0.06068683 -0.000785517
-0.05690747 -0.056658678 -0.14446999 0.101924345 -0.0698227 0.035330154 0.06430785 -0.056639634
-0.08927079 0.0984872 0.06424928 -0.01197297 0.10062149 0.14511181 0.12425669 -0.034689344
-0.027035795 0.064968236 0.054519415 -0.09821437 -0.066461116 0.08175176 -0.053535156 0.013600134
0.079730235 0.13083844 -0.047671784 0.11194603 0.09737877 -0.08839524 -0.11272587 0.118509285
0.14678028 0.035985813 0.028734943 -0.006494557 0.011615157 -0.11496285 -0.01337318 -0.114287384
0.022039276 0.10764273 0.07885672 0.033507854 -0.06865891 0.046842735 0.089335576 -0.029693695
0.04312461 0.0028660942 0.15217045 0.08642649 -0.120107956 -0.040229972 -0.0010297975 0.13919869
-0.054940734 -0.037752673 0.08189621 -0.104085304 -0.00020069316 -0.022243138 -0.02309854 -0.09828001
00000000: 358b 84bd 18f8 7a3d 8f12 cfbc ff33 e2bd
00000010: 90f7 15b9 e97a 06be a42e 023e a1c6 b33b
00000020: 02cf cebd fed9 ab3d fe71 153e 4bc0 95bd
00000030: 9f5e 52bc 5370 23be 5239 173d 3523 77bd
00000040: e63c 9cbc 5cb7 053b 4d94 073e fe22 07be
00000050: b3ef c33b d9b3 e23c 7e1b 0bbe 0fa9 f13d
00000060: 4d38 04bd ebea 0c3e f64e 013d a288 3c3d
00000070: 7512 203d 31ae 233c 6f87 76bd 31ee 943d
00000080: 76b4 20be 4223 0abe b1d5 263e 8ce7 24be
00000090: 50a8 253d 9c8c a7bd 09ac eabc c5a0 29bd
000000a0: 7982 683d 0ac2 da3d 0e16 303d a0eb e13c
000000b0: ea23 8e3d 493e 0fbe e00e 163e c891 d7bd
000000c0: cde5 0abe 93bb 983d aa24 18bd e797 783d
000000d0: 1d20 54bd 2a3f a83c f67d db3d 850d 063e
000000e0: 0c5d d63c 98b3 0b3e a21b 06be 05dd e03d
000000f0: 48bb d7bd 4f1d 09be 1868 a13c ce83 1a3e
00000100: 4a61 f03d 3cd3 c53c 7e22 3c3d 0958 203e
00000110: 818b ecbd 7a9f 96bd 77d0 e83d 65dc 0abd
00000120: 3182 fa3d d398 b13d ec80 133d be9a 08bd
00000130: 0b1b 18bc 6c3f d1bc 0c72 bfb9 3a0d f33d
00000140: 1407 06be 5c8a 0e3e 52d1 703a 5ccc 0abe
00000150: c35d c23c b8c1 1bbe 2d1f 063e bdc7 0b3e
00000160: 2d0d ddbd 3d53 fbbd 6362 4c3c b7b6 4ebd
00000170: 432a cebd 5fe9 293d c5d9 76bd 4d03 65bd
00000180: bc16 ebbc d181 09bd 9435 633d a957 1c3e
00000190: eeef 8fbc 108c 023e f6db a73d 6e85 b1bd
000001a0: b8ca 1f3d 2da2 673d c3a1 b63d 8aa1 b73d
000001b0: fc99 ce3d c3be 9b3c ff2b 5a3d 6137 9c3d
000001c0: b430 19bd 8f1c bfbc 4c0c d53d 202f 13be
000001d0: a3ac d7bd 4046 703d 0c55 e5bc b2ee 1a3e
000001e0: 1445 ca3d 9ed2 e5bd 37ab b6bd 9b25 493d
000001f0: 8f50 11be decc 2e3c 952f 10be e508 a9bd
00000200: 4106 6e3d 055e 7fbd 0153 493d 3a65 5b3d
00000210: e5ad adbd 411d c23d e1b6 fbbc 1abb abbd
00000220: 54af 6b3d aaa7 053e f616 88bd 3ecc 31bd
00000230: 2e67 8c3d 9ead 98bc 9e4e e83d a73e 123e
00000240: 168e 8c3d d5fb b13d c70c 87bd caf1 9bbd
00000250: bd15 6cbc 3e2a 00be 43b5 b63d d5d0 883d
00000260: ccb2 eebd 6de9 463d 1c32 61bd 7655 1b3d
00000270: 6a39 0cbe d477 38bc e0d3 28bc fa64 5f3b
00000280: 7ce0 b0bd 6f3d 0b3d fa65 c83d 6394 d1bd
00000290: ae45 1cbd 9c55 95bd 8428 e13d 0982 c43d
000002a0: 1a7f 223d 6e39 763d b6f1 153d b841 fc3d
000002b0: 9006 02be 34cc 033e 3f01 f23d 358d dcbc
000002c0: bdad 2cbd 9abb 433d 6573 e0bd 8a7b 653d
000002d0: e496 4a3d 6206 e43c 7e4b cb3d e959 42bd
000002e0: 0a3f 043e 4557 063e 0acc 613c 89c5 b43d
000002f0: 2484 023d 5cf8 fdbd c192 78bd 27eb 4dba
00000300: cf17 69bd ee12 68bd f1ef 13be b6bd d03d
00000310: 34ff 8ebd 5ab6 103d d6b3 833d f6fe 67bd
00000320: 9bd3 b6bd a8b3 c93d 2095 833d 472a 44bc
00000330: a412 ce3d 3198 143e 4b7a fe3d 6a16 0ebd
00000340: 2c7a ddbc 110e 853d c04f 5f3d 9e24 c9bd
00000350: c41c 88bd 776d a73d ae47 5bbd 19d3 5e3c
00000360: 9b49 a33d 83fa 053e 7d43 43bd f643 e53d
00000370: 856e c73d 9008 b5bd d2dc e6bd ffb4 f23d
00000380: 924d 163e dc65 133d 8b65 eb3c 4bd0 d4bb
00000390: 804d 3e3c a571 ebbd 2f1b 5bbc 810f eabd
000003a0: b68b b43c cb73 dc3d a27f a13d 883f 093d
000003b0: 0b9d 8cbd 2bde 3f3d 92f5 b63d 3140 f3bc
000003c0: 6ea3 303d 15d5 3b3b 92d2 1b3e 5f00 b13d
000003d0: 29fb f5bd 2fc8 24bd 45fa 86ba 1a8a 0e3e
000003e0: 8909 61bd 8ca2 1abd 33b9 a73d ad2a d5bd
000003f0: 2971 52b9 3e37 b6bc 2639 bdbc 0847 c9bd

layers.0.bias f4 [128]
0.0093346685 -0.0124086905 -0.009667434 0.009122934 -0.008873668 0.010507928 -0.009550687 0.008784775
-0.008952475 0.009400556 -0.009675134 0.00936111 0.009065834 0.008690355 0.009685445 0.012298416
0.0103023015 -0.009225356 0.008529705 0.009384827 -0.009649803 0.008867075 -0.009305671 0.009522764
0.009486013 -0.009355677 0.009366978 0.008889025 -0.009494409 0.00943108 -0.0079982765 -0.008098623
0.0127961645 -0.010337813 -0.011614141 0.008824063 -0.009323478 -0.009723833 -0.010321777 -0.009494075
0.009346979 0.008992958 0.007311846 0.00941324 0.00714879 -0.0053449273 -0.0090997135 0.008960294
-0.009197607 -0.008945072 -0.011003899 0.008846305 -0.012006791 0.0094801225 -0.00972032 -0.009921129
0.009201434 -0.009171389 0.008529248 -0.0089783035 0.009458665 0.00960432 0.009306573 -0.009329336
0.009480805 -0.009389014 -0.010330546 -0.009596427 0.011218331 -0.010064185 0.009707465 0.00964135
-0.009463112 -0.0088306805 0.00947296 0.010701476 0.009152889 0.008837491 -0.010199013 0.009391347
0.009893608 -0.009585373 -0.009401252 -0.009210293 -0.009368287 0.009010304 -0.012643689 0.008515938
0.0040873154 0.009712452 -0.009549584 0.009350405 -0.009401022 0.010075301 -0.009620213 0.009515003
-0.009455606 -0.009367574 -0.009371473 -0.008853384 0.009592136 -0.009408525 -0.009724127 -0.009363278
-0.008898748 0.009590381 -0.0071824435 0.007096839 -0.0074537992 -0.009472503 0.010389742 -0.009332923
-0.0095495 0.009264147 -0.009412102 0.009128211 0.009390677 -0.009723287 -0.009634181 -0.00937416
0.009373629 -0.009685903 0.009062589 0.009723148 0.008879498 -0.008421954 0.0027199064 0.0088054
00000000: 70f0 183c d24d 4bbc 2864 1ebc 5c78 153c
00000010: dc62 11bc 7229 2c3c 7c7a 1cbc 04ee 0f3c
00000020: 67ad 12bc ca04 1a3c 7484 1ebc 575f 193c
00000030: dd88 143c fe61 0e3c b3af 1e3c 4c7f 493c
00000040: fcca 283c f325 17bc 2dc0 0b3c d1c2 193c
00000050: 351a 1ebc 3547 113c d076 18bc 5e05 1c3c
00000060: 396b 1b3c 8e48 19bc f477 193c 46a3 113c
00000070: 708e 1bbc d184 1a3c 340b 03bc 16b0 04bc
00000080: 01a7 513c ee5f 29bc 3d49 3ebc ce92 103c
00000090: 80c1 18bc b650 1fbc ac1c 29bc 098d 1bbc
000000a0: 1224 193c 3357 133c 3698 ef3b fd39 1a3c
000000b0: 6640 ea3b 8024 afbb f716 15bc 32ce 123c
000000c0: 8fb1 16bc 5a8e 12bc b349 34bc 18f0 103c
000000d0: 22b8 44bc 8452 1b3c fa41 1fbc 3b8c 22bc
000000e0: 9dc1 163c 9843 16bc 42be 0b3c bc19 13bc
000000f0: 84f8 1a3c 705b 1d3c 997a 183c 12da 18bc
00000100: 6155 1b3c 61d4 19bc 7341 29bc 553a 1dbc
00000110: 17cd 373c 40e4 24bc 0f0c 1f3c c1f6 1d3c
00000120: 2b0b 1bbc 8fae 10bc 7934 1b3c 3e55 2f3c
00000130: 00f6 153c 20cb 103c c319 27bc 2ade 193c
00000140: cd18 223c f80b 1dbc b507 1abc c5e6 16bc
00000150: 727d 19bc f49f 133c 7a27 4fbc 6f86 0b3c
00000160: e3ee 853b fa20 1f3c dc75 1cbc 7132 193c
00000170: bf06 1abc e012 253c 199e 1dbc d1e4 1b3c
00000180: b0eb 1abc 747a 19bc cf8a 19bc c90d 11bc
00000190: 5628 1d3c 3726 1abc f251 1fbc 6f68 19bc
000001a0: 0ecc 11bc f920 1d3c b45a ebbb 9a8c e83b
000001b0: 003f f4bb 8f32 1bbc bd39 2a3c 1ee9 18bc
000001c0: 8275 1cbc a6c8 173c 3835 1abc 7e8e 153c
000001d0: 5bdb 193c 6c4e 1fbc afd8 1dbc 1496 19bc
000001e0: d993 193c 9fb1 1ebc 417b 143c d74d 1f3c
000001f0: 507b 113c 3cfc 09bc 7540 323b 8644 103c

predict.weight f4 [1, 128]
0.08232162 -0.012768663 -0.036882866 0.05622046 -0.05155606 0.019174423 -0.05040415 0.03033328
-0.07784409 0.07723855 -0.038700525 0.095745355 0.087202005 0.028206509 0.039352097 0.012570123
0.029109463 -0.050612826 0.02425891 0.06959555 -0.03706736 0.056001272 -0.09568283 0.05077828
0.054067183 -0.09140157 0.0928404 0.06381797 -0.06254487 0.06608398 -0.00649506 -0.009304244
0.013224424 -0.02320049 -0.013323938 0.03495612 -0.09854809 -0.04062692 -0.023951072 -0.052814443
0.08813834 0.078340106 0.0033966552 0.073670015 0.0029824465 2.164237e-05 -0.07392037 0.07797055
-0.027130334 -0.064421035 -0.016701337 0.041807376 -0.012019772 0.062003188 -0.03674526 -0.03245863
0.07513595 -0.08016054 0.01447332 -0.06761863 0.06388994 0.044339664 0.090899676 -0.086087786
0.056241922 -0.069214255 -0.019619834 -0.038391493 0.016282545 -0.023872819 0.04745322 0.038457166
-0.060600575 -0.040333007 0.07191856 0.020250732 0.06785918 0.042826448 -0.03121629 0.09197178
0.03512136 -0.047838252 -0.08751385 -0.080757245 -0.077940926 0.083200544 -0.010127861 0.0115853045
1.2475124e-05 0.037213776 -0.061784856 0.08263027 -0.07399456 0.032593682 -0.04516947 0.059686355
-0.03637488 -0.08787052 -0.07531224 -0.03783893 0.046556167 -0.071713835 -0.04138394 -0.098819286
-0.020278297 0.045732796 -0.0031128158 0.0023754037 -0.0041012648 -0.06070612 0.018196858 -0.08912631
-0.0628149 0.046921197 -0.06990505 0.08726747 0.08781396 -0.037514098 -0.038330097 -0.083628
0.08074303 -0.044399235 0.07587119 0.041998178 0.056471765 -0.017364323 0.004078594 0.027764613
00000000: 3d98 a83d a733 51bc 7d12 17bd 6d47 663d
00000010: 722c 53bd ae13 9d3c 9574 4ebd 807d f83c
00000020: b96c 9fbd 3f2f 9e3d 7184 1ebd 2416 c43d
00000030: f796 b23d 5611 e73c aa2f 213d ebf2 4d3c
00000040: f876 ee3c 654f 4fbd 9fba c63c 1d88 8e3d
00000050: f2d3 17bd 9761 653d 5cf5 c3bd e3fc 4f3d
00000060: 8d75 5d3d bf30 bbbd 1c23 be3d ffb2 823d
00000070: 8617 80bd 0a57 873d 83d4 d4bb d470 18bc
00000080: 41ab 583c f40e bebc a54c 5abc 262e 0f3d
00000090: 95d3 c9bd 6a68 26bd 0a35 c4bc f553 58bd
000000a0: e081 b43d c770 a03d 6b9a 5e3b 4ee0 963d
000000b0: 2675 433b a38c b537 9063 97bd 06af 9f3d
000000c0: 6f40 debc 2def 83bd 3ed1 88bc 363e 2b3d
000000d0: 94ee 44bc 0ef7 7d3d 3382 16bd 57f3 04bd
000000e0: e1e0 993d 362b a4bd 8121 6d3c a37b 8abd
000000f0: bbd8 823d 829d 353d 9c29 ba3d cb4e b0bd
00000100: ee5d 663d 34c0 8dbd c6b9 a0bc 6640 1dbd
00000110: f962 853c ee90 c3bc 4f5e 423d 4385 1d3d
00000120: 4f38 78bd 3934 25bd 0a4a 933d dde4 a53c
00000130: c1f9 8a3d c96a 2f3d 4eb9 ffbc b35b bc3d
00000140: 6adb 0f3d 0bf2 43bd 763a b3bd 0e64 a5bd
00000150: 7e9f 9fbd 0c65 aa3d 54ef 25bc 4ad0 3d3c
00000160: 404c 5137 796d 183d 1e12 7dbd 0f3a a93d
00000170: 768a 97bd f480 053d 9f03 39bd ae79 743d
00000180: d3fd 14bd 76f5 b3bd 4e3d 9abd fefc 1abd
00000190: aeb1 3e3d b4de 92bd 3582 29bd c461 cabd
000001a0: ac1e a6bc 5052 3b3d 6200 4cbb a9ac 1b3b
000001b0: e763 86bb fba6 78bd 9411 953c db87 b6bd
000001c0: 19a5 80bd 7130 403d 612a 8fbd 4ab9 b23d
000001d0: ced7 b33d 62a8 19bd 0500 1dbd 2845 abbd
000001e0: 9a5c a53d f9db 35bd 5b62 9b3d 4806 2c3d
000001f0: f04e 673d a03f 8ebc baa5 853b 9d72 e33c
