PERGAT_embbedding/data/emb/models/model_dim256_lay2_epo106.pth (torch, 532940 bytes, 7 tensors)

linear.weight f4 [256, 1]
000000 40 b8 d8 bc fc 16 68 3f 84 9a a0 be 90 11 ba bd
       -0.026455045 0.9066007 -0.31367886 -0.09085381
000010 da e0 5f 3f 9e 01 53 bf 32 71 34 bf 6e 6f 12 3f
       0.8745247 -0.8242434 -0.7048522 0.5720128
000020 00 20 af bd 10 bf ea 3e c6 49 62 bf ee 44 59 3f
       -0.085510254 0.45848894 -0.8839382 0.84870803
000030 08 56 38 3f 98 d9 21 be 64 40 8e be a0 0f 40 bd
       0.72006273 -0.15805662 -0.277835 -0.0468899
000040 cc 95 06 bf 52 cd 10 bf 54 5d c3 3e 40 3a 04 3e
       -0.5257232 -0.56563294 0.3815714 0.12912846
000050 9e d8 5c bf a0 c4 9a bd 5c b2 38 bf 10 49 7c be
       -0.8626803 -0.075570345 -0.72147155 -0.24637246
000060 6c e5 a7 3e 00 38 18 3a 04 b7 22 bf f2 bf 3b 3f
       0.32792222 0.00058066845 -0.6356051 0.7333976
000070 38 ec 2e 3f c4 1a 1b 3f 34 96 f0 be 80 96 b4 be
       0.6832919 0.60587716 -0.46989596 -0.35271072
000080 98 3d 4d bf e0 32 00 bd 28 d7 c5 be 7c 8a a3 3e
       -0.8017211 -0.03129852 -0.38640714 0.31941593
000090 e6 bb 3e 3f 78 a2 7c bf 24 61 3e bf 70 80 85 3d
       0.7450546 -0.9868541 -0.74366975 0.06518638
0000a0 c4 be c6 be 68 aa 42 3f d4 22 cf be 6c f8 a1 be
       -0.38817418 0.7604127 -0.4045626 -0.31634843
0000b0 c0 5f 2d bd 2c 08 68 bf 20 a0 7b 3d dc 77 c3 be
       -0.042327642 -0.9063747 0.061432004 -0.38177383
0000c0 80 2c e8 bc b0 53 94 3d 94 8b 5d bf 88 ce 52 3e
       -0.028341532 0.072425246 -0.86541104 0.20586598
0000d0 18 3a 55 3f 60 d7 4e bd 84 8f 3d 3f f8 cd 47 3e
       0.8329177 -0.050498366 0.7404711 0.19512165
0000e0 60 98 1c 3d 4c b3 12 bf ba 8d 17 bf 36 6d 31 bf
       0.038231254 -0.57304835 -0.5920063 -0.6930727
0000f0 a8 72 4e bf 58 89 27 bf 58 ee e8 be 9e 5c 20 bf
       -0.806437 -0.65443945 -0.45494342 -0.6264132
000100 bc f8 a0 3e 30 2d ae bd 14 4b 8a be 2e 58 5f 3f
       0.3143977 -0.085047126 -0.27010405 0.87243927
000110 a8 d6 e1 be 64 84 f5 3e 3a c0 6b 3f a4 d9 39 3f
       -0.44109082 0.4795257 0.9209019 0.7259772
000120 22 a0 3f 3f 38 35 c2 be 40 cc 36 3d c0 f7 c0 bc
       0.7485372 -0.37931228 0.04462838 -0.023555636
000130 24 41 0e 3f 26 bc 59 3f b8 6f 28 be 20 d2 08 3f
       0.55568147 0.85052717 -0.16448867 0.53445625
000140 e8 8f 5b bf fc a2 b0 be 84 4e c7 be c0 a4 49 be
       -0.8576646 -0.34499347 -0.3892709 -0.19691753
000150 14 c8 24 bf 86 79 2a 3f 88 3d 01 bf 20 72 6b be
       -0.64367795 0.6659168 -0.50484514 -0.22992754
000160 22 27 7e 3f 90 d3 3b 3f 08 20 f5 3e 8e 26 27 bf
       0.9927846 0.73369694 0.47876 -0.65293205
000170 10 67 07 bf 08 06 e7 3e e4 80 8c 3e 90 bc d7 be
       -0.52891636 0.4512179 0.27442086 -0.4213605
000180 2c ed d6 be 7c 40 8c be 80 7e 28 be b2 3f 67 3f
       -0.41977823 -0.27392948 -0.16454506 0.90331566
000190 5c 5a de be b8 c0 e5 3e f0 34 b3 3e d8 56 23 3e
       -0.43428314 0.44873595 0.35001326 0.15951097
0001a0 48 99 0d bf 30 12 80 bd e0 3f 30 3d e8 8c df be
       -0.55312014 -0.06253469 0.043029666 -0.4366219
0001b0 f0 f5 38 be 20 f4 02 bd c0 af fe bc a8 0e 4f 3f
       -0.18062568 -0.031971097 -0.031089664 0.8088174
0001c0 32 11 51 bf 48 67 50 3e 3e 67 72 bf 2c 84 1d 3f
       -0.8166686 0.20351899 -0.94688785 0.61529803
0001d0 e0 0d 87 bd 36 bf 3d bf cc f7 07 3f e8 6b d0 be
       -0.06594443 -0.7411989 0.53112483 -0.40707326
0001e0 1c f5 60 bf 14 2d eb 3e 80 54 b0 bd f8 e6 fe be
       -0.8787401 0.4593283 -0.08609867 -0.4978559
0001f0 44 6b d8 be cc e6 e8 3e 10 d3 82 bd 06 8f 32 3f
       -0.42269337 0.45488584 -0.06387913 0.69749486
000200 a0 c0 4e be f0 b0 81 bd 80 ee 1b bf 44 90 bc 3e
       -0.20190668 -0.06332576 -0.609108 0.36828816
000210 a6 30 3c bf a8 69 38 bf 94 63 fc 3e d2 db 50 3f
       -0.7351173 -0.7203622 0.49294722 0.8158542
000220 c0 ea 93 3c b4 96 87 be 10 27 a8 3d e0 ba 73 bd
       0.018056273 -0.26482165 0.082105756 -0.05950439
000230 f0 ac e1 3d fa bc 55 bf 58 26 82 be 96 48 7a bf
       0.11019313 -0.8349148 -0.2541988 -0.9776701
000240 d8 ff 38 3e 68 7b 56 be c4 23 4b bf 88 ff 1e be
       0.18066347 -0.20945513 -0.7935145 -0.15527165
000250 d4 5f b9 be 48 dd 25 bf 88 6d 24 be 70 70 d3 be
       -0.36205924 -0.64790773 -0.16057408 -0.4129672
000260 ec 02 9e 3e d0 5e 85 be f0 50 25 3e 1c c2 41 bf
       0.30861604 -0.260489 0.16144156 -0.7568681
000270 10 ef 5a 3f f4 6c 6f bf b0 bc 40 3f 20 2f 39 3e
       0.8552103 -0.93525624 0.75287914 0.18084383
000280 30 a0 0d 3e e4 e7 00 bf e8 c1 45 be 10 5b 9a 3e
       0.13830638 -0.50353837 -0.1931225 0.301476
000290 ee 9e 2e 3f 00 76 a2 3d 94 6f 00 bf c4 51 b9 be
       0.6821126 0.07932663 -0.50170255 -0.36195195
0002a0 e6 10 6f 3f aa 47 5b 3f e4 18 39 bf 96 a8 76 bf
       0.9338516 0.85656226 -0.72303605 -0.9635099
0002b0 5e 74 5b 3f e8 36 6e 3f 18 60 d7 3e 98 87 3a 3e
       0.8572444 0.9305253 0.420655 0.18215787
0002c0 aa b9 11 3f e0 08 96 be 88 a0 76 be 34 f9 ce be
       0.56923926 -0.29303646 -0.24084675 -0.40424502
0002d0 14 1f 5e bf 96 71 48 bf 80 e8 19 bf 7a 91 0a bf
       -0.8676617 -0.7829832 -0.6012039 -0.5412823
0002e0 b4 30 9e be 94 34 b9 be 06 54 3e bf ce ac 53 bf
       -0.30896533 -0.36172926 -0.7434696 -0.82685554
0002f0 76 ec 61 3f fe 07 61 bf 46 f4 14 3f 20 fe 03 bd
       0.88251436 -0.8790282 0.5818523 -0.032224774
000300 82 bd 58 3f b4 64 78 3f bc 21 6a 3f ca a8 53 3f
       0.84664166 0.9702866 0.91457725 0.82679427
000310 c4 98 68 bf b0 a5 2d 3e 3c 40 c2 be 00 b6 25 be
       -0.908581 0.16957736 -0.37939632 -0.16182709
000320 a2 d7 0f bf 44 00 da be 60 97 70 be 38 b4 f7 be
       -0.56188405 -0.42578328 -0.23495245 -0.48379683
000330 be ea 63 3f b0 12 25 be ea 9f 51 3f 40 83 2a 3e
       0.89030063 -0.1612041 0.81884634 0.1665163
000340 88 8c e5 3e 00 6e 1c 3f b0 d3 b9 3e fc 69 58 3f
       0.4483378 0.61105347 0.36294317 0.8453672
000350 b0 33 aa be 62 1f 09 bf b2 ed 3c bf 80 90 d8 3d
       -0.3324256 -0.5356351 -0.73800194 0.10574436
000360 dc fb d8 3e 40 89 06 3d ba 04 32 3f 08 b7 4a bf
       0.42379653 0.032845736 0.6953846 -0.79185534
000370 18 07 33 3e 2a 47 41 bf 3c 64 f9 3e 28 e9 f0 be
       0.17483175 -0.7549921 0.48709285 -0.47052884
000380 48 46 05 bf 40 ae a6 bc 5c 5a c6 be 52 da 79 3f
       -0.52060366 -0.02034676 -0.38740814 0.97598755
000390 4c 56 43 bf ee e1 28 bf 1c 24 a0 3e a0 6e 5f 3d
       -0.76303554 -0.6596974 0.3127755 0.05454886
0003a0 c0 22 99 bd a4 0f 68 3f 00 a9 f3 bc 2a a2 21 bf
       -0.07477331 0.90648866 -0.029743671 -0.6313807
0003b0 ae 20 1e bf 78 57 4e 3f 44 e1 02 3f 5c 03 70 bf
       -0.61768615 0.80602217 0.5112498 -0.93755126
0003c0 d8 d7 4f 3f 80 1e 74 bd 88 b1 15 bf 52 55 71 3f
       0.81188726 -0.0595994 -0.58474016 0.94270813
0003d0 dc 9c 9e be 5e ac 25 3f 36 54 63 3f 76 20 06 3f
       -0.3097905 0.64716136 0.8880037 0.5239328
0003e0 40 ab 19 be 88 2d 0d bf 24 92 02 bf 14 2f 92 3e
       -0.15006733 -0.551476 -0.5100424 0.28551543
0003f0 b4 ff 7d 3f 6a 53 36 bf bc 07 df 3e 38 1c 1d 3f
       0.99218297 -0.7122103 0.43560588 0.61371183

linear.bias f4 [256]
000000 c1 46 42 3f 2a f8 13 3f 33 d9 0b be 63 4d 7b 3f
       0.7588921 0.57800543 -0.13657074 0.9816496
000010 b2 2b 43 bf 78 43 39 bf d5 b2 a9 be 5e 9a 48 bf
       -0.7623855 -0.72368574 -0.3314425 -0.78360546
000020 fc 7b 6c 3f 20 e2 5e bf 24 a2 38 be bf 6c 74 bf
       0.92376685 -0.8706379 -0.18030602 -0.95478433
000030 dc 67 e1 3e d6 49 1b 3f 1f 0e ec be f6 e5 b2 3c
       0.4402455 0.6065954 -0.46104524 0.02183817
000040 2e 61 7c 3f 74 90 10 bf 00 81 64 3f cc 2d 66 bf
       0.98585784 -0.5647042 0.8925934 -0.8991363
000050 70 93 60 bd 08 4e c2 bd 95 31 21 3f 4f fb 9b bd
       -0.054828107 -0.094875395 0.6296628 -0.07616293
000060 93 ee c8 be 8c d9 9b 3d 92 39 b6 3e 46 f3 bd bc
       -0.39244518 0.07609853 0.35590798 -0.02318729
000070 fe 3f 09 3f 23 c9 02 3f 04 6b c0 be dd f3 72 bf
       0.5361327 0.5108816 -0.37581646 -0.94903356
000080 29 86 22 bf 3c 17 75 3f c7 d2 7d bf 7a 2c 5f 3e
       -0.6348596 0.9573858 -0.99149746 0.2179431
000090 ae b9 ff 3c 1a 4e 7f 3f ea 09 4a 3f 9d 0a e3 be
       0.031216469 0.9972855 0.7892138 -0.44344035
0000a0 a7 8c 72 bf bd bc 8d 3e 61 ee 46 bf bf 31 9d be
       -0.9474587 0.27683058 -0.7770749 -0.30702016
0000b0 ef 7f 61 bf 0d 66 bf bd 22 90 1a bf 02 dc 4e bf
       -0.88085836 -0.093456365 -0.6037618 -0.80804455
0000c0 9e b4 3f 3b 6d 4e 0c bf 19 f3 55 bf d0 50 66 3f
       0.0029251943 -0.5480717 -0.8357406 0.8996706
0000d0 be 5d 0c bd c0 31 d1 ba 9c 45 09 bf 6d de 5a 3f
       -0.034269087 -0.0015960261 -0.5362184 0.85495645
0000e0 0d c7 a4 be ec fe 5f 3e f8 7b 56 bf 65 d9 5a bf
       -0.32183114 0.21874589 -0.8378291 -0.8548797
0000f0 53 d9 be be e5 90 cc be c9 fc a2 be d7 c4 7f 3f
       -0.3727518 -0.39954296 -0.31833485 0.9990973
000100 13 50 0c be 82 6e d5 be 3f 38 58 bf ab b8 e2 bc
       -0.13702421 -0.41685873 -0.84460825 -0.027675947
000110 d1 42 ff be 31 f7 b3 3e 2b 44 3b bf 69 90 03 3f
       -0.49855664 0.3514953 -0.7315089 0.5139223
000120 8f 89 c1 3d 52 9e 30 bf e1 81 2d 3d d8 83 78 bf
       0.09450065 -0.6899158 0.04236019 -0.9707618
000130 32 04 66 bf 1d 14 60 bd bb d9 70 bf 1a 1f 31 bf
       -0.8985015 -0.05470668 -0.9408223 -0.6918808
000140 b8 96 21 be f5 e2 e5 3d c3 0d 5f 3f b5 54 7b bf
       -0.15780151 0.11224929 0.87130374 -0.9817613
000150 eb 8d 19 3f ee 3e 16 3f 1f 1b 0b bf 46 ba e9 be
       0.59982175 0.58689773 -0.5433826 -0.45649928
000160 79 22 0d 3f d3 95 2e 3f bd f8 74 bf 88 78 3f bf
       0.55130726 0.68197364 -0.95692044 -0.7479329
000170 19 72 2b 3f 02 a0 8d 3d 0e cf 09 bf e3 8e 46 3f
       0.66970974 0.06915285 -0.53831565 0.7756178
000180 3e 9b 7c be a7 e2 3b bf 81 cd 33 3f 70 d5 75 bf
       -0.24668595 -0.7339272 0.7023545 -0.96028805
000190 bd 4a 1d 3f 69 8b 79 3e f2 44 ea 3e e6 12 7e 3f
       0.61442167 0.24369587 0.45755726 0.99247587
0001a0 3f 54 c4 3e 61 2a 09 3f ad 98 7a 3f 22 6a 3c 3f
       0.38345525 0.5358029 0.97889215 0.73599446
0001b0 ce a8 03 3f 41 c8 46 3f 06 16 e4 3e a4 4b e0 be
       0.5142945 0.77649313 0.44548053 -0.4380771
0001c0 f4 bf 39 be 39 0b 6c bd 5d 56 6a 3e 44 2a 53 bd
       -0.1813963 -0.05762789 0.22884507 -0.05155398
0001d0 db 6c 21 bf 4d dc fb bd 33 d4 eb be e9 ba 28 bf
       -0.63056725 -0.122978784 -0.46060333 -0.659102
0001e0 7c 62 9c be 29 0c 81 bf 1c 3d 79 bf 2e 0a c3 3e
       -0.30543888 -1.0081836 -0.9735887 0.38093704
0001f0 86 85 33 be 1b e6 1b bc 24 db 67 bd 63 03 53 bf
       -0.17531404 -0.009515311 -0.056605473 -0.8242704
000200 f0 3a 44 be 9d df 2c bd 59 a8 19 3f 2c 4f da 3e
       -0.19163108 -0.04220544 0.60022503 0.42638528
000210 a5 0e e3 3e b9 c2 2c 3f d5 92 01 3f 52 59 2e 3d
       0.4434711 0.67484623 0.5061467 0.04256565
000220 ec 5e 55 be 07 3b db bd 75 25 b1 be ba f0 76 be
       -0.20836991 -0.10704618 -0.3459889 -0.24115267
000230 07 b0 19 bf dc ed 59 bf 9d db f2 be c1 5a 3e bf
       -0.6003422 -0.8512857 -0.47433177 -0.7435723
000240 6e c5 1f bf 38 45 32 bf 0c 83 f9 3e 7a 5c dd bd
       -0.6241063 -0.6963687 0.48732793 -0.10808654
000250 ea 45 02 3f 13 33 0e be b8 2d 31 be 37 5d 10 3f
       0.5088793 -0.13886671 -0.17302597 0.56392235
000260 51 ab d6 bd ba 93 91 be e7 80 3f 3f 48 fd 15 bc
       -0.10481895 -0.2843302 0.74806064 -0.009154625
000270 2d 6f b8 be 28 16 fc 3e 8e d8 91 bd a7 13 27 3f
       -0.3602232 0.49235654 -0.07121383 0.6526436
000280 a0 f2 79 3f 9b 2a c6 bd 17 31 0a 3e 53 6b 40 3f
       0.9763584 -0.09676095 0.13495289 0.75163764
000290 fd 79 27 bf 79 b9 24 3f eb 55 5c bf 42 bd 4b 3f
       -0.65420514 0.6434551 -0.860686 0.7958566
0002a0 43 6c 36 bf dc 33 30 3f 63 d3 3e be d1 fa c5 3e
       -0.71258944 0.6882913 -0.18635325 0.3866792
0002b0 fe 2f ba be 87 09 f3 bd f4 c4 3b bf a5 70 d5 3e
       -0.3636474 -0.118670516 -0.733474 0.41687503
0002c0 c6 ee 31 3e 09 03 df 3e d2 f4 f8 be 03 4d e8 be
       0.17376241 0.43557003 -0.48624283 -0.45371255
0002d0 86 ba f8 be e5 e1 c5 3e c6 d9 d3 bc 01 4b 48 bf
       -0.48579806 0.38648906 -0.025860678 -0.78239447
0002e0 30 85 e1 be 7f f3 a7 be 3b 4f fb 3e 50 3f 7a 3f
       -0.44046926 -0.3280296 0.49083886 0.9775286
0002f0 b4 64 53 3e 78 ed 7d 3f 8b fd e7 3e d1 73 67 3f
       0.20643884 0.99190474 0.45310625 0.90411097
000300 7a 6a 09 bf 4a 2e 6c bf 92 f7 a7 be 9e 5b 63 3f
       -0.53678095 -0.9225813 -0.3280607 0.8881167
000310 3f 8d 06 bf c3 81 5b be f8 46 7e 3f 67 b1 78 bf
       -0.52559274 -0.21436219 0.9932704 -0.97145694
000320 c3 98 ab bd 0d e4 81 bd d3 c0 51 bf e3 4b 14 3f
       -0.08378746 -0.06342325 -0.8193485 0.57928294
000330 38 56 9d 3d 7c d9 0d 3f 0a 44 42 3f 26 8e 42 be
       0.076824605 0.5540998 0.7588507 -0.18999538
000340 4d ea cd 3e 24 1d 14 3f 51 90 62 3f d7 e5 b1 3d
       0.4021782 0.57856965 0.8850146 0.086864166
000350 6c e3 cf be f1 1d 7f 3e d5 63 b5 bd b8 d2 29 bf
       -0.40603197 0.24913765 -0.08856932 -0.66337156
000360 12 fa 41 3f ac ea 5b bf 68 0e ad be 33 4a f2 3e
       0.757722 -0.85904956 -0.33800054 0.47322235
000370 e9 b1 00 bf 48 3a ec bc d5 f4 ac be ac bc 3a 3f
       -0.5027147 -0.028836384 -0.33780542 0.7294414
000380 3e 18 de 3e b2 ff 31 bf ff 63 80 bf fc 9d 4a bf
       0.4337787 -0.69530785 -1.0030516 -0.79147315
000390 9b 55 0e be 2f 77 ba bd 64 12 6e bf f8 82 0f 3f
       -0.13899843 -0.09104764 -0.9299681 0.5605922
0003a0 9c e5 ce bd 51 a8 65 bf a5 38 1c bf 18 c8 78 bf
       -0.10102388 -0.89709955 -0.6102393 -0.9718032
0003b0 24 c1 6b bf a0 64 22 3f 33 f0 17 3f a3 2b 2a 3f
       -0.92091584 0.6343479 0.5935089 0.66472834
0003c0 12 4b 48 be ce d1 7e bf 98 7a 12 bf 7b 0d 3f 3f
       -0.19559887 -0.99538887 -0.57218313 0.74629945
0003d0 bd 69 31 bf 8f 9c a6 be 4b de 44 3f 6b 54 c7 3e
       -0.6930197 -0.3254132 0.7690169 0.38931593
0003e0 ec d9 41 3f 53 6b 3b bf 3e ba 7b bf ae 26 37 bf
       0.7572315 -0.7321064 -0.9833106 -0.71543396
0003f0 08 4b ab be d5 1d 7e 3e 86 9c 37 3f c9 fd 2b bf
       -0.33455682 0.24816068 0.7172321 -0.6718412

conv_0.weight f4 [256, 256]
000000 df 74 8c 3d c6 23 c8 3d 5d f0 28 bd 7e 40 39 bc
       0.06858229 0.09772448 -0.041244853 -0.01130688
000010 3f 88 82 3d e8 61 ee 3c db 5f 2e 3d 9a f3 f9 bc
       0.06373643 0.02909942 0.042571884 -0.030511666
000020 89 77 e4 bc 3b 5f 38 3c eb 55 ca bd e3 de 1f 3d
       -0.02788903 0.011253173 -0.09879669 0.03903092
000030 86 84 a3 3d d1 16 7c 3d e1 d8 3d bd 45 66 f4 bb
       0.07984261 0.061545197 -0.04634941 -0.0074584805
000040 84 5b dd 3d 98 65 52 bc 59 c9 b9 bd 5d b7 ca 3c
       0.10808471 -0.012841605 -0.09071607 0.024745638
000050 bf 08 03 bd 3e 22 d3 3d ec 0c e5 3c 5c 3d 29 3d
       -0.031990763 0.103092656 0.027960263 0.041318282
000060 cc d7 32 3d 8a 99 86 3d 43 9f b8 3c e1 aa c6 3d
       0.04366283 0.06572254 0.02253688 0.09700561
000070 fe f3 bf bd a5 db 20 3d bc 90 b5 3c e6 d0 7e 3d
       -0.0937271 0.03927197 0.022163741 0.06221094
000080 9b b3 85 bd 3f c3 54 3d e4 3d 3b 3d c6 1f ea 3b
       -0.06528398 0.051944014 0.04571332 0.007144901
000090 30 86 43 3c 67 7a 89 3d 17 dc 6e 3d 7a e1 04 bb
       0.011933848 0.067127995 0.058315363 -0.0020275996
0000a0 45 c1 d4 3d db eb 06 bc ae 7d a9 bc 45 1c d2 3d
       0.10388426 -0.008234943 -0.020689812 0.10259298
0000b0 6f 3c e7 bc 72 c0 65 3d 1f 4a 46 3d 80 5c c7 bd
       -0.02822706 0.056091733 0.04841053 -0.0973444
0000c0 83 d5 54 bd 53 09 49 3d 05 e8 2a bd 00 9c 93 bd
       -0.051961433 0.049081158 -0.041725177 -0.07207489
0000d0 fa 26 91 3d bb 5c 92 bd 77 4a 3d ba 1b 9e 84 bc
       0.07087512 -0.07146593 -0.0007220874 -0.016188672
0000e0 d4 6e 36 3d 6a f6 48 3d 15 9e c8 3d c7 e9 67 bd
       0.044539288 0.049063124 0.09795777 -0.05661943
0000f0 ff 12 d4 3d 0f 31 a3 3d bb 98 c2 bd 38 bc e2 bc
       0.10355186 0.079683416 -0.09501787 -0.02767764
000100 16 91 6d 3d 52 17 68 3c bc e1 90 3c cb 09 53 bc
       0.057999693 0.014165716 0.017685764 -0.012880753
000110 de ee 7c 3d 0d f2 fe 3c ce b1 37 bc f8 8d 90 3c
       0.06175124 0.031121278 -0.011211826 0.017645821
000120 09 e4 29 3d 4c fc 17 3d b4 fb 88 3d 86 a6 d5 bc
       0.041477237 0.037105843 0.066886336 -0.026080381
000130 25 7e 0e bd da bd 91 3d 8a e5 a6 3d 20 65 db bd
       -0.03478827 0.071162894 0.0814925 -0.107126474
000140 56 3f a1 bd bb c9 c1 3d e5 1b de bd 83 a4 6d 3b
       -0.078734085 0.09462305 -0.10845164 0.0036261387
000150 ad cd 92 bd bd f9 3a bd 15 b7 a1 3d 84 42 72 3b
       -0.07168136 -0.045648325 0.07896248 0.0036965916
000160 74 41 4e bd f5 c8 a1 3c a7 a1 de 3d 56 1f 82 3d
       -0.05035539 0.019749144 0.108706765 0.06353633
000170 17 4b 96 3d 39 2c 88 bc 18 1c 70 3d f1 c0 52 bc
       0.07338541 -0.01662265 0.058620542 -0.012863384
000180 9d 5b ca 3c 8a 38 ad bc e1 a4 a0 3c 88 27 94 bd
       0.024701888 -0.021145124 0.01960987 -0.072341025
000190 e3 e0 cd 3d 0e b0 fe 3c 86 9b b5 bb 2d b5 7e bd
       0.10052659 0.031089809 -0.0055422215 -0.0621845
0001a0 a9 f6 81 3c dd fd a3 bc 41 0e a4 3d 9d b1 0a 3d
       0.015864687 -0.020018512 0.08010531 0.03386079
0001b0 3c 3c 71 3c fd 4d 74 3d 63 73 59 bd 33 c0 be 3c
       0.014723834 0.059644688 -0.053088557 0.023285007
0001c0 74 d5 8d bd b1 e2 0c 3d 14 bb a9 3d f8 e5 7f bd
       -0.069254786 0.034395877 0.082876354 -0.062475175
0001d0 39 a9 9f 3c 8f 7b cd bc 32 91 00 3d 24 de 5a bd
       0.019489871 -0.025083331 0.03138847 -0.053434506
0001e0 34 9f dc bc c9 9a 92 bd 11 be 29 3d 2b ac 77 3d
       -0.026931383 -0.07158429 0.041441027 0.060466927
0001f0 dc b3 85 3c 00 b9 d4 3d 76 e8 d7 3d c7 08 bb 3d
       0.016321115 0.103868484 0.10542385 0.091325335
000200 0e 21 fc bc d6 28 83 bd e3 75 8d bd 59 2f 90 bc
       -0.03077748 -0.06404273 -0.06907251 -0.017600702
000210 fc b9 83 bd ca 0a 07 bd 8d 8a d6 bd ab 36 76 3d
       -0.06431958 -0.032969274 -0.10475645 0.06011073
000220 57 5e 90 bc 4a 0d bf bd b4 ce a4 3d 19 86 90 bb
       -0.01762311 -0.093287066 0.08047238 -0.004410517
000230 2b 99 97 3c 0a ff 96 bd b7 20 9a bd 52 2f 8b bd
       0.018505653 -0.073728636 -0.07525771 -0.06796135
000240 f3 d9 bc bd 34 d8 29 3d 78 25 b8 3d 0e 6f 3d bd
       -0.09221258 0.041465953 0.089915216 -0.046248488
000250 98 4a 96 bd 02 82 88 bd 86 69 bb 3c 56 f8 c5 3d
       -0.073384464 -0.06665422 0.022877466 0.09666507
000260 78 86 f7 bc 88 c6 ae 3d 88 7a 8a bd 75 65 cf 3d
       -0.030215487 0.085339606 -0.06761652 0.10126773
000270 a5 2c 16 bd a8 ac 38 3b b0 c5 b5 bd 7d 4b aa 3c
       -0.03666367 0.0028179083 -0.088755965 0.020787949
000280 bd bf bd bd ac 13 30 bb b7 9d 02 bd f6 77 d6 3c
       -0.09265087 -0.0026867194 -0.03188869 0.026180249
000290 eb 46 a0 3d ca 6f 9e bd 78 e0 b2 bd 0c 87 95 bd
       0.078260265 -0.07736166 -0.0873422 -0.07301149
0002a0 68 aa 64 bd d3 34 a5 bd 17 fc 26 3d 1b ea c3 bd
       -0.055826575 -0.08066716 0.040767755 -0.095661364
0002b0 03 5e 93 bd 9f 9f 34 bd 05 3a ae 3c 75 91 4f bd
       -0.07195666 -0.04409754 0.0212679 -0.050675828
0002c0 ce 22 9c 3d 69 4b c8 3d 17 ad b5 bd 1a 9f 9d 3d
       0.07623826 0.09780008 -0.08870905 0.07696362
0002d0 27 95 d0 3d 86 0d 75 bd 40 7f a6 3d 7b 2a 9c 3d
       0.101846986 -0.05982735 0.0812974 0.0762529
0002e0 49 d6 16 3d 52 8b af 3a cc a9 cb 3d fe 15 ce 3d
       0.036825452 0.0013392961 0.099444956 0.100627884
0002f0 34 1f 70 3b f3 e5 d9 bd ad 66 a8 3d da 7e d0 bd
       0.0036639692 -0.106395625 0.08222709 -0.10180445
000300 5d 11 cc 3d e3 a3 d2 3d b1 c6 d7 3d 2c 56 af bd
       0.09964249 0.10285165 0.10535944 -0.08561358
000310 49 51 cf bd 3e 84 c0 3d 02 2f a6 bd 92 ca 78 3d
       -0.10122926 0.09400223 -0.08114435 0.06074006
000320 34 ff 6e bc 58 52 c2 3d 0b c7 cc bd 87 1a a2 bd
       -0.014587212 0.09488362 -0.09998902 -0.07915216
000330 2b aa d9 3d ac 45 b0 3d 41 7a 27 bc a4 5c 57 bc
       0.1062816 0.08607039 -0.010222019 -0.013144646
000340 d2 46 6a 3c 7b 83 a3 bd ce 34 92 bd b0 31 0d 3d
       0.014299111 -0.07984062 -0.07138978 0.034471214
000350 db 52 54 bc d9 08 a3 bd 36 69 72 bd f4 47 0b bd
       -0.012959207 -0.07960672 -0.05918237 -0.034004167
000360 9e 46 94 3d b7 9a 44 bc cc c3 83 ba 83 1e 0f bd
       0.07240032 -0.0119997775 -0.0010052859 -0.034941208
000370 1a 6a 8d bd 5e 41 bd 3d 6a 4e c1 3d 40 3c 69 3d
       -0.06905003 0.092409834 0.094387844 0.056942225
000380 fe d6 d4 3c 52 34 b6 3d cf 50 cf 3d 47 e1 2e 3d
       0.025981423 0.08896698 0.10122835 0.04269531
000390 15 d9 bc bb 0a a1 ae 3d 8a be d8 bc c1 6c 37 bd
       -0.005763183 0.085268095 -0.026458044 -0.04478145
0003a0 61 5b 8a bd 45 bb 3d 3d 27 9c c0 3c 4e 1c e2 bc
       -0.067557104 0.046321172 0.02351196 -0.027601387
0003b0 97 dd 15 bd 2f 1d c4 bc c7 25 bf 3d 27 7d c3 3d
       -0.036588278 -0.023939697 0.09333377 0.09545355
0003c0 8c 4d 6c bd 5d 6c 5d 3d 8f 01 12 bd f0 76 4f bb
       -0.057691142 0.05405842 -0.035646018 -0.0031656586
0003d0 09 99 64 bd 1d 22 31 3d 1d d7 62 3c f3 dc c6 bc
       -0.05581001 0.043245424 0.013845232 -0.024275279
0003e0 e3 83 5d 3d dd 7d a3 bd a5 9e 41 bd 5c 00 fa bc
       0.054080855 -0.07982991 -0.047270436 -0.03051775
0003f0 7d 8c 7b bd 6c ce a4 bd 4d c9 c5 3d de 94 c0 bd
       -0.061413277 -0.08047184 0.09657536 -0.09403394

conv_0.bias f4 [256]
000000 32 01 26 3c 36 b3 da 3b d8 82 aa ba 6c 40 14 3c
       0.010132121 0.0066741956 -0.0013008965 0.0090485625
000010 b0 7e 26 3c fa 81 42 bb 6e 95 04 3c 50 23 92 3a
       0.010162041 -0.0029679523 0.008092267 0.001114944
000020 1f a9 91 bb 1b 54 87 3b 82 9d dd 3b 03 9d ea 3b
       -0.0044452096 0.004129899 0.006763161 0.0071598305
000030 79 c7 6c bb fb 72 9f bb a5 c6 01 bc a5 3e ee bb
       -0.0036129637 -0.0048660017 -0.007920896 -0.0072706514
000040 bd 3b f0 3b b2 16 fd 3b 52 05 04 3c dc 47 e1 3b
       0.00733134 0.0077236528 0.008057909 0.0068750214
000050 80 2c d7 3b 75 ed 08 3c 96 18 44 3c 6f a4 6a 3b
       0.006566584 0.008357395 0.011968752 0.0035803576
000060 41 1f 3d 3c 3c c1 01 bc 35 77 dc bb b7 ab 08 bc
       0.011543096 -0.007919606 -0.006728078 -0.008341721
000070 ff 7a 2b 3c 4e 63 ec bb 82 e5 3a 3c 44 f8 fc 3b
       0.010466336 -0.0072139865 0.011407258 0.0077200253
000080 e1 db 07 3c 02 3b 0b bb 98 ee 3f 3c d1 b9 c2 3b
       0.008292169 -0.0021244888 0.0117146 0.005942561
000090 9a c4 f2 3b 03 94 fb 3b 53 e3 3f bb 6d fa f5 3b
       0.0074086906 0.0076775565 -0.0029279783 0.0075066597
0000a0 a2 a3 d7 3b b7 a9 0f 3c 75 ff 1d bb 3b bc 07 bb
       0.006580786 0.0087684905 -0.0024108563 -0.002071156
0000b0 09 d1 f3 bb 43 66 19 bc ac 2f 29 ba 0c ce c4 ba
       -0.0074406904 -0.00936276 -0.0006453942 -0.001501502
0000c0 99 f1 4e ba 5c 78 fc bb 02 39 05 bc 5f a7 df 3b
       -0.0007894277 -0.0077047776 -0.0081312675 0.006825372
0000d0 ee f7 34 bb de b0 00 3c ff d3 de bb b6 4d 08 bb
       -0.0027613598 0.007854668 -0.0068001742 -0.0020798272
0000e0 6a 14 30 bb 2b 3a 51 bb 8c 40 10 bc a1 d8 11 3c
       -0.0026867636 -0.003192554 -0.008804452 0.008901746
0000f0 e3 2b 92 bb 02 d1 4b 3b 87 c1 1b bc 04 85 3e 3c
       -0.004460798 0.003109992 -0.00950659 0.011628393
000100 9a ed 90 38 09 00 77 bb 6c 09 ed 37 7c ab 89 bb
       6.910712e-05 -0.003768923 2.8256989e-05 -0.0042013507
000110 8b 37 f4 3b 41 20 c2 39 16 a5 8e 3b f9 7f 14 3c
       0.0074529103 0.00037026595 0.004353176 0.009063714
000120 73 d4 ea bb 64 4d ea bb e9 19 1f bc 89 f4 fe bb
       -0.007166439 -0.007150339 -0.009710767 -0.0077806157
000130 b5 cb 10 3b 91 20 2e 3b ae 91 fa bb 46 74 93 bb
       0.0022094075 0.0026569704 -0.007646761 -0.004499945
000140 fa 70 ab bb f4 b5 de 3b f9 8d 05 bc a7 f1 fb 3b
       -0.0052319737 0.006796593 -0.008151525 0.0076887193
000150 1a 0e 6f bb 34 9f 82 3b 18 44 07 3c 13 6b dc 3b
       -0.003647691 0.0039862636 0.008255981 0.0067266314
000160 2e 5f 03 bc 04 36 d8 bb 74 14 e9 3b 9d c5 b2 bb
       -0.008018298 -0.006598236 0.007113034 -0.0054556862
000170 27 dd d9 3b 45 6a 0a 3c ad e3 05 bc a8 09 1c bb
       0.006648678 0.008448188 -0.008171958 -0.0023809467
000180 d0 03 9e ba 5e 1c 8f bb 95 ad ee 3b 22 1d 3c 3c
       -0.001205558 -0.0043673953 0.007283876 0.011481555
000190 cc 20 01 bc 05 96 e0 3b bf 2f 1c 3b fa 21 14 bc
       -0.007881355 0.006853821 0.002383217 -0.009041304
0001a0 1f 76 03 bc 65 31 ee 3b 7c 63 00 3a 5e 2d 14 bc
       -0.008023768 0.007269072 0.0004897637 -0.0090440195
0001b0 45 e6 ce ba e4 a1 e4 ba 47 34 02 bc 6b e9 01 3b
       -0.0015785178 -0.0017443267 -0.007947034 0.0019822966
0001c0 25 18 07 3c 0e 4a 16 bc 97 20 85 ba 01 5c 68 bb
       0.008245503 -0.009172929 -0.0010156807 -0.003545523
0001d0 ba bc e2 bb bd 5a c6 ba 26 19 33 3c 5a 78 f4 bb
       -0.0069194706 -0.0015133243 0.010931289 -0.007460636
0001e0 64 7a e9 3b 4c bd 0a bc 3e 09 08 3c 56 48 db ba
       0.007125186 -0.008467983 0.008302985 -0.0016729932
0001f0 3b 61 cf bb eb 70 07 3c 69 6d 07 3c 18 f1 8a bb
       -0.0063287294 0.008266668 0.0082658315 -0.0042401664
000200 2c 89 ac ba 05 79 d9 bb 5f f5 e7 3b a5 67 d2 bb
       -0.0013163439 -0.006636741 0.007078811 -0.006421047
000210 73 cf 76 ba ae 1c d0 bb 74 63 16 bb 26 dd 59 3b
       -0.00094150676 -0.006351075 -0.0022947462 0.0033243387
000220 5e 70 c3 3b 4b b6 4c bb be 26 26 3c 6b 4f 33 bb
       0.005964323 -0.0031236585 0.010141073 -0.002736057
000230 10 d9 03 3c 2c da e4 3b 8e 01 e8 bb 74 e6 0d 3c
       0.008047357 0.006984016 -0.0070802635 0.008660901
000240 e6 2a 2d 3c 54 a3 fe 3b e9 e7 16 3c de a0 5e 3b
       0.01056931 0.007770935 0.009210565 0.0033970396
000250 8b a1 fe bb 4e 70 2f bb 94 76 d3 3b 5e 19 9a 38
       -0.0077707223 -0.002676982 0.0064533446 7.348017e-05
000260 3b 53 41 3c dd 73 ef ba e2 f7 36 3c 00 6d cd bb
       0.011799629 -0.0018268783 0.011167498 -0.0062690973
000270 a2 b4 ef 3b 4b 38 8f 3b de 5c e1 3b e8 c2 f9 ba
       0.0073152343 0.0043707243 0.0068775257 -0.0019055279
000280 60 ea 34 3b ed ef e4 3b 0e 61 25 bc 4f 61 26 bb
       0.0027605519 0.006986609 -0.01009394 -0.002538759
000290 ca 06 c4 ba 92 c9 1f bc f6 3a fe bb 1e 0e 15 3b
       -0.0014955637 -0.009752648 -0.0077584935 0.002274401
0002a0 38 a3 17 3c 4f 25 0e 3c 96 0f 16 3c e1 d8 87 3b
       0.009255223 0.008675887 0.009158989 0.004145727
0002b0 01 3b 29 3c 4a 59 15 b9 88 ea 0f ba 63 79 03 bb
       0.010329009 -0.0001424301 -0.0005489965 -0.0020061366
0002c0 36 96 38 bb 3a 80 36 3c a3 8c 0c 3c 44 ff e2 3b
       -0.0028165705 0.01113897 0.008578452 0.0069274027
0002d0 fd da a6 ba 24 24 e6 3b 95 2f ee 3b b2 08 13 3b
       -0.0012730059 0.0070233513 0.007268856 0.0022435603
0002e0 29 f8 dd 3b dd 58 26 3c 4f 4f 00 3c 49 5d 1d bb
       0.0067739678 0.010153023 0.007831409 -0.00240119
0002f0 0c 94 29 3c d9 b1 4f bb f6 bf 1f 3c e7 81 17 bc
       0.0103502385 -0.0031691699 0.009750357 -0.00924728
000300 6f a3 78 3b b9 08 44 3c fb bc 39 3b 0c b3 84 3b
       0.003793921 0.01196497 0.00283414 0.0040496644
000310 3c 6a 9f 3b 68 0b f8 bb 8b ab 20 3c df 27 f0 bb
       0.004864959 -0.007569719 0.009806524 -0.0073289718
000320 f7 ce f5 bb db 2b fe bb 43 e0 e4 bb 83 5d 04 3c
       -0.007501479 -0.007756693 -0.006984742 0.008078936
000330 9a 16 ec 3b c4 21 38 bb a6 6c 14 3c a9 63 17 3c
       0.0072048428 -0.0028096298 0.009059107 0.009240069
000340 e0 e0 eb 3b d5 74 2d bb ba 28 ce bb 85 bf 4d 3c
       0.007198438 -0.0026467342 -0.006291476 0.012557869
000350 82 d3 3e 3c 07 69 db bb 54 41 ec bb 96 b9 eb 3b
       0.011647107 -0.00669587 -0.007209936 0.0071937544
000360 b2 b5 1a 3c a9 9c f2 3b a8 18 f2 bb 9c 70 dc bb
       0.009442734 0.0074039293 -0.007388193 -0.0067272913
000370 e5 9d 0d bc 3d ad e5 3b b4 7e 0c bb 6a d0 4c 3c
       -0.008643602 0.007009177 -0.0021437826 0.012500862
000380 22 a0 08 3c 33 5e 46 3c 74 d7 21 3c f9 45 f1 39
       0.00833896 0.01210742 0.009878028 0.00046019236
000390 71 1d 17 3c cf 8b 0b 3c 2f 71 db bb 0c 49 e8 3b
       0.009223328 0.00851722 -0.006696842 0.007088786
0003a0 34 3d ea 3b ae 8a f3 3b 5f 10 0c bb 62 67 e5 3b
       0.0071484093 0.0074323034 -0.0021372063 0.0070008496
0003b0 d1 fb 1a 3c e2 ba ea 3b 5d 14 d7 bb 8f 83 3c 3c
       0.009459452 0.0071633914 -0.006563707 0.011505975
0003c0 2a b9 11 bc 15 ce 12 bc 57 4d a1 ba d4 69 16 3b
       -0.008894244 -0.008960267 -0.0012306374 0.0022951262
0003d0 97 5e 52 bb 18 1d 3d ba 73 d5 54 bb cb 34 e2 bb
       -0.0032099837 -0.0007214113 -0.0032475858 -0.006903266
0003e0 ea c4 06 bc e0 18 d9 3b e1 a1 f2 3b a8 47 91 bb
       -0.008225659 0.00662528 0.0074045514 -0.004433591
0003f0 c7 f7 11 bb e6 27 74 bb 0e 51 27 3c 57 7f b9 3b
       -0.002227293 -0.0037255227 0.010212196 0.005660932

layers.0.weight f4 [256, 256]
000000 ca 68 c9 bd 05 62 6f 3c d3 23 73 bd 6d 08 0c 3d
       -0.0983444 0.014610772 -0.059360337 0.034187723
000010 ef 83 02 bd 24 43 bf 3d 0f 01 28 bd cc d3 89 bd
       -0.031864103 0.09338978 -0.041016635 -0.0672985
000020 6f 86 9a bd a6 8c 72 bc da c2 a4 3d e9 51 74 3d
       -0.075451724 -0.014804041 0.080449775 0.059648428
000030 2e 04 f8 3b 03 a9 cc 3d 62 e7 de 3c e5 64 41 bc
       0.0075688576 0.09993174 0.027209941 -0.01180384
000040 49 be 9d 3d 6e f9 a8 3b c9 1d 83 3d 6e 0c 54 3b
       0.0770231 0.0051566875 0.064021654 0.0032356041
000050 09 80 87 bb b4 dc 8f 3d c0 55 11 3d 09 a9 09 bc
       -0.004135136 0.07024518 0.03548217 -0.0084021175
000060 5a 60 cd 3c cc c5 97 bd aa 68 d0 3c a7 1e 7b 3d
       0.025070358 -0.07410774 0.025440533 0.06130853
000070 9f f0 41 3d 71 36 30 3d 71 74 8a 3d 02 c5 e9 bc
       0.047348615 0.04302067 0.06760491 -0.028536323
000080 bc c9 98 bd 95 e2 a9 bd c2 8b 61 bd b8 8f aa bc
       -0.07460353 -0.0829517 -0.055064924 -0.020820484
000090 6e 9f 3d 3c 3f 53 0d bd 4a d8 98 3b f4 b3 ca 3d
       0.0115736555 -0.034503218 0.0046644555 0.098976046
0000a0 ea 2b cf 3c 34 be e9 bc 28 7a 02 bd 16 5e 80 3d
       0.025289495 -0.028533079 -0.03185478 0.062679455
0000b0 89 a3 c1 bd 8c 73 22 3d 9d bc e0 3b bc f9 26 3c
       -0.0945502 0.039660975 0.006858422 0.010191377
0000c0 fa aa 3e bd 8e d8 43 3c 81 a8 43 3a ca 7d 6c bd
       -0.046549775 0.011953486 0.00074637687 -0.05773715
0000d0 42 ce b5 3c fa e3 fe bc 36 38 5e 3c 8c 01 c2 3c
       0.022193078 -0.031114567 0.013563206 0.023682378
0000e0 3c b0 d1 3c d5 fe 92 3d f3 8e 57 bd 8b eb 92 bd
       0.02559673 0.071775116 -0.05262656 -0.071738325
0000f0 2b 7d 1d bd 1e df 94 bd 6b d3 04 bc 57 56 f6 3a
       -0.038449448 -0.07269119 -0.008107047 0.0018794042
000100 8e aa 2f 3d 78 85 86 3d c4 47 cf bd fe 7b c9 bc
       0.042887263 0.06568426 -0.1012111 -0.024595257
000110 32 ac 5a bd ba ac 3a bd f7 8e 06 bd ec 68 d6 bb
       -0.053386874 -0.04557488 -0.032851186 -0.0065432694
000120 fb 8b 6d bd 7a 6b 3f ba 5e 5a 36 3d ed 63 53 bc
       -0.057994824 -0.0007302087 0.044519775 -0.012902242
000130 03 ec 23 3c 7e ff ea bd 08 71 60 bd 77 90 0f 3d
       0.010005 -0.114745125 -0.054795295 0.03504988
000140 df 3e 7a bc bb a8 9a bd 86 f8 31 3c 6b 5e c4 3d
       -0.015273779 -0.07551714 0.010862475 0.09588321
000150 3d e4 9d bd e1 63 c0 bd 8b dc de bc 97 a2 6b 3d
       -0.077095486 -0.093940504 -0.027204772 0.057528105
000160 22 7c c5 3d d6 39 d6 bc 4a 69 a7 3d f8 b1 a8 3d
       0.09642817 -0.026150625 0.08174379 0.0823707
000170 72 fd 2a 3a 02 f3 bc 3d 16 1b 0b 3d 57 20 3b bd
       0.00065227516 0.092260376 0.033961378 -0.04568514
000180 72 7d 2b 3c bc c1 16 bd e1 36 a4 3d ca 80 8b bd
       0.01046692 -0.036805853 0.0801828 -0.06811674
000190 b1 c3 13 3c f3 c6 ca 3c 27 03 be 3d 23 cb 95 3d
       0.009018824 0.02475307 0.09277945 0.07314136
0001a0 5d 4c 02 3d 91 97 c7 3d 6f c5 b4 3d 32 0c 27 bd
       0.031811107 0.09745706 0.0882672 -0.040783115
0001b0 12 0a 6a bd a4 5e c3 bc 30 6a 88 bd 0e 9a 64 3d
       -0.05713851 -0.02384884 -0.06660879 0.05581098
0001c0 b1 35 a9 3d 38 1a 18 3d 2b 06 c6 bd 32 27 19 bd
       0.08262194 0.03713438 -0.09669145 -0.037390895
0001d0 8f 8d 76 bd 42 28 e9 bc ba 75 50 bd 09 98 e9 bb
       -0.060193595 -0.02846158 -0.050893523 -0.0071287197
0001e0 27 54 86 bd 62 84 99 bc 42 1e 86 3b 90 45 ed 3b
       -0.065590195 -0.018739883 0.0040929625 0.0072409585
0001f0 58 28 e0 bc 15 df 76 3c 3e 97 5e bd d7 01 19 3d
       -0.027362987 0.015067835 -0.054343455 0.03735527
000200 44 71 71 bd e1 42 22 bc b2 e4 ae 3d 92 5f 2a 3d
       -0.05894591 -0.0099036405 0.08539714 0.04159505
000210 dd 25 e9 bc 62 06 ef bd 4e 90 5b bc f2 a5 87 bc
       -0.028460437 -0.11671139 -0.013401104 -0.016558621
000220 00 ee 13 bb c0 37 4c bc bc d6 7b bd 4f 4c 5a 3d
       -0.002257228 -0.012464464 -0.061484084 0.05329543
000230 e5 08 ea bd 0c ac 63 bd f0 e8 86 3d b7 3c 9c bc
       -0.11427478 -0.055584 0.06587398 -0.01907192
000240 89 46 77 bd f4 0b e2 bd ed fb be 3b a2 70 c4 bd
       -0.060370002 -0.11037436 0.0058283717 -0.095917955
000250 37 97 ac 3d af 94 17 bd aa 1b 07 3d 9a da c8 bd
       0.084272794 -0.03700703 0.032985367 -0.0980732
000260 aa d4 8a bd 48 47 1c bd fa d4 98 3d 99 1c f0 bc
       -0.06778844 -0.038153917 0.07462497 -0.029310511
000270 d7 7e bb 3d a5 01 96 3d 04 72 ba bd 88 c4 ac bc
       0.09155052 0.073245324 -0.09103778 -0.021089807
000280 ce d2 83 3d d8 d4 63 bd 1b 63 3a bd a1 0d bb 3c
       0.06436692 -0.055622905 -0.04550467 0.022833647
000290 2c 25 9b 3d b1 24 9e bd 91 e2 a0 bb 13 37 bc bd
       0.07575449 -0.07721842 -0.0049098213 -0.09190192
0002a0 65 ca 95 3d 44 ad aa 3d 85 56 af 3d a7 f9 04 bd
       0.07313994 0.08333829 0.08561424 -0.03246465
0002b0 0a a9 f8 3c 9a c7 32 3c 62 ed c0 bd 7c c5 ce 3d
       0.030354042 0.0109118465 -0.09420277 0.10096261
0002c0 7d 7b 5e bd 41 ad 9f bd 57 27 c4 bd cb 59 8c bd
       -0.054316986 -0.077967174 -0.09577816 -0.06853064
0002d0 02 3b 4c 3c d1 7c 29 3d fc ff 0d bd 26 83 e4 bd
       0.01246524 0.0413788 -0.034667954 -0.11157827
0002e0 df ff 87 3d e8 8b c5 bd 82 0d 22 bd b7 da a9 bd
       0.066406004 -0.096458256 -0.039563663 -0.0829367
0002f0 e5 bb b7 3d 61 e4 28 3d d4 f7 52 bd 3e 60 25 3c
       0.08971385 0.041233424 -0.05150588 0.010093747
000300 ec a9 97 3c 19 63 c3 bd dd 44 91 3d 45 ba ab 3d
       0.018513642 -0.09540386 0.07093213 0.083851375
000310 70 a0 07 bd 50 1f 02 3d 5a 90 ff 3c 26 64 aa 3c
       -0.03311199 0.031768143 0.031196762 0.020799708
000320 67 bb 7b 3c cf 17 b6 3d 5c c7 0f bd f8 88 d8 3c
       0.015364504 0.0889126 -0.035102233 0.0264325
000330 36 91 90 bd fd b4 68 bc 63 9e 45 b9 41 41 a0 3d
       -0.07058947 -0.014203307 -0.00018846388 0.07824946
000340 11 b6 ad 3d 01 94 c3 3d 39 cb d5 bd 75 fd bb 3d
       0.08481992 0.09549714 -0.10439152 0.091792025
000350 f2 29 4d 3d a3 d9 e6 bc 06 68 8f 3c 8e 6f ad 3d
       0.05008883 -0.02817995 0.017505657 0.08468543
000360 c3 5f 47 bc 1e a9 ad 3c 66 39 5b bb fc 7b 14 3c
       -0.0121688275 0.021198805 -0.003345096 0.009062763
000370 1e 78 62 3d de 72 88 3d 49 b1 91 bc 3d d7 77 3d
       0.055290334 0.06662534 -0.017784731 0.060508
000380 d2 5d 9f bd 04 db c8 bc 8c bb 78 bd c4 74 b6 3d
       -0.07781567 -0.024518497 -0.060725734 0.0890899
000390 72 d2 0b bd 20 ec b5 3d e4 a4 d6 3d 7c 2f e9 bc
       -0.034136243 0.08882928 0.10480669 -0.028465025
0003a0 d3 95 91 3d b6 54 b5 3d 22 7e 61 ba 00 30 96 bd
       0.07108655 0.08854048 -0.0008601864 -0.07333374
0003b0 cc 2f ff 3b bb aa 2a bd dd 40 19 3d c5 f0 54 ba
       0.0077876803 -0.041666728 0.037415374 -0.00081230357
0003c0 04 d3 03 bd 13 8c 6e 3d 29 9a b8 bd e2 ec 69 bd
       -0.032183662 0.058239054 -0.09013779 -0.057110675
0003d0 22 5d 93 3d eb e9 bb bd 3d f6 77 bd 67 41 33 bd
       0.07195498 -0.09175476 -0.060537565 -0.043763544
0003e0 84 73 a6 3c ab bf 09 bc df 77 c4 3c a2 4d cd 3d
       0.020318754 -0.008407514 0.02398294 0.10024573
0003f0 fd cd a2 3c ed a6 e2 bd de fd 35 3c 9d 85 53 bd
       0.019873613 -0.11066995 0.01110789 -0.051641095

layers.0.bias f4 [256]
000000 73 50 e0 bb 67 95 d6 3b 6a cc f2 3b b1 03 e3 bb
       -0.006845528 0.006548572 0.007409622 -0.0069279303
000010 2a de d2 3b 39 03 db 3b b9 88 e4 3b 3d a1 da bb
       0.0064351754 0.006683734 0.0069743064 -0.006672053
000020 85 c8 e4 3b e0 57 db bb 95 35 e3 3b 98 cd e5 bb
       0.0069819116 -0.006693825 0.0069338777 -0.007013034
000030 26 9a d7 bb 53 be e1 bb d9 7a e0 bb a3 ce df 3b
       -0.006579655 -0.0068891435 -0.006850582 0.006830053
000040 59 2c e6 3b 5c 5f e1 3b 20 72 e6 bb 26 75 e6 bb
       0.0070243296 0.006877823 -0.0070326477 -0.007033008
000050 43 96 19 3c 0f 2a e3 bb 5d 15 e8 3b ed 8d e7 3b
       0.009374204 -0.006932504 0.007082625 0.0070664794
000060 d2 68 ec bb 86 0b e7 bb cc 30 e1 3b 1d c7 e2 bb
       -0.007214644 -0.0070509342 0.006872272 -0.006920709
000070 93 d1 c3 3b 19 47 df bb 9a 91 e7 bb fb d0 e4 bb
       0.005975911 -0.0068138954 -0.0070669176 -0.00698292
000080 3f d7 e1 bb 05 55 d6 3b a8 ef f3 3b 66 23 f7 bb
       -0.0068921144 0.006540897 0.0074443407 -0.0075420616
000090 ed 35 df bb ed 71 d8 bb 67 f9 e1 3b d6 e1 e1 bb
       -0.0068118484 -0.006605378 0.006896186 -0.006893377
0000a0 89 78 3a bc 5c c6 d9 bb b8 eb d3 bb 84 cd dc bb
       -0.011381277 -0.0066459607 -0.006467309 -0.0067383666
0000b0 78 aa e0 3b 17 ab e2 bb d0 79 d2 3b 86 3b 13 bc
       0.006856259 -0.006917368 0.0064232126 -0.008986359
0000c0 bc cd ed 3b b1 fd dd bb d2 30 e3 3b 96 dc e6 bb
       0.0072571915 -0.006774627 0.00693331 -0.007045339
0000d0 99 06 d7 bb 49 48 e1 bb 83 dc c9 3b 35 63 e2 3b
       -0.006562066 -0.006875072 0.0061603202 0.006908799
0000e0 ed f0 d7 3b bd 8a d8 bb 8a f6 e2 3b a2 fc dd bb
       0.00659 -0.0066083358 0.0069263624 -0.006774501
0000f0 c6 2d d9 3b 24 8a d4 bb fa 4c 02 bc 5f b4 1a bc
       0.006627771 -0.006486194 -0.007952923 -0.009442418
000100 7e 60 d3 3b e7 c7 00 3c 6d d4 d3 3b 65 64 da 3b
       0.0064507117 0.00786016 0.006464532 0.0066648
000110 f3 09 f1 bb 6d ae e1 bb 64 3b da 3b aa a1 e1 3b
       -0.0073559224 -0.0068872483 0.006659912 0.006885727
000120 e6 d9 db 3b cf 63 e2 3b 42 0e bc bb 29 8c e0 3b
       0.006709325 0.006908871 -0.0057390044 0.006852646
000130 33 df 47 3b ea 61 d9 bb 5d 3c f5 3b 78 41 cc 3b
       0.0030498027 -0.0066339867 0.0074840025 0.0062333904
000140 d3 6b d4 3b 01 20 e8 3b 51 fc e0 bb 6d 77 e6 3b
       0.00648258 0.0070838933 -0.006866016 0.0070332796
000150 8f 58 d5 3b 9c ac cd bb df 6e ec bb 1f fa df 3b
       0.006510801 -0.00627668 -0.0072153653 0.0068352367
000160 74 66 e1 3b 34 2f d6 3b 18 3b db bb 3b 2a 0e 3c
       0.0068786684 0.006536389 -0.006690394 0.008677061
000170 24 6e e1 3b ce 37 31 bc e3 02 d6 3b 01 a9 e0 3b
       0.006879585 -0.0108165275 0.006531106 0.0068560843
000180 22 a3 e8 3b 43 3c 28 3c 48 a5 e1 3b fb 89 e4 bb
       0.007099525 0.010268274 0.006886158 -0.0069744564
000190 38 00 8a bb ca f3 d9 bb af 8f e0 3b ed f7 ed bb
       -0.004211452 -0.0066513764 0.006853066 -0.007262221
0001a0 24 99 e0 bb c8 7c 90 3b bf 5f ea 3b e2 15 c9 bb
       -0.0068541933 0.0044094063 0.007152527 -0.006136642
0001b0 6c b6 d2 3b ba 24 e1 bb 1d 30 d4 bb 7a 78 ae 3b
       0.006430438 -0.006870833 -0.006475462 0.0053244205
0001c0 21 15 e3 3b f1 83 db 3b 2e fb 1e 3c e2 13 e6 3b
       0.006930009 0.0066990783 0.009703441 0.007021413
0001d0 ee 49 e1 bb 90 89 d3 bb fc 6e e7 3b 04 0e dc bb
       -0.006875268 -0.0064556077 0.007062791 -0.006715538
0001e0 38 7c e1 bb 5e ba e5 3b 93 b1 e4 3b 5e e8 e4 3b
       -0.006881263 0.007010742 0.0069791763 0.006985708
0001f0 0b be e0 bb 76 94 02 bc d1 4f f2 bb d1 2d c2 bb
       -0.0068585924 -0.007969966 -0.0073947688 -0.005925872
000200 6e 59 d7 bb 6c 8d d9 bb 2a d2 f8 bb 8f f8 02 bc
       -0.00657194 -0.0066391733 -0.007593413 -0.007993831
000210 e5 c7 d8 bb b9 e6 1b bc 3b 90 f8 bb a2 57 d1 bb
       -0.006615626 -0.009515458 -0.007585553 -0.0063886205
000220 2a 5b e6 bb a0 e1 c2 bb 97 cc e8 3b e3 97 e2 bb
       -0.0070299106 -0.0059473068 0.007104467 -0.006915079
000230 58 20 da bb c5 17 75 3a 50 24 e1 3b 15 c3 e1 3b
       -0.0066566877 0.000934955 0.006870784 0.0068897107
000240 c2 c8 e2 bb 9b 25 09 bc ec a0 e0 bb 9f 17 d9 bb
       -0.006920905 -0.008370782 -0.006855121 -0.0066251303
000250 0b 4e e0 3b 13 49 d8 bb dc 41 d6 bb 4f 43 e0 bb
       0.006845241 -0.006600508 -0.006538613 -0.0068439613
000260 6c 88 ce bb 6b ac e2 3b 3e 59 dd 3b f4 e5 dc 3b
       -0.006302884 0.0069175265 0.0067550233 0.0067412797
000270 e8 89 e2 bb 31 dd d5 3b 95 01 0f bc d3 58 d0 3b
       -0.0069134124 0.006526612 -0.0087284045 0.006358245
000280 1a 8e e0 3b 5a aa d5 bb 3d b3 11 bc 02 6d b0 bb
       0.0068528773 -0.0065205516 -0.008892831 -0.0053840885
000290 5d a2 d7 3b 41 3c e4 bb 7b e2 e3 bb 68 6c f8 bb
       0.0065806345 -0.0069651906 -0.006954489 -0.0075812824
0002a0 6b 1a e2 bb c2 68 ed 3b c1 5d dc 3b 99 45 e0 bb
       -0.006900122 0.007245154 0.0067250435 -0.006844234
0002b0 80 cd 01 bc 42 16 e0 3b 39 8f d8 3b 21 07 d4 bb
       -0.00792253 0.006838591 0.0066088703 -0.0064705764
0002c0 6c 2f d8 bb 6f cd d7 bb c2 68 df 3b 20 30 c4 3b
       -0.00659745 -0.006585769 0.006817908 0.0059871823
0002d0 42 9d d8 bb a4 5f e9 3b 2c c4 21 3c a2 17 01 bc
       -0.0066105435 0.007121997 0.009873431 -0.00787917
0002e0 9e cf d7 3b 47 12 e1 bb 2a 56 f5 3b 9d 25 ec 3b
       0.006586029 -0.006868634 0.007487078 0.0072066323
0002f0 27 67 d3 bb 20 39 d9 bb 43 48 bb 3b 26 3f e5 bb
       -0.0064515057 -0.0066291243 0.0057154014 -0.0069960533
000300 88 ba d5 3b b3 f3 e1 3b 57 63 15 bb e5 c9 d4 bb
       0.0065224804 0.0068955063 -0.0022794807 -0.0064937943
000310 6f a3 d5 bb 89 4a e1 3b c6 55 b3 3b 00 39 e1 3b
       -0.006519727 0.0068753404 0.0054728715 0.00687325
000320 4b 8b e7 bb 43 ff ea 3b 7e 38 d0 3b 00 9e d0 bb
       -0.0070661656 0.007171543 0.0063543906 -0.0063664913
000330 77 ca e3 3b 87 0d d7 bb c5 13 e7 3b 73 1c db 3b
       0.006951626 -0.006562892 0.0070519173 0.006686741
000340 63 79 d8 3b b9 28 df bb 4d 55 ec bb 67 1b e2 bb
       0.0066062673 -0.0068102744 -0.007212317 -0.0069002393
000350 81 2d e0 3b a4 52 29 bc 13 37 e8 3b 11 9b d1 3b
       0.006841362 -0.0103346445 0.0070866435 0.006396659
000360 05 3a d6 bb 4a b0 e4 bb c6 05 cd bb 95 c4 e0 3b
       -0.006537678 -0.006979023 -0.0062567918 0.006859372
000370 be 91 da bb 24 65 e0 bb f5 55 cd 3b 9f ce df 3b
       -0.006670206 -0.0068479944 0.0062663504 0.006830051
000380 10 fb 2f 39 e3 17 e7 3b 6a df e7 bb 0c 23 2f bc
       0.00016782829 0.007052408 -0.0070761936 -0.010689508
000390 68 27 e1 bb 51 86 e7 3b 46 48 fa 3b f4 8f eb 3b
       -0.0068711527 0.0070655723 0.00763801 0.0071887914
0003a0 9a 10 dc bb 86 0d 29 bc 06 90 e4 3b bd e1 ea 3b
       -0.0067158462 -0.010318166 0.0069751767 0.0071680234
0003b0 ce 3b ff 3b 4a 49 c1 3b 3a c8 e6 bb 8b 13 1f 3c
       0.0077891117 0.0058986293 -0.007042912 0.009709249
0003c0 83 b6 e2 bb 7b 7e e3 bb 8a 50 de bb 1b 96 e1 3b
       -0.0069187297 -0.006942568 -0.0067845033 0.006884349
0003d0 99 15 d9 3b 45 e2 d6 3b b1 b2 f1 bb 26 56 e2 3b
       0.006624889 0.006557735 -0.007376038 0.0069072424
0003e0 02 55 e1 bb ae 2f f2 3b f3 c9 d4 3b 43 f8 e1 3b
       -0.006876589 0.007390938 0.006493801 0.00689605
0003f0 ba 28 d6 3b 47 f7 ea bb dc 81 e8 bb ce 96 f3 bb
       0.0065356167 -0.007170591 -0.0070955586 -0.007433749

predict.weight f4 [1, 256]
000000 95 57 89 bd c2 85 1d 3d ac c2 93 3c 10 71 48 bd
       -0.06706158 0.03845764 0.018037163 -0.04893595
000010 44 52 c0 3c 21 db 9e 3c 3d 76 26 3d 29 74 81 bd
       0.023476727 0.019391598 0.040640105 -0.06320984
000020 f2 58 07 3d a1 e6 13 bd 1a 0e 20 3d 03 13 14 bd
       0.03304381 -0.036108617 0.03907595 -0.036150943
000030 d9 46 44 bd 39 a5 8f bd 5c f9 91 bd 9f 81 87 3d
       -0.047919128 -0.070139356 -0.0712764 0.0661652
000040 7f bd 10 3d c1 fc 7d 3d 18 e1 02 bd 06 ba 90 bc
       0.035336968 0.062008623 -0.031952947 -0.017666828
000050 8e 6c 73 3b 37 b4 7b bd 83 2d 02 3d d1 b1 a6 3c
       0.003714356 -0.061451163 0.031781685 0.020348461
000060 bc b3 99 bc c2 f9 2c bd a2 f0 8e 3d 46 e1 16 bd
       -0.018762462 -0.042230375 0.06979491 -0.03683593
000070 2d 9f f0 3b cd 2a 53 bc 1f 10 08 bd 62 49 00 bd
       0.007343194 -0.0128886225 -0.0332185 -0.031319983
000080 b7 f3 31 bd 65 20 12 3d 8a 87 bc 3c 15 55 73 bc
       -0.043445315 0.035675425 0.023013849 -0.014851828
000090 e7 5c 3e bd 99 73 33 bd 0a 8b 8c 3d c6 ee 39 bd
       -0.046475317 -0.043811414 0.06862457 -0.045393728
0000a0 00 ae 2c bc 2b 61 22 bd 62 e2 07 bd 7d fc 3f bd
       -0.010539532 -0.039643448 -0.03317488 -0.04687165
0000b0 74 5b 6d 3d 59 e7 3d bd 98 8d db 3c 12 93 ea bb
       0.057948545 -0.04636321 0.026800916 -0.0071586454
0000c0 55 80 c5 3c ad 14 4b bd f9 da 31 3d e5 5c 10 bd
       0.024109045 -0.049580265 0.04342172 -0.03524484
0000d0 75 96 4a bd 31 88 4c bd cf 44 3c 3c c7 f6 37 3d
       -0.049459893 -0.04993457 0.011491015 0.04491308
0000e0 10 06 4d 3d f3 9e 53 bd 1e 4f 76 3d fb b4 be bc
       0.05005461 -0.051665258 0.060134046 -0.023279658
0000f0 da e7 71 3d 48 1c 27 bd b0 ae a0 bc 28 3f 21 bc
       0.059059 -0.040798455 -0.019614547 -0.009841718
000100 a4 7d 07 3d c8 5b 52 3c 64 50 ea 3c f7 2a ed 3c
       0.033078805 0.012839265 0.028602786 0.028951151
000110 bc 4e 40 bc 3e 3f 7c bd 72 c4 81 3d 82 35 81 3d
       -0.011737522 -0.06158375 0.06336297 0.06309034
000120 07 e1 84 3d 98 58 93 3d 78 7b c0 bb 9e 5a 8b 3d
       0.06488233 0.07194632 -0.0058740936 0.06804393
000130 bc 25 ef b9 64 96 29 bd 4c bf 8e 3c 18 5c 13 3c
       -0.00045613747 -0.04140319 0.017425202 0.008994125
000140 06 87 05 3d a7 e7 da 3c d6 f2 31 bd 89 94 00 3d
       0.03259947 0.026721789 -0.043444477 0.031391654
000150 09 b7 96 3c f0 3e 8f bc 81 ee a5 bc 29 b7 84 3d
       0.018397825 -0.017486066 -0.02025533 0.064802475
000160 2d 86 79 3d 93 a4 18 3d 73 40 7f bd 4b 02 3c 3c
       0.060918976 0.037266325 -0.062317323 0.011475156
000170 7e d1 6c 3d ec 26 00 bc 6f bf 81 3c 55 79 83 3d
       0.057816975 -0.00782178 0.015838353 0.064196266
000180 6b 3b f4 3c 4b b3 11 3c b3 8f 50 3d 4c 92 45 bd
       0.029813489 0.008892844 0.050918292 -0.048235223
000190 72 75 0f ba 62 4b 00 bd d4 36 8c 3d 97 a3 c5 bc
       -0.0005472518 -0.03132189 0.06846395 -0.024125857
0001a0 a2 d9 8c bd 2e 58 a1 3a cd de 60 3c 03 bc 2d bc
       -0.06877448 0.0012309605 0.013724995 -0.0106039075
0001b0 d3 86 d4 3c 22 04 72 bd b2 f8 18 bd e8 df 32 3b
       0.025943195 -0.059085973 -0.03734655 0.0027294103
0001c0 42 35 6d 3d aa 0b 86 3d dd 27 11 3c 80 89 fc 3c
       0.05791212 0.065451935 0.008859602 0.030827284
0001d0 24 4b 86 bd 48 ea 12 bd ba 9a 11 3d b0 52 4a bc
       -0.06557301 -0.03586796 0.03554795 -0.012348816
0001e0 bb 04 5e bd ea d9 0f 3d 18 3c 1e 3d c2 b0 2b 3d
       -0.05420373 0.03511993 0.03863153 0.041916616
0001f0 b6 e3 90 bd 77 a0 52 bc a2 7c d0 bc a5 01 c8 bb
       -0.070746824 -0.012855641 -0.025450055 -0.0061037117
000200 3b e3 6f bd cb 8a 1b bd 52 48 8b bc 12 56 51 bc
       -0.058566313 -0.03797416 -0.017002258 -0.012776868
000210 49 99 5d bd 4f fa 10 bc 69 8f b0 bc ac 5f 6b bc
       -0.054101262 -0.008848741 -0.021552758 -0.014366072
000220 dd 63 12 bd 79 17 cd bb f7 e6 11 3d 1d 20 81 bd
       -0.03573977 -0.0062589017 0.035620656 -0.06304953
000230 8c 1b 23 bd a8 5b 2a 3b be 1a 8d 3d 3a 4b 8d 3d
       -0.039821193 0.0025994573 0.06889866 0.06899114
000240 57 1a 51 bd f9 62 76 bc 4b 77 83 bd 99 9d 0b bd
       -0.05105051 -0.015038245 -0.06419238 -0.034085844
000250 f0 59 88 3d bb 4a 4d bd fd 20 3c bd 58 a0 8c bd
       0.06657779 -0.050120097 -0.045929898 -0.06866521
000260 49 d7 84 bc 73 51 2b 3d dd 7f 58 3d ed 06 1f 3d
       -0.016215937 0.041825723 0.052856315 0.038824964
000270 0d 84 81 bd 5c fb 05 3d f9 f3 3d bc 8b 12 90 3c
       -0.06324015 0.032710418 -0.011593812 0.017586967
000280 04 8b 8e 3d ed 9f 58 bd 06 b8 da bb d1 3f 49 bb
       0.06960109 -0.052886892 -0.0066747693 -0.0030708204
000290 4f 7c 3a 3d 04 37 c3 bc 70 7a f4 bc 9a f3 91 bc
       0.045528706 -0.023829944 -0.029843539 -0.017816354
0002a0 ea 50 52 bd 75 5a fa 3c d2 f9 18 3d e5 5a 68 bd
       -0.051346697 0.030560711 0.037347622 -0.05672731
0002b0 c8 be 5b bc 64 0c 8b 3d 8e 30 13 3d 94 7a 42 bc
       -0.013412185 0.06789473 0.035934977 -0.011870045
0002c0 a2 4c 3c bd ac 2e 44 bd 2d c6 5f 3d 9e ef 27 3c
       -0.04597152 -0.047896072 0.054632355 0.01025
0002d0 c8 f0 09 bd 72 c8 18 3d 77 73 1d 3c 4a d8 66 bc
       -0.033676893 0.037300535 0.0096100485 -0.014089653
0002e0 c9 01 48 3d 97 c3 75 bd 83 e2 7e 3c 10 d6 e0 3c
       0.048829827 -0.060000982 0.015556934 0.027445823
0002f0 2c a4 7c bc 63 05 80 bd 53 6c a0 3b 67 2a 36 bd
       -0.015420001 -0.062510274 0.0048957258 -0.04447403
000300 dd 08 0a 3d c1 19 3e 3d 80 3b 14 3b f1 3a 02 bd
       0.03369986 0.04641128 0.0022618473 -0.031794492
000310 23 87 4b bd bb 95 93 3d 71 49 67 3b 51 b2 88 3d
       -0.049689423 0.07206293 0.0035291577 0.06674636
000320 ae 89 f9 bc 56 ef e3 3c 61 a3 a1 3c 61 8c 6c bc
       -0.030461159 0.027824085 0.019731225 -0.014437766
000330 3c d0 5f 3d 67 ff 04 bd 7c 82 ff 3c de 48 60 3d
       0.054641947 -0.032470133 0.03119015 0.05475699
000340 04 8f 2f 3d 01 82 86 bd 50 dc b9 bc 33 a3 35 bd
       0.042861 -0.06567765 -0.022688061 -0.044345092
000350 df 31 8c 3d cd cc f3 bb 0e 5b 0d 3d e2 ad af 3c
       0.0684545 -0.0074401856 0.034510665 0.021445218
000360 13 bd 1c bd 78 37 43 bd b3 57 5f bc 0a 8f 5b 3d
       -0.038266253 -0.04766032 -0.013631749 0.05360321
000370 de 73 1a bd 3d 7b 21 bd 3f d3 7b 3c 8a 06 88 3d
       -0.037708156 -0.03942417 0.015370189 0.06641872
000380 06 ef 6e bb cf 9e 33 3d 24 db 16 bd 56 dd 3e bc
       -0.0036458387 0.043852624 -0.036830083 -0.01164945
000390 44 88 5e bd 9a 26 d7 3c b5 49 6f 3c 4e ce dd 3c
       -0.05432917 0.026263524 0.0146049755 0.027075913
0003a0 8c 40 76 bd e2 2e 03 bc a8 14 11 3d 70 02 bd 3c
       -0.06012015 -0.008006783 0.03542009 0.023072451
0003b0 b2 81 8e 3c ca db ae 3b ba df e8 bc 99 64 07 3c
       0.017395828 0.0053362595 -0.028426994 0.00826373
0003c0 f8 8e 32 bd 79 23 38 bd 1a 7d 80 bd 64 8a 3d 3d
       -0.043593377 -0.044955704 -0.06273861 0.046274558
0003d0 88 be 25 3d 5e 4b 37 3d ca 20 cf bc 76 b7 5e 3d
       0.040464908 0.04474961 -0.02528419 0.05437418
0003e0 d8 51 78 bd 7f fa b6 3c f9 08 0c 3d 5c c4 5d 3d
       -0.060624927 0.022336243 0.034188244 0.05414234
0003f0 0b a7 53 3d dd 97 01 bd 29 35 12 bd 6e 87 d1 bc
       0.051672976 -0.03163897 -0.03569523 -0.025577273
