PERGAT_embbedding/data/emb/models/model_dim128_lay2_epo32.pth (torch, 137088 bytes, 7 tensors)

linear.weight f4 [128, 1]
00000000: 5a16 213f 20bc 84bd f4f3 b1be f0ea bc3d
00000010: 2885 6ebe fc6e bdbe 8441 a6be 008d 443c
00000020: b00d 6e3e 5897 fd3e b40c d93e 5409 f4be
00000030: b073 8dbe 8c95 7abf 9271 65bf 70d0 1c3e
00000040: d0eb 1dbe 6cd8 1fbf 42be 44bf 2849 09be
00000050: 1825 45bf 8855 42be 1843 073f da67 15bf
00000060: 206c a0bd 6e44 6f3f e06e 2e3f 004e de3e
00000070: 440f 183f f80e 4cbe c283 17bf 0c32 01bf
00000080: 241f 84be 102e 6abf 70c1 c2be b6f2 723f
00000090: 9499 2c3f d853 acbe dc24 b23e 1267 31bf
000000a0: a4c9 bf3e 629c 04bf b8c3 f7be a830 df3e
000000b0: 944e 193f 0caa ddbe 9850 693e 54da 10bf
000000c0: 288e 313f b46b 0ebf 5efb 743f 3ad1 39bf
000000d0: 30c4 4bbe 10e2 7ebf e0bd 4abf e0a5 043d
000000e0: 80f0 3e3c c0c8 aabd ae5d 243f 20b7 223f
000000f0: 58b4 483f b6b9 00bf c8d4 0a3e f07f 0bbe
00000100: 00fa 903b d0ae 6f3e a8cd 24be 7839 453e
00000110: e84b 2c3f 6691 17bf c020 06be 580e 5d3f
00000120: 0831 5bbf 3097 6bbe 10ae 993e e072 6e3f
00000130: 98c0 793f a028 7b3e 56c2 103f 38aa 993e
00000140: b03f 1fbe 6a41 643f 4453 04bf d4d6 22bf
00000150: 2a14 36bf 54ad 9ebe c8ec 1cbf 28d8 69be
00000160: c079 1d3f bc75 7dbf 70e1 01be 80ad 8cbe
00000170: 907d 923e fa58 643f f865 0cbf 2020 a43e
00000180: ecdf 1f3f 804a 39bf f03f b63d 801c 0abe
00000190: 18b8 01bf 62da 6f3f b493 7fbf 9482 5f3f
000001a0: 58f4 e13e 62e1 6a3f c08a d2bc 6469 7a3f
000001b0: b8e6 48bf 28cf 263e 640e e53e c858 683f
000001c0: 808d 53bc 50f0 8f3d 947a 29bf 0cdc fdbe
000001d0: 5af8 5bbf aef2 673f 4af8 3e3f 926b 55bf
000001e0: ac49 2b3f 8c09 95be 38af a6be 0cd6 5bbf
000001f0: 6c43 653f 0ce3 d6be 4cfe 833e 5081 473f
0.6292473 -0.064811945 -0.34756434 0.09224498 -0.23292983 -0.36998737 -0.3247186 0.011996508
0.23247409 0.4952953 0.42392504 -0.47663367 -0.27627325 -0.9788444 -0.8962642 0.15313888
-0.15421987 -0.6243961 -0.7685281 -0.13406813 -0.77009726 -0.1897794 0.5283675 -0.5836159
-0.07833123 0.9346379 0.6813793 0.43418884 0.59398293 -0.19927585 -0.5918542 -0.5046699
-0.25805008 -0.91476536 -0.38038206 0.949016 0.6742184 -0.33657718 0.34793746 -0.692979
0.37458527 -0.5180112 -0.4839151 0.4359181 0.59885526 -0.43293798 0.2278465 -0.5658314
0.6935754 -0.5563309 0.95696056 -0.7258488 -0.19899058 -0.99563694 -0.79195976 0.032384753
0.011654019 -0.08339071 0.64205444 0.63560677 0.7840018 -0.5028337 0.13557732 -0.13623023
0.0044243336 0.2340653 -0.16094077 0.19260204 0.67303324 -0.59206235 -0.1309843 0.8635001
-0.8562169 -0.23006892 0.30015612 0.93144035 0.975595 0.24527216 0.56546533 0.3001268
-0.15551639 0.89162314 -0.51689553 -0.6360905 -0.7112452 -0.30991614 -0.612988 -0.22836363
0.615139 -0.99007773 -0.12683654 -0.2747612 0.28611422 0.8919827 -0.5484309 0.3205576
0.6245105 -0.723793 0.08898914 -0.13487434 -0.5067153 0.936926 -0.9983475 0.8730862
0.44131732 0.91750157 -0.025700927 0.97817063 -0.7847705 0.16289961 0.44737542 0.9076047
-0.012912154 0.07028258 -0.66202664 -0.49581945 -0.8592583 0.90604675 0.7459761 -0.83367264
0.6690929 -0.29108846 -0.32555556 -0.85873485 0.89556 -0.41970098 0.2577995 0.7793169

linear.bias f4 [128]
00000000: 2e15 1abf 696e 04be 375e 04bf 7fa0 463f
00000010: 0574 4f3f 1917 d7be 4e14 273f c3e5 febe
00000020: 13c4 603f 3d40 23bf 7c3f 7d3f 0c5b 0abf
00000030: b187 c1bc 83ee 91bd d96b df3e dc3d 80bd
00000040: 71b5 5d3d ccfd 693f 584e 793f 98ae 0cbf
00000050: 7abc 18bf 230a 223e 61a7 5e3f 380b 72bf
00000060: 308a 1a3f 5c36 01bf 6451 1b3f 881c 31be
00000070: 382d 40bf 27bd 083f 5040 f5be d5a5 593e
00000080: 8fa8 6b3f f2cf 48be 9128 893e a0b9 f53e
00000090: 1ee6 13bf 091d 1b3e c032 843e c976 61bf
000000a0: 7a66 003f 6651 9bbe c525 753f 5caf 7bbf
000000b0: 3c35 89be 91f8 18bf 7560 123f 43be 77be
000000c0: b1b6 00be 77b7 a0bd 8dd0 48bf 63a1 75bf
000000d0: c5e3 55bf b968 443f 2e29 433f 7f25 c2bd
000000e0: 285c b93d 8480 32bf 88a5 b1bd 059d 403f
000000f0: 1f8b 86be 176b 083f f254 05bf 3d33 783f
00000100: 72f9 d2bd ed25 84bd d512 793f ac30 d3bd
00000110: be42 4d3f 0fde e9be cfa5 9fbe f40e 52bf
00000120: 3b06 d93d e996 5abe af4c 423f a4c1 b13e
00000130: 3231 253f b2a3 3cbf 7da1 25bd 8880 b8be
00000140: 0aa9 063f 9986 07bf c648 e1be 67fb 35bf
00000150: 70d7 1cbe e8bf 3a3f 942c 1bbf 5425 163f
00000160: ca17 213e 8616 e0bc 64e4 c4bd 6430 0bbf
00000170: f60b f73e fb9b 463f 1fbe 45bf 5a4a 9ebe
00000180: 8270 4a3f 6f99 d13b f18e 1fbf da0d 3fbf
00000190: 4486 3bbf d488 a93e 6555 763f c5b6 403f
000001a0: 5686 50bf b6a7 503e 77c0 a73c 5977 9ebe
000001b0: a00b 56be 1f77 6bbf 14e6 9abe 7724 f9be
000001c0: 7297 353e bf1e 473f 9df0 6dbe 3bd2 c43d
000001d0: 120f 043f 1cef 1d3f 233e dc3e b58c 0ebf
000001e0: ed96 013f 31c0 783f 81a0 643e 1866 4dbf
000001f0: a24e 293f caf9 5cbf 9112 443f 6558 23bf
-0.6018857 -0.12932743 -0.5170626 0.7758865 0.81036407 -0.4200981 0.6526536 -0.4978467
0.87799186 -0.63769895 0.98924994 -0.54045177 -0.023624273 -0.071255706 0.4363697 -0.06261799
0.054128114 0.9140289 0.9738517 -0.5495391 -0.5966259 0.1582418 0.8697415 -0.9454837
0.6036711 -0.5047357 0.6067107 -0.1729604 -0.75069 0.53413624 -0.4790063 0.21254666
0.92054075 -0.19610575 0.26788762 0.47993183 -0.57773006 0.15147795 0.2581997 -0.88071877
0.50156367 -0.3033554 0.95760757 -0.9831445 -0.26798427 -0.5975428 0.5717843 -0.24193673
-0.12569691 -0.07847493 -0.78443223 -0.9594938 -0.83550674 0.76722294 0.7623471 -0.09479808
0.090507805 -0.6972735 -0.08674151 0.7523959 -0.26278016 0.53288406 -0.5208274 0.96953183
-0.10301484 -0.06452546 0.9729436 -0.10312018 0.80179965 -0.4567723 -0.3118119 -0.82054067
0.105968915 -0.2134663 0.7589826 0.3471805 0.6452819 -0.7368728 -0.04043721 -0.36035562
0.52601683 -0.52939755 -0.44000834 -0.71086735 -0.15316558 0.72949076 -0.60614896 0.5865071
0.15731731 -0.02735449 -0.096138746 -0.54370713 0.48251313 0.7758176 -0.77243227 -0.309161
0.79077923 0.0063964645 -0.62327486 -0.7463051 -0.7325175 0.33112204 0.9622405 0.75278884
-0.8145498 0.20376477 0.020477517 -0.3095043 -0.20902872 -0.9197864 -0.3025366 -0.48660633
0.17733553 0.7778129 -0.23236318 0.09610411 0.51585495 0.61692977 0.43016157 -0.5568345
0.5062092 0.9716826 0.22326852 -0.8023391 0.6613561 -0.8631865 0.7659083 -0.63806754

conv_0.weight f4 [128, 128]
00000000: 62f2 023e 72d2 143e 71ff 383d 09eb 4e3d
00000010: 46a6 e9bd 05a6 dc3d 0313 19bd 3db4 d8bd
00000020: 1eab d4bd 749a 03bc 0a2b b0bd 7ae4 103e
00000030: a0ea f33d f729 d63d b508 0d3e 10f5 c43d
00000040: 0d78 82bd 5abc 00bc da8d f43c a689 033e
00000050: 430f 023e 3388 f7bd d3d2 ef3c a6b2 4e3d
00000060: ba17 5e3d 0f15 383d 2555 e43d 4e69 ca3c
00000070: a75f 113d 1faa 84bd adcd db3d ab9f 2bbd
00000080: b0c6 0b3e 074d f9bd aae8 5d3c 0e93 673d
00000090: 445e f33d c1c2 133e 7427 e2bd 0bd1 72bd
000000a0: 0c03 083e a508 863a e315 8abd 9836 083e
000000b0: de79 ea3d 001a b5bd fbd1 0c3e d4e3 c4bd
000000c0: 8e5f 1a3e 4fce b8bd b407 b23d 1ac1 e53d
000000d0: d969 9c3d a52e 993d 1e73 b8bd 8b1f 43bd
000000e0: 1f2f f1bd 8259 ddbd 8d0e e9bc e7e6 263d
000000f0: 2414 fbbd 31c6 b63d d9a4 1fbe 50e5 adbc
00000100: 06ee d03b 0580 0c3e 08ab 91bd 3e4e 10bd
00000110: 7666 b33d 3f86 84bc aaa3 03be 8123 b93d
00000120: bbff 8f3d 2598 563d 461c 653d b5b1 ed3d
00000130: 7fcb 00be 3ac7 41bb b1df e8bd 0554 8c3c
00000140: 9d09 01be c702 14be a0ba 04be a3ab b7bd
00000150: f17f fe3d 2a11 693c 1a8d dc3b 391a 02be
00000160: 7ee4 e23d 9b42 8b3d e777 83bd 6f18 c7bc
00000170: c109 013e 13d8 67bd 0337 853d 3428 ff3d
00000180: 28ee 98bd 7fbe 8fbd 8efa 973d 907b 14be
00000190: 686b 833c 1b13 3bbd ccf7 c8bd a949 9bbd
000001a0: 7f00 15be 4ff8 733d 3687 a13d fd2e 7a3d
000001b0: d8c1 753d 9710 14bd b270 423c 144c 18bb
000001c0: 90d9 acbd 839b 06be 794b c5bd 1560 de3d
000001d0: fe94 753d 2ce2 fe3d 2079 673d 7b67 9abd
000001e0: 2a05 033e f96c a0bd 4932 c93c 4557 9fbd
000001f0: bc3b d7bd 712e d4bc 99a6 39bd 9510 9e3d
00000200: 32e6 103e 6b9f 0b3d bf01 ccbd 34dc 75bd
00000210: f742 fcbd 174b a93d 6de3 24bd ed7e 0b3e
00000220: d1be debd bb0b 9a3d 4266 09be fe8e c83d
00000230: 60a4 f23d 49b0 0f3e d66e 0cbc b062 073e
00000240: 9cb7 a1bb 24f1 353c 1a68 09be f9f0 bdbd
00000250: ce8e e73c e576 7fbd 7ee7 0fbe d5f6 a23c
00000260: c5da edbd c4f0 a8bc 277c cbbd b9ef c33d
00000270: f026 0bbe 6997 a03d 2046 cbbd 6227 d93d
00000280: 9281 38bd 56ca d83d a762 763d a9bb 883d
00000290: 3dcf 1e3e 51d8 8b3d f450 613d 7184 f53d
000002a0: 18c1 68bd f2b9 a43d aa56 243d 454b ca3c
000002b0: 2d42 a9bd 33f5 083e 8adb acbd 2a9a 46bd
000002c0: 5017 16bd b1f2 533d f4d3 a93d be7f f33d
000002d0: a4f4 883c 46e8 19be cb42 dfbd bf95 953d
000002e0: f934 e73b c048 243d c0e9 11be 4da3 653d
000002f0: 8147 f83d a6b0 8ebb 5d18 a93d 25ee 133e
00000300: c9b9 e83d dfae b53d 8f29 3a3b 8985 423c
00000310: 96a4 16be a52f c2bd d058 013e 3478 44bd
00000320: 111d 91bc fa4e 1f3e 15f6 bf3d 2206 05be
00000330: 44b9 83bb 9936 e5bd 91a8 893d 898f a23d
00000340: d534 7e3d 6135 e03d b23f 81bd 907f 0cbd
00000350: cb8b 073e 4f10 5abd 9734 153e cc05 083e
00000360: 8925 3d3c b09b bdbb e222 1cbe 3711 b23d
00000370: 4d3b fdbd d60b 11be 7c7c fbbd efd9 08be
00000380: 9423 bbbd c425 e3bd 311a 9dbd 7a3a 28bd
00000390: 0235 00be 33ed 0d3d fe09 123d 40d2 4abd
000003a0: 922c 6dbd 1c43 09be 2147 d53d 500d 27bb
000003b0: 20c5 ac3c 6976 b5bd b658 d5bb f175 f9bb
000003c0: 4fc8 e6bd 3aff 00be 2d03 6bbd 3dec ccbc
000003d0: bc29 52bd 27a9 413d 063d c63d 93e5 dfbd
000003e0: ef60 ad3d a086 dd3d aaf1 023e 9e36 173e
000003f0: 4f39 883d 22ba 0b3e 9a2f 0cbe 32bd 113e
0.12787774 0.14533404 0.045165483 0.050517116 -0.11408667 0.10773853 -0.037371647 -0.10581253
-0.103842005 -0.00803243 -0.08601959 0.14149657 0.119099855 0.10457223 0.13772853 0.096170545
-0.06370554 -0.0078574065 0.029852796 0.12845477 0.12701134 -0.12086525 0.029275334 0.05046334
0.054221846 0.044941958 0.111490525 0.024708416 0.03549161 -0.064777605 0.10732589 -0.041900318
0.13650012 -0.12172895 0.013544241 0.056536727 0.11883214 0.14429761 -0.11042681 -0.05928139
0.13282412 0.0010225965 -0.06742456 0.13302076 0.114490256 -0.0884285 0.13751976 -0.09613767
0.15075514 -0.09023725 0.086928755 0.11218472 0.07637376 0.074796 -0.09006332 -0.047637504
-0.11776566 -0.10808088 -0.028449321 0.04074755 -0.12259701 0.08924521 -0.15590228 -0.021227509
0.006376031 0.1372071 -0.071127 -0.035230868 0.08759777 -0.016177295 -0.12855402 0.09039975
0.070311986 0.05239119 0.055935167 0.116061606 -0.12577628 -0.0029568211 -0.11370791 0.017129907
-0.12601323 -0.14454184 -0.12961817 -0.08968284 0.12426747 0.014225284 0.006730688 -0.12705316
0.11078738 0.06799813 -0.06419354 -0.024303643 0.12601377 -0.05660255 0.06504633 0.1245884
-0.074673 -0.07018756 0.074208364 -0.1450026 0.016042426 -0.045672517 -0.098128885 -0.07582409
-0.1455097 0.059562977 0.078871176 0.061079968 0.059999317 -0.036148634 0.011867689 -0.0023238705
-0.08439934 -0.1314526 -0.09633536 0.1085817 0.059956543 0.124454826 0.056512 -0.075392686
0.12794939 -0.07833285 0.02456011 -0.07780317 -0.1050944 -0.025901051 -0.045324896 0.077180065
0.14150313 0.03408758 -0.099612705 -0.060024455 -0.1231746 0.082662754 -0.040255953 0.13622637
-0.10876239 0.07521769 -0.13417915 0.097928986 0.11847758 0.14032091 -0.008571347 0.1322124
-0.004935218 0.011104856 -0.13418618 -0.092744775 0.028266337 -0.062369246 -0.14053151 0.01989309
-0.116139926 -0.020622618 -0.099357896 0.09567208 -0.13589072 0.07841379 -0.09925485 0.10603215
-0.045045443 0.105854675 0.060152676 0.06676418 0.15508743 0.068283685 0.055008844 0.11988152
-0.056824774 0.08043279 0.04012171 0.024694094 -0.08264575 0.13374786 -0.08440311 -0.048486866
-0.036643326 0.05174512 0.0829238 0.11889599 0.016718216 -0.15030012 -0.109014116 0.073039524
0.0070558754 0.040108442 -0.14249325 0.05606394 0.12123013 -0.004354554 0.082566 0.14446314
0.11363561 0.08871245 0.0028406119 0.011872658 -0.14711222 -0.09481744 0.12631536 -0.047966197
-0.017714055 0.15557471 0.09373108 -0.1299062 -0.004019888 -0.11192054 0.067216046 0.079375334
0.062062103 0.10947681 -0.06310977 -0.03430134 0.1323692 -0.05323821 0.14570843 0.13283461
0.011544594 -0.0057863817 -0.15247682 0.0869469 -0.12364826 -0.14164671 -0.12279603 -0.13364385
-0.09137645 -0.110911876 -0.07671011 -0.041071393 -0.12520221 0.03465004 0.03565406 -0.049516916
-0.057903834 -0.13404506 0.104139574 -0.0025490113 0.02109009 -0.088604756 -0.0065108193 -0.0076129367
-0.112686746 -0.12597361 -0.057376076 -0.025014991 -0.051309332 0.047280457 0.09679608 -0.1093246
0.08465754 0.10816693 0.127875 0.14766929 0.06651556 0.13645223 -0.13690034 0.14232329

conv_0.bias f4 [128]
00000000: cdb2 0fbb ebab 3c3b b635 3dbb 5625 343b
00000010: 264a 62ba 552f 463b 7616 373b a910 533b
00000020: b488 1d3b d744 0ebb 2365 36bb 1380 2ebb
00000030: 9f6f 47bb 6f3b 38bb b117 493b 140f 46bb
00000040: 36f3 463b 0af0 34bb eaba 5b3b a485 42bb
00000050: 49bb c2ba 4d20 393b dbf5 443b 20b5 543b
00000060: 67d8 283b f22e 30bb c869 4e3b b025 383b
00000070: c6a1 163b d988 d13a 9d37 2fbb 0920 4e3b
00000080: 98d6 51bb c19c 493b df2f 4bbb d5d3 39bb
00000090: a099 42bb 82aa 47bb acaf 46bb 4223 30b8
000000a0: 9fcf 3abb 3524 62ba b5df 47bb 196c 503b
000000b0: 3c04 44bb 72e0 48bb 5fa5 45bb 0512 18bb
000000c0: 1de4 4cbb 033f 4b3b 775b 533b dc82 4f3b
000000d0: 1261 523b 9d74 3d3b bd14 4cbb 5863 45bb
000000e0: 5bb9 44bb 8162 22bb 3816 35bb 11b8 1c3b
000000f0: a72b 453b 5182 553b 7dd8 483b f77b 27bb
00000100: 0d5d 50bb 7269 ff3a d75e 49bb cba2 363b
00000110: 83f0 43bb 4931 59bb 94e1 43bb 3951 1dbb
00000120: 562c 45bb f097 25bb c919 343b ceab 523b
00000130: 36b4 61bb e82b 163b f5d2 47bb ea7b 45bb
00000140: 7555 20bb d86e 4abb 2e55 573b 22e8 523b
00000150: 1d95 563b 8cf9 473b f35f 36bb d219 59bb
00000160: 46bc 383b dd1d 2039 2f19 4f3b 2b49 473b
00000170: 716f 4a3b f6f8 34bb 9a07 d4ba 9f0f 47bb
00000180: 0e47 603b ef76 4cbb 8404 5d3b af5a 503b
00000190: 8f83 153b 787a 383b c942 523b bd8a 35bb
000001a0: 771a c5ba c950 363b 34cb 45bb bfd2 61bb
000001b0: 1883 44bb f1b7 3b3b 5c66 4dbb 7258 373b
000001c0: 5143 22bb 5156 2ebb ce29 47bb 6d9d 3bbb
000001d0: 7ad8 36bb f8fa 33bb 9500 173b 09ca 20bb
000001e0: 8b09 3b3b 6f23 483b b010 453b 09bb 483b
000001f0: 72cc 3cbb 833e 59bb 3c58 11bb 4a04 45bb
-0.0021926642 0.0028788995 -0.0028871126 0.0027488074 -0.0008632265 0.0030240614 0.0027936972 0.0032205975
0.002403778 -0.0021708512 -0.0027831278 -0.002662663 -0.0030431522 -0.0028111597 0.0030684287 -0.003022139
0.0030357367 -0.0027608895 0.0033528158 -0.0029681707 -0.0014856841 0.0028248013 0.0030053768 0.0032456592
0.0025763751 -0.002688345 0.0031496156 0.0028098635 0.0022984608 0.0015986218 -0.002673603 0.00314522
-0.0032018777 0.0030763599 -0.0031003875 -0.0028355021 -0.0029693618 -0.003046662 -0.003031711 -4.1994506e-05
-0.00285051 -0.0008626611 -0.003049833 0.0031802712 -0.002990975 -0.0030651358 -0.0030158383 -0.00232041
-0.0031263896 0.00310129 0.0032250562 0.0031663692 0.0032101315 0.0028908618 -0.003114029 -0.0030119028
-0.0030017707 -0.0024777951 -0.0027631652 0.0023913423 0.0030085833 0.0032578895 0.0030646615 -0.0025556067
-0.0031793744 0.0019486381 -0.0030726695 0.0027868028 -0.0029897995 -0.0033140949 -0.0029889094 -0.0024004711
-0.003008624 -0.0025267564 0.002748119 0.003214586 -0.003443969 0.0022914354 -0.003049073 -0.0030133673
-0.0024465 -0.0030888822 0.0032857168 0.003218182 0.0032742687 0.0030513732 -0.0027828186 -0.0033126962
0.0028188392 0.00015269914 0.0031600704 0.0030408602 0.0030889178 -0.0027614213 -0.0016176582 -0.00303743
0.003422204 -0.003119882 0.0033724615 0.0031792333 0.002281401 0.002814917 0.0032083264 -0.0027701103
-0.0015037794 0.0027819148 -0.0030180933 -0.003445789 -0.0029985365 0.0028643573 -0.0031341529 0.0027976301
-0.0024759362 -0.0026601742 -0.0030389908 -0.0028627769 -0.0027900026 -0.0027462821 0.0023041118 -0.0024534485
0.0028539624 0.0030538698 0.003006976 0.003062906 -0.0028808382 -0.0033148832 -0.0022177836 -0.003006237

layers.0.weight f4 [128, 128]
00000000: e5e1 48bc c585 3b3d 8904 0fbe 0df3 bd3d
00000010: 0822 af3d 8dbd e7bd 5c3c 81bd 68d6 97bd
00000020: 9fb1 05be 4216 10be 8ce8 00be c391 12be
00000030: c183 053d ed3d bbbd d803 c63d afc2 603d
00000040: bbbb ccbd 5bae d3bd 34d7 30bd 252f 0c3d
00000050: 50cd 9a3d 3721 ee3d 3bf1 dd3d 6098 e43d
00000060: d22c 21bd 57de 14bc 19f8 c33d 75e1 a83c
00000070: 1c71 13be 082f 18be 086f 753d 66bf 18bd
00000080: 2cca eb3d adaa 4f3d ba7f 0bbe 0d20 6abd
00000090: e0c3 903d 2546 94bc 7529 003e 1bcd 343c
000000a0: e472 553d 1978 75bd 2d28 b13c bcf8 e63c
000000b0: 3112 bd3d fc06 d53d e7b8 813d 4370 13be
000000c0: fa95 143e 5dca 1ebe d080 dfbd 76f6 d73d
000000d0: f30c 6c3d cd01 863d c82a 833d a76a 36bd
000000e0: f592 c6bd 275f 033e 721a 303d 5607 aabc
000000f0: a041 103e f13d 1fbe 519c 543d 5d9e 19be
00000100: 048c b6bd df40 bf3d 94ae f9bd cf70 b33d
00000110: 3062 ed3d d469 443d fe5d 15be bb54 b8bd
00000120: 4e00 683d da06 24bb c0aa debd 14c2 963d
00000130: 0dd0 ee3d a7dd 83bd c0f0 83bc 621e b6bd
00000140: c53f ff3d aa15 d53d 76d7 8f3d f28e 6bbd
00000150: 292f 58bd 8b5f 823d f79c cc3d 152b 0b3e
00000160: 5d6a 80bd 345c 2e3d 51e2 edbd 8717 0abe
00000170: e6bf cd3d 209e 033e 87a1 c03d f65e 5d3d
00000180: c0b3 f03d 59f0 b53c b4af 9fbd 0e22 15be
00000190: 28cf babc f7d3 1a3e 463e 8bbd 7938 bc3d
000001a0: 4191 03be 92bc 87bd 0ccd 8bbd 86a9 2f3c
000001b0: 9dce cd3c f4f5 4d3c a04d 0c3e cfa6 e1bd
000001c0: 2b35 d8bd c4d2 05bd c864 13be a97c 173c
000001d0: ff63 bbbd 0cc7 b13d f3ee 613d d679 f93d
000001e0: 2255 c53d f1f0 47bd 6e3f d93d 6da0 0bbd
000001f0: 249e 94bc b3a0 9fbd 3dba efbd b829 4e3d
00000200: 0658 2e3d c67f e43d d4e4 03be 1507 a23d
00000210: 0a8e acbd f045 06bd 4a4f 01be c42b d93d
00000220: 1f42 a43d 6f7f 6a3d 0e9d b33d d30d 8ebd
00000230: bb86 033e 810f b1bd ff97 153b f421 fdbd
00000240: f75f 0ebe bece cd3d 16a0 6d3c 717c d03c
00000250: 164b 6e3d 2978 37bd c4b3 1cbe 66bc cbbd
00000260: bce6 123d 60f6 d3bd 3355 0d3e 9575 afbd
00000270: a849 fcbc 460c aabd af45 f2bb 7e03 cfbd
00000280: 98d0 0f3d 5a6b 043e 5067 9cba 8639 e73d
00000290: f2e9 27bc 4eaf 833d 7aa6 963d 52e7 0d3e
000002a0: b1fd f3bc 1c3c e7bd 9fe0 013e 6085 08be
000002b0: b5b0 d63d d670 463d cc92 6e3d bc8f 1a3e
000002c0: 92c7 96bc bbd8 ab3d b70c ae3c 75e4 92bd
000002d0: 0932 083e 30d2 e33d d8c5 133d 19ab c3bd
000002e0: 58c5 b43d 3d22 ee3d 9291 03be 8dc1 213d
000002f0: 29c1 033d 3320 c4bd 50e0 1f3d e119 c33d
00000300: 9b87 133e 5a12 00be c5cc 003e b2eb 083e
00000310: b2c1 923b 427f 073e fa90 823d 171a ee3d
00000320: 31c9 e83d a65d 52bd a6f3 003e 9d93 17be
00000330: 9342 843d 6ac8 d9ba 7b95 a4bc 09f6 ca3d
00000340: 3bc5 d33d 0e22 aa3d fdc4 c93d e563 fa3d
00000350: c853 e23d 0a52 013e 35e6 59bb caaa 793d
00000360: 47dd c7bd c00e 013e 3feb 13be 0092 b23d
00000370: e8ee 363c 6835 55bd 447e 45bb c2df efbd
00000380: 13c1 df3d 37b0 86bb 2608 59bd 8f9d c83d
00000390: 265b db3d a8af 70bd 02e2 023e f596 17bd
000003a0: 8c83 61bd 7022 e8bd c5bb ad3c 7a7e bd3d
000003b0: 887b 73bd 4bee f13d 8a51 88bd 07d7 2cbd
000003c0: 30cf 1dbe 8870 cebd 013e f63c 518c 8dbc
000003d0: c5e8 b73d 1488 d53c 86fe 62bc 41d0 e4bd
000003e0: d06d b33d cb35 4d3d 9d61 98bd a227 933d
000003f0: b27b bdbd 2aa7 053e 6c09 783c c629 113e
-0.012260889 0.04578187 -0.13966574 0.09274874 0.08551413 -0.11315451 -0.06310341 -0.074139416
-0.13056038 -0.1407099 -0.1258871 -0.14313416 0.032596353 -0.09142671 0.09668702 0.054873165
-0.09996744 -0.1033599 -0.043173984 0.034224648 0.075586915 0.11627429 0.10837027 0.11161876
-0.039349385 -0.009086213 0.09568805 0.020615319 -0.14398617 -0.14861691 0.05992034 -0.037291907
0.115131706 0.05069988 -0.13622943 -0.057159472 0.0706861 -0.018099854 0.12515815 0.011035229
0.05211152 -0.059928987 0.021625603 0.028194778 0.09231985 0.10401723 0.063340954 -0.14398293
0.14510337 -0.15506883 -0.10913241 0.105450556 0.057629537 0.06543312 0.06404644 -0.044535305
-0.096959986 0.12829266 0.04299397 -0.020755451 0.14087534 -0.15550973 0.051906887 -0.15001817
-0.089134246 0.09338545 -0.12191501 0.08761751 0.115909934 0.047952488 -0.14586636 -0.09000536
0.056640916 -0.0025028498 -0.10872412 0.07361236 0.11660776 -0.06438761 -0.01610601 -0.08892514
0.12463335 0.10404523 0.07023518 -0.05750937 -0.05277935 0.063658796 0.09990876 0.13590653
-0.06270287 0.0425684 -0.11615432 -0.13485537 0.10046367 0.12853289 0.09405809 0.05404564
0.117530346 0.022209333 -0.077971846 -0.14563772 -0.022803858 0.1511992 -0.06798987 0.09190459
-0.12848379 -0.06627764 -0.06826219 0.01072157 0.025122935 0.012570847 0.13701487 -0.11018144
-0.10557016 -0.032671705 -0.14393914 0.00924603 -0.09149932 0.08680543 0.05515952 0.121814415
0.096353784 -0.048813764 0.106078014 -0.03408854 -0.018141814 -0.07794323 -0.11705444 0.050332755
0.042564414 0.11157183 -0.1288026 0.07911507 -0.08425529 -0.03278154 -0.12627903 0.10604051
0.08020424 0.057250436 0.0877019 -0.069362305 0.12844364 -0.08645535 0.0022826192 -0.12359992
-0.13903795 0.100491986 0.0145034995 0.025449963 0.058177076 -0.044792328 -0.1530295 -0.099480435
0.035864577 -0.10349727 0.13802032 -0.08567349 -0.03079684 -0.08303122 -0.007393561 -0.10108088
0.03511104 0.12931576 -0.0011932645 0.112902686 -0.010248648 0.06429921 0.07355972 0.13857773
-0.029784055 -0.11290762 0.12683342 -0.13332129 0.10482923 0.048447452 0.058245465 0.15093893
-0.01840571 0.083909474 0.021246297 -0.07172481 0.13300337 0.111240745 0.03607735 -0.09554119
0.08826703 0.11627624 -0.128485 0.039491225 0.032166634 -0.09576454 0.03903228 0.095264204
0.14407198 -0.12507 0.12578113 0.1337116 0.0044786567 0.13232139 0.06375308 0.1162607
0.11366499 -0.05135884 0.12592945 -0.14802404 0.064580105 -0.0016615514 -0.02009081 0.09910209
0.10340353 0.08307277 0.09852026 0.122260846 0.11051136 0.12628952 -0.0033248786 0.060953893
-0.09759002 0.12603283 -0.14445208 0.087192535 0.011165358 -0.052052885 -0.0030135075 -0.117126
0.10925498 -0.004110362 -0.052986287 0.09795677 0.107107446 -0.05876127 0.12781528 -0.0370092
-0.055057094 -0.113346934 0.0212077 0.09252639 -0.05944398 0.11813029 -0.06656177 -0.042197254
-0.15411067 -0.100800574 0.030058863 -0.017278822 0.08979944 0.026065864 -0.013854628 -0.11172534
0.087611794 0.05010013 -0.07440493 0.07185294 -0.09252109 0.1305205 0.015138965 0.14176092

layers.0.bias f4 [128]
00000000: 2998 50bb 1aed 4f3b 2bc1 4d3b 6143 4d3b
00000010: 9a48 4fbb d492 4c3b ed11 423b f895 51bb
00000020: bec1 3a3b 7adf 4b3b aaa2 4b3b 586b 4c3b
00000030: f5b3 4c3b e09b 373b 8b10 4cbb b0b5 513b
00000040: c4d7 4ebb e9b4 4e3b 76a0 4c3b 24b0 4c3b
00000050: 15cb 4cbb 3bae 54bb d771 4c3b 5841 503b
00000060: 760c 50bb 2cbe 4cbb bf5e 4e3b 57db 5dbb
00000070: e548 4a3b 3528 4fbb 51bd 523b 51ae 4cbb
00000080: 28e9 623b 90ea 4dbb 75ee 4c3b 1ad8 4e3b
00000090: 47ba 4c3b 02df 4c3b 7ebd 4e3b f448 4c3b
000000a0: d670 573b 64a5 433b 4a75 4fbb 5932 533b
000000b0: c0bc 48bb a64d 4e3b 4927 4cbb 8298 4cbb
000000c0: 3372 4c3b 0535 51bb cba1 513b e0da 4e3b
000000d0: 4c73 4c3b af6b 4e3b f085 64bb e4fe 4cbb
000000e0: da29 4f3b db87 4cbb b510 4fbb b711 4f3b
000000f0: d7b5 4ebb 0492 4ebb 810f 4c3b dbcf 4c3b
00000100: 2aad 4abb a00a 4d3b 2600 4d3b 7ca1 4ebb
00000110: fd8f 4c3b c0c3 4d3b c577 4f3b 7a7a 4ebb
00000120: d487 4ebb 9a82 4fbb d5a1 4c3b b89f 4cbb
00000130: fa4f 4e3b b2d3 4cbb a7b1 4cbb 0bf6 4c3b
00000140: 7974 4f3b 8aac 4fbb b681 4fbb cc9f 52bb
00000150: 415d 4e3b 607e 56bb 1309 4cbb 6405 4d3b
00000160: 7d34 51bb 38ed 4cbb be2e 4f3b c4ce 4d3b
00000170: f148 4cbb 2dcb 4fbb 757e 4c3b 3577 4cbb
00000180: c301 4dbb e0d7 4cbb e10a 4f3b 47ca 4cbb
00000190: 3103 4d3b 4c26 4e3b 7f12 4dbb ae92 4bbb
000001a0: 661e 583b 79e3 4cbb ddd7 643b 7147 4f3b
000001b0: b575 4ebb face 593b b3ba 503b 8763 4e3b
000001c0: 9a64 583b 18ef 4ebb d0e1 4a3b 342a 4bbb
000001d0: 4697 4b3b 6065 4f3b 44a4 4e3b 6ab5 4e3b
000001e0: 70c1 daba b2db 4bbb 4c49 4fbb a9e3 4cbb
000001f0: 8c1b 4d3b 4035 4f3b 806d 4e3b bdf5 4d3b
-0.0031828976 0.0031727017 0.0031395655 0.0031320679 -0.0031628967 0.0031215446 0.0029612735 -0.0031980257
0.0028496827 0.0031108544 0.0031072297 0.0031191912 0.0031235192 0.0028016493 -0.003113779 0.0031999163
-0.0031561712 0.0031540936 0.0031223572 0.0031232918 -0.0031248976 -0.0032452482 0.0031195784 0.003177723
-0.0031745709 -0.003124128 0.0031489579 -0.003385266 0.0030866202 -0.0031609659 0.0032156298 -0.003123183
0.0034623835 -0.0031420328 0.003127006 0.0031561912 0.003123896 0.0031260853 0.0031546052 0.0031171413
0.0032873652 0.002985322 -0.0031655603 0.0032226054 -0.0030630082 0.0031479388 -0.0031151345 -0.0031218831
0.0031195998 -0.0031922471 0.0031987305 0.0031563565 0.0031196652 0.003149729 -0.0034869872 -0.0031279856
0.0031610639 -0.0031208906 -0.0031595652 0.0031596252 -0.003154149 -0.0031520138 0.003113717 0.0031251821
-0.0030925968 0.003128685 0.0031280606 -0.0031529358 0.0031213753 0.0031397194 0.0031657082 -0.0031506107
-0.0031514065 -0.0031663538 0.003122439 -0.003122313 0.0031480775 -0.003125411 -0.0031233819 0.0031274583
0.0031655116 -0.0031688535 -0.0031663007 -0.0032138703 0.003148869 -0.0032729134 -0.0031133338 0.003128373
-0.0031922155 -0.0031269323 0.0031613554 0.003140376 -0.0031171406 -0.0031706796 0.0031203304 -0.0031198983
-0.0031281568 -0.0031256601 0.0031592178 -0.0031248496 0.003128242 0.0031455932 -0.0031291542 -0.003106277
0.0032977103 -0.0031263514 0.0034918704 0.0031628276 -0.0031503264 0.003323494 0.0031849563 0.0031492428
0.0033018948 -0.0031575616 0.0030957349 -0.0031000497 0.0031065508 0.0031646118 0.0031531015 0.0031541237
-0.0016689729 -0.003110629 -0.0031629382 -0.0031263626 0.0031296937 0.0031617433 0.0031498373 0.003142699

predict.weight f4 [1, 128]
00000000: cdaf b3bc 8ee4 ec3c 359c 2a3c 7eae 593d
00000010: da54 27bd 4e2d 563d 2906 663b 7736 8bbc
00000020: b538 cf3a c982 fe3c ddcd e13c 4663 3b3d
00000030: 48e4 603d 7abc 9b3a e499 13bd d95d 803c
00000040: 5ec5 61bd 185f 6c3d 3d05 403d 9d3f 6a3d
00000050: 0731 88bd 279d 23bc f030 3c3d c8a8 c43c
00000060: e832 ddbc 26f2 76bd 1263 b13d 2574 a5bb
00000070: ae15 7b3c 1688 22bd f52f 563c 8d7e 60bd
00000080: 93fd 833b a247 8abd bc14 923d edf3 4f3d
00000090: af31 7a3d 094b 9c3d 9eb4 623d 3f04 2a3d
000000a0: 4509 023c 9929 923b 03d5 0ebd e240 383c
000000b0: 51ce 2bbc 330d b73d 2672 11bd 44e2 42bd
000000c0: 9a6c 383d 35ae 8fbc 4649 893c d071 4c3d
000000d0: b8e0 f63c de3a 3f3d 8f38 92bb ac9c adbd
000000e0: 4eaa 323d 31ba 39bd 13bd 3dbd b600 313d
000000f0: 577e 6cbd 5f53 87bd 94f4 133d c06a 6c3d
00000100: 0235 93bc fa32 a23d c42b 7d3d 9ee9 7cbd
00000110: 350e 313d 6000 9d3d 982a 0e3d 9786 87bd
00000120: 48eb 91bd a56d 07bd 358a 433d 52fa 5fbd
00000130: fa53 bb3d c7fb 81bd 6e87 6abd 413e 9f3d
00000140: 91ed 113d 6584 09bd bced 05bd 6ea0 5fbc
00000150: b32b ac3d 066e 03bc 9bcc 10bd 5fc6 9f3d
00000160: b96d 96bc 9fee 9ebd f38b 273d 5e04 033d
00000170: 4cfa 29bd 3f93 fbbc c8fb 443d 9261 39bd
00000180: c9a5 2cbd 3f3d 78bd 854b 343d cc26 84bd
00000190: addb a33d d795 b83d a149 98bd 540b e8bc
000001a0: 43ef ed3b b72b 95bd 4760 7e3b 890c 183d
000001b0: f822 a2bd 8f31 e03b 82ad a93c da8f a83d
000001c0: 3236 e23b 29a9 53bd ef6c 953c d7a8 a3bc
000001d0: 1d2e d73c 7d14 0f3d 4d06 743d 507f 583d
000001e0: bf54 aa3a 37ad c7bc 2186 22bd 47d0 90bd
000001f0: 47bb aa3d b582 253d 7a43 9f3d b3d0 b73d
-0.021934414 0.028917577 0.010413219 0.053144924 -0.040852405 0.0522893 0.0035098887 -0.016993744
0.0015809747 0.031068223 0.027563984 0.04574897 0.054905206 0.0011881732 -0.036035433 0.01566975
-0.055119865 0.057707876 0.046879996 0.057189573 -0.06649976 -0.0099861985 0.045945108 0.024006262
-0.027001813 -0.060289524 0.08661474 -0.005049246 0.015324993 -0.039680563 0.013072957 -0.05480819
0.004028031 -0.06751944 0.07132861 0.050769735 0.06108254 0.07631499 0.05534803 0.041507956
0.00793678 0.0044605252 -0.034871113 0.011245938 -0.010486201 0.089380644 -0.03550925 -0.047579065
0.045025446 -0.017539123 0.016758572 0.049913228 0.030136451 0.046687 -0.0044623087 -0.084771484
0.043619446 -0.04534358 -0.046322893 0.04321357 -0.057737675 -0.06607699 0.03612192 0.057718992
-0.017969612 0.07919879 0.061809316 -0.061746232 0.04322644 0.07666087 0.03470859 -0.06617468
-0.071249545 -0.03306355 0.047739226 -0.054682083 0.09146877 -0.06346851 -0.057258062 0.07775546
0.03562695 -0.033573527 -0.032697424 -0.013649089 0.084067725 -0.008021837 -0.035351377 0.07801508
-0.018362867 -0.07760357 0.04090495 0.031986587 -0.041498467 -0.03070986 0.04809168 -0.045259066
-0.042150293 -0.060605284 0.044017334 -0.064527124 0.08000884 0.09012955 -0.074359186 -0.028325714
0.0072611882 -0.072837286 0.003881471 0.03712133 -0.07916826 0.0068418453 0.020712618 0.082305625
0.0069034332 -0.051674996 0.01824042 -0.01997797 0.026267106 0.03493165 0.05957632 0.05285579
0.0012995227 -0.024374587 -0.039678697 -0.07070976 0.083365016 0.040407855 0.07776542 0.08975353
