PERGAT_embbedding/data/emb/models/model_dim128_lay2_epo101.pth (torch, 137100 bytes, 7 tensors)

linear.weight f4 [128, 1]
000000 b8 3c 75 3e 2c 54 e1 3e e8 26 93 be 4c 9d b2 3e
       0.23948944 0.4400953 -0.2874062 0.34885633
000010 74 b0 b4 be d0 b8 b9 3d 4a 73 37 bf 22 cc 10 3f
       -0.35290873 0.09068453 -0.7166029 0.5656148
000020 16 b6 5a bf 90 8a c4 3e 78 9a 76 3f 78 76 63 3e
       -0.8543409 0.38386965 0.9632945 0.22213161
000030 18 18 a4 3e f6 d3 40 bf da 2a 58 3f f4 a8 e2 be
       0.32049632 -0.75323427 0.84440386 -0.44269526
000040 70 c2 ff be 60 b0 a1 bd 54 54 f6 3e a2 85 46 bf
       -0.49953032 -0.07894969 0.48111212 -0.7754766
000050 4c 26 6d bf 60 ee 51 3e e0 4a a2 be f8 2f 43 3f
       -0.9263656 0.20501089 -0.3169775 0.7624507
000060 f6 6c 62 3f de c4 51 3f be f7 59 3f c0 9b 00 3e
       0.8844751 0.8194102 0.8514365 0.12559414
000070 08 c8 49 3f de ca 1a bf 80 c7 82 bd 60 d5 e4 be
       0.7882085 -0.604658 -0.06385708 -0.44694042
000080 0c 49 98 3e 48 ef 50 3e 1a 6f 17 bf d4 64 c4 3e
       0.2974323 0.20403779 -0.591539 0.38358176
000090 4a 94 15 3f 30 1b b6 3d 14 39 6e bf 90 71 85 3d
       0.58429396 0.08891904 -0.93055844 0.06515801
0000a0 d6 26 6e bf dc 79 0e 3f 84 e8 0d 3f b8 81 4f 3e
       -0.9302801 0.5565469 0.55432916 0.20264328
0000b0 20 a7 da 3e 14 b7 2f 3f 86 44 55 3f ae 0c 6e 3f
       0.4270563 0.6863873 0.83307683 0.929881
0000c0 44 17 e3 be 90 67 72 3f 5c bd 8b be b2 83 30 3f
       -0.44353688 0.94689274 -0.27292907 0.6895095
0000d0 68 ef c0 be ee b5 3f 3f 40 97 05 bd 38 30 7b 3f
       -0.37682652 0.7488698 -0.032614946 0.9812045
0000e0 38 95 eb be 64 8c 9a 3e 80 7a 83 bd ac c7 84 3e
       -0.46012282 0.30185235 -0.064198494 0.25933588
0000f0 24 3e a1 be 60 21 41 3d f4 79 dd be 60 7e 86 bd
       -0.31492722 0.04715097 -0.43257105 -0.06567073
000100 c4 23 9d 3e b0 ac 52 3f 88 c6 3a 3f aa cc 1f 3f
       0.3069135 0.8229475 0.72959185 0.6242167
000110 e0 67 8f 3e 88 bb 7d 3e f0 14 b9 3d 2a 41 7d 3f
       0.28008938 0.24778569 0.09037197 0.9892756
000120 f0 4d 7b be f0 de a9 3e b0 b0 d6 3e 14 ec d4 3e
       -0.2454145 0.331779 0.41931677 0.41586363
000130 a4 df ae 3e c0 d1 69 3f 5a 8c 34 3f 5e d2 11 3f
       0.34155 0.9133568 0.7052666 0.5696162
000140 40 6c bc 3e 60 c5 14 bf b0 e3 b0 bd c0 d4 58 bd
       0.36801338 -0.5811367 -0.08637178 -0.05293727
000150 4c b2 9b be 40 90 f5 3e c8 40 79 bf f0 04 78 be
       -0.30409467 0.47961617 -0.97364473 -0.24220634
000160 38 76 25 bf 50 3d e4 3e ac dd bc be 80 1d 7a bd
       -0.6463351 0.44578028 -0.36887872 -0.06106329
000170 90 f8 16 3f f8 2a 2a bf 96 ef 2a 3f 68 f7 44 3f
       0.58973026 -0.66471815 0.6677183 0.7694001
000180 98 b3 81 3e 2c f5 c8 be 8c 1e d7 3e a0 05 98 3d
       0.25332332 -0.3924955 0.42015493 0.07422948
000190 d4 cf 4e 3f 74 16 6a 3f 14 69 b4 3e 90 60 6e 3e
       0.8078587 0.9144051 0.35236418 0.23279023
0001a0 28 48 60 3e c0 20 e3 bc a0 0a 08 3f 52 e7 6c bf
       0.21902525 -0.027725577 0.5314121 -0.92540467
0001b0 92 59 61 bf cc f0 c7 3e 34 78 80 3e 36 7b 68 bf
       -0.880273 0.390509 0.25091708 -0.90813005
0001c0 60 64 c2 3d a0 e6 61 3e 18 1d 5c 3f 78 44 41 bf
       0.09491801 0.22060633 0.85981894 -0.754951
0001d0 60 65 c4 3d d4 17 49 3f fa dc 27 bf 74 71 1d 3f
       0.09589648 0.78551984 -0.6557156 0.6150124
0001e0 9a 91 0e bf 6c 83 d9 be 90 cb ff be 00 cc 94 3b
       -0.5569092 -0.4248308 -0.49959993 0.0045409203
0001f0 f6 98 38 bf d4 be c9 be 4c 8f 00 bf 38 0d c2 3e
       -0.721084 -0.39403403 -0.50218654 0.3790071

linear.bias f4 [128]
000000 44 e1 5a 3d a0 e0 4c 3e 63 8c 01 3f f1 a9 47 bf
       0.053437486 0.20007563 0.5060484 -0.77993685
000010 25 23 aa 3e bf e3 79 3f 10 4e fa 3d 65 da bf 3e
       0.33229938 0.9761314 0.122219205 0.3747131
000020 e9 6d f7 3e 6d 87 f0 3e 1e 79 91 3d c3 2d 19 3f
       0.48326042 0.46978322 0.071031794 0.5983545
000030 45 f7 bd 3e ee cd 03 3e 4d dc 33 bf 89 ba 0b bf
       0.37102714 0.12871525 -0.7025803 -0.54581505
000040 21 2b fe be f1 3c 21 3f b3 30 b0 3e 24 9b 1a be
       -0.4964228 0.62983614 0.34412155 -0.15098244
000050 5e a0 6b be 46 2f 03 bf 53 36 21 3f 21 5a de be
       -0.23010394 -0.5124401 0.6297352 -0.43428138
000060 9f 19 77 3d 60 47 3d 3d 22 c3 ef 3e 31 73 40 3f
       0.06032717 0.046210647 0.46828562 0.7517577
000070 84 aa 8b 3e 48 41 12 bf cc 59 1d bf 83 a0 c6 3e
       0.2727853 -0.5713086 -0.61465144 0.38794336
000080 b0 cc e1 3e ef 32 87 3d 51 86 6b 3f 4a 99 ac be
       0.44101477 0.06601512 0.92001826 -0.337107
000090 25 25 91 be a9 28 18 3f fe ae fc 3e 94 fb a2 be
       -0.28348652 0.5943704 0.49352258 -0.31832564
0000a0 8f 80 37 3f be 50 4c bf 13 ef 4d bf 43 09 51 bf
       0.7168054 -0.798107 -0.80442923 -0.8165476
0000b0 5b 50 2f 3f 0b 24 72 3f 95 ce 3b 3f fa 6d 04 bf
       0.6848199 0.9458625 0.73362094 -0.5173031
0000c0 e5 dd ef 3e 48 c8 d6 be 3b c4 85 3e b6 97 5b bf
       0.4684898 -0.41949677 0.26126274 -0.8577837
0000d0 da 8e 15 bf 88 25 ba 3b 00 11 6b bf d5 1a 1a 3f
       -0.584211 0.0056807436 -0.91822815 0.6019719
0000e0 6b 76 7e bf f9 52 c3 be dd b0 f2 3e 3b fe 00 bf
       -0.9939944 -0.3814924 0.4740056 -0.50387925
0000f0 f6 48 4d 3f e3 1c 6f 3f 16 88 9b be 2e f6 25 bf
       0.80189455 0.9340345 -0.30377263 -0.64828765
000100 08 01 52 3f 15 37 fd be 6d a6 bd be c9 9a 23 3f
       0.82032824 -0.49456087 -0.37041035 0.6390806
000110 e9 36 59 3f 86 5c b8 be 29 14 55 bf 2c 81 67 3f
       0.8484941 -0.3600809 -0.83233887 0.90431476
000120 d6 61 42 3f 1a f9 3c bf 60 84 26 3f a4 b0 dd be
       0.75930536 -0.738176 0.6504574 -0.4329883
000130 aa 44 0c bf e4 45 37 be 6a 3c 4e be c2 3b fd bd
       -0.54792273 -0.17897755 -0.20140234 -0.123649135
000140 b3 75 af be 73 c6 55 bf 10 19 77 bf 3b 02 6a bf
       -0.34269485 -0.83505934 -0.9652262 -0.91409653
000150 a4 31 4b 3f 63 81 4e bf ea c6 6e 3f 13 10 17 3f
       0.7937262 -0.8066618 0.9327227 0.590089
000160 94 56 fd be 4b 93 3a 3e 42 53 2b bf 40 d1 f9 3e
       -0.49480116 0.1822025 -0.66923916 0.48792458
000170 9f 83 b1 be cd 7d 60 3e e3 76 14 bf cf 63 7f bf
       -0.3467073 0.21922989 -0.57993907 -0.9976167
000180 46 6a 5e bf 4a c3 25 be 07 6d 5e 3f df e7 0c bf
       -0.8688091 -0.16187778 0.8688511 -0.5504131
000190 45 c8 33 bf fa ff b6 3d a1 bf d5 be e6 52 65 3f
       -0.7022746 0.089355424 -0.41747764 0.8957962
0001a0 6a e4 0f 3f e1 55 80 3f bc 78 57 3f ca 83 f0 3d
       0.5620791 1.0026208 0.841686 0.11743887
0001b0 36 bf 28 bf 70 7c 8d be cb f0 6f 3f 9e c5 16 3f
       -0.65916765 -0.27634 0.93726796 0.5889529
0001c0 00 52 76 3f d0 8c 33 bf 67 57 4b bf 51 a4 9a 3e
       0.9621887 -0.7013674 -0.7943024 0.30203488
0001d0 7f e1 79 3f 4f fc e7 be 0a 29 58 bf a9 9d 62 3f
       0.97609705 -0.45309684 -0.8443762 0.8852182
0001e0 a1 f1 28 bf 6e 14 88 3e f0 71 1e bf b0 97 12 bf
       -0.65993696 0.26578087 -0.61892605 -0.57262707
0001f0 30 3a 92 3d 52 ff 22 3e d4 5e 83 be 99 39 2e bf
       0.07140005 0.1591771 -0.25658286 -0.6805664

conv_0.weight f4 [128, 128]
000000 e5 08 8c bd cd 1b fd bc d6 75 89 bd dd 8e ca bd
       -0.06837634 -0.030897046 -0.067119285 -0.0989053
000010 c4 57 07 3e b6 e4 e3 3d 3d 53 29 3d 6d b6 0f be
       0.13217074 0.111276075 0.041339148 -0.14034434
000020 92 bf 00 3e 22 f5 f2 bd 17 21 03 3d e7 a2 1c 3e
       0.12573078 -0.118631616 0.03201398 0.15296517
000030 d8 90 78 3c 4f 2f d3 bc 85 15 40 3d 7f fc ea 3d
       0.015171252 -0.025779394 0.046895523 0.11473941
000040 f3 fc 25 be 2d 2e 7a bb d1 90 f8 3d 74 bf a5 3d
       -0.16209774 -0.0038174496 0.121369965 0.080931574
000050 17 41 f0 bd 6f 12 8b 3d c5 0d f8 bd 3d 04 c9 3d
       -0.11731165 0.06790625 -0.12112001 0.098152615
000060 2b 67 38 3d 1a 1f d6 bd 0d e8 af 3d dc 7f d1 3d
       0.045020264 -0.10455151 0.08589182 0.10229465
000070 03 e2 09 be a0 dd 2d bd e4 9e 82 bc 43 2f 09 be
       -0.13465123 -0.042447686 -0.015944906 -0.13396935
000080 23 a3 c4 bd 86 01 c4 bb 8d 52 15 be 07 1c e3 bd
       -0.09601428 -0.005981627 -0.14582272 -0.1108933
000090 08 47 ee 3c ca f2 24 bd 62 31 31 bc 16 4a 6a bd
       0.029086605 -0.040270604 -0.010814996 -0.05719956
0000a0 da 15 16 3d 4d 60 36 bd 8a aa 7e bd 79 f5 93 bd
       0.036641933 -0.044525433 -0.062174357 -0.072245546
0000b0 e6 0b 53 3d 1d d8 23 3c 34 48 20 3e 39 13 a7 bd
       0.05152502 0.010000256 0.15652543 -0.08157963
0000c0 19 ad 05 3e 4f 23 91 3d 34 46 e9 bd 9b d3 13 3c
       0.13054313 0.07086813 -0.11390343 0.009022619
0000d0 f8 16 18 be 2c 3d d7 bd aa e5 ab bc 80 af 8d bc
       -0.14852512 -0.105097145 -0.020983536 -0.017295599
0000e0 ef 3f c5 3c 04 c0 7f bd a8 71 3b bd 36 b6 1d 3e
       0.024078337 -0.06243898 -0.045762688 0.15401539
0000f0 83 d3 81 3d 24 a1 72 3d 9c 96 c3 3d e2 8f 89 bd
       0.06339171 0.059235707 0.09550211 -0.067168966
000100 17 68 91 3d f0 5a 80 bd ce 50 88 3b 34 d2 cf 3d
       0.07099932 -0.06267345 0.0041600233 0.10147515
000110 9d 3f fd 3d f9 be 46 bd 71 b9 03 3e 71 98 53 bd
       0.12365649 -0.04852197 0.12863709 -0.05165905
000120 5a ab d3 3d 3a d2 38 3c 06 4d 16 bd e6 b9 db 3d
       0.10335417 0.011280591 -0.03669455 0.10728817
000130 14 b3 03 be de 8f ab bd f6 9d c2 3d 15 9c 20 3e
       -0.12861282 -0.0837705 0.09502785 0.1568454
000140 4f 21 89 bd 8c 45 10 be 44 65 8a 3d c1 51 cd 3d
       -0.06695806 -0.1408903 0.06757596 0.10025359
000150 3d f0 d3 3d 98 94 f0 3d 67 d9 ae bd 7d 55 8d 3c
       0.10348556 0.11747092 -0.0853756 0.017252678
000160 73 9c e1 3c 90 08 38 bd 9e 69 8a 3b 0e 7f 1e 3e
       0.027540421 -0.04493004 0.0042240163 0.15478155
000170 ba e8 08 3e ea 56 82 3d 9a 78 07 3e 03 01 90 3d
       0.13370028 0.06364234 0.132296 0.07031443
000180 7c b3 9e 3d d9 89 1c 3e a8 27 53 3d 84 0f 16 3e
       0.07749078 0.1528696 0.05155149 0.14654356
000190 8f 77 dd 3d 8b c6 61 bd 85 4b d8 3c 4b b9 b2 3d
       0.108138196 -0.055120986 0.026403198 0.08726748
0001a0 20 75 8d 3d d4 ca 0d 3d d3 0f 62 bc af 90 95 bb
       0.069071054 0.03461726 -0.013797718 -0.004564367
0001b0 9b 60 78 bc ff 87 0c 3e 40 8c da bd 4d 74 09 be
       -0.015159751 0.13723753 -0.10671282 -0.13423271
0001c0 9c 3e d8 3c d7 53 d9 bd 12 57 97 bd 5d a7 8f bc
       0.026397042 -0.10611694 -0.07389654 -0.01753586
0001d0 b2 35 52 3d 70 95 54 3c f3 8f f3 bd 47 c0 5b bd
       0.05132074 0.012975082 -0.118926905 -0.053650167
0001e0 6f 36 d4 bd f3 38 31 bd ec 6c 33 bd ce 22 ba bd
       -0.10361945 -0.0432672 -0.043805048 -0.0908867
0001f0 11 04 5b 3d ba ce 91 3d f0 b2 49 bd ab d2 83 3d
       0.053470675 0.07119508 -0.049242914 0.06436666
000200 15 de e9 bd b6 21 1a bd 02 04 ae 3d 86 e4 17 3c
       -0.11419312 -0.037629806 0.08496858 0.009270793
000210 82 e1 05 be e8 70 80 bd f9 b5 fa bd f9 19 d6 3d
       -0.13074306 -0.06271535 -0.1224174 0.10454173
000220 43 2d 5d 3d 9c e9 ae bd 65 a1 f4 3d 07 a6 12 be
       0.053998243 -0.08540651 0.11944846 -0.14321147
000230 20 d8 62 bd 40 2e 15 3e 4f 8a 26 bd e9 0d c3 3d
       -0.055381894 0.14568424 -0.040659245 0.095241375
000240 e9 cb b9 bc 6f d6 04 be f1 fb 99 3d 84 8d 8c bd
       -0.02268024 -0.12972425 0.07518757 -0.068629295
000250 74 62 4c 3d eb 5b 27 3d 25 46 08 be 90 a8 90 3d
       0.04989858 0.040859144 -0.13308008 0.07063401
000260 92 8e 88 3d fe 34 ad 3d a4 05 42 bd 7c a9 1d 3d
       0.06667818 0.08457373 -0.04736866 0.03849171
000270 53 14 21 bd e9 cc 11 3e 12 e8 c0 3c 7b 57 dd bd
       -0.039326023 0.14238323 0.02354816 -0.10807701
000280 29 94 d5 bd 90 a5 c6 3c a0 37 fd 3d 1f 65 87 3d
       -0.1042865 0.024248868 0.12364125 0.06611084
000290 fa 1e 04 be ee c8 b8 3c 21 8f dd bc 9f 09 0b bc
       -0.12902442 0.022556748 -0.027045788 -0.008486181
0002a0 f6 cd 6c bd a9 b0 57 3d 66 7d 8d bd ec c9 2c bd
       -0.057813607 0.05265871 -0.069086835 -0.042184755
0002b0 1d 34 df 3d 63 a2 14 3e b9 31 07 be 9f 77 3e 3d
       0.10898612 0.1451507 -0.13202561 0.0465008
0002c0 25 bd aa bd 21 c0 41 3d 33 ea 07 be c2 b5 43 bd
       -0.08336858 0.04730237 -0.13272934 -0.04778076
0002d0 97 99 d8 ba 17 20 af 3c 6c 76 0c 3d 07 32 be bd
       -0.0016525266 0.021377606 0.034292623 -0.09286886
0002e0 e2 bd 53 bd 45 b6 d1 bc 3c f3 ad bd 4d ee 92 3d
       -0.05169476 -0.025599608 -0.08493659 0.071743585
0002f0 86 80 aa 3c 7b 7b 1d bd 8e f8 a8 3d 41 d8 da 38
       0.020813238 -0.03844784 0.08250533 0.000104353305
000300 19 0e 2a 3c 32 18 3b bd ef 3e 1b 3e b9 5b 0f 3e
       0.010379338 -0.04567737 0.15160726 0.13999833
000310 2a 09 06 3d 9c 95 b8 3d 9e 84 a3 39 8c 10 0e 3e
       0.032723583 0.09012911 0.0003118859 0.138735
000320 9b 12 68 3d 7f df fa bd 9b 79 84 3c d1 d3 bd 3d
       0.05665837 -0.1224966 0.016171267 0.092689164
000330 a0 e8 f4 bd b0 4a 12 3e 08 97 5e bd f6 e8 21 3e
       -0.11958432 0.14286304 -0.054343253 0.15811524
000340 ce 34 7f bd 4f fe 01 bc 0a 9d e0 3c bb a3 ef 3d
       -0.062306218 -0.007934167 0.027418632 0.11701151
000350 42 7c f1 bd 74 77 a5 3d d8 d5 e6 3c e8 39 ad 3d
       -0.117912784 0.080794245 0.02817814 0.0845831
000360 c0 3b 10 3e 53 73 c1 bd df 37 0d be 74 9e 10 3e
       0.14085293 -0.094458245 -0.13790844 0.14122945
000370 b4 85 18 3e c0 f1 aa bd 99 c9 02 bd 25 3c d9 3c
       0.14894754 -0.083468914 -0.03193054 0.026517937
000380 35 ba a7 bd 6f 04 f7 bd 0f e5 89 3d 63 a4 fb 3c
       -0.08189813 -0.120613925 0.067331426 0.030718034
000390 ba 19 c0 bc d9 a2 cf 3d 92 58 98 3d cf 8d ad 3d
       -0.023449767 0.101384826 0.074387684 0.084743135
0003a0 c6 07 f7 bd ae 78 0f 3e 1f 1f a8 bd 9e 99 39 bd
       -0.120620295 0.1401088 -0.08209061 -0.045312516
0003b0 ac 82 a4 bc 86 84 f6 3d e0 03 15 3d 53 46 0f 3e
       -0.02008184 0.120369956 0.03638065 0.1399167
0003c0 30 d6 84 3c 84 d6 2e bd b8 e2 77 bc c9 ef b6 bd
       0.016215414 -0.042685047 -0.015129738 -0.08932454
0003d0 fa f0 e3 b9 b0 02 bb 37 51 e7 7f bc 44 26 0d 3d
       -0.00043476355 2.2293389e-05 -0.015619115 0.03446032
0003e0 04 a2 b8 3d 69 d6 c0 3b 37 be 10 be 04 6c e5 bd
       0.09015277 0.0058849347 -0.14135061 -0.11202243
0003f0 0b 9e 8c 3d b3 a4 dc 3c 7e 1a ad bd 9d 28 6b 3d
       0.06866082 0.026934003 -0.084523186 0.05741178

conv_0.bias f4 [128]
000000 52 1c 29 bc b4 86 80 bb c0 5b 1c bc 82 50 0b bc
       -0.0103216935 -0.003922308 -0.009543359 -0.008503081
000010 33 8b 25 3c 73 c0 9d bb 3f b5 47 bc 52 f6 21 bb
       0.010103988 -0.0048142015 -0.0121892085 -0.0024713469
000020 e5 87 dc 3b 08 01 22 bc c2 ed 86 bb 79 ec 05 3c
       0.006730067 -0.009887941 -0.0041176984 0.008174055
000030 24 03 9b ba c5 ce c2 3b 7d 62 b0 bb a0 c9 75 bb
       -0.0011826498 0.005945059 -0.0053828345 -0.003750421
000040 4e c9 29 bc a3 51 16 bc f4 ab 26 3b 22 6a 16 3c
       -0.010362936 -0.009174737 0.0025432082 0.0091805775
000050 a2 e6 2c bc 6a 95 10 bb 0d e6 45 bc f2 09 34 3c
       -0.010553034 -0.0022061714 -0.012078774 0.010988699
000060 6e 92 0b bc 70 5d 0e 3c 50 37 41 bb 9b 34 24 3c
       -0.008518798 0.008689269 -0.0029482432 0.010022308
000070 e5 95 39 3c 46 04 5e bb fb 3c 08 bc f5 1e 11 3c
       0.011327242 -0.003387706 -0.00831532 0.008857478
000080 d3 c0 0b bc 86 de a1 3b 15 64 64 3b 52 1f b4 bb
       -0.00852986 0.004939857 0.0034849693 -0.0054968977
000090 bc 1b b4 3b 8c 6b 21 3c 20 3f 45 3c 66 f2 0d bc
       0.0054964703 0.009852301 0.012038976 -0.008663749
0000a0 94 07 84 bb 22 38 d0 bb 02 52 83 bb d1 6e 86 bb
       -0.0040292237 -0.006354348 -0.004007579 -0.004102566
0000b0 e2 5a 0c 3c d8 f7 0d 3c 8a 5b 30 3c a0 da 29 bb
       0.00856659 0.008665048 0.010764012 -0.0025917664
0000c0 2a dd 46 3c 48 11 1d 3c f3 33 9a ba 44 73 1e 3b
       0.012137691 0.00958664 -0.001176475 0.002417759
0000d0 1e d7 10 bc 81 9a 9b 3a e8 4c 78 bb 1c 77 4c 3c
       -0.00884035 0.0011871607 -0.0037887637 0.01247957
0000e0 ab f6 08 bb 0a 70 0d 3c 73 bb a4 bb 87 07 64 3b
       -0.0020898979 0.008632669 -0.0050272285 0.0034794526
0000f0 62 1b 06 bb e7 bb b5 ba 95 0a 23 bc b6 b0 0f 3c
       -0.0020463099 -0.0013865203 -0.009951253 0.0087701585
000100 94 41 49 bc 51 3f 19 3a 97 a7 3f 3c c2 f1 68 3b
       -0.012283701 0.00058459217 0.011697671 0.003554449
000110 31 33 17 bc fc ca 0c 3c ce 5d 1b 3c 06 33 b4 ba
       -0.009228514 0.008593317 0.009482814 -0.0013748116
000120 59 29 18 3c 48 3c 0a 3b b4 fe 1a 3c d5 ac 13 bc
       0.009287202 0.002109306 0.00946014 -0.009013374
000130 87 a5 08 bc d5 a7 91 bb 0e b6 13 3c 20 3a 0c 3c
       -0.008340246 -0.004445056 0.009015573 0.00855878
000140 6c d2 08 3c 41 97 39 bc 66 cc 3b bb 51 75 33 3c
       0.00835095 -0.011327566 -0.0028655767 0.010953263
000150 34 70 99 ba f1 e5 1b bc d9 41 b5 3b c4 73 b9 3b
       -0.0011706413 -0.0095152715 0.0055315313 0.0056595523
000160 0f 75 c8 bb 2e f9 d0 3b 07 72 1a 3c c9 7d 4b 3c
       -0.00611747 0.006377361 0.0094266 0.012420126
000170 93 ef 42 3c 5f a9 0e 3c 76 35 84 bb 35 2d 1d bb
       0.011897939 0.008707373 -0.0040346934 -0.0023983244
000180 7e 53 d7 bb c5 10 1f 3b ec 21 1a 3c 78 c6 41 ba
       -0.0065712323 0.002427147 0.009407502 -0.000739194
000190 87 7b ee 3a 38 7e e5 3b 9f de 16 bc e3 24 be 3b
       0.0018194773 0.007003572 -0.00920835 0.005802737
0001a0 7e 99 af 3b 85 02 79 ba 69 4b 35 3c a1 88 42 bc
       0.005358874 -0.00094989716 0.011065342 -0.011873395
0001b0 22 10 0c bc 5f a3 08 3c 25 95 e4 bb fb e4 11 bc
       -0.008548768 0.008339732 -0.006975787 -0.008904691
0001c0 e2 ff 1e bb bc aa 17 3c 84 05 b3 3b 2b aa 3e 3c
       -0.0024261405 0.009257015 0.005463304 0.011637251
0001d0 74 66 2a 3c 23 0d e0 bb 53 31 0c 3c 2e 34 c8 bb
       0.010400403 -0.0068375035 0.008556682 -0.006109736
0001e0 d7 ba 0b bc 88 97 53 3c 00 bd ac 3b ca 00 d3 3a
       -0.008528433 0.012914546 0.005271554 0.0016098258
0001f0 cf c0 0d 3c 47 fd 16 3c d8 c6 22 bc 37 ca c7 bb
       0.008651926 0.009215659 -0.009935103 -0.006097104

layers.0.weight f4 [128, 128]
000000 36 cd f8 3d 59 b7 cd 3c c3 a9 e3 bd ed 62 04 be
       0.12148516 0.025111841 -0.11116364 -0.12928362
000010 fc f0 9e bd ff 03 d8 bd 70 35 c1 bc c9 24 32 bd
       -0.07760808 -0.10547637 -0.023585051 -0.043492112
000020 a8 cb 04 be 1f cd 31 bd d7 4c e1 3d 3c b3 e1 bc
       -0.12968314 -0.04340851 0.11000984 -0.027551286
000030 4b 1a 2b bd 75 8f 90 bd fa ca 1c 3e 84 3a 5e 3d
       -0.04177312 -0.07058612 0.15311804 0.054255024
000040 ff ff 87 bd bf da b9 3b f2 05 6d 3d b9 32 18 3d
       -0.06640624 0.0056718285 0.057866998 0.037157748
000050 d2 36 79 3d 27 55 ce bd 24 6b 17 be a0 61 da bd
       0.060843296 -0.10074835 -0.14786965 -0.10663152
000060 28 74 5f 3d ed 21 1d 3d 00 0b 56 ba 34 da 5a bc
       0.054554135 0.038362432 -0.0008165091 -0.013357688
000070 b8 62 a0 3d c0 50 cd bd 5e 00 10 3e 0d f8 66 bd
       0.07831329 -0.100251675 0.1406264 -0.056388903
000080 b8 c6 17 3e ae f2 ef 3d 0d 67 06 bd 3d 20 75 3c
       0.14821899 0.11716209 -0.03281312 0.0149612995
000090 d6 fb 18 3e f5 f0 16 3e ce ab c7 3d b1 20 45 bc
       0.14939818 0.14740355 0.09749566 -0.01203172
0000a0 b1 70 fd bd 8c e0 87 bc 31 7e f8 3d 68 08 a1 3d
       -0.1237501 -0.016586564 0.12133444 0.078629315
0000b0 49 0b 36 3d 0a c3 0e 3e db 02 ca bd 02 bd 91 3c
       0.044444356 0.13941589 -0.09863826 0.017790321
0000c0 6e c2 ca bd c1 26 4a 3d 40 19 f7 3d 7e 0c 9b ba
       -0.09900366 0.049353365 0.12065363 -0.0011829284
0000d0 6f ea 3b 3d 3a e9 19 be f9 cb 63 bd 05 49 ab 3d
       0.04587787 -0.15030375 -0.055614445 0.08363537
0000e0 c5 4c 0e 3e 28 bd 3a bd 81 3b db 3c 43 27 c9 3d
       0.13896473 -0.04559055 0.026761772 0.09821942
0000f0 60 33 be 3c c9 16 c6 bd 76 74 02 be 69 cd b8 bc
       0.023217857 -0.09672315 -0.12739739 -0.022558885
000100 9e a0 27 bc 03 bc cf bd d1 22 0b 3d 08 b6 82 39
       -0.010231165 -0.10143282 0.03396875 0.00024931156
000110 03 e0 e7 3d 05 23 81 bd 8d 86 1f 3e ff 21 59 3c
       0.11322024 -0.063055076 0.15578671 0.013252734
000120 90 0e 22 3d 2d bf eb bd 06 01 b0 3d 03 00 7b bd
       0.03956467 -0.11511073 0.08593945 -0.061279308
000130 92 1c 14 be 6f c7 81 bc a9 62 41 3d 2c 95 92 bd
       -0.14464024 -0.015842168 0.04721323 -0.071573585
000140 42 da 95 3c 87 4e 8b 3d e2 23 49 3d ac c4 96 bd
       0.01829255 0.06802087 0.049106486 -0.07361731
000150 1d 97 b2 bc c9 3d f5 bd 6c 3e 32 bc 69 aa e3 3d
       -0.021800572 -0.11974675 -0.01087914 0.111164875
000160 b2 22 3b bd e5 7a 84 bd a0 56 87 3d 8c e1 c7 3c
       -0.045687385 -0.06468753 0.06608319 0.024399541
000170 69 5d 02 bd c1 65 07 3e ba 05 0e be b3 f1 1e be
       -0.031827364 0.1322241 -0.13869372 -0.15521888
000180 35 9c e4 bd c0 ed 0b be 0e 0a e7 ba 73 d0 8f bd
       -0.111626066 -0.13664913 -0.0017626898 -0.070221804
000190 1a 13 e2 bc 0f a2 02 3e 64 ec e1 3c 0c 95 1d 3d
       -0.027596999 0.12757133 0.02757854 0.03847222
0001a0 7d cc 50 bd e1 14 f6 3d c0 82 2f bd 98 24 67 bb
       -0.050976265 0.12015701 -0.042849302 -0.0035269614
0001b0 01 3e 54 3d fc a6 05 3e 95 78 59 bd 73 fb d9 bd
       0.051816944 0.1305198 -0.05309351 -0.10643663
0001c0 c3 c2 9a bd 2b d4 97 bd ef 54 04 be 84 d4 0c 3e
       -0.07556679 -0.07413515 -0.12923025 0.13752943
0001d0 28 58 ec 3d db 83 f8 bc 63 ae 83 3d 96 81 14 bd
       0.11540252 -0.030336311 0.06429746 -0.036256395
0001e0 2f 32 a2 bc 02 ec f8 3d 3c 6b e5 bd 6a 06 42 bd
       -0.01979932 0.1215439 -0.11202094 -0.0473694
0001f0 02 e2 69 bd 03 5f 91 bd 11 2c da 3c 81 49 71 3c
       -0.057100303 -0.070982 0.02663234 0.014726997
000200 5d 4e ed bd 13 13 a7 3d 02 9c 4c 3d 8a 5b 0c 3e
       -0.11587212 0.08157935 0.04995347 0.13706794
000210 24 29 0e 3e d7 b4 a3 bd d1 aa 02 3e 10 ff 1d bc
       0.13882881 -0.07993477 0.12760474 -0.009643331
000220 0b e6 ca bd a2 6f 9f bd b3 34 ea bc 7b 56 e9 3d
       -0.099071585 -0.07784964 -0.028589582 0.11393448
000230 75 2e c4 3c d9 a8 0f be c6 1c 1a 3d 40 02 ab bd
       0.023947934 -0.14029254 0.037625097 -0.083500385
000240 8d 9f 0c 3d 31 09 47 3d f5 0c 93 bd e6 9a c6 bd
       0.034331847 0.04859275 -0.07180206 -0.09697513
000250 32 53 4e 3d 89 94 0b 3e a3 e2 6a bc 21 45 86 bd
       0.05037231 0.1363088 -0.014336261 -0.06556154
000260 c2 6a 3d 3d 3a 53 90 bc 9d 76 03 be 87 bf d3 3d
       0.04624439 -0.01761781 -0.12838216 0.10339265
000270 91 76 9a 3d 75 93 f9 bd 65 18 0e 3e 3e 18 17 be
       0.07542146 -0.12186328 0.13876493 -0.14755341
000280 17 ab f7 bd 03 3d 87 bd 4e d6 fe 3d 30 e9 6c 3c
       -0.1209318 -0.06603434 0.12443219 0.014459893
000290 14 bb 68 3d 64 51 c7 bb f4 72 84 bd 8c 94 a2 3d
       0.056819037 -0.0060827006 -0.06467238 0.07938489
0002a0 d9 29 dd 3d 53 b3 94 bd 96 1c 72 3d 10 39 4e bd
       0.107989974 -0.07260766 0.059109293 -0.050347388
0002b0 f3 7c 80 3d e3 66 17 be 07 19 84 3d 27 d4 17 3e
       0.06273832 -0.14785342 0.06450086 0.14827023
0002c0 0f 0f 2b bd 19 b1 7b bd b2 df 8b 3c cd 5c 97 bd
       -0.041762408 -0.06144819 0.01707444 -0.07390747
0002d0 92 f6 fb 3d c2 7a 71 3b 74 18 9d b9 ed 31 a3 3d
       0.12302889 0.003684685 -0.00029963593 0.07968507
0002e0 0a 4e 58 bd bb 38 51 bd a9 01 1d bd 22 57 07 3e
       -0.0528088 -0.051079493 -0.03833166 0.13216832
0002f0 41 3e 82 3d e0 5d c7 3d b7 cf 11 be 13 a8 f0 3d
       0.0635953 0.09734702 -0.14239393 0.117508076
000300 d2 11 a7 bd d6 ed 60 bd 32 f3 aa bd 35 1c 2c bd
       -0.08157696 -0.054914318 -0.08347167 -0.042019088
000310 6d 8e 90 bd 93 15 17 3e 10 eb 55 bd 66 9d 41 bd
       -0.070584156 0.14754324 -0.052226126 -0.047269247
000320 23 80 06 be 97 13 bd 3d e1 22 11 bd 10 b8 6c 3a
       -0.13134818 0.09232252 -0.035433654 0.0009030113
000330 44 43 b0 3d 4c 92 61 bd d8 aa 23 be e1 51 13 bd
       0.0860658 -0.05507116 -0.1598314 -0.035966758
000340 30 67 03 3e 43 55 1e be f3 1d df bd ca 0f 43 3d
       0.12832332 -0.15462212 -0.10894384 0.04762248
000350 cd 98 03 3d 37 44 97 bd fe 03 1d 3e 22 06 8a 3d
       0.032128144 -0.07386058 0.15333554 0.06739451
000360 37 c5 28 bd 9f f4 88 bd 9e e4 fb bc bb 51 07 3e
       -0.041203704 -0.06687283 -0.030748662 0.13214771
000370 11 aa 78 bc ba 04 b5 3d 7a 33 00 3e b3 0d 09 bd
       -0.015177266 0.08838792 0.12519637 -0.03346033
000380 21 35 dc bd ed fe 9b bd d5 71 02 bd f8 83 f2 3d
       -0.10752321 -0.076169826 -0.03184684 0.11841577
000390 d2 93 f1 3d c2 32 21 be df 85 ac 3d 05 c2 ff bd
       0.117957726 -0.15742019 0.084239714 -0.12488178
0003a0 33 a5 02 bd 67 6e 1b be d0 a2 9d bd 29 29 96 3d
       -0.031895828 -0.15178834 -0.0769707 0.073320694
0003b0 d1 27 64 bc e9 0a 07 3e 87 30 ff bc 1a 0b f4 bd
       -0.013925509 0.13187756 -0.03115107 -0.1191618
0003c0 c1 dc 35 bc b0 92 e2 bd 8f 62 0d be 26 a4 fd bd
       -0.011099995 -0.11063135 -0.13807128 -0.123848245
0003d0 f9 e2 15 be de 6c ea 3d 1c 13 88 3d 21 06 b8 bd
       -0.14637364 0.11446546 0.0664427 -0.08985544
0003e0 f1 f4 22 bd e0 a9 09 3e 35 40 51 3b 4e 69 eb 3d
       -0.039784376 0.13443708 0.003192914 0.11494695
0003f0 a0 5d e1 3d e7 c6 39 bd da 56 6d bd 25 2c f7 3d
       0.11004186 -0.045355704 -0.057944156 0.12068967

layers.0.bias f4 [128]
000000 b6 a9 17 bc 38 45 13 3c 0e 0a fb bb a0 a7 10 3c
       -0.009256771 0.008988671 -0.0076611107 0.008829027
000010 b3 3a 09 bc bd 3a 09 3c 4f 14 10 bc 66 67 10 bc
       -0.008375811 0.008375821 -0.008793904 -0.008813715
000020 0a fc 10 3c 5c 6c 09 bc 0a 5e 11 3c 42 90 16 bc
       0.008849153 -0.008387651 0.008872518 -0.009189667
000030 09 d7 0c 3c 35 0d 12 3c 80 0b 15 bc ab 2b 10 bc
       0.00859619 0.008914282 -0.00909698 -0.008799474
000040 8f eb 10 3c 9e 18 12 3c 20 ae 11 bc 0f 21 17 bc
       0.008845224 0.008917002 -0.008891612 -0.00922419
000050 1b a1 03 bc 3d 7f 06 3c de 78 0b 3c 23 67 11 3c
       -0.008034016 0.008209047 0.008512704 0.008874687
000060 99 c1 08 3c 32 7c 0e bc 43 60 0e 3c 67 cd 12 bc
       0.0083469385 -0.008696603 0.008689943 -0.008960105
000070 2a ae 06 bc 78 4d 10 3c cf 87 11 3c 6d ca 15 bc
       -0.008220235 0.0088075325 0.008882477 -0.0091425
000080 6d 77 10 bc 8d 6d 0b 3c 43 70 0a bc e5 15 f7 3b
       -0.008817536 0.008510006 -0.008449617 0.007540452
000090 5a 74 0e bc b2 8b 04 bc c9 55 d6 3b 87 00 12 bc
       -0.008694733 -0.008089947 0.006540988 -0.008911259
0000a0 b7 2d 0d bc 29 22 0b 3c a2 02 fc bb d8 29 08 3c
       -0.008616856 0.008492031 -0.0076907435 0.008310758
0000b0 08 9d 08 bc 88 99 19 bc 18 d4 0f 3c b9 fb 13 3c
       -0.00833822 -0.009374984 0.008778594 0.009032183
0000c0 82 a3 fe bb 9d 58 08 3c e2 16 10 bc 31 33 15 3c
       -0.0077709565 0.008321908 -0.008794518 0.009106443
0000d0 b7 07 be 3b ac 4e 3f 3c 0e f0 0f 3c c4 09 15 bc
       0.0057992595 0.011676472 0.008785261 -0.009096567
0000e0 fc b0 08 3c 7e ea 0f bc ce c0 13 bc aa 77 15 bc
       0.008342978 -0.008783935 -0.009018136 -0.009122768
0000f0 bc 33 5c 3b 5a 6d 37 bc 99 a0 1a bc 8c 30 0c bc
       0.0033600172 -0.011195505 -0.0094377035 -0.008556496
000100 cd 22 0e bc 55 52 10 bc d4 87 09 3c 51 0f 45 3c
       -0.008675289 -0.008808692 0.0083942 0.0120275775
000110 c2 f5 0a bc 17 a1 10 3c f7 7b 10 bc 8f 51 10 3c
       -0.008481445 0.008827469 -0.008818618 0.008808508
000120 3a ef 0f 3c 45 2a 10 3c 0b 62 11 3c 32 20 12 bc
       0.008785063 0.00879914 0.008873473 -0.008918809
000130 ec b8 14 3c 8d c8 0a bc d0 f0 1c bc fb 7e fa bb
       0.009077292 -0.008470667 -0.009578899 -0.007644532
000140 ab 87 09 3c 89 88 0e bc cb e6 11 3c 2d 32 1e bb
       0.008394162 -0.008699545 0.008905123 -0.0024138794
000150 b6 b1 0f bc be fa 01 bc fc 57 18 3c 75 7a 0a 3c
       -0.008770397 -0.007933317 0.009298321 0.008452048
000160 8e 39 10 bc cc 13 06 3c c4 f7 19 bc d3 4d 10 3c
       -0.008802785 0.008183431 -0.009397451 0.008807617
000170 a8 1e 15 bc 71 3d 11 3c 70 3c 15 3c 27 46 11 3c
       -0.009101547 0.008864746 0.009108648 0.008866823
000180 1f 69 08 3c 79 b7 29 3c 29 e7 ee bb a8 dd 11 3c
       0.008325844 0.010358685 -0.00729074 0.008902945
000190 0c ab 11 bc 4f 90 10 bc 6c 6d 0a bc c8 1b 0d bc
       -0.008890878 -0.008823468 -0.00844894 -0.008612581
0001a0 2b a9 17 3c 06 1b 17 bc e1 d7 14 bc d6 62 0a 3c
       0.009256641 -0.0092227515 -0.009084673 0.008446416
0001b0 37 0a 10 3c ef 9d 12 3c 1b 67 09 bc 00 ab 0d bc
       0.008791498 0.008948787 -0.008386399 -0.008646727
0001c0 42 b1 18 3c 8c 78 0b 3c 4f c0 f2 bb 37 1e 0d 3c
       0.009319605 0.008512627 -0.007408179 0.008613161
0001d0 7b 07 10 3c fe b4 11 bc 09 64 0b bc 35 81 11 3c
       0.008790846 -0.00889325 -0.008507737 0.008880903
0001e0 de 89 22 bc 6c 02 0a 3c ba 56 10 3c 6c 0d 0a bc
       -0.009920565 0.008423429 0.00880974 -0.008426052
0001f0 cb 43 16 bc 70 aa 09 3c 9f 8d 0f bc bd bc 09 bc
       -0.009171437 0.008402452 -0.008761792 -0.008406815

predict.weight f4 [1, 128]
000000 76 ad db bc c2 15 2a 3d 99 e7 12 bc 82 5b 93 3d
       -0.026816111 0.041524656 -0.00896635 0.07195188
000010 41 78 3e bd 59 7a 6f 3d 5b 1d 8c bd c9 12 ac bd
       -0.0465014 0.05846629 -0.068415366 -0.084020205
000020 1e 8c 55 3d 0c 47 2d bd a7 69 a1 3d 9b 65 26 bd
       0.05213558 -0.042304084 0.0788148 -0.040624242
000030 65 5f 2f 3d 43 94 51 3d dd 1d 0a bd 02 1b 92 bd
       0.042815585 0.051166784 -0.033719886 -0.071340576
000040 18 da 68 3d ad 13 4b 3d f6 f3 57 bd 2c e2 be bc
       0.056848615 0.04957931 -0.052722894 -0.023301207
000050 fa 7a 7c bc 43 89 c5 3c 0c 84 48 3d 85 8e 99 3c
       -0.015410179 0.024113303 0.048954055 0.018744716
000060 41 54 f6 3c 6b d9 8f bd 88 8e d7 3b 24 25 7d bd
       0.030069472 -0.07023891 0.0065782703 -0.061803
000070 01 a3 c1 bc 25 e4 b1 3d 7f 37 56 3d 47 5a 00 bd
       -0.023637297 0.08686093 0.05229902 -0.031336095
000080 b2 ab ac bd 7c 95 ac 3d 15 4c 8d bd c4 12 08 3c
       -0.08431186 0.084269494 -0.06899277 0.008305255
000090 0c a7 5e bd 20 f8 4b bc 89 14 1b 3b 1d 16 82 bd
       -0.054358527 -0.012449294 0.0023663363 -0.06351874
0000a0 16 48 86 bd e8 cc 9f 3d 34 70 09 bc a9 f9 e6 3c
       -0.06556718 0.07802755 -0.008388568 0.02819522
0000b0 bd 65 1d bd aa f3 01 bd 3c 20 8b 3d 6f 11 2b 3d
       -0.038427103 -0.031726517 0.067932576 0.041764673
0000c0 71 fb 49 bc 4b de 1c 3d a1 93 a4 bd aa 18 0c 3d
       -0.012328015 0.038297933 -0.080359705 0.03420321
0000d0 4f b3 b6 3a e8 97 37 3c 34 5e a6 3d f5 46 36 bd
       0.0013938936 0.011205651 0.081234366 -0.044501264
0000e0 b7 02 05 3d 5f 0e c4 bd 8a 53 41 bd b0 20 08 bd
       0.032473292 -0.095730536 -0.04719881 -0.0332343
0000f0 8c ce f6 ba bd 93 46 bc b9 b8 c3 bc d8 d0 4f bd
       -0.0018829866 -0.0121201845 -0.023891794 -0.05073628
000100 0c 93 62 bd d0 29 a9 bd de 5a 4e 3d cb a3 29 3c
       -0.055316016 -0.08259928 0.050379626 0.010353993
000110 7b 89 05 bd 84 e1 a6 3d b1 a2 99 bd eb 47 a5 3d
       -0.032601815 0.081484824 -0.07501734 0.08070358
000120 bc a5 a1 3d 22 99 c9 3d b4 58 7c 3d 00 ea 84 bd
       0.078929394 0.09843661 0.06160803 -0.064899445
000130 1f 39 2b 3d f5 8a 28 bd 30 01 ab bc 69 fb 04 bc
       0.04180252 -0.041148145 -0.02087459 -0.0081165815
000140 d9 f1 3a 3d 60 cf 96 bd 66 60 4b 3d 49 a4 67 3a
       0.0456408 -0.073637724 0.04965248 0.0008836431
000150 b7 85 b2 bd d0 4c 76 bc 27 0a c8 3c e7 a9 34 3d
       -0.0871691 -0.015032962 0.024418904 0.044107344
000160 2e 85 8e bd d9 61 cf 3c 00 66 c3 bc 91 8d 8b 3d
       -0.06958996 0.025315212 -0.023852348 0.06814111
000170 09 3f 04 bd 1a fb 5c 3d 33 50 26 3d 88 d1 82 3d
       -0.032286678 0.053950407 0.040603828 0.06387621
000180 10 b9 0c 3d 51 98 5e 3c d6 24 a5 bb 5b 8b 91 3d
       0.034356177 0.01358612 -0.0050397916 0.07106658
000190 fd e1 96 bd 3c 22 96 bd 72 e5 7b bd a5 8e 90 bd
       -0.073673226 -0.073307484 -0.061498113 -0.07058457
0001a0 68 99 da 3c 09 84 11 bd 19 58 2d bd e8 83 94 3d
       0.026684478 -0.03552631 -0.042320345 0.072517216
0001b0 91 1e cb 3d 24 53 6c 3d 24 d5 7c bd b2 80 61 bc
       0.099179395 0.057696477 -0.061726704 -0.0137635935
0001c0 70 94 98 3c 93 78 ac 3d ab a0 df bb f7 39 af 3d
       0.018625468 0.08421435 -0.006824573 0.08555978
0001d0 8d a7 c6 3d 83 45 5a bd e9 a2 5e bd 58 d6 87 3d
       0.096999265 -0.053288948 -0.054354582 0.0663268
0001e0 c2 b6 a4 bc bf ca 96 3d ff 7c b2 3d 27 aa 7e bd
       -0.020106677 0.073628895 0.08715247 -0.06217399
0001f0 42 dc 27 bd f7 45 19 3d db 5e c3 bd 6a ac 28 bd
       -0.04098154 0.03742024 -0.095395766 -0.041180052
