PERGAT_embbedding/data/emb/models/model_dim128_lay2_epo102.pth (torch, 137100 bytes, 7 tensors)

linear.weight f4 [128, 1]
00000000: a870 acbe fc7d 21bf ca56 483f 6eb5 3bbf
00000010: 8073 59be aef0 09bf 1ee1 6dbf 608e 343e
00000020: 3862 16bf 302a 7f3e c4de a3be a057 9cbd
00000030: 1027 b83d 500e 2abe 9e59 52bf f037 10be
00000040: 40b0 a1bd 7029 9ebe 94c0 bbbe 309a 3fbe
00000050: 4e23 153f ec3a 233f 20e3 80bd a809 31be
00000060: c8fd ad3e 4cd6 ea3e ea4d 7c3f b85f 543e
00000070: d08f c8be 70dd a13d 8c2a 353f 86ef 163f
00000080: f483 3d3f a288 6abf 74aa cf3e 989b 3e3f
00000090: d01b 73be 223f 373f 767e 573f a8c0 0bbe
000000a0: e02c aa3e d84a 6dbe 94b4 163f 647a 8e3e
000000b0: 8851 29be 0064 293d e0c7 0bbe 5692 073f
000000c0: 38cf 653f b03c a73e e035 193f 90b5 36bf
000000d0: dca1 3dbf ba31 683f f02b 26be 2433 04bf
000000e0: ce33 7cbf 24aa 253f 68c2 51be a097 413e
000000f0: cc00 e4be 407a fa3c 9aa5 4ebf 4070 a0be
00000100: 4ed3 703f 36f9 08bf 0051 853d 00b0 df3a
00000110: 20f5 8abd f4f2 52bf 5684 3dbf 8aac 47bf
00000120: d891 c5be 947a b23e 4005 963e bef9 04bf
00000130: 34f2 21bf 8060 e93c 1ab9 203f 5aa9 34bf
00000140: 5039 f93e f4cf 0e3f a0d5 51be 10f4 8abe
00000150: e843 18be 20a8 55bf 7eb7 27bf d411 4c3f
00000160: e8fd 043f 6cdc 243f 1473 3e3f 10aa 22bf
00000170: daa7 46bf 4cde 033f 2ad9 213f e4e4 26bf
00000180: 1847 01be 7099 69bf 8485 88be f4f6 b83e
00000190: b89e ecbe 2603 38bf 384e 24be d836 67be
000001a0: bc0a a3be b868 f5be 583b e5be d0e1 babe
000001b0: a4af 8a3e f41f cabe 3a0f 453f c052 2d3f
000001c0: 30df 873e c0f5 b73e b81f 00be 5e81 4fbf
000001d0: e6e7 5dbf 4087 3d3d 90d3 da3d 8c42 003f
000001e0: a88b fbbe d82b 17be 708f 7cbe a089 9cbd
000001f0: d03d 313f 1a6a 03bf c0c2 cbbc 68d4 063f
-0.336797 -0.6308286 0.7825743 -0.73323715 -0.21235466 -0.53882873 -0.92921627 0.17632437
-0.5874362 0.24918437 -0.32005894 -0.07633901 0.089918256 -0.16607022 -0.82167995 -0.14083838
-0.07894945 -0.3089099 -0.36670363 -0.18711162 0.58256996 0.6376178 -0.06293321 -0.1728884
0.33982682 0.4586662 0.9855639 0.20739639 -0.3917222 0.07903564 0.70768046 0.58959234
0.7402947 -0.91614735 0.40559733 0.7445617 -0.23741078 0.7158071 0.8417734 -0.13647711
0.33237362 -0.23173082 0.5886929 0.27827752 -0.16535008 0.041355133 -0.13650465 0.52957666
0.89769316 0.32663488 0.5984783 -0.7137079 -0.740751 0.90700877 -0.16227698 -0.51640534
-0.9851655 0.6471274 -0.20484316 0.18905497 -0.44531858 0.030575871 -0.8072144 -0.3133564
0.94072425 -0.53505266 0.0650959 0.0017066002 -0.06785035 -0.8240197 -0.74030054 -0.7799765
-0.38587832 0.34859145 0.2930088 -0.51943576 -0.632602 0.028488398 0.6278244 -0.7057091
0.48676538 0.5578606 -0.20491648 -0.2713933 -0.14869654 -0.83459663 -0.6551436 0.79714704
0.5194993 0.6439884 0.74394345 -0.63540745 -0.7759987 0.51511073 0.6322199 -0.6519301
-0.12624776 -0.9124975 -0.26664364 0.3612591 -0.46214843 -0.71879804 -0.16045463 -0.22579515
-0.31844127 -0.47931457 -0.44771838 -0.36500406 0.27087128 -0.39477503 0.7697636 0.6770439
0.26537466 0.3592968 -0.125121 -0.81056774 -0.86681974 0.046271563 0.106848836 0.5010154
-0.49129987 -0.14762819 -0.24664092 -0.076434374 0.69234943 -0.51333773 -0.024873137 0.52667856

linear.bias f4 [128]
00000000: a8dc 4ebf 060f 3bbf 5842 72bf e5ee 64be
00000010: 59e4 483f aa72 c33e 3f2d bc3e 11d8 04be
00000020: 32d4 5cbe 6f3f 813e b92d 313f 41ed cebe
00000030: f6c5 f83e 8124 13bf a95b a03e e807 d53d
00000040: 7f5a 513f f8e7 4dbf 7fe2 563f 47e5 ab3e
00000050: bca2 fc3e 872c f53e 1cb7 3f3f becc db3e
00000060: ddc8 bf3e 0f4b 083e 4adf a93c be75 673f
00000070: c8ec 613d 38c4 183f ebd6 d1bd a571 66b9
00000080: 7cfb 5fbf 1728 073f 4863 81bc 3ca5 c23e
00000090: dee2 69be 3ff9 d93e 1cf8 953e 2225 e93e
000000a0: 462a 0c3f a9c0 1cbe 1086 92bd a6df bd3e
000000b0: 4fc0 733e 3c9c 98bd d14c 5fbf dff6 7dbe
000000c0: a899 4c3f b8f8 063f 2793 f53d 6605 1dbf
000000d0: 2dae 1e3f 0bc2 643e 5504 f83c 4772 4fbf
000000e0: 335a 703f 955c 43bf 0169 15bf fe3a 76bf
000000f0: 0739 cebe e41e 13bf 19f6 8abd 44e2 9abe
00000100: f8e6 483e 8132 1ebe 9734 ef3e fc68 1fbf
00000110: 01fe eabe d21f 9f3e 45e5 db3e 98bb 843e
00000120: 122b f8bd abd9 67bd b46d 54bf fd95 8e3e
00000130: b4e3 0cbf d71c 893e 4f82 e63d e47d cabe
00000140: 5726 7bbf df74 03bf 8940 173f 1ffb 6d3f
00000150: 4b94 003f 9950 74bf 5f50 6abf d7e7 113e
00000160: 83d7 353f 5a0b c8bd 49cc 59bd f3cc f53e
00000170: d16c 1c3f 9e3a 3ebf 2d66 2d3e 7a27 7e3f
00000180: 5700 18bf 15e9 f53e 9c44 7bbf 93ea 823e
00000190: 535c b93e 212d 1c3f 9b45 3d3f 38ee 1ebd
000001a0: e664 bb3e 4871 16bf 6218 f1be bd34 793f
000001b0: 9103 50be 8bf7 06bf 55bc 6ebf 8a14 a73e
000001c0: 494a 2c3e 4957 563f e7de 163e 3597 973e
000001d0: b0e1 ddbe b33b 503f 545c 3dbf a691 85be
000001e0: 5530 70bf c599 9abe e826 7b3f f6bb 54bf
000001f0: 8094 3abf bc7b d53d a5a4 55bf 82ca 01bf
-0.80805445 -0.730698 -0.9463248 -0.22356756 0.7847343 0.3817342 0.3675327 -0.12973048
-0.21565321 0.25243708 0.6921039 -0.40415385 0.48588532 -0.57477576 0.3131993 0.104018986
0.8177871 -0.8043208 0.83939356 0.33573362 0.49342906 0.47885534 0.7488878 0.42929643
0.37457934 0.13309883 0.020736355 0.90414035 0.055157453 0.59674406 -0.102460705 -0.00021976845
-0.8749311 0.5279555 -0.015794411 0.3801669 -0.22840449 0.42572972 0.29290855 0.45536143
0.54752004 -0.15307869 -0.07154477 0.37084693 0.23803829 -0.07451674 -0.8722659 -0.24801205
0.7992196 0.52723265 0.11990958 -0.6133636 0.6198452 0.22339647 0.030275503 -0.8103375
0.93887633 -0.76313144 -0.5836335 -0.96183765 -0.40277883 -0.5746901 -0.06785221 -0.30250752
0.19619358 -0.15448953 0.4671981 -0.6226957 -0.45896915 0.31078964 0.42948356 0.25924373
-0.1211759 -0.05660407 -0.82979894 0.27848807 -0.5503495 0.26779816 0.11255323 -0.39549172
-0.98105377 -0.51350206 0.5908285 0.92961305 0.5022628 -0.9543548 -0.91528887 0.14248596
0.7103197 -0.0976779 -0.053173337 0.48007926 0.6110354 -0.7430819 0.16933508 0.99278986
-0.5937552 0.4802939 -0.98151565 0.2556959 0.3620325 0.6100636 0.73934335 -0.0388014
0.36600417 -0.58766603 -0.47088915 0.973461 -0.2031386 -0.5272147 -0.9325612 0.32632858
0.16825213 0.83726937 0.14733468 0.2960755 -0.43336248 0.81341094 -0.73969007 -0.26087683
-0.9382375 -0.30195442 0.9810624 -0.83099306 -0.72882843 0.10423991 -0.8345435 -0.5069963

conv_0.weight f4 [128, 128]
00000000: c095 113d 488d e83c a414 89bd a0f9 d7bd
00000010: a34f 74bd 1465 2ebd c201 22bd c349 b73d
00000020: d453 0ebe 8121 f1bd 7880 bb3d 2748 c13d
00000030: 660b dcbd 7773 db3d f233 62bd 5884 643d
00000040: d14c 1c3c ebf5 153e f644 10bd aff8 0cbd
00000050: 1de8 f33d d249 c9bd 1b03 d63d 2aa5 7c3d
00000060: 8638 04be 51ff 4abd 6105 893d f15a 413d
00000070: f06b 08be 13bf 15bd 9e72 1c3e 6ec9 c7bd
00000080: 98ab 843d bba1 26be a045 b8bd 1c85 8c3c
00000090: 40d6 0ebe 7dc8 b73d 6fba 573d 0c03 1b3e
000000a0: c3c0 13be f4c9 9cbd ba14 ffbd 639c 06be
000000b0: 667e 5dbc 987f d23d c72a abbd 4610 cf3d
000000c0: faa3 7bbd bafe b5bd 6d36 a8bd 8332 04be
000000d0: 8321 debd 99cd 5a3d f2bb 983d e1b3 b3bd
000000e0: 79a9 30bd a2c3 9e3d 64ed 183e e5e9 02be
000000f0: 6f66 f0bb 98d3 87bd f8fe 103e a0d8 dabd
00000100: faf8 bf3d abe8 b33d bcf4 fd3d 18d4 51bb
00000110: e9f6 18be 74ed cebd 6624 ebbd f437 eebd
00000120: d86b cf3c 13f4 05be aa9c cc3d 5fbd cf3c
00000130: b742 1ebd 49a8 a9bc b018 1abe e664 95bd
00000140: ee6d 0a3e 2041 02bd 316f 183e 6d8a fe3d
00000150: 9e7b e0bd cbaf 13be 9f93 4c3d 485a d33d
00000160: c360 333d 7eb9 0cbe 28be bdbd e699 b6bd
00000170: 684f 1cbe 33c5 4fbd 1a59 243e 09cf f6bd
00000180: bd3c b63c 3e38 fabd 2287 113e cbfd 123e
00000190: 97e1 07be ce16 bb3b 8a16 bd3d f82d 24be
000001a0: ee59 9c3d b970 1ebc 3bb6 89bb cc27 20bd
000001b0: b470 e73c e225 09be dbc4 b13d b9d9 a7bd
000001c0: cfe8 1bbd 2126 d13c 1de9 f53d 6633 d3bd
000001d0: 1aa9 003e 7f33 643d 8486 59bd 4b20 123a
000001e0: 8fe1 70bd c668 d83c f75b 383d 7ed1 033e
000001f0: 32b0 9e3d 7060 293d d6da 1fbe 8506 dcbc
00000200: 9b68 cc3d b6ff a73d 7351 9a3d bac8 3ebd
00000210: 4d71 bb3d 2279 62bc cf28 da3b 027c 133e
00000220: a941 adbc b2d0 cdbd a06e b7bd 9543 c93d
00000230: 170a a7bb a1b8 b7bd 900b 523d 3109 e4bb
00000240: 7c03 343d c8f1 da3c 0c49 783d 514a 7a3d
00000250: b9ab 3b3c 7ee7 663d eaa9 b43d 9d7f b33d
00000260: 1d53 b63c 5204 183e 900b 0c3d 299d bcbd
00000270: 3e77 b13d 8158 a9bd c028 c13d dbd2 833d
00000280: 6367 0b3e 1912 ce3d 3caf c7bd b83b 7abc
00000290: 8a3c 753c 1167 b9bd 73e4 c4bd 273c cc3d
000002a0: 4668 06bd 52fd 6e3d 06d3 013e cebe 5a3c
000002b0: e579 b63d ef73 173e 8cea 70bd 9a66 623d
000002c0: 3eff 883d c57e 07be 708f b3bd 80ef 303c
000002d0: 9858 0e3d 3fbd 07be 9779 ff3d 63c0 c33d
000002e0: 580a a9bd cd29 023e 0aea e23b d49b b43d
000002f0: 9f61 8bbd 2780 133e e5c1 833d 85da 61bd
00000300: f8d1 913d 75c6 d33d df32 073e 2806 353c
00000310: ff24 cd3d df45 3d3d 3bbe 8cbd 3b4a 22be
00000320: b5a2 d4bd 944a 10be 02eb 66bd 6888 923c
00000330: c22d 0d3e 53ea f0bc 4665 cabd 376e fabd
00000340: 5cdf cd3d 20e6 873d b38c 463d 82ae 883d
00000350: 8a9d a23d 259b 14be b586 86bd e54f a43d
00000360: a55f d03c 77ff 4d3d 76c5 21bc 6f47 073e
00000370: 4e4e 1cbe ff00 c43d 68f8 763c 0bcc e93c
00000380: 07ea 88bd 5a83 d3bd 3e9c db3d 15f1 debd
00000390: e5b2 523d f1fd 0fbe ddb8 8d3d 113f dcbc
000003a0: a8a3 f23d 0c7d 303d 2ea1 e5bd d5dc 883d
000003b0: d4cf efbc d605 b13b df6a 093e 9c14 6cbd
000003c0: 3d40 143e 4f56 50bd 1db8 e43d 9306 e5bd
000003d0: ee57 f2bd c5fe 563d 1b7d d13d 5c30 1c3c
000003e0: 637b 7c3d 5a9b e63d e3a9 fc3d 67d1 94bb
000003f0: 04bf 813d f4ff 8a3d eb2e 913d 7dd9 b7bd
0.035543203 0.02838768 -0.0669339 -0.10545659 -0.05964626 -0.042576864 -0.039552458 0.08949616
-0.13899165 -0.117739685 0.09155363 0.0943759 -0.107443616 0.107153825 -0.05522532 0.055790275
0.009539799 0.14644592 -0.035222016 -0.03441685 0.119095065 -0.09828533 0.10449811 0.06168095
-0.12912187 -0.049559895 0.06690479 0.04720587 -0.13322425 -0.036559176 0.15278098 -0.097552165
0.064780414 -0.16272633 -0.08997655 0.017153315 -0.13948917 0.08973787 0.05266803 0.15137881
-0.14429002 -0.07655707 -0.12455125 -0.13145594 -0.013518905 0.10278243 -0.083577685 0.10110526
-0.061435677 -0.08886476 -0.08213506 -0.12909894 -0.108462356 0.05341873 0.07457723 -0.087745436
-0.04313037 0.07752158 0.14934307 -0.12784536 -0.00733643 -0.06632155 0.14159763 -0.10685849
0.093736604 0.08784612 0.12400195 -0.0032017287 -0.14937939 -0.10103884 -0.11481552 -0.11631766
0.025319979 -0.13081388 0.09990819 0.025358854 -0.038637843 -0.020710127 -0.1504848 -0.072946355
0.13518497 -0.03180039 0.14886166 0.12428746 -0.10961078 -0.14422528 0.04994547 0.10319954
0.04379345 -0.13742635 -0.09264785 -0.089160725 -0.15264666 -0.050725173 0.16049615 -0.120512076
0.02224576 -0.122177586 0.14211705 0.14354627 -0.1326965 0.0057095056 0.092328146 -0.1603316
0.0763434 -0.00967043 -0.004202632 -0.039100453 0.028251983 -0.13393357 0.08680125 -0.08195824
-0.03806382 0.025530877 0.120073535 -0.10312538 0.12564507 0.055713173 -0.0531068 0.000557427
-0.05880886 0.026417147 0.04500958 0.12872884 0.0774845 0.041351736 -0.15610823 -0.026858578
0.099808894 0.0820307 0.075350665 -0.046578147 0.0915247 -0.013822826 0.006657697 0.14402774
-0.021149473 -0.10049571 -0.08956647 0.098273434 -0.0050976383 -0.08970762 0.051280558 -0.0069591035
0.043948635 0.026726618 0.060616538 0.06110603 0.011454516 0.056373112 0.08821471 0.08764575
0.022256428 0.14845398 0.034190714 -0.092096634 0.08665322 -0.08268834 0.094316006 0.06436702
0.13613658 0.100620456 -0.0975022 -0.015273027 0.014968047 -0.090528615 -0.09613886 0.09972411
-0.032814287 0.058347054 0.12678155 0.013351155 0.08909968 0.14790319 -0.05881743 0.05527363
0.066893086 -0.13231952 -0.08767593 0.010799289 0.03475246 -0.13255785 0.12474363 0.09558179
-0.08253926 0.12711258 0.0069248723 0.08818784 -0.06805729 0.14404355 0.06433467 -0.055140037
0.071201265 0.10340587 0.13203 0.011048831 0.10016822 0.046209212 -0.06872221 -0.15848629
-0.103825964 -0.1409095 -0.056376465 0.01788731 0.13786986 -0.02940861 -0.098825976 -0.12228053
0.10052368 0.0663569 0.048474025 0.0667391 0.079402044 -0.14512308 -0.06568662 0.08023051
0.025436232 0.05029246 -0.0098737385 0.13210844 -0.15264246 0.095705025 0.015073873 0.028539678
-0.06685262 -0.10327788 0.1072316 -0.108858265 0.05144014 -0.14061715 0.069200255 -0.026885541
0.11847621 0.043088004 -0.11212383 0.06682745 -0.029273905 0.005402307 0.13419674 -0.057636842
0.1447763 -0.05086356 0.11167929 -0.111828946 -0.118331775 0.05248906 0.1022894 0.009533014
0.06164111 0.112601 0.12337091 -0.0045415643 0.063352615 0.067871004 0.07089027 -0.089770295

conv_0.bias f4 [128]
00000000: b40a 413c 382a 363c 33bb 383c f20e 0fbc
00000010: ea9e 093c f9c6 3d3c bf6f 0cbc fd61 11bc
00000020: 37f4 1bbc f2f2 cdbb 8ca6 dc3b 1198 d7ba
00000030: 49b6 a73a db18 1f3c d3b3 b4bb 34bb 273c
00000040: 3726 03bb 6d38 ce3b 41cb 50bc 7ec0 0fbc
00000050: 04f7 16bc 27fd cbba 3af6 21bc fb43 17bc
00000060: ea39 25bc 6d92 18bc 590f 2ebb 3c5c 19bc
00000070: 42dc b7bb 6f1a 4c3c ac32 15bc eb2d dcbb
00000080: c7fb e5bb e1a9 353c 4884 24bc ba8c 40bc
00000090: 98e0 c2ba 3feb 1c3c 95c8 17bc 1994 2cbc
000000a0: dca3 55bb 341f ae3b c6c6 163c 9c72 bdbb
000000b0: 97bd 0dbc eb0d bcbb 9ce0 c6bb 2cc9 503c
000000c0: 738d 3d3c cc48 1ebc 3d5c 04bb 474b ebba
000000d0: 5bea 183c 70cb 143c 0b63 383c ef82 153c
000000e0: 82c6 833b 891a 103c 0cb8 17bc a83b cbbb
000000f0: 923f 1a3c a00e 08bc 5faf 0fbc b1e3 15bc
00000100: c28f 393b 54fa 0fbc af92 483c a272 3b3c
00000110: cc85 87bb 2c0f 123c e903 b7bb 0fc1 113c
00000120: 4d74 203c 99b9 4b3c d449 3cbb 8a42 35bc
00000130: 0d67 25bc f2bb 1abc 8ff3 513c 5105 3abc
00000140: 8f77 4c3c 7c75 343c 2735 0dbc e5c8 2a3c
00000150: 5d8b e33b 15be c63b 6262 a3bb c2fb 1d3c
00000160: 1018 1f3c f6c6 1b3c e9e6 2bbc 644f 15bc
00000170: 3827 1f3c 3ab0 26bc c838 0dbc c61d c4bb
00000180: 4b38 7c3b 8ade 833b a26b 153c 609a 0ebc
00000190: 26fa 3cbc c17b 143c 8b6c 2e3c 9a0d 2a3c
000001a0: 9e5c 353c 01f2 c7bb ea66 22bc 8004 a3b9
000001b0: aa0a 0f3c 0097 483c 46db 37bc 0f5a b6bb
000001c0: 1fea c2bb b276 16bc 252c 173c 76b2 abbb
000001d0: e37d 08bc eaaf 12bc 8d42 223c d588 f93b
000001e0: 6597 7b3b 7ce1 12bc 5569 31bb 842d 623c
000001f0: d12f 9c3b 1141 3a3c 61f8 0c3c 040e 43bc
0.011782337 0.011118464 0.0112751005 -0.008731591 0.0083997045 0.011583083 -0.008571564 -0.00887346
-0.009518675 -0.006285065 0.006733721 -0.0016448518 0.0012795414 0.009710516 -0.005514601 0.010237504
-0.0020011791 0.0062933476 -0.012743772 -0.008773921 -0.009214167 -0.0015563116 -0.009885365 -0.009232516
-0.010084609 -0.009312254 -0.002655944 -0.009360369 -0.0056109736 0.012457474 -0.009106319 -0.006719341
-0.0070185396 0.011087866 -0.010041304 -0.011752302 -0.001486796 0.009577571 -0.009264131 -0.010533356
-0.0032598889 0.0053137783 0.009202665 -0.005781485 -0.008651159 -0.005738964 -0.006069256 0.012743276
0.011569369 -0.009660911 -0.002019658 -0.0017951512 0.009333218 0.009081706 0.011254082 0.009125455
0.0040214667 0.008795389 -0.009260189 -0.00620218 0.00941457 -0.008304268 -0.008769839 -0.009148524
0.0028314446 -0.00878771 0.012242003 0.011440905 -0.004135823 0.00891475 -0.005585183 0.008896126
0.009793353 0.012434387 -0.0028730528 -0.011063227 -0.01009537 -0.009444224 0.012814417 -0.011353807
0.012479677 0.011014339 -0.00861863 0.010423874 0.0069441036 0.00606514 -0.0049860934 0.009642543
0.009710327 0.009507885 -0.010492065 -0.0091131665 0.00971394 -0.010173852 -0.008619495 -0.0059849946
0.0038485702 0.0040243315 0.0091199 -0.008703798 -0.011534249 0.009062708 0.010645996 0.010379219
0.011069445 -0.006101847 -0.009912232 -0.00031093135 0.00873057 0.012243032 -0.011221712 -0.005564935
-0.0059483196 -0.009183573 0.0092268335 -0.00523978 -0.008330795 -0.008953074 0.009903562 0.0076151886
0.0038389799 -0.0089648925 -0.002707084 0.013804797 0.0047664423 0.011368052 0.00860414 -0.011905197

layers.0.weight f4 [128, 128]
00000000: 78e7 8bbb cdb9 33bd 1eb3 4ebd 5f83 c7bd
00000010: aa4d 9c3d 1d70 18bd 0933 fdbc 49ed 0abd
00000020: 8877 e73b 69cc 02be 2008 023d 8d1e 793d
00000030: a315 3bbd 006b 023e e6ad 6a3d 26dd 6e3d
00000040: 5bc7 f8bd 1f67 4ebd 00bc ecbd 7c95 d23a
00000050: f4fd 09bd edce 5bbd 2d7c 80bd 73bf a1bd
00000060: d4ef 6b3d dcb9 45bd f3e5 873d a6c5 bd3d
00000070: 2e84 0b3e 9258 1b3e bd76 0d3d bf84 0f3e
00000080: b393 a53d 7ff2 613d 5c7b 003e 6326 9fbd
00000090: 62a3 3fbd 48fa 193d 35bd 0e3d 126e a83d
000000a0: d945 893d 1ade d2bd 7310 933d c2f2 11be
000000b0: 7c69 cf3d 74be b9bd cbeb 493d ad2c e63c
000000c0: 11a4 bcbd 822b 4b3d 1ff9 073e e6c6 0f3d
000000d0: 56a3 aabd 5478 e83d 5cb4 efbd 276e a03d
000000e0: e584 82bd eb51 483d d7a7 e4bd 71ca 093e
000000f0: 8406 35bc 041e 40bc 75bb ad3d cca5 603d
00000100: 64a0 d8bd 5e81 973d 815d 14bd c2f4 fdbd
00000110: 5a80 243d 533c 1dbe 0597 9b3c 99d7 d3bd
00000120: 2258 843d be4d f1bc 8921 e13d d346 3dbd
00000130: df2a abbc c990 b9bd efe5 a0bd 27e6 8bbd
00000140: 9273 12bc f0ce 283d 3726 1bbe a212 52bd
00000150: 01d9 b83c 277e 513d 477f cfbd bc36 e7bd
00000160: 29b5 ea3d 967f 03be 4a8c 08be 8d1f 91bd
00000170: be2d 2ebc 5730 a93b fb21 6bbd 441f 1b3e
00000180: 1cfd c23d 1039 953c b80c a53d 3890 ddbc
00000190: 9b84 ec3d b0da ac3a 6c31 bc3d d306 dabd
000001a0: 4d7d 67bd 220f acbd 38aa c0bd af27 3fbd
000001b0: 1370 1abe fa97 06be 027d 313d ac1b 1e3e
000001c0: 359a 56bd ceb9 0f3e cae4 69bc 595a ccbd
000001d0: 966b 4fbd b204 7abc c26f 103d e335 163e
000001e0: 2b52 fd3d f641 1abe a0a9 b6bc a023 5cbd
000001f0: 89ed 74bd 46d2 a1bc 4fca 0dbe efc8 0cbd
00000200: 61ba 0b3e 694a 2b3c 8ba4 00be 7a74 ac3d
00000210: 1b76 173e 7c63 203e d410 c83c acb0 65bd
00000220: d2c4 92bd c251 8d3c bf3b 50bd 014c cd3d
00000230: 32cb aebb 64da b93c b996 453c dc11 003e
00000240: d939 0ebd 757d 1dbe 8ff0 33bc 3ac9 0cbd
00000250: 87f4 16be 2397 78bd b3ba 1abe 676f efbc
00000260: b0d8 b4bd fe93 a5bd c7d3 03be 16af ecbd
00000270: cab2 a5bd 6154 5b3d a429 ffbd fcd3 16be
00000280: 23a0 7ebb 4ce6 62bd 123c 61bb 2a03 ff3d
00000290: b744 a2bd 0d52 033d cb85 c2bb e383 ec3d
000002a0: 998a c43d 7546 ca3d 18e4 aebd 8483 ed3d
000002b0: 2956 1dbe ce1b d7bd 2b1a 86bd 3b37 42bd
000002c0: f68e 83bd 0431 aebd 73e3 00be 11d6 03be
000002d0: 3557 9f3d c888 0c3e 06fd 07be cd48 c3bd
000002e0: 2ada 153e e617 db3d 7588 023e b1e3 4dbd
000002f0: 8cb0 84bd e9d0 c8bc bbe5 12be 3791 04be
00000300: 1169 e83d a0b7 0dbc fb5b 01be 8ad5 4bbd
00000310: 3efe dcbb c865 d43c 4ab9 dc3d a5de 803d
00000320: 5d31 463d 8820 f83d 9212 963d a31d 0fbe
00000330: 0c0c 2a3d 7407 e73d f8b7 9c3d b3ad cb3d
00000340: 3c1f 45bd efe6 d7bd b94d f5bd 0302 a33d
00000350: d4e4 9e3d 3ea5 8c3d 850e 193e 4a65 413c
00000360: 26e1 213e 6767 c23d b3b6 85bd 16e9 093e
00000370: fd0b 06be 8c15 9c3d a15b ccbd 7f2b 5abd
00000380: 745b 2a3b 403e 13be c745 d23d d9e2 f9bd
00000390: e626 46bd 267a 3dbd fe44 2abd 6bc3 81bb
000003a0: 4e9d 43bb d949 bfbd 01ef 39bd 4702 833c
000003b0: 802c 0c3e 9d7a a53c a28a a3bd 55bf c83b
000003c0: 7eb2 943d 1bce d33d fbf2 0ebd bc86 c53c
000003d0: 347e 163e b272 3c3d 47da a1bd 3a60 f33c
000003e0: cca2 953d 3a50 9c3d 1ada e13d 7067 d03c
000003f0: b46c 3bbd 4523 ae3d a703 923d a82e 6ebc
-0.0042695366 -0.043878365 -0.05046379 -0.09741854 0.07632001 -0.037216295 -0.030908125 -0.0339177
0.00706381 -0.12773289 0.03174603 0.06082015 -0.04567493 0.1273613 0.05729475 0.058316372
-0.12147399 -0.050391313 -0.11559296 0.0016066278 -0.033689454 -0.053664137 -0.06273685 -0.07897844
0.057601765 -0.048272952 0.06635656 0.09266214 0.13624641 0.15170506 0.034537066 0.14015482
0.08084812 0.055162903 0.12547058 -0.077709936 -0.046786673 0.037592202 0.03484841 0.08224119
0.067027755 -0.10296269 0.07180872 -0.14252761 0.101275414 -0.09069529 0.049297135 0.028097475
-0.09210981 0.04960204 0.13278626 0.035101794 -0.08331935 0.11351076 -0.11704323 0.0783351
-0.06373004 0.048906248 -0.111648254 0.13456132 -0.011048917 -0.011725906 0.0848302 0.054845616
-0.10577467 0.07397722 -0.036221985 -0.124001995 0.040161468 -0.15355043 0.01899291 -0.10343856
0.064621225 -0.029456016 0.109927244 -0.04621012 -0.020894466 -0.09060819 -0.07856356 -0.068310075
-0.008938687 0.041212976 -0.15151297 -0.0512873 0.022564413 0.0511457 -0.10131698 -0.11289737
0.11460335 -0.12841639 -0.13334766 -0.07086096 -0.010631023 0.0051632333 -0.057405453 0.15148646
0.09520933 0.018215686 0.080590665 -0.027046308 0.1154873 0.0013187733 0.09189114 -0.10645833
-0.05651598 -0.08401324 -0.09407467 -0.046668705 -0.15081815 -0.13143912 0.043332107 0.15440243
-0.052393157 0.14035723 -0.014275739 -0.0997817 -0.05063971 -0.0152599085 0.03526283 0.14668994
0.12369188 -0.15064225 -0.02229768 -0.053744912 -0.059796844 -0.019753587 -0.13846706 -0.034371313
0.13645317 0.0104547525 -0.12562768 0.08420654 0.14791147 0.1566295 0.024422087 -0.05607669
-0.07166447 0.0172509 -0.05083823 0.10024262 -0.0053342814 0.022687145 0.012059861 0.12506813
-0.034723137 -0.1537989 -0.010982647 -0.034371592 -0.14741717 -0.06069101 -0.15110283 -0.029227925
-0.08830392 -0.08084868 -0.12873755 -0.115568325 -0.08090742 0.053547267 -0.12459114 -0.14729303
-0.0038852773 -0.05539541 -0.003436808 0.12451775 -0.079232626 0.03206067 -0.0059363595 0.11548593
0.09596748 0.0987672 -0.08539599 0.1159735 -0.15364899 -0.1050335 -0.0654796 -0.047415953
-0.06423752 -0.08505443 -0.12586765 -0.12874629 0.07780305 0.13724053 -0.13280115 -0.0953537
0.14634004 0.10697918 0.12747367 -0.05026597 -0.06478986 -0.024513679 -0.14345448 -0.1294602
0.11348165 -0.008649737 -0.12632744 -0.049764194 -0.006744175 0.02592744 0.107775286 0.06292466
0.04838692 0.1211558 0.07327761 -0.1397615 0.041515395 0.112807184 0.07652277 0.0994524
-0.04812549 -0.10542094 -0.11977715 0.07959368 0.07758489 0.06867455 0.14946945 0.011803934
0.15808544 0.09492379 -0.06528988 0.13467821 -0.1309051 0.07621297 -0.09978414 -0.053264137
0.0025994452 -0.14379215 0.10267215 -0.12201471 -0.04837694 -0.046259068 -0.041569702 -0.003960063
-0.00298484 -0.09340257 -0.045393948 0.015992297 0.1368885 0.020200068 -0.079854265 0.006126324
0.07260607 0.10342046 -0.034899693 0.024112098 0.1469658 0.04600782 -0.07902961 0.02970897
0.07306442 0.076324895 0.11027928 0.025439948 -0.045757964 0.08502821 0.07129603 -0.014537491

layers.0.bias f4 [128]
00000000: c32b 14bc c3de 16bc 6da2 0dbc 1365 123c
00000010: 1e7e 153c e34c 133c e585 12bc 6c76 0dbc
00000020: 1703 123c 3f55 13bc ea43 12bc 3d6f 063c
00000030: cd30 0bbc 411e 083c b079 0b3c 1378 12bc
00000040: 0251 033c 659d 13bc 9c5d 023c 9b77 14bc
00000050: 226c 0cbc e505 0b3c 5e84 13bc 528d 0cbc
00000060: 7d19 103c fb67 3ebc 94a2 113c 3e7f 27bc
00000070: f439 13bc c17a f23b cfe6 16bc 8fb6 1dbc
00000080: ebf7 963b d396 053c 8fb6 123c 6a02 18bc
00000090: 2cae 15bc 9d30 28bc aa80 0e3c 29cd 123c
000000a0: 5b30 13bc 5f65 4c3c fdae 123c 58ad 13bc
000000b0: a1e5 10bc 6356 0b3c 7550 efba d6c6 13bc
000000c0: 3147 1d3c e529 0c3c bb85 093c 30f1 11bc
000000d0: 292a 0c3c 4f5b 12bc 832e 0cbc c90b 133c
000000e0: 41c0 123c 1964 123c bbb6 183c 3b40 133c
000000f0: 4259 07bc de2a 0fbc 11ee 11bc 31f5 133c
00000100: 0cfa 0abc 9189 0fbc e2db 13bc e45e 11bc
00000110: 897e 11bc 9cb2 1dbc 4dc5 143c e6f7 06bc
00000120: 91d0 253c 4d31 303c 489a 14bc 3fdd 153c
00000130: 3661 153c 134e 0fbc cdb1 14bc df7b 0bbc
00000140: 46db fabb 99d2 1e3c 13ca 853b 7a35 0c3c
00000150: 4084 12bc 262b 04bc f1fe 173c 4321 15bc
00000160: 618f 133c af9c 123c d440 fdbb b803 183c
00000170: 2e9a 0c3c 64b4 10bc af6c 46bc 27ba 0d3c
00000180: 7b92 0b3c 5c0f 0c3c e737 3abc 3f0d 173c
00000190: 9c25 0bbc 322f e03b 9f85 123c d25d 0bbc
000001a0: fc27 123c 98e3 4cbc 3629 153c b668 133c
000001b0: 789e 0bbc 74b5 20bc 0bed 12bc 2857 0b3c
000001c0: 843a 0bbc 5a9e 0d3c a345 0cbc 9164 14bc
000001d0: 1498 113c 2db9 0c3c b672 0bbc 55d7 183c
000001e0: 69fb 143c f7dc 11bc 0bd1 113c 2114 0fbc
000001f0: 2c04 1fbc 5c3d 163c 981f 073c 64d8 063c
-0.009043637 -0.009208384 -0.008644682 0.008935231 0.009124307 0.008990499 -0.008943056 -0.008634191
0.0089118695 -0.008992492 -0.008927325 0.008205232 -0.008495522 0.008307994 0.008512899 -0.008939761
0.008014919 -0.009009694 0.0079568885 -0.009061719 -0.008570703 0.008485292 -0.009003727 -0.008578615
0.008795139 -0.011621471 0.008888859 -0.010223208 -0.008985985 0.0073998873 -0.0092103025 -0.009626045
0.004607191 0.008153635 0.008954658 -0.009277919 -0.009135764 -0.010265497 0.008697668 0.008960047
-0.008983697 0.012475341 0.008952853 -0.009013496 -0.00884381 0.008504483 -0.0018258231 -0.009019574
0.009599493 0.00855491 0.0083937 -0.008907601 0.008554974 -0.0089329025 -0.008556011 0.008974978
0.00895697 0.008934998 0.00932091 0.008987482 -0.008261027 -0.008738248 -0.008906857 0.009030626
-0.008482467 -0.008760826 -0.009024592 -0.008872721 -0.008880266 -0.009625103 0.009080243 -0.0082378145
0.010120527 0.010753942 -0.009069987 0.009146987 0.009117415 -0.008746642 -0.009075594 -0.00851342
-0.007655534 0.009693765 0.004082927 0.008557672 -0.008942664 -0.008066928 0.009277091 -0.0091021685
0.009006352 0.008948489 -0.0077286754 0.00927823 0.008581681 -0.008832071 -0.012110873 0.008650339
0.00851881 0.008548584 -0.011365867 0.009219467 -0.0084928535 0.0068415636 0.008942991 -0.008506255
0.008920666 -0.012505434 0.009104064 0.008997133 -0.008521669 -0.009808887 -0.008967648 0.008504666
-0.008497838 0.008643711 -0.008561525 -0.00905718 0.008886356 0.008589071 -0.008511236 0.009328683
0.009093144 -0.00890278 0.008899937 -0.008732826 -0.0097055845 0.009169903 0.008247279 0.0082303025

predict.weight f4 [1, 128]
00000000: 1ecb 65bd b813 49bd 5d0f 77bd bc42 9d3d
00000010: 0ad0 5e3d 0a3b 8b3d 7c4f a5bd bd46 a3bd
00000020: ae05 a83d 6817 7ebd 084a 85bd dd9a 893c
00000030: f9ed 53bd 4b7d da3c 217e 733d 9329 9abd
00000040: 86fd 6a3c c008 40bd 93ad 5f3c 1327 80bd
00000050: 1c36 91bd 6b81 093d d589 5ebd acaa a5bd
00000060: 6751 b33d 5cc3 26bc 4029 b43d 9bb7 86bc
00000070: 567d 91bd ceaa af3b 46c1 38bd cf3d 99bc
00000080: 76b3 37ba 93ed 813c eb92 733d 9eed 2fbd
00000090: 1c23 3ebd d3d1 d0bb 45a1 8f3d bfb0 b03d
000000a0: 1abb a5bc ad11 143c 5fba 9b3d 29e5 8abd
000000b0: 6c6e b2bd 07a6 5f3d 79c3 a63a 736e 86bd
000000c0: fc32 b83c 60ce 903d 7935 0e3d e0df b9bd
000000d0: b326 9f3d d32c adbd 4bde 9abd df39 803d
000000e0: c526 653d 8b82 b03d 21b8 193d bb24 823d
000000f0: 98ee 69bc a2e0 b5bd 719f b2bd ea32 763d
00000100: e776 25bd be07 bdbd c8e6 61bd b403 c0bd
00000110: 73bc a8bd a525 aebc e21b 803d 66ed a8bc
00000120: e9d4 893c a034 503c cbf0 5ebd ff11 223d
00000130: dbeb 783d 9fcd afbd ded0 4abd 74d3 7abd
00000140: 42ec 00bc acaa 5c3c aed8 2abb 7e1d 893d
00000150: 0aae 97bd 4a1d dbbb e4cd 103d 1df9 75bd
00000160: 3dca 6c3d 6a44 a93d 2d8d f4bb 0e48 f83c
00000170: e376 973d ddb5 a7bd d054 41bc 21e3 ad3d
00000180: 8821 3c3d 9b82 a53d 3143 39bc 9068 1b3d
00000190: 0fa8 27bd b342 143b d774 b63d 3d15 09bd
000001a0: 2bd4 ad3d 2e6e 47bc 0ca4 433d b3b4 8b3d
000001b0: 923e fcbc 1fc8 d5bc ad22 abbd c593 973c
000001c0: 3cea fdbc 1c2a 6b3d b443 89bd c70e 81bd
000001d0: e360 bb3d c24b 813d 853e 7abd b6f7 003d
000001e0: 5eb4 2e3d da5f a6bd f2f1 ca3d ddf2 8ebd
000001f0: c1e0 e0bc 53ae 2f3d 7de5 103c c2b8 d33c
-0.05610191 -0.04909107 -0.060317386 0.07678744 0.05439762 0.0679837 -0.08071801 -0.07972477
0.08204208 -0.06203404 -0.06508261 0.016797477 -0.05174062 0.026671072 0.059446458 -0.07527461
0.014342671 -0.046883345 0.013652223 -0.06257453 -0.07090399 0.03357069 -0.054330666 -0.08089194
0.08755761 -0.010178413 0.0879693 -0.016444972 -0.07103984 0.0053609377 -0.045106195 -0.01870623
-0.0007007638 0.015860355 0.059466284 -0.04295122 -0.0464202 -0.0063726692 0.070131816 0.08627462
-0.020230819 0.009037417 0.07603907 -0.0678199 -0.087124676 0.054601695 0.001272305 -0.06564035
0.022485249 0.07070613 0.034718964 -0.09075904 0.07771053 -0.08455815 -0.0756193 0.06261038
0.055945177 0.08618649 0.037529115 0.06354662 -0.014278077 -0.08880736 -0.08721817 0.06010715
-0.040396597 -0.09229992 -0.05515173 -0.09375706 -0.08239069 -0.021258185 0.06255318 -0.020621013
0.016825156 0.012707859 -0.054428857 0.039567944 0.060771804 -0.08584141 -0.049515598 -0.061236814
-0.007868828 0.013468426 -0.0026069093 0.06695078 -0.07406242 -0.006686841 0.035352603 -0.060052026
0.057810057 0.08265002 -0.0074631185 0.030307796 0.07395723 -0.081889845 -0.011800006 0.08490587
0.045930415 0.08081552 -0.011307524 0.037941515 -0.040931758 0.0022622764 0.08909004 -0.03346752
0.084877335 -0.012172265 0.04776387 0.06821575 -0.030791555 -0.026096402 -0.08356223 0.01850308
-0.03099548 0.057413206 -0.067023665 -0.06301647 0.09149339 0.06313278 -0.06109478 0.031486236
0.04265248 -0.08123751 0.09909429 -0.06979916 -0.027450921 0.042890858 0.008843777 0.025844935
