PERGAT_embbedding/data/emb/models/model_dim128_lay2_epo105.pth (torch, 137100 bytes, 7 tensors)

linear.weight f4 [128, 1]
000000 26 fd 29 bf 40 05 a8 be 4e 5b 1e 3f 08 d3 46 bf
       -0.664019 -0.32816505 0.6185807 -0.7766576
000010 f0 25 40 3e 54 61 93 be 84 e7 ae 3e c4 37 cc be
       0.18764472 -0.28785193 0.34161007 -0.39886296
000020 f2 ff 78 3f 1c be 8f be 8e 76 23 bf c2 e3 6d bf
       0.9726554 -0.2807473 -0.63852775 -0.92925656
000030 88 7d 66 3f e0 af d7 be 00 67 da 3e f8 dd 49 3f
       0.90035295 -0.4212637 0.42656708 0.7885432
000040 e8 dd 5e be 58 84 21 3e 9c d3 9a 3e b0 57 19 bf
       -0.21764338 0.15773141 0.3023957 -0.59899426
000050 88 78 89 3e 94 ad f7 be 04 3f 78 3f 28 c0 99 3e
       0.2684977 -0.48374617 0.96971154 0.30029416
000060 34 42 eb be 74 f3 83 be 92 f2 5d bf 8c 22 2d bf
       -0.45948946 -0.25771677 -0.8669826 -0.6763084
000070 90 63 5b bf 60 c2 51 bf 74 31 68 3f 60 8e 54 bd
       -0.85698795 -0.8193722 0.9070046 -0.051893592
000080 e0 9b 21 bf 3e 30 45 3f 78 98 72 bf bc 43 1c 3f
       -0.6312847 0.77026737 -0.947639 0.61040854
000090 dc a3 e5 be b0 b2 59 be 2a d3 07 3f 04 26 1d 3f
       -0.44851577 -0.2125957 0.53056586 0.6138613
0000a0 30 59 7c bf e4 17 6f bf 64 ae 40 bf 0c b2 b1 3e
       -0.9857359 -0.9339583 -0.752661 0.3470615
0000b0 de e4 5e 3f b6 dc 69 3f 86 99 46 3f a6 ab 03 3f
       0.87067974 0.91352403 0.7757801 0.5143379
0000c0 38 2b 82 be 60 38 b5 bd dc 6f e8 be 00 50 3a bf
       -0.25423598 -0.08848643 -0.45397842 -0.7277832
0000d0 a8 70 75 be 98 46 27 3f 00 85 d1 3b b6 4e 22 bf
       -0.23968756 0.6534209 0.0063940287 -0.63401353
0000e0 a4 9b 6a 3f 56 ca 59 3f 30 35 d2 be d4 e9 5c bf
       0.9164374 0.85074365 -0.41056204 -0.86294293
0000f0 dc 2b a6 3e 58 59 ce be dc ba 54 bf a0 15 14 3f
       0.32455337 -0.4030254 -0.83097625 0.578455
000100 00 94 c1 be 22 30 0a 3f 24 9b 67 3f 26 c1 7b bf
       -0.37808228 0.53979695 0.904711 -0.98341596
000110 a6 99 7d bf b0 9a a2 3d 70 78 3a be fe ce 42 bf
       -0.99062574 0.079396605 -0.18210006 -0.76097095
000120 00 d6 b3 bd b8 91 ef 3e 76 a7 75 3f d4 0f 17 3f
       -0.08781052 0.46790862 0.9595865 0.59008527
000130 34 58 0a bf 52 7d 63 bf ec 1c 24 bf 90 db 70 3e
       -0.5404084 -0.888631 -0.6410663 0.23521256
000140 74 4d 2f bf c2 ab 4d 3f 20 5c f5 3e c0 d9 28 3e
       -0.6847756 0.80340207 0.47921848 0.16489315
000150 90 c6 c0 3d dc 34 47 3f ac 95 44 bf 66 ed 71 bf
       0.09412873 0.7781503 -0.7679088 -0.94502866
000160 8e 51 2b 3f 7e c1 13 bf 20 5a 95 3d 48 87 35 bf
       0.6692132 -0.5771712 0.072925806 -0.7090955
000170 9a da 28 bf f6 f9 62 3f b0 5c 2a 3e 26 64 5b bf
       -0.6595856 0.8866266 0.1663692 -0.8569969
000180 e4 66 78 3f 92 2c 60 bf f4 aa 68 3f 70 65 df 3d
       0.97032 -0.8756801 0.90885854 0.109080195
000190 00 e0 2b 39 c8 9b 0b 3e bc fa ec 3e 02 0f 53 bf
       0.00016391277 0.13633645 0.46285045 -0.82444775
0001a0 c8 9c e1 3e 38 54 9b be e2 33 31 3f 20 86 43 3f
       0.44064927 -0.3033769 0.6921979 0.76376534
0001b0 f0 32 37 3e 56 53 23 3f 58 df fe 3e 6c 70 a6 3e
       0.17890525 0.63799036 0.49779773 0.32507646
0001c0 a0 23 b3 bd a4 0a 4a bf e2 d8 1b 3f 46 30 33 3f
       -0.08747029 -0.78922486 0.6087781 0.69995534
0001d0 84 35 a1 be e8 62 75 3f b0 95 99 3d 74 d6 e1 3e
       -0.31486142 0.95854044 0.07499254 0.44108927
0001e0 ae ec 40 3f d8 39 7c 3f bc 69 39 3f 94 b1 2a 3f
       0.75361145 0.9852576 0.7242696 0.6667721
0001f0 f8 c2 2d 3e 20 bd 80 3e d0 0e 43 bf 88 55 51 3e
       0.16968906 0.2514429 -0.7619448 0.20442784

linear.bias f4 [128]
000000 74 36 c1 be 0e 4b 1e 3f f7 04 3b bf e6 34 0b bf
       -0.37736857 0.61833274 -0.7305445 -0.5437759
000010 80 03 d2 3e 6d f1 30 bf bd 45 32 3f ba e0 03 3f
       0.41018295 -0.69118387 0.6963766 0.5151478
000020 c1 ef 88 be 7e ef 70 3f 61 ad 96 3d 7a a3 90 3e
       -0.26745418 0.94115436 0.07357288 0.28249723
000030 56 ee 72 bf d7 86 85 be 97 73 77 bc b5 f8 82 3e
       -0.9489492 -0.26079437 -0.015103242 0.25580373
000040 bf 08 83 bd 67 d9 53 bf c3 88 87 3e 6c a5 b2 be
       -0.063981526 -0.82753605 0.26471528 -0.34891832
000050 5c ec 21 3f 75 3e 66 be e3 3e 8b 3e 97 c6 75 3f
       0.6325128 -0.22484763 0.27196416 0.9600615
000060 18 7b 3f 3f cb 4b 06 bf 05 c0 5b 3f db 85 01 3f
       0.747972 -0.524594 0.85839874 0.5059487
000070 d4 e4 9b be f0 d3 05 3f dd 67 86 bd 5b 3e 70 bf
       -0.3044802 0.52276516 -0.06562779 -0.93845147
000080 8e 19 3b bf b6 c0 38 bf e1 86 16 3f 65 a6 48 bf
       -0.7308587 -0.72169054 0.5879956 -0.783789
000090 71 cd f7 be 04 41 7f be 94 4e 28 bf 73 54 0a bf
       -0.48398927 -0.24927145 -0.657449 -0.5403511
0000a0 62 94 6d 3e 77 6f db be b2 a7 55 3f 37 ee 83 3e
       0.23201135 -0.42858478 0.8345901 0.2576768
0000b0 40 e7 10 bf 72 48 65 bf 7c 42 2d bf d6 b2 b9 bd
       -0.5660286 -0.8956367 -0.6767957 -0.090673134
0000c0 73 01 12 3f 0c ed 28 3f 46 f5 9c bd 88 b8 ff bd
       0.5703346 0.65986705 -0.0766397 -0.124863684
0000d0 20 a8 63 3f b6 51 aa be e7 5d 6f 3f 18 fd 9d be
       0.88928413 -0.33265465 0.9350266 -0.30857158
0000e0 52 26 48 bf 62 79 69 3f a9 33 3b be 9e a0 0a bf
       -0.7818347 0.9120084 -0.18281426 -0.5415133
0000f0 5e da 60 3f 45 8a ac 3d c8 36 62 3f 20 5d d1 3e
       0.878332 0.0842481 0.8836484 0.4089136
000100 cd 76 2e bf d3 ab 05 3c 27 6a 35 3e 49 75 74 3e
       -0.68150026 0.008158642 0.17716275 0.23872866
000110 b1 9c d8 be c4 ec 45 3e b6 bf 3d 3d a4 11 4e be
       -0.42307046 0.193286 0.046325408 -0.20123917
000120 22 f5 4d 3c 77 31 6e 3f b0 16 04 3e 70 b0 c1 be
       0.012570651 0.9304423 0.1289928 -0.37829924
000130 b0 3f 08 bf ec 99 d9 be 19 db 36 bf a5 d1 b0 3e
       -0.5322218 -0.42500246 -0.71428066 0.34534946
000140 5c 97 ae bd a9 59 e3 be 8e 79 9c 3e 98 ad 29 bf
       -0.08524963 -0.44404343 0.3056149 -0.6628051
000150 ad fa 39 3f 07 d0 8e be c9 31 2f 3d f5 09 42 3e
       0.72648126 -0.27893087 0.04277209 0.18949111
000160 10 87 81 3d 2d df 39 3f d7 4d be 3d c6 df 85 3e
       0.06324589 0.72606164 0.092921905 0.26147288
000170 34 3d 0b bf 2c 38 37 be 31 29 7c bf 30 9d 63 be
       -0.54390264 -0.17892522 -0.98500353 -0.22227931
000180 b7 04 13 3f 20 9d 94 3e 4b 78 5b 3f b7 c2 d5 be
       0.5742907 0.29026127 0.8573043 -0.41750118
000190 d1 d5 67 bf 2e 96 64 3f be 53 34 3d 43 e7 a0 be
       -0.9056063 0.89291656 0.044025175 -0.3142644
0001a0 d6 35 ec 3e 7a 37 05 3f 85 18 12 be 2c 19 f5 3c
       0.46134824 0.52037776 -0.14267166 0.02991923
0001b0 e2 ad 85 be 2a db 38 bf 88 8b f4 3e 0e 2a 3a be
       -0.26109225 -0.7220942 0.47762704 -0.18180105
0001c0 ac 0f b7 3e d8 c7 f6 3e 71 e3 29 3f 79 f8 7e be
       0.35754144 0.48199344 0.66362673 -0.24899472
0001d0 fa ba a8 bd 5a b3 e7 3e 35 20 0f 3f fb 05 c4 3d
       -0.08238788 0.45254022 0.5590852 0.09571453
0001e0 98 48 47 be 9b c5 6f 3f f3 32 a0 3c 6f ca 40 bf
       -0.19461286 0.93660897 0.019555544 -0.7530889
0001f0 56 aa 8e bd cf c9 41 3f 40 3c 4a 3f 67 f3 c2 be
       -0.06966083 0.7569856 0.78998184 -0.38076326

conv_0.weight f4 [128, 128]
000000 23 96 eb 3d 24 76 57 bd 03 3a 01 be 1f ec fa 3d
       0.11503246 -0.052602902 -0.12619786 0.12252068
000010 7a 88 6f bd 0b 92 59 3d 0f d1 44 3d e6 48 05 be
       -0.058479764 0.053117793 0.048050936 -0.1301609
000020 e1 79 a5 bc 2b 63 9b 3d 2c fd 36 bd 96 e3 8e bd
       -0.020199718 0.07587274 -0.044675037 -0.06977002
000030 87 ef 8e bd d6 c5 d9 3c 3e 43 92 bd 1e 6a c3 bd
       -0.0697928 0.026583593 -0.07141732 -0.095417246
000040 55 19 cc 3c e1 64 d0 3d 76 f0 d2 3d d1 68 9b bd
       0.024914423 0.10175491 0.102997705 -0.075883515
000050 15 45 5f bd 1d 14 35 3c 51 85 b9 3d c0 f7 c1 3d
       -0.05450924 0.011052159 0.09058631 0.09471083
000060 e4 03 f8 bd fe f9 b7 3b 95 af 56 bd 56 02 cd 3d
       -0.12110117 0.005614518 -0.05241354 0.10010211
000070 71 81 31 bd b3 b6 bf 3d b2 d8 8d bc 05 c5 2d 3c
       -0.043336336 0.09361019 -0.017315242 0.010606055
000080 a9 23 98 3d 1e 0a ca 3d 96 eb 1f 3d 51 0b 02 3e
       0.07428677 0.09865211 0.03904303 0.1269963
000090 9a 29 82 bd 3d 0a 4d bd 13 6e 67 3c f0 ee 0d be
       -0.06355591 -0.050058592 0.014125365 -0.13860679
0000a0 4b e5 69 bd 8d 67 4d bd c0 7a ff bd a5 1f e4 bd
       -0.057103436 -0.05014758 -0.124745846 -0.11138848
0000b0 15 0d ab 3d 25 f6 52 3d fe 10 22 3d f5 e0 16 be
       0.083521046 0.051504273 0.039566986 -0.14734252
0000c0 c8 72 ab bd 8b 47 7a bd 16 59 70 bd 5c 64 b6 bd
       -0.08371502 -0.061103385 -0.05867871 -0.08905861
0000d0 1c 74 2a bd 5d 04 82 3c dd 94 04 3e 45 d5 89 3d
       -0.041614637 0.015871221 0.12947412 0.06730131
0000e0 fa bf 9c 3c cb d3 0c 3d 39 07 e4 bd 23 ab 0d bd
       0.01913451 0.03438167 -0.1113419 -0.034587037
0000f0 93 c8 0f 3d 21 71 13 be 40 4e cb bd 1a 12 eb bd
       0.03510339 -0.14398624 -0.099270344 -0.11478062
000100 db d3 5d bc 8f 82 2e 3c 90 05 ff bd 92 4e 14 be
       -0.01353928 0.010651245 -0.12452233 -0.14483097
000110 b2 c0 87 bd 7a 0e 0b 3e 72 65 0b be 3f 46 b6 bd
       -0.066285506 0.13579741 -0.13612917 -0.08900117
000120 71 af 12 be 91 56 ca bb 01 99 49 3d a6 de b1 3d
       -0.14324738 -0.0061748703 0.04921818 0.08685045
000130 01 7a af 3d 0b 5f 0c bd 3b 09 16 be c4 c4 f7 bc
       0.08568192 -0.034270328 -0.14651959 -0.030245192
000140 d1 b2 3b bd df c9 2a bd 35 8b ef bd 56 f9 e5 bd
       -0.04582483 -0.041696426 -0.116964735 -0.11229198
000150 7b 09 80 bd 1d 03 ba bd 1d 0f 45 3d 6a 06 ec 3d
       -0.06251808 -0.09082625 0.048110116 0.11524661
000160 ff cf e1 bd ed 0b fe bc 43 87 91 3b 19 46 83 bd
       -0.11026 -0.031011546 0.0044411733 -0.064098544
000170 2a 01 da 3c 95 75 33 bd 38 03 93 3c 04 6b 49 ba
       0.026611883 -0.043813307 0.01794587 -0.0007683488
000180 46 5f 1a 3d b2 93 1a be 18 a8 b6 3d 6b 80 b6 3c
       0.037688516 -0.15095404 0.0891878 0.022278031
000190 1a 40 9b bd d8 50 f5 39 f1 db 29 3d 68 11 fd bd
       -0.07580586 0.00046790275 0.041469518 -0.123568356
0001a0 55 10 b3 3d 46 19 e8 bd 20 65 f9 bd 10 6b 59 bd
       0.087433495 -0.113329455 -0.12177491 -0.05308062
0001b0 8b be e2 bd e4 82 8d 3c 45 2f 08 be f7 96 52 3d
       -0.110714994 0.017274328 -0.13299282 0.051413503
0001c0 51 d9 f0 bc 12 89 a9 3d 0e 49 db 3d d6 1d cc bd
       -0.0294005 0.08278097 0.107072935 -0.09966628
0001d0 a3 20 d7 bd 3e 17 a8 bc 03 ff 06 3d 5f ce 1d 3e
       -0.10504272 -0.020518895 0.032958042 0.15410756
0001e0 5c ea 08 be a7 b0 f9 bd 4b b4 10 3d d8 41 fe bd
       -0.13370651 -0.12191897 0.03532819 -0.124149024
0001f0 c5 6f c4 bd a0 45 f2 3c ee a1 07 3b aa cf ee 3d
       -0.09591631 0.029574215 0.0020695883 0.116607025
000200 92 58 e3 3d 50 81 f8 3d 0b 18 1a bc 82 a0 a9 3d
       0.11100878 0.121340394 -0.009405146 0.082825676
000210 d8 7a ef bb ad 31 bb bc bf e8 e1 3d a4 9e 03 3e
       -0.0073083453 -0.022850836 0.11030721 0.12853485
000220 1c a3 08 be 25 dc ed 3d 9e ec de 3c de 7f 16 3e
       -0.13343471 0.11614255 0.027212437 0.14697215
000230 89 4c df bd a1 6a 42 3d 06 38 92 bd d5 87 0b bd
       -0.1090327 0.04746497 -0.07139592 -0.034065086
000240 54 48 d6 3d 4d 4d aa bd b8 c2 18 be 7b ad 85 bd
       0.10463014 -0.08315525 -0.1491803 -0.065272294
000250 4a f8 8b 3d 42 39 0e be 64 7d 64 bd 1d c1 51 3c
       0.06834467 -0.1388903 -0.055783644 0.012802389
000260 7d 58 01 3e fe ff 62 bc 6a fa d8 bd 2d 94 e4 3c
       0.12631412 -0.013854979 -0.10594638 0.027902687
000270 1d aa b3 3d 37 f0 8f bd c7 7e 02 3e 50 c3 bd 3d
       0.08772681 -0.07028239 0.12743674 0.092657685
000280 38 93 00 bd 2c a0 d4 bd e7 4d 04 3d e3 2e d8 bd
       -0.0313904 -0.10382113 0.032300856 -0.10555818
000290 59 eb 7a bd 84 42 e8 bd 00 5b 76 3d 5a 52 c0 bd
       -0.0612596 -0.11340812 0.060145378 -0.09390707
0002a0 23 3f b3 bd a5 b4 53 3d 73 12 25 bd 80 f8 61 bd
       -0.08752277 0.051685948 -0.040300798 -0.05516863
0002b0 6d ab e5 bb 65 bb 08 3e 77 cf 97 3c 89 a4 7e 3d
       -0.007008961 0.13352735 0.018531544 0.06216863
0002c0 42 d0 49 bc e3 47 36 3d e1 d6 04 bd f7 80 2c 3d
       -0.012317719 0.04450215 -0.032431487 0.042115178
0002d0 ca 94 be bd 7a 76 90 3d bc bd 91 3b 11 a2 02 3e
       -0.09305723 0.070538476 0.004447667 0.12757136
0002e0 4e f2 d6 bd ce 15 aa 3d e5 cd 0a bd f5 df 07 3e
       -0.10495435 0.0830494 -0.033887763 0.13269027
0002f0 e2 fb a3 bd 62 b5 d6 bc f4 f8 f2 bd 16 c2 06 be
       -0.08007027 -0.026209537 -0.1186389 -0.13159975
000300 d1 ad cb bd 1a 15 ae bd 10 b0 dd 3d a5 8d 18 3e
       -0.09945262 -0.085001186 0.10824597 0.14897783
000310 04 2a 8b bd 25 10 0c 3d 45 61 cc 3c e9 05 1e bd
       -0.06795123 0.034195084 0.024948725 -0.038579855
000320 89 db 2d 3d f1 0a 17 be 2b a2 f6 bd 93 92 df bd
       0.042445693 -0.14750268 -0.1204265 -0.10916629
000330 56 c8 b0 3c ce a7 15 3e 87 fa f2 bb 03 46 16 bc
       0.021579903 0.14614794 -0.007415119 -0.0091719655
000340 d2 93 1c 3e a5 fd 8f 3d 0f 29 01 bd c7 9e 4c 3d
       0.15290764 0.07030801 -0.031533297 0.04995611
000350 5d 73 a3 bd 3d 23 3f bd 4c 92 a0 3c 38 6f c6 bd
       -0.07980988 -0.046664465 0.01960101 -0.09689182
000360 8a 75 c4 3d 85 51 3b bd f1 6f 77 3d 47 e6 00 3e
       0.09592731 -0.04573204 0.06040949 0.12587844
000370 ee 2d 02 be 30 07 8b 3d be 2c 2e 3c 82 f7 dc 3d
       -0.12712833 0.0678848 0.010630785 0.10789396
000380 22 3f 80 3d 23 cd 1a 3e 8b f7 04 3d ce ae 74 3d
       0.06262042 0.15117316 0.032462638 0.05973702
000390 66 51 ba 3d 71 d6 d7 3c 8c fe 92 3d 5e 33 07 3d
       0.09097557 0.02634737 0.07177457 0.033007972
0003a0 4e 36 b4 bc aa d5 b2 bd a5 da 3c 3d b6 07 a3 bd
       -0.02199855 -0.087321594 0.046106953 -0.07960455
0003b0 86 72 56 3d 08 17 fd bc c5 74 0f 3e eb 13 b3 bd
       0.05235531 -0.030894771 0.14009388 -0.087440334
0003c0 e6 76 fb bd 0b 23 20 bd b9 41 c8 3d f8 47 f6 bd
       -0.122785375 -0.03909592 0.097781606 -0.12025446
0003d0 eb f3 97 3d ac 0c 85 bd ea 16 03 3e 47 b9 0c 3e
       0.074195705 -0.064965576 0.1280171 0.13742553
0003e0 fc d8 94 bd 97 78 b2 3b b5 bb 16 be 27 0a fa bd
       -0.07267949 0.0054465043 -0.14720042 -0.12208968
0003f0 a0 22 16 3e cf 6f 18 3e 96 89 28 bd 58 73 0d bc
       0.14661646 0.14886402 -0.041146837 -0.008633457

conv_0.bias f4 [128]
000000 b1 a3 1c 3c 52 c9 24 3c 28 f0 16 3c c7 1d 15 3c
       0.009560511 0.010057764 0.009212531 0.009101338
000010 85 f7 5f ba f7 c1 50 3c 44 66 32 3c 80 f2 19 bc
       -0.0008543658 0.012741557 0.01088864 -0.009396195
000020 e4 dc 2b bc e3 9a b6 3b 68 5d 32 3c d4 02 20 3c
       -0.010489676 0.005572663 0.010886528 0.009766299
000030 71 41 22 bc d3 87 f3 ba 51 e5 dc 3b 95 2a 2a 3b
       -0.009903298 -0.0018579907 0.006741204 0.0025965322
000040 da 08 45 bc b2 f0 42 3c 88 82 3b bc ba d2 97 bb
       -0.012026036 0.011898207 -0.011444695 -0.004633275
000050 fd b5 c4 bb d2 e4 48 bb e7 dd 13 bc aa 3d 27 bc
       -0.00600314 -0.0030653966 -0.009025074 -0.010207573
000060 50 2a 17 3c b2 18 df bb 02 d8 43 3c e3 04 0f bc
       0.009226397 -0.006808364 0.011953356 -0.008729192
000070 7d d1 3a bc a8 87 d6 bb 4a da 16 3c 5f 4b 48 bc
       -0.011402485 -0.006546933 0.009207318 -0.012225001
000080 9d b7 30 3b f0 f5 22 3c 4a cd 37 3c 4e c5 51 bc
       0.002696491 0.009946331 0.011218378 -0.012803389
000090 99 e1 fc bb 25 60 78 ba 26 ff 28 3c 2a c3 4e 3c
       -0.007717323 -0.0009474776 0.010314738 0.012619773
0000a0 5f 7b 65 3b f2 51 18 bc f7 c0 b8 bb ea 3e 26 3c
       0.0035016162 -0.009296881 -0.0056382376 0.010146836
0000b0 31 c7 93 bb 24 4d 21 3c c2 a8 a8 bb e9 4d 1a 3c
       -0.0045098295 0.009845052 -0.0051470706 0.009417989
0000c0 87 58 e9 bb 64 f7 b6 bb d3 fb 0b 3b 08 f1 00 3b
       -0.007121149 -0.0055836905 0.0021359816 0.0019674916
0000d0 2f 89 13 bc 49 e1 1b bc a1 15 34 3c c7 61 1f bc
       -0.009004875 -0.009514161 0.010991485 -0.009727902
0000e0 e1 91 20 3c ff a9 e4 bb f0 fa 4f bc eb 2a 97 bb
       0.009800405 -0.006978273 -0.0126941055 -0.0046132705
0000f0 42 2f 29 3c 43 7c 7e bb e5 bc b6 bb 22 1e 42 bb
       0.010326209 -0.003883139 -0.005576717 -0.0029620011
000100 74 96 3a 3c fe 83 51 3c 3e a5 a4 bb b6 bc 1e 3c
       0.01138841 0.012787817 -0.005024581 0.009688547
000110 1e 61 9b ba 15 6c c9 bb cc 13 24 3b e7 69 86 bb
       -0.0011854505 -0.0061469176 0.0025036214 -0.00410198
000120 09 e2 42 bb a8 d0 1b bb 80 0c 40 bc dd 6b 19 3c
       -0.0029736778 -0.0023775492 -0.01172173 0.0093640955
000130 65 31 1d 3c 8a 55 15 3c 8e 9f 43 3c bc 89 21 3c
       0.009594296 0.009114632 0.011939896 0.009859499
000140 58 f6 45 3c bf 75 4a bb d4 fd 2e 3c c1 9d 12 bc
       0.012082659 -0.0030892936 0.0106806345 -0.008948744
000150 0a e4 4c 3c 73 de 25 bc 5a 6c 1b bc 62 06 05 bc
       0.012505541 -0.010123837 -0.009486282 -0.008119198
000160 28 ea 55 3c 60 bf 40 bc b9 61 5a 3c 92 7d 34 bc
       0.0130563155 -0.011764377 0.013328963 -0.011016266
000170 b8 f4 35 3c 80 e0 4e 3c 93 e0 3a bc c3 7b 3d bc
       0.011105709 0.012626767 -0.011406082 -0.011565152
000180 5c 1e 3c 3c 0c 19 35 3c 65 26 23 3c 9b 29 6b 3a
       0.011481848 0.011053335 0.009957884 0.0008970738
000190 38 29 20 bb 39 54 d6 3b aa df a2 bb f4 92 c6 3b
       -0.002443863 0.006540802 -0.0049705105 0.0060599986
0001a0 c8 ab ee 3b c7 80 11 bc 47 ef 39 3c ad 3c d6 3b
       0.0072836615 -0.008880801 0.011348552 0.006537995
0001b0 b9 87 6b 3b ee 39 db bb 90 f6 de bb 62 1b 31 bc
       0.0035939051 -0.0066902554 -0.006804295 -0.010809751
0001c0 51 36 21 3c 27 2b 5a 3c aa 85 13 3c f0 02 4d 3c
       0.00983961 0.013315952 0.009004036 0.012512907
0001d0 69 42 44 bc b2 dd 1b bc 58 7a 3a bb 2e 35 1c bc
       -0.011978724 -0.0095133055 -0.002845427 -0.009534163
0001e0 35 a7 1d bc 2d a8 0e bc 36 0f 19 bc 28 d3 59 3b
       -0.009622385 -0.008707088 -0.0093420055 0.0033237431
0001f0 aa 33 24 3c 63 54 1f 3c 04 20 7c ba 91 ef 12 bb
       0.010022083 0.009724709 -0.0009617808 -0.0022420625

layers.0.weight f4 [128, 128]
000000 4a 2b 9f 3d 0a fb 19 3e 1c d1 81 3d a5 5d ed bd
       0.077719286 0.1503717 0.063387126 -0.11590127
000010 b4 c6 06 3e fb 3c e2 3b d3 fc b8 bc f4 f6 dc bd
       0.13161737 0.006904242 -0.022581493 -0.1078929
000020 c3 a6 c3 bd 36 51 42 bc 36 e7 1d be 76 ac 03 be
       -0.09553292 -0.0118601825 -0.15420231 -0.12858757
000030 4c d1 59 3d 0d 87 a6 bd f9 97 08 be e0 92 1d 3d
       0.053178117 -0.08131228 -0.13339223 0.03847015
000040 ed 04 e4 3d 87 ef 48 3b f4 a1 fd 3d cc b3 85 3c
       0.11133752 0.0030660348 0.12384406 0.016321085
000050 86 e0 89 3b 19 07 62 3d cb 16 8b bd 34 af f9 bc
       0.0042076735 0.05518255 -0.06791457 -0.030479051
000060 a6 e1 1f 3e 56 d9 e7 3d d5 b5 06 3e f3 b3 9c bd
       0.15613422 0.113207504 0.13155301 -0.0765151
000070 b4 a6 b3 bc e8 1b af 3d d6 26 d2 3d 97 35 a3 bc
       -0.021930076 0.085502446 0.102613136 -0.019923015
000080 fb e2 00 be 92 72 f6 3d 6d 75 f6 3d 6a 6c 0c be
       -0.12586586 0.12033571 0.12034116 -0.13713232
000090 47 53 e7 bb dd ac 58 bc b0 0c 27 38 81 83 7d bc
       -0.007059488 -0.013224808 3.982772e-05 -0.0154732475
0000a0 36 87 22 3e 43 77 ba 3d fd 45 00 be d7 da 07 bd
       0.15871891 0.091047786 -0.12526698 -0.033167686
0000b0 1c 34 97 bd b9 bc 3b bc 96 3d e8 3d f3 fc d3 bd
       -0.07382986 -0.011458569 0.113398716 -0.103509806
0000c0 b9 54 11 be c7 ec 09 bc 3b ca 3e bd 52 48 e4 bb
       -0.14192475 -0.0084182685 -0.04657958 -0.006966629
0000d0 95 d4 0b 3d f4 89 cf 3d e9 7f 0f be d5 39 01 3e
       0.03413828 0.10133734 -0.14013638 0.12619717
0000e0 c8 7b 54 3d 38 91 7b 3d 19 31 d5 bc fb 2c 6a 3d
       0.05187586 0.06141779 -0.026024388 0.057171803
0000f0 e4 ff c1 3a d1 d2 de 3d 56 8b c9 3d 79 5c a7 bc
       0.0014800993 0.10880054 0.09841029 -0.020429837
000100 0a ea e3 bd bb 22 64 bd 3c 0b d2 3d 30 70 f4 3d
       -0.11128624 -0.055697184 0.10256049 0.119354606
000110 07 b9 ac 3c 2d 8e ab 3b 7c 06 f3 3d 79 d8 3a 3b
       0.021084322 0.0052354545 0.11866471 0.0028510375
000120 0e f2 f7 bd 7e 44 16 bd 02 60 fd 3d 7f 1a 90 bc
       -0.12106715 -0.036686413 0.12371828 -0.01759076
000130 42 46 d2 3c 04 4d 00 3b 3d b8 0a be be 51 bc b9
       0.025668267 0.0019577155 -0.13546844 -0.00035919057
000140 10 a9 24 3e 9c 8f 8c bc b1 47 d9 3d 61 2c 1e 3d
       0.16080117 -0.017158322 0.10609377 0.03861654
000150 60 d7 9b bd cb 01 7c 3c fa fe 8a bd 1c 0d 3d 3d
       -0.07609439 0.015381287 -0.06786914 0.04615508
000160 5c 40 af bd 0d a7 9f 3d 1c 6d cb 3d 59 23 91 3c
       -0.085571975 0.07795534 0.0993292 0.01771705
000170 ed e4 13 3c e9 7a d0 3d 86 c1 be bd c0 35 fa bd
       0.009026748 0.10179693 -0.093142554 -0.12217283
000180 4b 71 8b 3d 32 f5 c5 bc 9a e3 09 3e 14 84 cd bd
       0.06808718 -0.02416477 0.1346573 -0.100349575
000190 bf ca 15 be 5a f3 d9 3d ab fc dd bb a8 fa 21 be
       -0.14628123 0.10642119 -0.006774505 -0.15818274
0001a0 06 42 f9 bc d3 b9 73 3d 76 1e 15 bd a5 13 bd 3d
       -0.03042699 0.059503388 -0.036406003 0.092322625
0001b0 49 dc 08 be df 20 aa 3d 66 91 49 3d b1 5c 03 3e
       -0.13365282 0.08307051 0.04921093 0.12828328
0001c0 28 d3 d3 3c d8 85 20 3e cd dd f4 bd 46 e3 24 be
       0.025857523 0.15676057 -0.11956368 -0.16102323
0001d0 fb cd 03 be 09 3b 00 3e f3 5a ce 3c 8b db 07 3c
       -0.12871544 0.1252252 0.025189852 0.008292089
0001e0 4c 82 5b bd e8 90 4f bc 51 60 14 be a5 d3 be bd
       -0.053591058 -0.012668826 -0.14489867 -0.09317712
0001f0 15 76 51 bd 90 0d 95 3c a2 2b a7 bd 95 6c fc 3d
       -0.051138002 0.018194944 -0.08162619 0.12325398
000200 e9 6f 14 3e 08 73 7a bd 22 6f 8d bd 7e 59 c9 bd
       0.14495815 -0.06114486 -0.069059625 -0.098315224
000210 66 e2 05 3e 43 45 ad bd 4d 2e 79 bd 45 ec 4f 3d
       0.13074645 -0.08460476 -0.06083517 0.050762434
000220 3a 5c 8f 3c bd 2d d4 3d 23 0a 01 3e b4 35 a0 bd
       0.017500032 0.103602864 0.12601523 -0.07822743
000230 47 5c a4 3c ad c7 13 3e 9d f4 fc bd e2 42 1b be
       0.020063533 0.14431639 -0.12351344 -0.15162233
000240 b5 ce d1 3c 6d fe 0d 3e 9f 74 79 bd 91 48 e2 bd
       0.02561126 0.13866587 -0.060902234 -0.11048997
000250 2f fc 13 3e 7e 8c ed 3d 74 30 60 bc 16 52 fa 3d
       0.14451669 0.115990624 -0.013683427 0.12222688
000260 43 51 a4 bd 9a c1 99 bd 6a 00 9b bd 88 f4 bd 3c
       -0.08023312 -0.0750763 -0.07568438 0.02318789
000270 55 11 d4 bc 9b b9 f7 3d 71 79 e4 3d de 39 c6 bc
       -0.02588717 0.12095948 0.111559756 -0.024197515
000280 46 b7 a8 bd 7e 5d 08 be c2 bf c7 bd 3f 41 7f 3d
       -0.08238082 -0.13316914 -0.09753372 0.062318083
000290 2f 77 17 3e cf 42 ff 3d 2e 1d 22 be c5 50 1d be
       0.14791559 0.124639146 -0.15831444 -0.15362842
0002a0 a7 90 f7 bc 7c 8a cf 3d 6a 27 05 be 44 f1 af 3d
       -0.030220343 0.10133836 -0.13003317 0.0859094
0002b0 3f c4 8c 3d db 3f 9a bd 21 74 c1 bd 01 41 fc b8
       0.068733685 -0.07531711 -0.09445978 -0.00012028404
0002c0 77 60 e8 3d 9c bc 66 3c 64 a8 65 bd 92 db d5 bc
       0.11346524 0.014083054 -0.056068793 -0.026105676
0002d0 36 c8 b6 3d c7 16 9d bd 87 70 84 bd 66 2e e1 bd
       0.08924906 -0.0767036 -0.064667754 -0.10995178
0002e0 5d 95 87 3d e6 8f 1f 3e 7c c1 1e 3e c4 03 1e be
       0.06620286 0.15582237 0.15503496 -0.15431124
0002f0 2b 54 86 3c bd 1e 03 3d 2f 77 6d bd 0a 2d 12 3d
       0.016397556 0.032011736 -0.05797499 0.035687484
000300 f0 e5 76 bd 5f 18 04 3e 3f 73 c6 bd f4 cb 8c bd
       -0.06027788 0.12899922 -0.0968995 -0.068748385
000310 bc f1 da 3d 0e 74 fa bd bd ef 2f bd 08 a1 24 3e
       0.106906384 -0.12229167 -0.04295324 0.16077054
000320 0d 19 b2 3d 3b 19 3e bd e9 b4 6f 3c 35 fd 42 bd
       0.08696184 -0.04641078 0.014630535 -0.04760476
000330 6c 6a 8c bd ef 8a ce 3d 59 ff d8 3c a6 87 61 3c
       -0.06856236 0.10085093 0.026488947 0.013765251
000340 24 f9 9c 3c 72 1d f0 3d 7e 5a 1c 3e 58 34 81 3d
       0.019161768 0.11724366 0.15268895 0.06308812
000350 01 16 d8 3d 17 91 e6 3d ed 3a 07 be d0 9f 2b 3c
       0.10551072 0.112581424 -0.13206072 0.010475114
000360 01 6f 96 bd 75 02 55 3d 72 f1 a7 3d bc 71 0e 3d
       -0.07345391 0.052004296 0.08200349 0.034776434
000370 54 76 41 bc b6 1b ac 3d 88 9e 9d bc b3 64 ab bd
       -0.011807997 0.08403723 -0.019240633 -0.08368816
000380 4d 0d d2 3d 20 f8 1c 3e 48 d5 8c bc ab 09 bf bc
       0.10256443 0.15329027 -0.017191544 -0.02332004
000390 9d 8f 09 be dc e0 c0 3d b5 f5 67 bc f8 32 92 bc
       -0.1343369 0.094178885 -0.014157702 -0.01784657
0003a0 ed eb d7 bb 5a 79 f5 3d ef b0 bd bd 07 8e 24 be
       -0.006589404 0.119860366 -0.09262263 -0.16069804
0003b0 b0 be 09 be 51 fa f5 3d fd 7a 8e 3d 6e 09 d6 3d
       -0.13451648 0.12010635 0.06957052 0.10451017
0003c0 31 42 8f bd e2 b7 1b bd 08 f7 01 bd b5 df a4 bb
       -0.06995047 -0.03801716 -0.031729728 -0.005031551
0003d0 44 d2 91 3c 12 ef 8e bd 07 1b 24 3e 88 b0 d2 3d
       0.017800458 -0.06979193 0.16025935 0.10287577
0003e0 3a c2 e5 3d 91 6f 3a 3d 31 d6 b3 bc 8f 98 0a be
       0.112186864 0.045516554 -0.02195272 -0.13534759
0003f0 96 98 b6 3c 55 2c ed bd 44 90 fb bc 3b 5c 70 bd
       0.022289556 -0.11580721 -0.03070844 -0.058681708

layers.0.bias f4 [128]
000000 50 0e 17 3c 70 03 ce 3b c0 59 0a 3c 4a f9 19 bc
       0.009219721 0.006287031 0.00844425 -0.009397814
000010 13 2b 0d bc d8 f1 37 3c 58 af 15 3c d4 1d 06 3c
       -0.008616227 0.011227094 0.0091360435 0.0081858225
000020 f1 df 22 bc 47 72 16 bc 1c da 0f bc 0b 06 2e bc
       -0.009941087 -0.009182519 -0.008780029 -0.010621558
000030 66 6c 04 bc ad 10 18 3c 87 00 16 bc 86 0f 38 bc
       -0.008082485 0.00928132 -0.009155399 -0.01123417
000040 7d 4e 18 bc 98 7c 19 3c 63 c3 15 3c 53 a7 25 bc
       -0.009296057 0.009368084 0.009140822 -0.010110694
000050 73 ef 0e 3c 1e 26 19 bc bd b9 13 bc da 39 06 bc
       0.008724081 -0.009347467 -0.009016451 -0.008192504
000060 8e 5d 19 3c cd 06 0d 3c bb 90 10 bc 5a dd 17 bc
       0.009360684 0.008607578 -0.008823569 -0.009269083
000070 72 2d b0 3b 62 fa 19 3c 2c d8 0e bc 0c 48 14 3c
       0.0053765113 0.009398075 -0.008718532 0.00905038
000080 82 6a 14 bc d2 a2 14 bc 5a 8e 15 bc cb a5 0f bc
       -0.009058597 -0.0090720225 -0.009128178 -0.0087675555
000090 6d a3 14 3c 42 05 06 bc eb df 14 bc 62 73 14 bc
       0.009072167 -0.0081799645 -0.009086589 -0.0090607125
0000a0 5b ad 14 3c 99 ae 0f bc 40 90 0e bc f8 39 fe bb
       0.009074534 -0.008769655 -0.008701384 -0.0077583753
0000b0 bd fb 0a bc 30 a2 10 bc 48 16 fc bb 51 7c 20 bc
       -0.008482871 -0.008827731 -0.007693086 -0.009795264
0000c0 65 af 18 3c c0 15 0d bc 79 d4 1d bc 7b ee 12 3c
       0.009319161 -0.008611143 -0.009633177 0.008967991
0000d0 3b 3b 14 3c 0a 39 1f 3c e2 6c 0d bc 53 60 16 3c
       0.009047325 0.009718189 -0.008631917 0.009178239
0000e0 86 33 26 bc 54 21 28 3c 74 d1 14 3c 1a 19 1e bc
       -0.01014412 0.010261852 0.009083141 -0.009649539
0000f0 dc 28 0d 3c 36 aa 14 3c 13 81 10 3c d0 28 14 bc
       0.008615699 0.009073785 0.008819836 -0.009042934
000100 cd 0e 17 bc b6 2c 16 bc ed 2f 15 3c e3 6e 0e bc
       -0.009219837 -0.009165933 0.009105665 -0.00869343
000110 25 75 0a bc e5 1f 14 bc bf 96 11 3c af 1c 16 3c
       -0.008450781 -0.009040807 0.008886038 0.009162112
000120 85 86 2a bc 83 de 15 3c 9a a3 15 3c 6b ba 08 bc
       -0.0104080485 0.009147289 0.009133244 -0.008345227
000130 23 68 4d 3c 82 58 0e bc e3 61 18 bc b3 d1 28 bc
       0.012537035 -0.008688094 -0.009300682 -0.010303902
000140 de ea 29 3c c7 a5 0d 3c 93 c1 14 3c c2 b8 0e bc
       0.010370938 0.008645481 0.009079355 -0.008711042
000150 39 67 2e 3c e2 4a 1f bc a2 1b 14 3c 58 2c 13 3c
       0.010644727 -0.009722443 0.009039791 0.00898274
000160 f2 e3 18 bc 3e 95 14 bc 04 b4 10 3c b1 19 1b bc
       -0.00933169 -0.009068785 0.008831982 -0.0094665745
000170 88 5a 07 3c 7d 45 14 3c 1a a6 0e 3c 7e 6b 23 bc
       0.00826133 0.00904977 0.008706594 -0.009974359
000180 0a 67 0e 3c 52 12 15 3c fb 02 19 3c 5d ee 20 bc
       0.008691559 0.009098606 0.0093390895 -0.009822455
000190 7b 31 13 bc 00 c0 14 bc fc 16 14 3c f9 f7 20 bc
       -0.008983965 -0.0090789795 0.009038683 -0.009824746
0001a0 e7 6b 0e bc 26 6b 25 3c 2e 51 1e 3c e1 ab 11 bc
       -0.008692718 0.010096347 0.009662909 -0.008891077
0001b0 56 00 0d 3c af c0 1e 3c f5 ac 14 bc 2c c2 0f bc
       0.008606037 0.009689494 -0.009074439 -0.0087743215
0001c0 e9 04 14 bc 51 79 26 3c b3 51 0b bc 32 70 12 bc
       -0.009034374 0.01016076 -0.008503365 -0.008937882
0001d0 8c 47 16 3c a4 34 14 3c 40 17 14 3c 0f 30 0f bc
       0.009172332 0.009045754 0.009038746 -0.008739485
0001e0 5a a1 13 bc e0 49 14 bc db 66 1c bc 4c 2d 3c bc
       -0.009010637 -0.009050816 -0.009546007 -0.011485409
0001f0 f8 da 14 bc 1d 1d 1d bc c4 8b 1c 3c 5f fc 0d bc
       -0.009085409 -0.009589461 0.009554807 -0.008666127

predict.weight f4 [1, 128]
000000 0e 0a 63 3d a4 f7 d9 39 40 7d b1 3c d7 17 19 bd
       0.05542951 0.00041573972 0.02166617 -0.03737625
000010 27 61 25 bd 2b 60 44 3c 8c b5 8c 3d 83 a0 8c 3c
       -0.040375855 0.011985819 0.06870565 0.017166382
000020 f3 2a b5 bc 90 a9 7d bd 26 4b b2 bd 74 9b 83 bc
       -0.022115206 -0.061929286 -0.0870574 -0.016065337
000030 89 dc 54 bc 2e 69 25 3d 91 49 5a bd d6 54 99 bc
       -0.012992033 0.04038351 -0.053292815 -0.01871721
000040 6e ad 22 bd 4b 24 15 3d de 73 8c 3d d3 78 8f bc
       -0.039716177 0.036411565 0.068580374 -0.017513668
000050 64 bc 93 3d 74 47 40 bd 84 da ae bd b2 fe 83 bc
       0.07213667 -0.046943143 -0.08537772 -0.01611266
000060 28 bb 26 3d c3 4b 56 3d c2 f2 b6 bd 23 66 45 bd
       0.04070583 0.052318346 -0.08933021 -0.04819311
000070 cb 9b 88 b9 3a a1 2a 3d 07 ec 41 bd cb 2c be 3d
       -0.00026056016 0.041657664 -0.047344234 0.09285887
000080 e8 70 9c bd 48 81 98 bd 81 97 ac bd 28 ce a3 bd
       -0.07638723 -0.074465334 -0.084273346 -0.079983056
000090 a4 e9 b0 3d 0b 79 f9 bb 15 40 8c bd aa f4 94 bd
       0.086383134 -0.0076133064 -0.0684816 -0.072732285
0000a0 a6 70 81 3d d8 30 af bd 3f 1f 1b bd 78 10 06 bc
       0.06320314 -0.08554238 -0.037871595 -0.008182637
0000b0 a2 20 10 bd c3 89 84 bd 41 17 f2 bb b9 d4 d6 bc
       -0.03518737 -0.064715885 -0.007388026 -0.026224481
0000c0 2a 7b 1e 3d 6b 05 2f bd 6c 04 cc bc 33 6e ba 3c
       0.038691677 -0.042729776 -0.024904452 0.022757625
0000d0 af d6 a1 3d f9 ec ee 3c a2 40 82 bd 64 0e 74 3d
       0.07902276 0.029165732 -0.06359984 0.059584036
0000e0 35 0e a7 bc ab 85 88 3c 6c fc a3 3d 9e 26 d0 bc
       -0.020392517 0.0166653 0.0800713 -0.02540904
0000f0 6d e2 72 3d a6 93 97 3d 42 5f 29 3d 16 bf af bd
       0.059297968 0.074012086 0.04135061 -0.085813686
000100 cd 9a 70 bd ab 36 87 bd c3 d2 88 3d 78 a0 6a bd
       -0.05874138 -0.06602224 0.066808246 -0.05728194
000110 45 fa d0 bc e1 f5 bb bd 3d 8d e8 3c 8e 77 8f 3d
       -0.025509963 -0.09177757 0.02838766 0.07005225
000120 9d 78 6d bc 4a 3e 9e 3d 5a 34 69 3d a1 81 b6 bc
       -0.0144940885 0.077267244 0.056934692 -0.022278609
000130 86 fa 31 3c 13 64 49 bc 8b 1e 1e bd f1 68 92 bc
       0.010862952 -0.012291926 -0.038603347 -0.017872306
000140 6a 2f b0 3c b8 7a 28 3d 6a 30 9a 3d b3 f3 87 bd
       0.021506984 0.04113266 0.075287655 -0.06638279
000150 f9 b0 51 3c 08 64 ae bc b9 25 ba 3d c4 ef a7 3d
       0.012798541 -0.021287933 0.09089226 0.082000285
000160 3b b2 25 bd 47 14 a4 bd ce 46 87 3d f6 3d f7 bc
       -0.040453177 -0.0801168 0.06605302 -0.030180912
000170 28 bf 96 3c ef 90 bc 3d 16 8f 74 3d 7a 45 b5 bc
       0.018401697 0.092073314 0.05970677 -0.022127856
000180 b2 9c 9e 3d af a3 9f 3d e7 d1 18 3d d0 0c e9 bc
       0.07744731 0.07794892 0.037309553 -0.028448492
000190 47 24 b0 bd e5 18 ac bd b2 99 98 3d 10 6c d2 bc
       -0.08600669 -0.08403186 0.0745119 -0.025686294
0001a0 58 8e a8 bd 79 19 8b 3c c6 d7 06 3d b4 ab 9d bd
       -0.08230275 0.01697992 0.03292062 -0.076987654
0001b0 4a 9e 6d 3d f4 15 06 3d 51 f0 98 bd 66 34 99 bd
       0.058012284 0.03273578 -0.07467712 -0.07480697
0001c0 cb b0 c0 bd 54 df af 3c 5d 26 1f bd 1a 6e 9d bd
       -0.094087206 0.021468796 -0.038854945 -0.07687016
0001d0 53 f3 78 3d 6b 90 a8 3d d5 97 ae 3d f9 fd 88 bd
       0.060778927 0.082306705 0.085250534 -0.066890664
0001e0 bc f3 2c bd 0d c8 ad bd 2e 0a d1 bc 98 41 52 bc
       -0.04222463 -0.08485422 -0.02551755 -0.012833022
0001f0 6d bb a6 bd 5c 2e e5 bc 9e 54 0c 3d b2 b1 87 bd
       -0.081412174 -0.027976207 0.034260385 -0.066256896
