PERGAT_embbedding/data/emb/models/model_dim256_lay2_epo1001.pth (torch, 532952 bytes, 7 tensors)

linear.weight f4 [256, 1]
000000 70 2d 8b bd b4 7c 4e bf 14 15 53 3f 88 2d 28 be
       -0.06795776 -0.8065903 0.8245404 -0.16423619
000010 04 7f 1d bf 60 c2 58 3d b4 c4 cb be 3c 94 cd be
       -0.61521935 0.052919745 -0.3979851 -0.40152156
000020 04 01 49 3f 60 51 5e bd 4c 53 e8 be c6 6f 43 bf
       0.78517175 -0.054276824 -0.4537605 -0.7634243
000030 20 b5 ab bd 20 ad 25 be 74 57 14 bf c0 b0 70 bd
       -0.08384156 -0.16179323 -0.5794594 -0.058762312
000040 94 5a 5a bf 04 f4 4f bf 14 98 a0 be 90 ae 30 be
       -0.8529446 -0.81231713 -0.31366026 -0.1725409
000050 00 64 07 3c 7a e7 52 bf 26 bb 4a 3f de 79 28 bf
       0.008263588 -0.82384455 0.79191816 -0.65810955
000060 f6 f9 23 bf 58 0c 37 3e 90 9c e0 bd f4 e6 1a bf
       -0.64053285 0.17875803 -0.10967362 -0.60508657
000070 80 f0 f0 bd 24 0e fc 3e da a6 4c bf 6a c0 71 bf
       -0.11764622 0.49229538 -0.79942095 -0.94434226
000080 22 68 0b 3f fc 8b 24 3f 2a b8 6f 3f 20 8c 92 3e
       0.5445577 0.642761 0.9364039 0.28622532
000090 5c 60 f7 be 0a 40 44 bf b8 dd 47 3f 80 d9 03 bf
       -0.48315704 -0.76660216 0.7807269 -0.51503754
0000a0 00 48 72 bb e8 b6 0b 3f 08 db 5f 3f be 18 65 bf
       -0.0036969185 0.5457597 0.8744359 -0.8949088
0000b0 18 00 9e be 5c 17 7f 3f b4 d3 c0 3e 2c 6e 2a 3f
       -0.30859447 0.9964502 0.37661517 0.6657436
0000c0 00 3a 8c 3c e0 31 a1 bd 50 d7 03 bf 7c 36 54 3f
       0.0171175 -0.07870841 -0.51500416 0.82895637
0000d0 28 c9 7f 3f 68 5f c7 3e 20 26 87 3e 6c c6 1d bf
       0.99916315 0.38939977 0.26396275 -0.6163089
0000e0 58 05 f9 3e a8 c0 14 3f ec 6c cc be a0 28 c6 3d
       0.4863689 0.5810647 -0.3992685 0.09675717
0000f0 e0 ba 3e 3e 6c f8 7f bf f0 b0 c2 bd 04 46 52 bf
       0.18625975 -0.99988437 -0.095064044 -0.82138085
000100 ea a6 33 3f b0 11 bd bd 70 e7 14 be c0 e2 dc 3d
       0.70176566 -0.09231889 -0.14541411 0.10785437
000110 28 c1 02 be 88 22 04 3f 78 b1 25 bf 80 36 43 bf
       -0.12768996 0.5161519 -0.6472392 -0.76255035
000120 18 01 66 bf bc c7 2c 3f 90 ab 05 3f 0c d1 69 bf
       -0.8984542 0.6749227 0.5221491 -0.91334605
000130 b6 09 0a bf 40 79 c0 3c e8 e2 eb be f0 40 47 bf
       -0.5392107 0.023495317 -0.46071553 -0.7783346
000140 a0 3d 88 be 90 1a bd bd b4 d6 7e bf 08 74 45 be
       -0.26609516 -0.09233582 -0.9954636 -0.19282544
000150 fa df 75 bf f2 55 68 3f 72 62 38 3f 80 9d 60 bd
       -0.96044886 0.9075614 0.72025216 -0.054837704
000160 c2 a8 4f 3f 28 96 8f 3e b8 1d 3c be e0 82 c4 3e
       0.8111688 0.28044248 -0.18370712 0.383811
000170 34 f8 a5 3e 58 c9 da be c6 f6 52 3f dc 25 28 3f
       0.32415926 -0.42731738 0.82407796 0.6568277
000180 a0 c2 3c be d2 8f 50 3f 7c 69 79 bf 80 ac d6 be
       -0.18433619 0.8146945 -0.9742658 -0.41928482
000190 2e cf 05 bf c0 d6 36 bf 38 a9 3d 3f b6 60 2a bf
       -0.52269256 -0.7142143 0.7408633 -0.6655382
0001a0 6a 74 28 bf 16 57 7c 3f e2 c2 24 3f 70 b4 6b 3f
       -0.65802634 0.9857038 0.6435987 0.920722
0001b0 8c df 56 3f f0 28 30 bf 70 e9 81 bd 74 6d 93 be
       0.83934855 -0.68812466 -0.06343353 -0.28794444
0001c0 16 62 66 3f 8c a8 c0 3e c8 37 1b bf 40 25 bd be
       0.8999342 0.3762859 -0.6063199 -0.36942482
0001d0 40 81 30 bd e8 c8 f0 3e 7e 7b 2f bf e8 09 34 3f
       -0.043092012 0.4702828 -0.6854781 0.70327616
0001e0 26 dc 09 3f 90 58 aa 3e 24 18 b8 be 40 83 3b 3d
       0.53851545 0.33270693 -0.35955918 0.045779467
0001f0 72 72 7b 3f 38 c5 28 3f 40 71 6d bf 4c 5c ea be
       0.98221505 0.6592593 -0.9275093 -0.45773542
000200 a0 86 8f 3d b8 86 ee 3e 66 7a 23 3f 88 3f 3b 3e
       0.070080996 0.46587157 0.6385864 0.18285954
000210 b0 ab 53 3e 70 74 b2 bd 7c 71 21 3f 70 e2 10 3f
       0.20670962 -0.08713615 0.6306379 0.56595516
000220 94 e6 e9 be 54 6e 4b bf 44 02 40 bf d2 8a 73 3f
       -0.4568373 -0.7946522 -0.7500346 0.951337
000230 58 c1 04 3e de 48 7c bf ec 9f d6 be a0 e5 a2 3e
       0.1296438 -0.98548687 -0.41918886 0.31815815
000240 70 13 5e be dc f6 a6 3e 28 bd 83 be d8 0f 0c bf
       -0.21687102 0.32610214 -0.25730252 -0.54711676
000250 ca 71 6f bf 24 0f cb be 00 c7 67 3f 34 61 d6 3e
       -0.93533003 -0.3965999 0.90538025 0.41871035
000260 b4 41 73 bf 0a ee 2c bf ec 08 b5 be 4c ad 94 be
       -0.9502213 -0.6755072 -0.3535837 -0.29038465
000270 8a 08 22 bf b0 72 b9 3e 50 da a8 3d d4 e0 63 bf
       -0.6329428 0.36220312 0.08244765 -0.89014935
000280 18 2f 59 be 00 b5 0d 3c a4 9c 63 bf d4 17 00 3f
       -0.21209371 0.008649111 -0.8891089 0.5003636
000290 2e 68 20 bf 00 13 d0 bb 8a d6 4a 3f c2 66 02 bf
       -0.62658966 -0.006349921 0.7923361 -0.50938046
0002a0 2c 46 ec be 06 22 19 3f 76 ef 72 3f 80 c9 99 bd
       -0.46147287 0.5981754 0.9489664 -0.07509136
0002b0 c0 64 93 be 78 48 ff be 50 05 3a bf 5c 26 f5 be
       -0.28787804 -0.49859977 -0.72664356 -0.47880828
0002c0 16 47 66 3f 0a 53 24 bf b8 99 2d 3f b8 8e 56 bf
       0.8995222 -0.6418921 0.6781268 -0.8381152
0002d0 4c e2 8f 3e c0 3e 49 3d 88 b6 42 3e 44 ab 1b bf
       0.28102338 0.04913211 0.19014943 -0.60808206
0002e0 c0 3f a4 bc 0c 2a 9d 3e ec a1 5e 3f 72 f8 5c 3f
       -0.02004993 0.30696142 0.86965823 0.863166
0002f0 18 79 4e bf 52 f4 5e bf 60 fc 73 3d f0 65 b4 be
       -0.80653524 -0.87091553 0.059566855 -0.35234022
000300 30 ad 0a be 84 37 8b 3e 48 ca 41 be 48 58 e7 3e
       -0.13542628 0.27190793 -0.1892482 0.4518454
000310 80 d1 a4 bc b0 21 50 bf 10 89 f8 be 60 c6 b5 3e
       -0.020119429 -0.81301403 -0.4854207 0.3550291
000320 b0 64 ab 3d c8 f6 31 bf 9c 41 3b 3f 00 9c 1f bc
       0.08368814 -0.69517183 0.73146987 -0.009741783
000330 1c 5b 9d be e2 85 20 bf 56 87 71 3f 38 4c 31 be
       -0.30733573 -0.6270429 0.9434713 -0.17314231
000340 e4 8f 6a bf d6 60 55 bf 20 28 1b bf f0 c1 41 bf
       -0.9162581 -0.83350885 -0.606081 -0.7568655
000350 4e 31 33 3f e0 8f d3 3e 00 2a bf 3c 60 84 23 bd
       0.6999711 0.41320705 0.023335457 -0.039921165
000360 90 79 cd be 78 57 8f be c0 d0 a5 3c 32 e7 51 3f
       -0.40131807 -0.2799642 0.020241141 0.819934
000370 80 6b 0f 3f 58 fb 18 bf 50 e4 11 3e 34 5f 47 bf
       0.56023407 -0.5975852 0.1424725 -0.77879643
000380 24 65 5a bf f0 38 ce be bc 4e 95 3e 5a 6f 7c 3f
       -0.8531058 -0.40277815 0.29161632 0.9860741
000390 92 cc 1d 3f 4c a2 42 bf 14 33 c9 3e 66 78 12 bf
       0.61640275 -0.76028895 0.39296782 -0.57214963
0003a0 3c d8 71 3f 68 d4 9e 3e 40 c7 f1 3c 56 c0 4b bf
       0.9447057 0.31021428 0.029513955 -0.79590356
0003b0 ce 75 66 3f cc d2 bd 3e 50 83 23 bf 50 33 76 3f
       0.90023506 0.37074888 -0.6387224 0.96172047
0003c0 dc f3 19 bf 20 d6 4c 3d 44 45 5c 3f 90 a2 4d be
       -0.60137725 0.050008893 0.8604319 -0.20081544
0003d0 6a 49 79 bf 28 86 2f 3e 20 55 69 3f f0 97 bc 3e
       -0.97377646 0.1714102 0.91145515 0.3683467
0003e0 c8 0d 23 be 6e 00 4b bf 00 17 91 bd 38 54 ef 3e
       -0.15923226 -0.7929753 -0.07084465 0.4674394
0003f0 0c 5c f9 be 7a d3 37 3f 78 11 7b bf a4 a5 d3 be
       -0.4870304 0.7180706 -0.9807353 -0.4133731

linear.bias f4 [256]
000000 f9 d8 5a bf 94 f3 d2 be b7 86 18 3f d6 7e db 3e
       -0.85487324 -0.4120146 0.5958056 0.42870206
000010 57 03 35 bf 8b cd 81 3e 71 25 b6 3d c2 b1 ca 3e
       -0.7070822 0.2535213 0.0889386 0.39588743
000020 a8 57 30 be a3 ba 7b 3f a5 7c 1d bf d8 d3 a2 be
       -0.17220938 0.9833166 -0.6151832 -0.3180225
000030 59 eb af be b0 48 34 3f 03 94 4b 3f 35 2f 8e bd
       -0.34359244 0.7042341 0.7952272 -0.06942598
000040 0c 6a 51 be 5e 65 42 bf a9 86 44 bf b1 6f 73 3f
       -0.2045061 -0.75935924 -0.76767975 0.950923
000050 be b6 b0 3e 81 ac 3e bf bb 6c f3 be 25 a4 2a bf
       0.3451442 -0.7448197 -0.47543892 -0.66656715
000060 12 e1 4a bf b3 ba c7 3e 88 81 09 bf 8a 38 1a bf
       -0.7924968 0.39009628 -0.53713274 -0.6024252
000070 59 e1 4a 3f 30 77 18 3f 41 72 74 bf 00 66 bb be
       0.79250103 0.59556866 -0.9548684 -0.36601257
000080 17 e2 d1 be f9 17 f9 be b7 67 6b bd 25 34 1e bf
       -0.40992805 -0.48651102 -0.057471957 -0.61798316
000090 46 31 9f be 1d 68 9f bd c4 41 53 bf 61 da 69 3d
       -0.3109228 -0.0778353 -0.82522225 0.057093028
0000a0 6c 90 39 3f da 89 11 bf bf 1a f6 3c 6c 71 d3 be
       0.72485995 -0.5685097 0.03004205 -0.41297472
0000b0 b9 87 71 3e 28 8e c0 3e d1 34 95 be 96 1a a0 3e
       0.2358693 0.37608457 -0.29141858 0.31270283
0000c0 c4 d9 1b 3f aa 68 17 3f 7d 44 36 3e cf 66 f8 3e
       0.6087916 0.5914408 0.17799564 0.48515937
0000d0 92 b6 64 3f 92 98 3f 3f b7 67 51 3f d7 00 e3 3e
       0.8934108 0.7484218 0.8179888 0.44336578
0000e0 44 ad da be dd 34 24 3e 82 6c e2 3d da 63 dd 3d
       -0.42710316 0.1603579 0.110558525 0.10810061
0000f0 24 f4 1a 3f 02 26 40 3f 0b d6 38 3f dc a1 85 3e
       0.6052878 0.75057995 0.72201604 0.2610005
000100 79 1a b4 3e 96 d5 26 3f 22 26 3c 3e 7f 92 ca be
       0.35176447 0.65169656 0.18373922 -0.39564893
000110 b4 58 59 bf 37 ab 20 3d 3c 72 e4 be af bb e5 bc
       -0.84900975 0.039225783 -0.44618404 -0.028043596
000120 04 cb 63 3f 24 86 0f bf af 50 cd be 41 52 94 be
       0.8898165 -0.5606406 -0.4010062 -0.28969005
000130 05 32 02 3e e4 42 03 3f a3 94 d2 3e 44 de 95 3e
       0.12714393 0.5127394 0.41129026 0.29271138
000140 77 da 5b bf 78 0d 3d be ca 0f b7 be 58 49 48 be
       -0.85880226 -0.18462169 -0.35754234 -0.19559228
000150 49 b3 56 bf e2 73 7e 3f 10 26 61 3f da 07 ff 3e
       -0.8386732 0.99395573 0.87948704 0.49810678
000160 01 2b e1 be ae c9 38 3f ef 64 14 bf 7d 91 bf 3e
       -0.43978122 0.7218274 -0.5796651 0.37415686
000170 ec 5e 7c 3f 48 49 5a 3f 0b a0 4c 3f ab df 34 bc
       0.9858234 0.8526807 0.79931706 -0.011039655
000180 58 57 33 3f 7e 0f 02 bf a2 c7 19 bd 15 bd 17 bf
       0.7005515 -0.5080489 -0.0375439 -0.5927289
000190 43 89 08 3f a2 6a 59 bd c8 56 76 bf 32 31 81 3d
       0.53334445 -0.05308021 -0.9622617 0.063082114
0001a0 8e 0d 7d 3f 4f e0 1e bf 3d fb a7 3e 4b 2e a0 3e
       0.9884881 -0.6206102 0.32808867 0.3128532
0001b0 5c 79 12 bf 1c d1 15 3f ab 89 76 3f 65 01 bb be
       -0.5721643 0.585222 0.96303815 -0.365245
0001c0 41 48 49 bf 7f 84 69 bf 4b d1 10 bf 50 02 2f 3e
       -0.78625876 -0.912178 -0.56569356 0.17090726
0001d0 f0 ec c8 3e 2c 47 42 bf 24 2e df be 27 f1 70 bf
       0.3924327 -0.7588985 -0.4358989 -0.9411797
0001e0 95 14 db 3d 13 d9 f7 3e 72 48 63 bf 76 f6 b4 be
       0.10697285 0.48407802 -0.8878242 -0.35344285
0001f0 b1 63 aa be 33 37 5e 3f 63 86 7b 3f 52 51 b2 3e
       -0.33279184 0.8680298 0.9825193 0.34827667
000200 cd 02 5e 3f 3c b4 68 3f 43 2d 64 bf b1 ab 6e bf
       0.86723024 0.90900016 -0.89131564 -0.9323073
000210 47 93 61 bf 2e 1c 6c 3f af 56 65 3f 98 4a a8 3e
       -0.8811535 0.922305 0.89585394 0.3286941
000220 76 0d 4b 3f 15 e2 4c 3f 9d 32 4a bf 4b 58 18 3e
       0.79317415 0.80032474 -0.7898348 0.14877431
000230 24 69 45 bf f1 1a ce be 4e ef 82 3e f5 0e 78 3f
       -0.77113557 -0.4025493 0.255732 0.9689782
000240 67 2e 7d 3f a8 2b af be 29 f8 75 bf 3d 4e f7 3e
       0.9889893 -0.34212995 -0.9608179 0.4830188
000250 bd a2 4a 3f 36 be 8a be 3e 8b b8 3e 1e e9 76 bf
       0.7915457 -0.27098244 0.36043733 -0.9644946
000260 de 69 29 3f 62 e5 b2 be 57 bb 5e 3f cf 51 b1 be
       0.66177166 -0.3494063 0.8700461 -0.34632728
000270 c3 10 65 3f be 3e 72 3f 23 bc 3c bf d4 b2 c4 3e
       0.894787 0.94626987 -0.73724574 0.38417685
000280 21 27 3a 3f 5c 4b 18 3d b5 0d 12 3f f6 7f 42 bf
       0.72715956 0.037181243 0.57052165 -0.759765
000290 fd 9a 36 bf 3b db 1d be 08 ea 48 bf 67 92 11 bf
       -0.71330243 -0.15415661 -0.78482103 -0.5686402
0002a0 81 01 ae be e5 cd f2 bd f6 dc ad be 5e 7f 4e bf
       -0.33985522 -0.118556775 -0.33957642 -0.80663097
0002b0 a6 8d 80 3f c8 69 f8 3e fe 28 07 3f 6a 71 ea 3e
       1.0043228 0.48518205 0.52796924 0.45789653
0002c0 97 30 44 bf 39 08 4f 3f c9 d6 1a bf 1d 6f 4e bf
       -0.7663664 0.8087192 -0.60483986 -0.80638295
0002d0 74 e9 06 bf 4f b3 77 3d 52 b3 69 3f 7a 50 d7 3e
       -0.5269997 0.060473736 0.91289246 0.42053586
0002e0 41 a0 d3 3d a6 33 e7 be a6 f4 33 3f 0c e6 3c bf
       0.103333004 -0.45156592 0.7029518 -0.73788524
0002f0 e7 c6 c0 3e 8d 9e 0c bf 4c c1 a3 bd 59 c2 4b 3f
       0.3765175 -0.5492943 -0.07995853 0.79593426
000300 1a 55 7a 3e 9d 8d d4 bd a2 59 90 3e 96 72 5d bf
       0.24446526 -0.10378573 0.28193384 -0.8650297
000310 03 d0 1f be 3a 8b c6 bc 8c 22 39 3f e4 e0 10 be
       -0.15606694 -0.02423631 0.7231834 -0.14148289
000320 d7 88 17 3f 20 2f 22 3d 20 f0 6c bf f9 84 82 be
       0.59193176 0.039595723 -0.925539 -0.25492075
000330 70 34 14 bf 14 24 d0 bd e4 6c 0b be fc 3e 56 be
       -0.57892513 -0.10163131 -0.13615757 -0.20922464
000340 a7 2d f1 3e e2 43 f7 3e a3 bb 45 bf da b7 72 3f
       0.47105142 0.48293978 -0.77239436 0.94811785
000350 1f cf b4 be 5b d4 44 3e 74 a0 53 3f 1e 60 05 bf
       -0.3531427 0.19221632 0.8266671 -0.5209979
000360 ce 86 2e 3f d9 fc 3e bf 45 d0 3d be 92 db b5 be
       0.68174446 -0.74604565 -0.1853648 -0.3551908
000370 21 2e 1f bf e0 5e 61 bc 93 35 1e 3f e6 5f a9 be
       -0.6217976 -0.01375553 0.618005 -0.33080977
000380 5e 6c 11 3f 9a 0b 5d 3f 5d 00 2e bf ad 7b 45 3e
       0.5680598 0.8634583 -0.67969304 0.1928546
000390 06 eb a8 3e 23 d2 16 3f 0e 86 02 be 30 09 c4 3e
       0.3299181 0.58914393 -0.1274645 0.3828826
0003a0 72 08 b9 3e 1d de 44 be ee a0 44 bf f6 8a 87 3e
       0.36139256 -0.19225354 -0.7680806 0.26473206
0003b0 3e ff 35 bf 64 29 12 bf d4 3b 22 3f ec 28 a4 3e
       -0.71092594 -0.5709441 0.6337254 0.3206247
0003c0 c9 fe a4 3e 83 10 34 3f 7d ea 55 3f ab 18 1a 3f
       0.32225636 0.70337695 0.83560926 0.6019389
0003d0 79 07 f6 3e d5 53 12 3f fe c2 e0 3e 9c c9 03 bf
       0.48052576 0.5715917 0.43898767 -0.51479506
0003e0 dd b4 68 3f f9 99 56 bf c2 74 4b 3f 41 ed 05 3d
       0.90900975 -0.83828694 0.79475033 0.032696966
0003f0 e1 2d 5f bc 59 80 39 bf 85 9a 1b bf 34 0c 63 bf
       -0.013621778 -0.7246147 -0.60782653 -0.88690495

conv_0.weight f4 [256, 256]
000000 67 70 6e 3d 0a ad 45 3d 39 d1 4e bd a6 46 bc 3d
       0.058212664 0.048260726 -0.0504925 0.091931626
000010 ea 78 24 3d 6b dd 56 bc 83 a0 ed bb 1f 12 67 3c
       0.040154375 -0.013114314 -0.0072518005 0.0141034415
000020 f0 41 03 bd 1a ca 8c bd bf 1c c6 3d dd 02 83 3d
       -0.032045305 -0.06874485 0.09673452 0.063970305
000030 2e 8e b9 bb 8e 35 7d bd 90 7a b1 bb b4 a5 9a 3c
       -0.005662701 -0.06181865 -0.005416222 0.018877842
000040 8f 38 9b 3d 38 6b 26 bc f1 14 2b bd 49 9e 99 3c
       0.07579147 -0.010157399 -0.04176802 0.018752234
000050 ed 47 b9 bd ec 96 fe bc 73 9b 8d bd 21 63 cb 3c
       -0.09046922 -0.031077825 -0.06914415 0.024827542
000060 b9 92 36 3d dd 3e 80 3c e7 b0 88 bc d8 01 98 3d
       0.04457352 0.015654976 -0.016685916 0.07422227
000070 ee 96 3c bd 39 4d 2a bd 2d 51 d4 bd 2b 56 d0 3d
       -0.046042375 -0.04157755 -0.103670456 0.10172685
000080 6a d7 98 bd 95 e6 e4 3d 8d 27 a7 3c e5 23 74 bd
       -0.07462962 0.111767925 0.020404601 -0.059604544
000090 26 e6 c5 bd 6c d0 53 bd 93 c7 c6 3d 77 ba 87 3d
       -0.09663038 -0.05171244 0.097060345 0.06627362
0000a0 67 b9 03 3c 8d 9a c8 3b ab b5 47 bd 4d dd b9 bd
       0.008039809 0.0061219395 -0.048757236 -0.09075413
0000b0 f3 85 da bd 94 9a dc 3c f7 ba 8f bd 13 3c d6 3c
       -0.1067008 0.026929177 -0.070180826 0.026151692
0000c0 f1 95 ab bc 3b dc 37 bd 50 e9 8d bd 93 44 76 3d
       -0.020945521 -0.044887763 -0.069292665 0.06012399
0000d0 d8 fd b0 3d 39 51 eb bb 8f 34 9d 3d 0a 99 67 bd
       0.08642167 -0.0071813134 0.076760404 -0.056542434
0000e0 e9 d9 cb 3c 9b e3 03 bc 1a f5 c2 3c ba 82 41 bd
       0.024884181 -0.008049871 0.023798514 -0.04724381
0000f0 2c 82 cb 3b 62 50 43 bd 67 0f 6a 3d 9d 2f 7f bd
       0.006210586 -0.04768408 0.057143595 -0.062301267
000100 57 ee a0 3c 3d 57 04 bd d6 58 a7 bc aa b4 c1 bd
       0.0196449 -0.03230976 -0.020428102 -0.09458287
000110 29 69 05 bc c3 b2 e0 bc 27 35 37 3d 8d e0 c3 3d
       -0.008142748 -0.02742899 0.044728424 0.09564314
000120 b9 64 68 bd 4e 1f 34 3d 28 89 60 bc 8d eb 01 bb
       -0.05673668 0.043975167 -0.013704576 -0.0019824237
000130 8b 9c 22 3d e2 5f 0e bd 03 7d 98 bd e0 e2 63 3d
       0.039700072 -0.03475941 -0.07445719 0.055636287
000140 3c 43 68 3c 04 79 86 bd 71 fa 97 3d d8 4c 11 3b
       0.014176186 -0.06566051 0.07420815 0.0022171047
000150 34 57 5b bd 6e cc e8 bd be 74 79 bd dc 49 6d 3d
       -0.05354996 -0.11367117 -0.06090235 0.057931766
000160 cf 20 a0 3d 3a ec b4 bd 9d 8f 6e bc 25 72 97 bc
       0.07818758 -0.08834119 -0.014560607 -0.018487046
000170 80 45 79 3d 17 ee 85 bd d6 a2 74 bd ad 20 f9 bc
       0.060857296 -0.06539553 -0.059725605 -0.030411089
000180 82 1a b6 bd 80 86 2b 3d dd 69 d8 3b b8 90 43 3c
       -0.08891775 0.041876316 0.0066044168 0.011936359
000190 e0 41 e4 bd b8 60 b0 3d 45 60 b9 3d 0b e2 cc bd
       -0.11145377 0.08612198 0.09051565 -0.10004052
0001a0 94 df 48 bc 5d 1c 93 bc 09 5a b1 bd 4c 31 36 3c
       -0.012260336 -0.01795786 -0.08659751 0.011120152
0001b0 06 d5 bf bd ff bb aa bd ef 2e 16 3d bf d5 04 3d
       -0.09366803 -0.08336639 0.036665853 0.032430407
0001c0 bb 0a 93 3d ab c9 82 3d 74 9f e5 bc c0 b6 97 bd
       0.07179781 0.06386121 -0.028030135 -0.07407904
0001d0 14 9c 8e 3d 1d 91 31 bb 48 db b6 bc 00 b8 01 bd
       0.06963363 -0.002709455 -0.022321358 -0.031669617
0001e0 33 82 fd 3c 2c f1 2e 3d 6c 8e e1 3d 57 8b 2f 3d
       0.030945873 0.04271047 0.11013493 0.042857494
0001f0 33 f2 30 3b 17 0c 94 bd e7 85 b1 3d e3 22 bd bd
       0.002699983 -0.072288685 0.08668118 -0.0923517
000200 cf 97 d0 3d 70 15 61 3d d1 da d8 3b 33 53 a0 bd
       0.10185205 0.054952085 0.006617882 -0.07828369
000210 b7 74 19 bc a0 b3 b2 3d 31 a3 53 3d 82 92 64 3d
       -0.009366206 0.08725667 0.051669303 0.055803783
000220 d2 bc c6 3d 1b 6d 22 bd d6 08 03 bd 77 11 ae 3d
       0.09703983 -0.039654832 -0.03199085 0.08499425
000230 c1 bd b3 3d 2c ba a6 3d 19 a2 c8 bc 2e d9 17 3d
       0.08776427 0.08140978 -0.024491357 0.037072353
000240 98 b5 cd bd b1 5c a1 bd 1a e1 b5 3d 46 eb 87 bd
       -0.10044402 -0.078790076 0.08880825 -0.06636672
000250 99 b7 c7 3d 50 f6 54 bc af f4 b6 ba 3b 98 03 bd
       0.09751815 -0.012998179 -0.001395842 -0.0321276
000260 50 90 ba bc 7e 65 5e 3b ba 18 55 3d 84 7b 83 3c
       -0.022773892 0.0033935006 0.052025534 0.016050108
000270 77 11 62 bd 32 a4 7b bd 21 ef 3d 3d 7e 98 a1 3d
       -0.055192437 -0.061435886 0.04637063 0.07890414
000280 1c 12 1c bc 77 90 68 bd 9e 17 14 3d 8d 45 97 bd
       -0.009525802 -0.056778397 0.036155336 -0.07386313
000290 4a 62 7f 3a b2 50 c5 3d 93 0e 54 bd 8f 2b 96 bd
       0.0009742124 0.09634532 -0.05177171 -0.07332527
0002a0 79 c0 a1 3d 42 cd f1 3c f3 c6 8a bd 22 9c b4 bb
       0.07898039 0.02951682 -0.06776228 -0.0055117765
0002b0 f2 da 60 bd 8a eb b3 bd f0 35 96 ba 87 66 76 bd
       -0.054896303 -0.0878516 -0.0011460166 -0.06015637
0002c0 ed c4 80 3d 3a 65 55 3d 21 5e d5 3d da 52 8b bd
       0.062875606 0.05209849 0.10418344 -0.06802912
0002d0 72 ff 15 bd a7 59 a8 bc 21 e3 b2 3c 8a ba 83 3a
       -0.036620565 -0.020550562 0.02183682 0.00100501
0002e0 ed d1 dc bd 69 ce a5 3c 23 4b bb 3c 80 4a e8 3c
       -0.10782228 0.020240026 0.022862976 0.028355837
0002f0 66 fa dd 3d 6b 2f b8 3c 71 3d 38 3d e4 70 87 bc
       0.10838775 0.022483548 0.04498047 -0.016533323
000300 ea 6b 86 bd 03 65 a8 bd 85 4b b9 3c 40 33 51 bd
       -0.06563552 -0.082223915 0.022619018 -0.051074266
000310 80 c7 97 3b 71 fd cc bd b9 89 81 3d b5 5d 14 bd
       0.0046319366 -0.100092776 0.06325097 -0.03622218
000320 8e 1e b0 3d 8c d6 75 ba 1d ff cc 3d cc ca 4f 3c
       0.08599578 -0.0009377978 0.100095965 0.012682628
000330 f8 d7 85 3d 75 03 80 bc d7 ae d8 bd fa 8d cb 3d
       0.065353334 -0.015626648 -0.10580223 0.09939189
000340 d5 15 d0 bd 42 7b 18 3d 40 68 ed bc e5 06 9f 3d
       -0.10160414 0.037226923 -0.028980374 0.07764987
000350 a7 c0 6a bc 13 b7 b0 3d 1f 4f e7 bd d0 51 e9 3a
       -0.014328158 0.08628669 -0.11294388 0.0017800871
000360 52 52 aa bb 7f fc 82 3d f2 3f ad bc 8b bf cf bd
       -0.0051978016 0.06395816 -0.021148656 -0.10143956
000370 e8 37 0b 3d 58 80 16 bd b8 55 85 3c 3a a3 cb 3d
       0.033988863 -0.036743492 0.016276225 0.09943242
000380 e4 6e 80 bd a7 93 c8 bd f1 88 6a 3c 12 d7 8c bc
       -0.06271151 -0.097937874 0.014314876 -0.017192397
000390 f1 c5 ab 3d 63 4a f9 bc b6 81 8d bc 40 89 58 3d
       0.08387364 -0.030430978 -0.017273765 0.052865267
0003a0 f8 d0 6f bd d0 7d 4b 3d 6f 41 da 3c ff 76 c8 3d
       -0.058548898 0.04968053 0.02664253 0.09788322
0003b0 40 19 48 3d 4d 4b c3 bd e8 32 a6 bc 32 d4 a0 bd
       0.048852205 -0.09535847 -0.020287946 -0.07852973
0003c0 97 53 c3 3d 78 7c c0 bd d8 2a 35 bd 74 08 b6 bd
       0.09537428 -0.093987405 -0.044230312 -0.08888331
0003d0 d9 87 94 bc dd cc 18 bb d9 3c e6 bd cd 89 ab 3d
       -0.018131183 -0.0023315467 -0.112420745 0.08375893
0003e0 e1 56 bf 3d 3d 1f 74 3d 90 82 59 bd 88 86 91 bb
       0.09342743 0.059600104 -0.05310303 -0.004441086
0003f0 9c db b7 bd 94 a0 f2 3c 63 45 88 3d 94 37 af bd
       -0.08977434 0.029617585 0.066538595 -0.085555226

conv_0.bias f4 [256]
000000 ec 3b a0 3c 8b ca 16 3d 49 b5 b6 bc 31 fd 9d bc
       0.019559823 0.036814254 -0.02230324 -0.01928577
000010 7a d4 32 3b 5f dc 7e bc 29 72 06 bb 0c 6d 88 3c
       0.002728729 -0.01555547 -0.0020514822 0.01665356
000020 41 ae 85 3d ae fd eb bc f7 68 97 3c ae d3 f1 3c
       0.06527377 -0.028807487 0.018482668 0.029519882
000030 b7 ac e8 bc 8b 82 6a bc 98 e6 f2 3c 9b 3a d8 3c
       -0.02840267 -0.01431335 0.029650971 0.026395133
000040 38 3d 92 3c 6a a8 a9 bc 4f 03 7d 3c 5d 75 97 bb
       0.017851457 -0.020710189 0.015442683 -0.004622145
000050 b7 eb bd ba 7f 1d 40 bd 4b a6 9e 3d c4 4d 9f 3c
       -0.0014489804 -0.04690313 0.077465616 0.019446261
000060 37 fa be bb d3 b9 25 3d f8 34 bb 3c 3c db f3 bc
       -0.005828168 0.04046042 0.022852406 -0.029767625
000070 74 f0 d2 bc 38 39 03 3d be fb 34 3d 16 b4 77 3c
       -0.025749423 0.03203699 0.044185393 0.015118619
000080 2b c9 ab 3c 0a 43 6a bc 33 15 ca 3b 83 00 1d 3d
       0.020969948 -0.01429821 0.006167078 0.038330566
000090 39 d1 7b 3c a8 3b 05 3d e1 f2 43 bb e2 b0 c1 3c
       0.015369707 0.032527596 -0.0029899406 0.023643915
0000a0 67 d0 8a 3c a7 bc ae bc 9e 18 6f bc c7 31 14 3d
       0.016945077 -0.02133019 -0.014593272 0.036180284
0000b0 c7 64 b7 3c dc c6 e2 3c aa e6 ac bc b3 b5 f0 3c
       0.022386922 0.027682714 -0.021106083 0.029383516
0000c0 c4 be d7 bc d5 d1 1e 3c 8f 07 e0 bb df 59 89 bc
       -0.026336081 0.009693583 -0.0068368386 -0.016766487
0000d0 ff 11 fc bc 26 53 77 3c 50 18 0f 3c 2b 03 9e 3c
       -0.0307703 0.015095508 0.008733824 0.01928862
0000e0 95 5e 93 bb 2f ec df 3c c3 e3 22 bb da 6c e4 bc
       -0.004497359 0.0273343 -0.0024854995 -0.027883936
0000f0 ee 3e ab bc 74 a3 9d bc 8f f1 f9 3c 54 bb eb 3c
       -0.02090403 -0.01924298 0.030510692 0.028775848
000100 fb 07 25 bc bc 68 ea 3c 28 63 96 3d 44 0c 8a bc
       -0.0100727035 0.028614394 0.07343131 -0.016851552
000110 0c 3a bb bc 9c 58 18 3b a8 f8 ae 3c 7a c7 8d bc
       -0.022854827 0.0023246175 0.021358803 -0.017307032
000120 96 a2 13 3d 03 e4 28 bb 87 a5 04 3d 12 36 8f bc
       0.036043726 -0.0025770671 0.03238442 -0.017481837
000130 1b 3b 75 bc 6e c8 75 bc 87 70 28 bb 33 8b a6 bc
       -0.014967705 -0.015001399 -0.0025701837 -0.020330047
000140 b3 cb 90 bc 1a 98 8f bb 10 6b f2 ba d2 5a 40 bb
       -0.017675256 -0.0043821456 -0.0018495042 -0.0029351008
000150 24 1c dc b8 23 9a e7 3c ac 57 a8 3c 4b 42 11 3d
       -0.00010495659 0.02827174 0.020549618 0.035463613
000160 53 1a 93 bc 1c ee 8d 3c ff 88 11 3d 18 ea 86 bc
       -0.017956888 0.017325453 0.03553104 -0.016469046
000170 7d 9e aa 3c 75 db ec 3d 4e 37 90 bc c3 00 aa bc
       0.020827526 0.115652956 -0.017604496 -0.020752316
000180 8f 6b c1 bc 71 79 59 bc 0e a3 a1 bc a5 18 94 bc
       -0.023610858 -0.013273583 -0.01973107 -0.018078158
000190 18 71 13 3d ad 74 13 3d 2b f4 f8 bb 06 43 6d bc
       0.035996526 0.035999943 -0.0075974665 -0.014481312
0001a0 1f a1 0c 3d 56 ca 6d 3c 31 df 0e 3d ee d7 a0 bc
       0.034333345 0.014513573 0.03488082 -0.019634213
0001b0 08 a9 a2 3c 12 4b cf 3c 7f 45 35 3d ac f8 f5 3c
       0.019855991 0.025304351 0.04425573 0.030025803
0001c0 b0 f4 47 bc e0 4a 84 bb 77 09 10 bc b2 94 ab 3c
       -0.012204334 -0.004037246 -0.008791319 0.020944927
0001d0 1f 12 d9 bc 0c d0 0d 3d 96 a1 c9 3c 90 49 13 3c
       -0.026497899 0.034622237 0.024613183 0.008989707
0001e0 52 d3 c5 bc 5e 75 92 bc c9 b8 ce bc 94 77 07 39
       -0.024148617 -0.01787823 -0.025234597 0.0001291915
0001f0 26 dd bd bc e6 b3 80 bc 4f e8 d6 3c d1 b9 41 bb
       -0.02317674 -0.015710782 0.02623382 -0.0029560218
000200 4b 05 a6 bc 4a 45 d1 3b cf 83 73 bc c5 7b 9a bc
       -0.020266196 0.0063864337 -0.014862969 -0.018857846
000210 11 42 76 3c fc b7 81 bc 63 f4 a7 3c 62 b1 0e 3d
       0.0150304 -0.0158348 0.020502275 0.034837134
000220 a9 7d 94 bc c8 a4 23 3d 4f 1a b8 bc dd 50 e6 3c
       -0.018126326 0.03995207 -0.022473482 0.02811473
000230 19 02 ba 3c b1 ea 82 3c 13 c6 d7 bc b1 66 89 ba
       0.022706078 0.01598105 -0.026339566 -0.0010482875
000240 a0 02 1d 3b 94 f3 a3 bb b5 da c4 bc 0f df 70 bc
       0.0023957863 -0.005003402 -0.024030069 -0.014701619
000250 0a 40 89 bb c7 37 a6 bb d4 39 a2 bc d1 36 8c bb
       -0.0041885423 -0.005072567 -0.019802965 -0.0042789956
000260 fa 05 8a ba 0d c6 99 bc a4 11 83 3c d6 07 13 3d
       -0.0010530346 -0.018771196 0.015999623 0.035896145
000270 13 ae 06 bb b1 2d 06 bb 09 12 20 3d e2 a0 89 ba
       -0.0020550534 -0.0020474012 0.0390797 -0.0010500217
000280 c5 9f 9d bc 9f 7c 07 bd bf 34 41 3d a3 79 0f bb
       -0.019241223 -0.033077832 0.047169443 -0.002189257
000290 2c 31 e2 bc 5e cb aa bc 6f 60 88 3c 43 d8 6a 3c
       -0.027611338 -0.020848926 0.016647546 0.014333787
0002a0 2e bc ae 3c 86 2f d8 bb a8 55 ad 3c 0e df fd 3c
       0.021329965 -0.006597462 0.021159008 0.03099015
0002b0 67 58 7d 3c 18 4e 0a bd 71 5c 93 3c d0 21 c0 bc
       0.015462971 -0.033765882 0.017988415 -0.023453623
0002c0 5c 02 eb bc 1d 86 ae 3c d1 2c 01 bd ab 84 73 bc
       -0.028687648 0.021304185 -0.03153688 -0.0148631735
0002d0 b1 6c a0 bc bb 43 ab bb a2 9b 9c 3c 40 81 de 3c
       -0.019583078 -0.00522658 0.01911718 0.02716124
0002e0 7f 50 81 3c c5 5c 99 bc 9f f9 8b 3c d3 a9 83 bc
       0.015785454 -0.018720994 0.017086802 -0.01607219
0002f0 9d d1 64 bc b7 01 df 3c 60 4a f6 3d 90 ad 16 3c
       -0.013965991 0.027222497 0.12025905 0.009196654
000300 56 ef ea 3c c3 69 d7 3c 27 9b aa 3c b5 0b b1 bb
       0.028678577 0.026295548 0.020825936 -0.005403007
000310 0d 0f e2 3c 66 99 b1 3c 88 15 1f bc 23 e3 cc 3c
       0.027595067 0.021679591 -0.009709723 0.025010651
000320 dc 6e d4 ba 9b fe da 3c e0 31 b6 bc d5 88 cd 3c
       -0.0016207355 0.026732733 -0.02224058 0.02508966
000330 78 fd 3f bb 45 3f 24 bd a1 2e c1 3c c9 d5 b6 3c
       -0.0029295366 -0.0400994 0.023581805 0.022318738
000340 4d 24 d3 3c 8c 60 90 3d e1 c4 04 bb 13 64 54 bb
       0.025774145 0.07049665 -0.002025895 -0.0032408282
000350 79 c0 b6 bc 8d 59 e3 bc cb 61 a5 3c 18 72 d9 3c
       -0.022308575 -0.027752662 0.020188233 0.026543662
000360 7e 7c 10 3d 04 b0 12 3c 0b 44 df 3c 2e f3 20 bd
       0.035274975 0.008953098 0.027254125 -0.039294414
000370 42 9f 23 3d 87 fc 88 bc 76 17 c4 bc 04 0a 63 3d
       0.039946802 -0.016721977 -0.023936968 0.055429474
000380 06 11 97 3c b3 cd ad 3c e1 bc 27 3d 44 34 9d bc
       0.018440735 0.02121625 0.040951613 -0.019189961
000390 a2 4a 19 3c 12 88 d1 bb 59 e5 b5 3c 2a d2 f0 bc
       0.009356173 -0.0063943947 0.022204088 -0.029397089
0003a0 2d 72 d2 3c fe 61 86 bc b0 64 02 bd 60 b9 82 3c
       0.025689209 -0.016404148 -0.031834304 0.015957534
0003b0 a0 25 3a 3d da d3 e8 3c de 45 9a 3c f3 be 3b 3d
       0.04544604 0.028421331 0.018832143 0.0458364
0003c0 b8 fb 0a 3d 09 dd c7 3c ed 44 03 3d 48 0a eb 3c
       0.033931464 0.02439739 0.032048155 0.028691426
0003d0 0b 64 75 bc 45 dc 45 bb f3 b8 00 3d 6d ab 06 bd
       -0.014977465 -0.0030191105 0.03142638 -0.032878328
0003e0 3f f3 b5 bc 99 78 9b bc c0 e6 68 3a 1f d9 f2 3c
       -0.022210715 -0.018978404 0.0008884482 0.029644547
0003f0 5d 8e 90 bc b3 90 9e 3c df 88 78 bc 5c d4 e8 3c
       -0.01764601 0.019356107 -0.015169351 0.028421573

layers.0.weight f4 [256, 256]
000000 53 4a cd 3d 99 ea 36 bd 8a c6 45 3d 18 13 6d bb
       0.10023942 -0.044657324 0.048285045 -0.003617471
000010 e1 71 48 3d b0 31 44 bc 3d 68 5c 3c 41 56 ad bd
       0.04893673 -0.011974737 0.013452587 -0.08463717
000020 d7 32 42 3d ef 27 ba bd f7 3e cb bd 0e c9 f7 bc
       0.047411766 -0.09089648 -0.09924119 -0.030247238
000030 6f da 9e 3c d5 0c c7 3d e9 2f 8e bd 04 5c aa bd
       0.019391267 0.097192444 -0.06942732 -0.08318332
000040 74 10 86 3c 9f 3a 8b 3d 1b 4c 24 3d 47 1e b7 3d
       0.016365267 0.067982905 0.040111642 0.08941322
000050 07 d2 bf 3c a7 d8 98 bd 08 af c7 3c 10 30 df bd
       0.023415579 -0.07463198 0.024375454 -0.10897839
000060 13 d8 83 bd 61 7f 22 bd 84 ad 56 3d cd 01 0a bd
       -0.06437697 -0.03967226 0.05241157 -0.033693124
000070 fa 3f c1 bd 9b 5e 79 bd 4f cd e8 bb ab 1d ba bd
       -0.09436031 -0.06088124 -0.007104553 -0.0908769
000080 d4 3a 0b 3c e0 1a eb bc 8c 20 bb 3c 5a 43 56 bc
       0.008497912 -0.028699338 0.022842668 -0.013077581
000090 71 1e cc bc f3 4c 53 bd ba 5c 5a bd c9 6f ed bd
       -0.02491686 -0.051587056 -0.053311087 -0.11593587
0000a0 2f 05 35 3d 1c 47 2f 3d 6b 4c c5 3c 25 df b1 bd
       0.044194397 0.042792425 0.02408429 -0.086851396
0000b0 90 28 53 bd d7 38 ab bd 1f 75 a8 bd 7f 68 b6 bd
       -0.051552355 -0.08360451 -0.08225464 -0.0890665
0000c0 a6 a4 55 ba e3 39 b5 3c 90 75 5f bd 97 88 a7 bd
       -0.00081498397 0.02212233 -0.054555476 -0.08180349
0000d0 0f 95 a2 bd 44 bb 3d 3d ba 47 ac 3d 54 ed 83 bd
       -0.07938587 0.04632117 0.08412118 -0.06441751
0000e0 47 86 16 3c c9 a2 4b 3d df f7 a2 bd 2f f0 ba bc
       0.009187288 0.04971579 -0.07957434 -0.022819607
0000f0 97 c2 c9 3d 97 8f db 3d 4b f5 8f 3c b5 3a 97 bd
       0.09851568 0.10720747 0.01757302 -0.07384244
000100 73 ab 95 3d 82 72 3b 3c 0b f0 45 bc a2 08 02 3d
       0.07308092 0.011440875 -0.0120811565 0.031746514
000110 fd fb 1d 3d 0d a7 73 3b 64 75 9b bc f8 01 60 3d
       0.038570393 0.0037178427 -0.018976875 0.054689378
000120 9b 29 1c 3d ff c0 42 3d a5 da 9d 3d a0 df f6 3c
       0.038125616 0.047547337 0.07707719 0.03013593
000130 c0 8a 51 3c cd ba 32 3d 70 de 23 3d 02 51 a1 bd
       0.012789428 0.04363518 0.040007055 -0.07876779
000140 a1 ae 05 3c 5f 02 85 3c 1c 56 51 3d ad e2 84 bd
       0.008159311 0.016236482 0.05110751 -0.064885475
000150 ce 70 8c 3d 67 dd e3 3c d1 e3 90 3c 0b 20 cd bd
       0.06857453 0.027815534 0.017686756 -0.10015877
000160 d0 99 e7 bc 15 5c 50 3d 46 b9 ab 3c ac d7 9a 3d
       -0.028271586 0.050869066 0.020962369 0.075606674
000170 77 95 bf 3d 86 54 8c bd 7e 7e b8 bd 45 c6 b4 bc
       0.0935468 -0.06852059 -0.090085015 -0.022067199
000180 a3 b5 3f 3c 97 37 99 3b ba 63 be 3d a7 19 4f 3c
       0.01170102 0.0046758163 0.09296365 0.012640393
000190 fa 2d cc 3d cc c8 da bd 45 4b 6a 39 51 88 b2 3d
       0.09969707 -0.1068283 0.00022344019 0.087174065
0001a0 40 19 0f bd 8b 42 80 bd 9b ce 9c 3c f0 9a 8a 3d
       -0.03493619 -0.06262692 0.019141486 0.06767833
0001b0 50 96 87 ba 7f 9d c9 3b 69 6a b3 bd c8 78 1f bd
       -0.0010344479 0.006152808 -0.087605305 -0.038933545
0001c0 59 44 9d bd 48 9e a6 bd 24 0b a7 3c e8 fc 5e bd
       -0.07679052 -0.081356585 0.020391054 -0.05444041
0001d0 b8 ab f5 bb 03 6d 69 3d 57 1a 3a 3d b1 0f d7 bc
       -0.007497277 0.056988727 0.045435276 -0.0262526
0001e0 cd c2 86 3d 67 2c b4 bd 2c f0 61 bd 60 dd 83 3b
       0.06580124 -0.087975316 -0.055160686 0.0040241927
0001f0 4c 31 2c bd 54 d9 e1 ba fa cf 52 bd 5e ee 52 bd
       -0.0420392 -0.0017230907 -0.051467873 -0.051496856
000200 0e c4 93 3d cc 22 a0 bd ba 5d 90 bd f5 14 e9 bc
       0.07215129 -0.07819137 -0.07049127 -0.028452376
000210 ea f2 a9 bd 20 ef 71 3d 33 4b c1 bb be 93 90 bd
       -0.08298285 0.059065938 -0.005898857 -0.070594296
000220 20 b8 92 bb 7d bf 62 3d f5 07 42 bc ef 98 a6 3c
       -0.004477516 0.0553584 -0.011842717 0.020336596
000230 6e df 24 3d 21 ab 70 3c aa f4 b6 3d 99 75 a0 3d
       0.04025214 0.014689238 0.08933385 0.0783493
000240 72 15 66 3c 2e ea 84 bd 02 ab 85 3d 06 7b c2 bc
       0.014043199 -0.06489979 0.06526758 -0.023740303
000250 25 db 9a 3d e7 f8 ff bc 99 5d d3 bd e2 b6 83 3d
       0.0756133 -0.031246616 -0.10320587 0.064313665
000260 4e 9f a2 3c e1 5b 46 3d 32 29 74 3c 2a 04 5e bd
       0.019851353 0.048427466 0.0149024 -0.05420319
000270 80 ce ab 3d 21 ed cd bd d8 b5 0e 3d c9 d9 3c 3c
       0.08388996 -0.100549944 0.03484139 0.011526533
000280 01 35 a1 3b 02 9b 14 3d b6 6c 22 bd bb 34 85 bd
       0.0049196486 0.03628064 -0.039654456 -0.06504198
000290 3e 4c 91 3d b3 d1 bd 3d bc 68 c6 bd 89 7f 8d bc
       0.0709462 0.092685126 -0.09687945 -0.017272728
0002a0 8c 99 46 bd c5 45 bb 3d c7 6a 86 bc e9 5c c2 3d
       -0.048486277 0.09144167 -0.016408337 0.094903775
0002b0 ad ff b6 bd c6 e8 be bd 6b 41 64 3d eb 3a b8 bd
       -0.08935485 -0.09321742 0.05572645 -0.08995613
0002c0 0c a3 67 3c 1c f5 d1 bd 84 81 e4 3d d4 86 a0 bc
       0.0141379945 -0.10251829 0.11157516 -0.019595541
0002d0 6b 2d 62 bd 96 34 b7 bc 70 cb 4a bd 94 5c 1e 3d
       -0.055219095 -0.022363942 -0.04951042 0.038662508
0002e0 2d d1 a6 3d 9a c2 ea 3d 84 b4 bf 3d d9 b2 0d bd
       0.08145366 0.114628986 0.093606025 -0.03459439
0002f0 7e e5 50 3c b8 3c 73 3d 5f 96 55 bd 93 fb 56 3c
       0.012750028 0.059384078 -0.05214536 0.013121503
000300 88 c9 c5 3d f8 91 b1 bd 4b ca 71 bc 2d 39 a6 bd
       0.0965758 -0.086704195 -0.014757703 -0.08116374
000310 87 fb e5 3d b2 39 c4 bc c5 82 51 bd f4 d9 9f bd
       0.11229616 -0.023953293 -0.051150102 -0.07805243
000320 fc 23 9e bd 5f 50 ee bc e5 9c e7 bb 6e cb af 3d
       -0.07721707 -0.029091058 -0.007068264 0.08583723
000330 3d 45 2b 3c f1 05 c7 bd da 49 d7 bc b9 0f f4 3c
       0.010453519 -0.0971793 -0.026280332 0.029792653
000340 ae c4 54 bb 4a be 02 3d 4c d3 b6 3d 50 c5 df 3d
       -0.0032465863 0.031919755 0.089270204 0.10926306
000350 58 9c 8f 3d 74 cd f5 3c 09 5e 6e 3d b8 31 24 bd
       0.07012242 0.030005194 0.058195148 -0.040086478
000360 a0 93 f7 3b 03 5f 5c bd 25 79 7c 3d b9 23 9b bd
       0.00755544 -0.053801548 0.06163897 -0.07575173
000370 3e 84 1a 3a 3a 93 37 bd fe c0 65 3b 15 82 7b bc
       0.00058943394 -0.04481814 0.003505766 -0.015350838
000380 9c b1 b3 bd d5 3b a3 bd 03 65 7d 3d 4a ba d8 bb
       -0.08774111 -0.079703964 0.06186391 -0.0066140043
000390 ec 82 88 3d b7 4a 08 bd 12 e7 d8 bd a6 57 5b bd
       0.06665596 -0.03327438 -0.10590948 -0.053550385
0003a0 37 9d b0 bd 23 b8 a9 3c 37 fd d9 bc 5d 26 e2 bd
       -0.08623736 0.020717686 -0.02661 -0.110424735
0003b0 c0 19 b2 bd 2d 29 f5 3c 4c 86 7d 3d 97 5d ad bd
       -0.08696318 0.02992686 0.061895654 -0.084651165
0003c0 6b 06 93 bd 08 72 c9 3c c5 d1 99 bd ee ab 92 bb
       -0.071789585 0.024590507 -0.075107135 -0.004476062
0003d0 2a 74 23 3d fa af 58 bd 61 58 4b ba fc 36 aa 3c
       0.039905705 -0.0529022 -0.0007757005 0.020778172
0003e0 56 58 c9 ba c3 27 eb bc 21 fd 33 bd 6c 49 9b bd
       -0.0015361409 -0.028705483 -0.043942574 -0.075823635
0003f0 bc 5a 9a bd c3 39 43 3d 05 68 46 bd 60 56 7c bd
       -0.075368375 0.047662508 -0.048439045 -0.06160581

layers.0.bias f4 [256]
000000 c8 c6 e6 bc 58 fb bc bc 4c 0e 06 bd 70 09 e2 bc
       -0.028170958 -0.023069069 -0.03272848 -0.02759239
000010 eb a9 0a bd d8 e0 44 bd 9b ee eb 3c 41 59 a9 3b
       -0.033853453 -0.04806599 0.0288003 0.0051681106
000020 f1 92 26 3d e8 ad ec bc 6b 12 05 3d 00 1a 15 bd
       0.040667478 -0.028891519 0.032488268 -0.03640175
000030 1d b8 d4 bc 57 6e c7 3c a6 35 50 3d dc 91 24 bd
       -0.025966698 0.024344606 0.050832413 -0.040178165
000040 04 20 21 3d c2 27 04 3d d2 69 cc bc b2 5b df bc
       0.039337173 0.03226448 -0.024952803 -0.027265403
000050 b7 d0 1b bd 55 ca df bc b8 49 f3 3c 39 bc e7 bc
       -0.038040843 -0.02731816 0.029698238 -0.028287994
000060 a8 9f cd 3c 91 ad 8b bd 20 fe ea bc fd 67 1d bd
       0.025100544 -0.068202145 -0.02868563 -0.03842925
000070 86 8a 16 3d 02 d7 eb bc 95 da f8 3c 28 4e f6 3c
       0.0367532 -0.028789047 0.030377666 0.030066565
000080 c8 7c e0 3c 8e 11 c4 bc b5 32 e0 3c 37 97 04 3d
       0.02740325 -0.023934152 0.027367929 0.032370772
000090 45 6c bb bc fe 7a ee bc 6a d9 d6 bc 72 be 79 bd
       -0.022878775 -0.029111382 -0.026226718 -0.06097264
0000a0 e9 3d d6 bc 07 8c e8 bc 3f c3 e0 3c df cc fd 3c
       -0.026152568 -0.028387083 0.02743685 0.03098148
0000b0 e0 16 e1 bc 8b 83 5d bd aa 33 07 bd 24 51 e8 bc
       -0.027476728 -0.054080527 -0.033008255 -0.028359003
0000c0 b7 31 ee 3c 1f 14 e7 bc 0e c2 34 3d ed 1d ce bc
       0.02907644 -0.028207837 0.044130377 -0.025160754
0000d0 9d fa 31 bd 65 fa ab bc 6b 40 fe 3c 61 3e 06 bd
       -0.043451894 -0.02099342 0.031036576 -0.032774333
0000e0 ee e3 f6 bc 82 4a e5 bc 5a 85 45 3d ed c7 0c bd
       -0.030137982 -0.02798963 0.048222877 -0.03437035
0000f0 64 b8 08 3d d5 84 29 3d bb af f8 bc 1a ac 04 bd
       0.033378974 0.041386444 -0.030357232 -0.03239069
000100 31 8e f5 3c c1 39 f9 3c f4 0e 2d 3d fd 77 10 bd
       0.029975029 0.030423047 0.04225059 -0.03527068
000110 fd 20 db 3c ba 88 f7 bc 3e 6d d0 bc c2 22 d7 3c
       0.026749128 -0.030216563 -0.025442716 0.026261691
000120 18 d1 ea 3c 9c c0 1c bd ff 2c 00 3d d7 0e 13 bd
       0.028664157 -0.038269624 0.03129291 -0.035902824
000130 25 cf ba bc c4 a0 0b 3d ac 6b d4 bc 2e b2 cb bc
       -0.022803852 0.034088865 -0.025930248 -0.024865236
000140 2f ff 2e bd 3c 05 f5 3c d8 a8 e2 3c bc 47 fe bc
       -0.04272383 0.029909723 0.027668402 -0.031040065
000150 69 23 4c bd 84 b9 eb bc e2 35 e6 bc f2 d7 88 bd
       -0.049838457 -0.028774984 -0.028101865 -0.06681813
000160 68 8a 4f 3d 06 f9 e5 3c 65 b7 f9 3c df 26 02 3d
       0.050669104 0.028072845 0.030482957 0.03177535
000170 82 21 f0 3c 91 70 1e 3c 3d a5 ec 3c 29 2d ea 3d
       0.029312853 0.009670393 0.028887386 0.11434395
000180 32 2a c0 bc b3 81 d5 3c 37 db ec bc 20 bf 08 bd
       -0.02345762 0.026062822 -0.028913124 -0.033385396
000190 d2 94 05 3d bc 0b e2 bc e0 7b 08 bd 57 71 ea 3c
       0.03261263 -0.027593486 -0.03332126 0.028618498
0001a0 b8 54 09 bd 21 97 4b 3d 2f 04 4a bd 8d 5a f1 bc
       -0.03352806 0.049704675 -0.049320396 -0.029462123
0001b0 d9 35 e5 3c 73 f0 cc bc 2c cd f5 bc b0 0b ed 3c
       0.027979778 -0.025016999 -0.03000506 0.028936237
0001c0 97 5c 0c bd ed f3 cd 3c f1 ae ff bc 27 77 db bc
       -0.034267988 0.025140727 -0.031211348 -0.026790215
0001d0 2c d1 f6 bc c5 44 0c bd 03 5c f0 bc f8 85 d1 3c
       -0.030129038 -0.03424527 -0.02934075 0.025576577
0001e0 5a be ff 3c 06 57 06 3d 53 7a e3 bc 42 e8 e8 bc
       0.031218696 0.032797836 -0.02776829 -0.028431062
0001f0 da 9a f8 bc 3c 95 68 3c 17 0e e3 bc 68 36 c2 3c
       -0.030347276 0.0141957365 -0.02771668 0.023707584
000200 30 5e 0b bd 63 57 09 3d 59 1b d6 bc 90 30 1c 3d
       -0.03402537 0.033530604 -0.026136087 0.03813225
000210 bf 64 d2 3c 76 c1 ec bc 78 be 20 bd 47 20 02 bd
       0.025682805 -0.028900843 -0.039244145 -0.031769063
000220 56 9b d9 bc 28 24 64 3d 70 9c 53 3d 4d c0 e3 3c
       -0.026563328 0.055698544 0.051662862 0.027801657
000230 b5 94 f3 3c 26 74 ea bc 6d 1b 60 bc 92 fc c5 3c
       0.029733995 -0.028619837 -0.013678414 0.024168286
000240 80 4b d5 bc 23 f2 09 3d 16 13 f7 3c fb 9d 9a bd
       -0.026036978 0.033678185 0.030160468 -0.07549664
000250 94 b1 e2 bc e4 e0 86 3c bf 31 fc bc 99 a5 f8 3c
       -0.027672566 0.016464658 -0.03078544 0.0303524
000260 6d 95 f0 3c 14 6b e7 3c b4 40 ef bc 4a 86 e6 3c
       0.029368127 0.028249301 -0.029205658 0.028140206
000270 f3 ce ec 3c 47 e2 e2 bc f3 3c ec 3c 3a 26 0d 3d
       0.028907275 -0.027695788 0.028837657 0.034460284
000280 7c c5 df bc 11 2f 1b bd 18 f9 03 3d cf 8e f8 3c
       -0.027315848 -0.037886683 0.032219976 0.030341534
000290 f8 b6 fc bc 2f ef dd 3c c7 33 e9 3c c2 c8 cb bc
       -0.030848965 0.02709159 0.028467072 -0.024876002
0002a0 f5 69 fc bc d1 d1 c1 bc bb 67 ef bc 38 0a 40 bd
       -0.030812243 -0.023659619 -0.029224267 -0.046884745
0002b0 4c 76 fe bc dc 43 f7 bc 45 53 6b 3d c3 16 fc bc
       -0.031062268 -0.030183725 0.05745246 -0.030772572
0002c0 b1 2a e6 bc 32 3c fc bc f6 fa c8 3c 2e e1 e7 3c
       -0.028096529 -0.030790422 0.02453373 0.028305616
0002d0 45 dc d9 3c 33 5f d2 3c 1b 17 f5 3b 46 eb df 3c
       0.02659429 0.02568016 0.007479561 0.027333867
0002e0 10 4b e5 3c b1 25 d8 3c f9 41 eb bc 65 02 50 bd
       0.027989894 0.02638516 -0.028717982 -0.050783534
0002f0 01 a5 ee bc 69 cd c9 bc f5 68 e7 3c 5f a2 f0 3c
       -0.029131414 -0.02463408 0.02824829 0.0293743
000300 d2 d6 0a bd 89 60 ce 3c d5 ad 1b 3d 25 92 05 3d
       -0.033896275 0.025192516 0.038007576 0.032610077
000310 55 d7 de 3c 5b a0 cf bc 4b b7 ea 3c 3f a1 f9 3c
       0.027202288 -0.025345018 0.028651854 0.030472396
000320 73 12 00 bd fe 22 e9 bc 20 3a e1 3c 9c ba fc 3c
       -0.031267595 -0.028459068 0.027493536 0.030850701
000330 33 e5 dd bc 35 8f e4 bc 20 28 d2 3c 72 c4 eb bc
       -0.02708683 -0.027900318 0.025653899 -0.028780196
000340 c2 1a c5 bc a1 fc ff bc 5b 3e eb 3c 9b f0 f1 3c
       -0.02406061 -0.031248393 0.028716257 0.029533675
000350 20 24 eb 3c 26 f8 90 3d c7 a9 15 3d 78 79 f1 3c
       0.02870375 0.070785806 0.036538865 0.029476866
000360 61 f3 d2 bc 71 bb e9 bc b6 92 16 bd 98 72 ba bc
       -0.025750818 -0.028531762 -0.03676101 -0.02275972
000370 2c aa 0b bd 8b e6 07 bd e5 0d 32 3d 28 d6 1c 3d
       -0.034097835 -0.033178847 0.043470282 0.038290173
000380 e4 10 ea bc 32 a8 06 bd 6f a5 1c 3d 10 b4 dc 3c
       -0.028572507 -0.032875247 0.038243707 0.02694133
000390 6d 8b 09 bd 51 c3 f9 bc 72 3e d7 bc 75 c9 05 bd
       -0.033580232 -0.030488642 -0.026274893 -0.032662828
0003a0 0c 58 14 3d b9 30 eb 3c 67 e6 ef 3c 09 f3 05 bd
       0.03621678 0.028709756 0.02928467 -0.03270248
0003b0 41 b2 82 bd ae ee 90 3d e7 e7 f0 bc 23 a9 ed 3c
       -0.063816555 0.070767745 -0.029407455 0.029011315
0003c0 5e 8b f7 3c fd eb ca 3d 14 ed fe 3c ab bb 02 bd
       0.030217823 0.099082924 0.031118907 -0.031917255
0003d0 76 61 e4 bc ba b5 e7 3c 54 af eb 3c e6 09 b7 bc
       -0.027878504 0.028284896 0.028770126 -0.022343587
0003e0 09 ab f9 bc d1 c7 fa bc 91 c1 e1 3d b9 d9 8b 3d
       -0.030477064 -0.030612858 0.11023248 0.06828637
0003f0 7c 6c 76 bd fb 6b d2 bc 51 82 e8 3c 72 72 ed bc
       -0.060162053 -0.025686255 0.028382452 -0.028985236

predict.weight f4 [1, 256]
000000 79 26 24 bd 60 42 12 bc 19 74 43 bd 12 97 03 bd
       -0.040075753 -0.008926958 -0.04771814 -0.032126494
000010 d7 89 40 bd aa 95 d7 bc 3a 0d 8a 3d bc 35 cf 3a
       -0.047006454 -0.026316483 0.06740804 0.0015808861
000020 98 8d a9 3c 06 77 95 bd 75 36 0e 3d 63 ce 31 bd
       0.0206974 -0.072980925 0.034719903 -0.043409716
000030 41 9f 17 bd ee f7 16 3d 42 d0 b2 3c 83 78 ba bc
       -0.03701711 0.036857538 0.02182782 -0.022762543
000040 3e 51 b9 3c 32 ce ed 3c c7 4f 11 bd 12 50 7e bd
       0.022621747 0.029028986 -0.035476472 -0.06208808
000050 da 5d 07 bd cb 24 74 bd d7 45 96 3d 54 b8 a1 bd
       -0.03304849 -0.0596054 0.0733754 -0.07896486
000060 1b dc 3f 3d eb c7 a6 bc 6f 47 5c bd bf 44 f5 bc
       0.04684077 -0.020359 -0.053779062 -0.029940007
000070 3a ec 18 3d a7 a7 95 bd f8 0d 54 3d 6d c5 29 3d
       0.03733466 -0.07307368 0.051771134 0.041448046
000080 0a 85 97 3d 3e 16 ec bc dd a0 90 3d 29 c0 11 3d
       0.07398422 -0.0288192 0.07061932 0.03558365
000090 1f d6 39 bc 24 db 58 bd 56 22 27 bd 30 78 c3 bc
       -0.011342554 -0.052943364 -0.04080423 -0.02386102
0000a0 d9 e9 43 bd 6d 83 77 bd f6 2e 87 3d d4 4c e1 3c
       -0.047830436 -0.06042807 0.06600754 0.027502455
0000b0 51 a1 76 bd 4c 64 a6 bc 8a 16 3b bd 04 ef 3a bd
       -0.060212437 -0.020311497 -0.04567579 -0.0456381
0000c0 18 28 03 3d 85 10 4a bd 85 aa 89 3d 17 59 7a bd
       0.03202066 -0.04933216 0.06721977 -0.06112012
0000d0 b5 85 c4 bc 3d 98 7c bc c0 e1 09 3d 74 08 e1 bd
       -0.023989538 -0.015417156 0.033662558 -0.109879404
0000e0 e1 aa 82 bd 84 e3 87 bd ea 1c 9e 3c ca 24 8c bd
       -0.06380249 -0.06635192 0.019300897 -0.068429545
0000f0 e6 b9 05 3d 89 dd 09 3d b6 73 80 bd ec 66 c3 bc
       0.03264799 0.033658538 -0.0627207 -0.023852788
000100 d1 08 b0 3d 49 68 4f 3d 84 e3 4e 3d da 3b 81 bd
       0.085954316 0.050636563 0.050509945 -0.06310244
000110 75 f5 4b 3d 67 13 67 bd 02 3e a5 bc d5 8f 33 3d
       0.049794633 -0.056414988 -0.02017117 0.04383834
000120 05 3a a6 3d c9 79 b6 bc 75 c7 48 3d d8 99 e6 bc
       0.08116535 -0.022274869 0.049018342 -0.02814953
000130 ad 49 79 bc 65 57 cb 3c 05 ae 40 bd 1f 54 7c bd
       -0.01521532 0.024821946 -0.047040958 -0.06160366
000140 47 3d a7 bc 3a 16 2b 3d b4 2f 3c 3d da 8b 0a bd
       -0.020414962 0.041769244 0.04594393 -0.03382478
000150 b6 ee ca bc db c7 2c bd 41 3c 67 bd 35 23 af bc
       -0.02477203 -0.042182785 -0.056453947 -0.021379093
000160 c3 4b ca 3c c7 05 4e 3d 3e 51 82 3d e3 20 1f 3d
       0.02469433 0.05029848 0.06363152 0.038849723
000170 48 f9 65 3d 84 41 40 3b f3 a7 5f 3d 98 ed 9e 3d
       0.056145936 0.0029335925 0.05460353 0.07760161
000180 20 00 cb bc e1 ea 2f 3d 95 8c 87 bd 0c 96 1c bd
       -0.024780333 0.042948607 -0.06618611 -0.038229033
000190 67 c3 0f 3d d0 c4 86 bd 43 c7 b2 bc 3f ef 9e 3d
       0.03509846 -0.06580508 -0.021823531 0.07760476
0001a0 14 a2 da bc e2 7d 29 3d 8d 71 73 bc 97 b7 35 bd
       -0.026688613 0.041379817 -0.014858616 -0.044364538
0001b0 0f 94 47 3d 74 ae 1f bd 04 30 ad bc 95 fa 4a 3d
       0.048725184 -0.03898473 -0.02114106 0.04955538
0001c0 ff 09 33 bd d0 79 00 3d 3a 0e e5 bc e9 cd 7a bd
       -0.043710705 0.03136617 -0.027960885 -0.061231527
0001d0 21 76 7d bd 9a 89 1a bd c3 73 50 bd fd 0d 82 3d
       -0.061880235 -0.037728883 -0.05089165 0.06350324
0001e0 c9 df 8c 3d d4 b2 53 3d 49 47 88 bd f8 2d 8b bd
       0.06878621 0.051684216 -0.066542216 -0.06795877
0001f0 a0 4a 27 bd 7a c6 dc 3b 12 40 86 bd 5b f3 12 3d
       -0.040842652 0.0067375274 -0.06555189 0.035876613
000200 9a 7f 04 bd 0a 2d 2f 3d 36 dd 06 bd ec d8 bd 3c
       -0.032348253 0.042767562 -0.032925807 0.023174725
000210 ce 0c 4d 3d a9 dc 5e bd 47 fd c2 bc c4 6e 2b bd
       0.05006104 -0.054409657 -0.023802413 -0.04185368
000220 1f 99 83 bd 27 65 5d 3c 47 86 5c 3c 9d 70 9d 3d
       -0.0642569 0.013512886 0.013459749 0.07687495
000230 18 1b 27 3d 0a 58 72 bd 63 06 97 bb 8d a3 d4 3c
       0.040797323 -0.05916599 -0.0046089157 0.025956893
000240 ee 27 4e bd 76 20 b2 3c cd 54 44 3d d9 09 c3 bc
       -0.05033105 0.021743994 0.047932435 -0.023808407
000250 de 4a 96 bd 60 e2 90 3b 07 31 f6 bc ef 9a be 3d
       -0.073384985 0.0044215173 -0.030052675 0.09306895
000260 b8 ab 81 3d 70 8d 1c 3d 17 1f 34 bd 98 26 90 3d
       0.06331581 0.038220823 -0.043974962 0.07038611
000270 f3 40 6a 3d 7a f1 90 bd 44 ba 67 3d c2 6d e1 3c
       0.057190847 -0.07077308 0.05657412 0.027518157
000280 dc bf 94 bd e8 f2 18 bd f2 ed 97 3d c8 16 d9 3c
       -0.07263157 -0.03734103 0.07418431 0.02650012
000290 19 08 4f bd c5 8d 67 3d 27 45 7f 3d b1 9a 85 bd
       -0.050544832 0.056531686 0.06232181 -0.06523646
0002a0 4a fb 14 bd 61 a2 b9 bc 73 8c 7e bd 9b 40 dc bc
       -0.03637246 -0.022660436 -0.06214566 -0.026886275
0002b0 2a 32 34 bd 5f 8e 71 bd 8e 08 15 3d a3 b7 5a bd
       -0.043993153 -0.058973666 0.03638511 -0.053397786
0002c0 d1 b9 5a bd 2c 2b 77 bd 22 c4 6f 3d 13 54 87 3d
       -0.053399865 -0.060343906 0.058536656 0.06607833
0002d0 57 9e 85 3d 4b fc c2 3c bd 71 24 3b d3 27 80 3d
       0.065243416 0.023801943 0.0025092207 0.06257596
0002e0 9d 82 82 3d 19 8f 65 3d 7b a1 53 bd 20 26 dd bc
       0.06372569 0.05604467 -0.05166767 -0.026995718
0002f0 25 c6 5e bd 32 65 03 bd d2 90 8b 3d 5c 88 b8 3d
       -0.054388184 -0.03207893 0.06814732 0.090103835
000300 ee 9f 33 bd cc 59 65 3d 41 62 d7 3c 49 7b 1a 3d
       -0.043853693 0.05599384 0.026291968 0.03771523
000310 eb 6b 82 3d a2 03 75 bd d4 c0 92 3d cd ad 3c 3d
       0.0636824 -0.059817918 0.07165685 0.046064187
000320 c0 c8 03 bd c1 f9 55 bd ca 31 84 3d b7 ff 39 3d
       -0.032173872 -0.052240137 0.06454809 0.045409884
000330 b0 fb 94 bd e3 70 9b bd f0 d5 1a 3d 86 a0 7c bd
       -0.07274568 -0.07589891 0.037801683 -0.061676525
000340 aa a8 42 bc 6f 13 04 bd 69 2a 62 3d 50 d2 65 3d
       -0.011881033 -0.032245096 0.055216227 0.056108773
000350 41 e7 a1 3d 71 39 54 3d 90 f7 e1 3c 45 a8 59 3d
       0.07905436 0.051812593 0.027583867 0.05313899
000360 b5 85 81 bd 29 d3 7c bd 71 d4 20 bd c1 a3 f7 bb
       -0.06324331 -0.061724816 -0.0392651 -0.007557363
000370 35 d1 03 bd 06 a6 54 bd ea 8c 84 3d ea 13 0a 3d
       -0.032181937 -0.051916145 0.0647219 0.033710398
000380 1c 08 99 bd 30 72 f1 bc 85 21 c6 3c fd 52 3a 3d
       -0.0747225 -0.029473394 0.024185905 0.0454893
000390 04 07 24 bd 04 c7 05 bd aa ea 5c bd 9c 48 35 bd
       -0.040045753 -0.0326605 -0.05393473 -0.0442587
0003a0 22 c3 3c 3d 1b 45 a6 3d cc 2e 6c 3d 37 27 2e bd
       0.04608453 0.081186496 0.057661816 -0.042517867
0003b0 1d 65 83 bd e6 a3 c4 3c 91 41 17 bd ee 1c 10 3d
       -0.0641577 0.024003934 -0.036927763 0.03518384
0003c0 e5 7c 60 3d b4 86 3a 3d 2a 9c 57 3d 9a c3 86 bd
       0.05480661 0.04553862 0.052639164 -0.06580277
0003d0 11 04 88 bd 3a b5 4f 3d 3d 3f 4f 3d 6a 2a 9b bc
       -0.066414006 0.05070994 0.050597418 -0.018941123
0003e0 e6 83 40 bd db 5c 60 bd 10 1b c5 3d 48 6e c0 3c
       -0.04700079 -0.054776054 0.096243024 0.023490086
0003f0 b0 92 a0 bc cb 5a 06 bd 91 43 88 3d 03 45 7c bd
       -0.019601196 -0.03280143 0.06653512 -0.061589252
