PERGAT_embbedding/data/emb/models/model_dim128_lay2_epo34.pth (torch, 137088 bytes, 7 tensors)

linear.weight f4 [128, 1]
00000000: 3271 1bbf e064 ee3e 7473 c4be a80d 003e
00000010: 5a67 613f b027 eabd d852 45bf fe31 67bf
00000020: 90b3 39be f857 1c3e 206d 41bd 0e48 5f3f
00000030: 3255 20bf 9421 ac3e f0e3 dc3d 6ecd 53bf
00000040: f048 773f 0407 a6be b0e5 87be 8c85 7e3f
00000050: 5885 0a3e d4ce 423f 8eae 6e3f a817 6bbe
00000060: 0cfa b1be d81b e5be 10db cabd 6291 2f3f
00000070: 5817 6a3e f0d6 9abe 00f8 953c fe84 353f
00000080: ee1d 3e3f 843a eabe 10e1 00be 68ba 583e
00000090: d82b d13e 866d 1bbf 9067 0d3f ee41 6fbf
000000a0: f643 40bf 84d5 783f 6c96 76bf c0a9 24bd
000000b0: a089 4c3e c00c 123f 30b8 62be a8bb f7be
000000c0: b8fc d8be 30a6 aabd 2037 513f 7273 243f
000000d0: 18a1 69be 7483 e2be 7008 edbe 285f d2be
000000e0: 3e4e 3abf 1cc3 793f 807b d83c 7813 2d3f
000000f0: b8db 2d3e 5a89 563f 005c e2bb f82f 1f3f
00000100: e0b0 5ebf 8ad7 56bf e2d8 3cbf 6469 eebe
00000110: ccf8 153f 8887 90be c83f eabe 882e a33e
00000120: 3841 2f3f 66b4 003f 98a5 ad3e bc1b c3be
00000130: a070 b3be 680e 7a3f 547e dfbe feaf 5a3f
00000140: 9c72 10bf fa60 0ebf 2814 953e 5ae9 373f
00000150: 28d1 703f 2c3f 6ebf 20b0 9c3d 64bd 3b3f
00000160: f010 dbbe f055 1dbf 54cc 703f 3417 e8be
00000170: 0069 bbbc 50a6 0fbe f8fb 56be 00dc 3ebd
00000180: c0c8 f93d 3434 343f a88e 31bf d011 dbbd
00000190: 004c d0ba 500f a13d 68ba 11bf d4dd 83be
000001a0: ba42 163f cc09 d0be 4ee3 64bf d250 4fbf
000001b0: 50d8 b13d 5e13 693f a0a1 7e3d 80b7 2fbf
000001c0: ccf5 533f 7860 a73e 4e3e 4fbf 80c5 c8bd
000001d0: fccf 7ebf dc7e 02bf 603c 523d fe60 21bf
000001e0: f087 1abf 7879 f1be 80b8 dfbe 4ce8 c53e
000001f0: 2e0d 003f 167f 14bf 0c28 be3e c8f0 51be
-0.607196 0.46561337 -0.38369334 0.1250521 0.88048327 -0.11433351 -0.77079535 -0.9031066
-0.18134904 0.15267932 -0.04722321 0.8721932 -0.6263 0.33619368 0.10785663 -0.82735336
0.9659567 -0.32427227 -0.26542425 0.99422526 0.13527429 0.76096845 0.932351 -0.22958243
-0.34761083 -0.44747806 -0.09905064 0.6858121 0.22860467 -0.3024211 0.018306732 0.70906055
0.7426442 -0.4574777 -0.12585855 0.21164858 0.40853763 -0.60713995 0.5523615 -0.93459976
-0.751037 0.972008 -0.96323276 -0.04020095 0.19974375 0.57050705 -0.22140574 -0.48385358
-0.4238031 -0.08332479 0.8172474 0.64238656 -0.22815359 -0.44240916 -0.462955 -0.41088223
-0.7277564 0.9756334 0.026426077 0.6760783 0.16978347 0.8380333 -0.00690794 0.6218257
-0.8698864 -0.83922637 -0.73768437 -0.46564782 0.5858276 -0.28228402 -0.45751786 0.31871438
0.6845889 0.50275266 0.339154 -0.38107097 -0.35046864 0.9767823 -0.43651068 0.8542479
-0.5642488 -0.55616724 0.2911694 0.7184044 0.9406915 -0.9306514 0.07650781 0.7333586
-0.4278636 -0.61459255 0.9406178 -0.45330203 -0.022877216 -0.14028287 -0.20994556 -0.046596527
0.12196493 0.70392156 -0.693583 -0.10696757 -0.001589179 0.07864249 -0.5692506 -0.2575518
0.58695567 -0.40632474 -0.8940934 -0.80982697 0.086838365 0.91045177 0.062165856 -0.68639374
0.8279693 0.32690787 -0.80954444 -0.09803295 -0.9953611 -0.5097482 0.05132711 -0.63038623
-0.60363674 -0.47162986 -0.4369545 0.3865379 0.5002011 -0.5800642 0.37139928 -0.20502007

linear.bias f4 [128]
00000000: eb1d 39bf c69e 9b3e 613b 6a3f 060d 70bf
00000010: b99b 14bf 3fb4 01bf a840 06bf db50 febd
00000020: 096e 7e3f 2a42 163f 6192 f43e 7153 37bf
00000030: 24ef 253f efd3 24bf c943 9ebe e3c8 913e
00000040: 01ae 5d3f f1d1 c63e d949 923e 13d5 143e
00000050: 53b4 233f c7bc 783f 2f06 29be 2138 d7be
00000060: a2ce 03bf 3912 17bf c864 83be 5082 603f
00000070: 88b4 1b3f d822 1dbf 74c7 5ebf 6b55 203f
00000080: 9082 f13e 7f89 74bd 0e3b dc3e 522e 3ebf
00000090: 1d96 503f 700b fb3e 65e2 efbe fabf e7be
000000a0: 60c5 b03e c0e1 75bf 844a 513f 810c ccbe
000000b0: 31d2 75be 2d2e 963d 79e3 5c3f e0a2 ccbe
000000c0: 4d53 c7be 21af 25bf 3497 703f 30ef 4a3f
000000d0: 9814 5c3f 5e0d 333f f16b 83be 1fc9 2e3f
000000e0: aeee 033f b1f1 363f 3033 453f 9ad5 2dbf
000000f0: 136c f43d 03d3 ae3e c603 11be bee2 1f3e
00000100: 4547 75bf 80b9 b83e f2a5 4bbe 7f9c 853d
00000110: 96c7 c53d 684c e3bd f970 5abf 5ea5 50bf
00000120: 10ce 963e d525 7dbf b017 a23e ec40 69bf
00000130: b3ba afbe 2d37 b03e 06c6 a03e 9586 dabe
00000140: 66c5 693f 1397 0abf efad 2abf b456 42bf
00000150: e956 053f 355d 203f af6b 2d3f ebef 8ebe
00000160: c2ae d53e 36f6 abbe c5c7 8dbe 5caf 02be
00000170: 2ee8 0c3f f227 223f cb67 1fbf 0982 b33e
00000180: afda cf3c f81f 563f d830 c83e 2d0f 20bf
00000190: 5988 1cbe f550 0dbf 74ad 643e c4a8 a73e
000001a0: 3673 163f 130e b5bd c842 47bf 581d 22bf
000001b0: 9726 09bf f3d7 a83e 0c13 dbbe f1c2 39be
000001c0: 95dc 8a3d 508c aabe 27f6 67bf 9a0e 423f
000001d0: 8c00 333f 3c42 6ebf 8e6d 4abf 082c a4be
000001e0: c878 c1bd 26d5 203f 781f b2bc 1789 363f
000001f0: c99e 7dbf 3373 dd3e 3ae4 723f 9623 8b3b
-0.72311276 0.30394572 0.91496855 -0.9376987 -0.58050114 -0.5066566 -0.5244241 -0.12417766
0.9938665 0.5869471 0.47767928 -0.71611696 0.64818025 -0.64385885 -0.3091109 0.28473577
0.86593634 0.38832048 0.28571966 0.14534406 0.6394703 0.9716305 -0.16506265 -0.4203501
-0.5148717 -0.5901218 -0.25662827 0.8769884 0.60822344 -0.6138129 -0.8702309 0.6263034
0.47169924 -0.05970144 0.43013805 -0.7428943 0.81479055 0.49032164 -0.46852413 -0.45263654
0.34525585 -0.9604759 0.81754327 -0.3985329 -0.24005963 0.07333026 0.86284596 -0.39968014
-0.3893074 -0.6472035 0.9398072 0.7927122 0.85968924 0.6994227 -0.2566829 0.68275636
0.5153607 0.7146254 0.7703123 -0.67904055 0.11934676 0.34145364 -0.14161596 0.15613839
-0.95811874 0.36079025 -0.19887522 0.0652399 0.096572086 -0.11098558 -0.8532863 -0.8150233
0.29454088 -0.9888585 0.31658697 -0.9111469 -0.34322128 0.34417096 0.3140108 -0.42680803
0.9131683 -0.5413677 -0.6667165 -0.7591355 0.5208574 0.6264222 0.6774244 -0.27917418
0.41734892 -0.33586282 -0.27691475 -0.12762207 0.5504178 0.633422 -0.6226775 0.35060146
0.025372831 0.8364253 0.39099765 -0.62523156 -0.15286388 -0.55201656 0.22331792 0.32745945
0.5876955 -0.08840575 -0.77836275 -0.63326025 -0.5357451 0.32977256 -0.4278797 -0.1814077
0.06780354 -0.33310175 -0.90609974 0.7580353 0.6992271 -0.93069816 -0.7907342 -0.32064843
-0.09446865 0.6282524 -0.021743521 0.7130293 -0.9907041 0.43251953 0.94879496 0.0042461855

conv_0.weight f4 [128, 128]
00000000: 95d2 db3d 85a7 123d d7cd ecbd fbd1 b3bd
00000010: 6718 3fbd 0206 bebd f352 33bd 55dd 0fbe
00000020: 8235 d3bc db10 c6bd c86b 02bd 6149 c5bd
00000030: 46a7 193e b5ac 163e bcb5 97bd f704 a8bd
00000040: d6de 2e3a 6337 f2bb 36a8 d43d 8b4d 59bd
00000050: 850f c73d 80ef fabb 04d5 c03d ee67 6dbd
00000060: 3886 32bc e01b 903d 2914 62bc ae8e 1cbd
00000070: 9ad2 9bbd 65a5 a93d 97bd 8b3c 6302 c5bd
00000080: 9cc8 e1bd 2ff7 1ebd 381c d73d 05e2 06be
00000090: 23b3 1cbd d959 f8bd 3867 f4bd 7a0a 5cbc
000000a0: 22f8 a73d d26f 9d3c d5a3 b73d 70ab 963d
000000b0: f647 a8bd 539d 89bd f537 163e 266b da3c
000000c0: 2c44 8e3d 905d b03d 2d55 203d 38d1 4dbd
000000d0: 322d f63d 35ee 043c db9e e0bd f014 a83c
000000e0: dde3 703c 669e c93d 615c 0d3e 48cd a43d
000000f0: 900b 103d f1ef 113e 7883 c0bd 2f89 b9bd
00000100: 1159 f4bc 10d3 1f3e 5f75 1d3c 3ef9 54bd
00000110: d124 6d3c 935c 95bd caf2 693d bfa8 ee3c
00000120: 2275 cbbd ff92 19be f0fe f8bd 3785 f83d
00000130: 09db 9d3c f6ce b1bd 1276 ef3d be20 503d
00000140: 293a 043e 348c 9d3d 5525 20be 027a ce3d
00000150: a767 2bbd 477a 13be a46d b13d 1e8e 14bd
00000160: e7a3 8c3c 2689 14bd d2ae 7abd 4fae d9bd
00000170: 4339 0c3e 6506 bbbd ec18 f73c c7d8 cabd
00000180: a2ac 0e3e ec5d 043e 2993 b63d badd 0c3e
00000190: de49 453d 2523 543d d5d9 76bd a4cc bebd
000001a0: 55d5 d93a 45bb ed3d e331 a33d 7182 1a3e
000001b0: a7e4 813b 8c8c f73d ca38 e83d 5a96 dabd
000001c0: 1c40 10bd fe4b a13d 3912 8b3c 48ed 99bd
000001d0: 4fce c6bd f8f9 72bd 3b9a 033e 4a77 ef3d
000001e0: fc6e 0b3d 9082 663d 6e37 f73d 4358 1bbd
000001f0: 59ed edbd 080a 20be 156e 4bbd bed6 be3d
00000200: e921 afbd 0c7d 4fbc 5524 fc3d 5ddd 06be
00000210: 1ee1 86bd b46d cebd fdce c4bc 45c3 9dbd
00000220: 052f 27bd 48ce 283c c766 00bd d927 0cbe
00000230: 7080 d23d 138e 69bc 7864 123e 74c4 cf3d
00000240: c2e1 cfbc 123c 9abd 3b44 afbb ac33 01bd
00000250: 92cb 803d ac8f db3c dada e5bb 671c b93c
00000260: abda c83c 8ec3 b8bc ab84 023e f4c5 b4bd
00000270: a26d b73d e7d9 9a3d 4bde 1abc c36c 12be
00000280: d370 f43c e0d1 adbd 3960 fcbd 6dc1 7c3d
00000290: f19e b93c 1886 04be 05ee 8c3d 846f 063e
000002a0: e5dc a9bd ff31 4a3d 3ccc 2f3d 57c1 713d
000002b0: 21d5 f83d 469a 8d3d c737 b03d 19aa eabd
000002c0: 3cde d63b 250e 9bbd a169 ef3c e8e1 86bd
000002d0: 9849 ee3d 64fe 09be 6d0c f93c 6bec 12bd
000002e0: 4ada 7dbd 78df c13d ea97 c2bd a497 53bc
000002f0: cb0b b73d c63c d7bd ea4b 883d 4b35 873d
00000300: 7bdb 0f3e 250d c1bd 387f ed3d f967 0f3e
00000310: 4471 d03d 6c6d f7bd f49b debd 7980 ad3d
00000320: 14da d1bd aeec f5bd 52ee e5bc e94b 6a3d
00000330: fa6a 7ebd 9703 34bd cbd7 003c 5b35 6abc
00000340: e368 da3c a5cb f2bc 7bbd 51bd 5a59 1fbe
00000350: a468 1bbe 05ed 163c 1255 b8bd c84a e13d
00000360: 3f69 11be b3f7 abbd 407c 0b3e c42a 07bc
00000370: 5851 debd bb0c c9bd 2961 42bc 92bd 433d
00000380: 6597 57bd e321 833d 3393 a2bc 691e 93bc
00000390: 26db 0f3e 7a3b ebbd f0bd 8d3d 30c1 893d
000003a0: 6ac7 1ebe 54ae 63bb f9f4 803c 942d 083e
000003b0: 8475 f6bc 2b9b b8bd d003 77bc b353 37bb
000003c0: bc79 b53d 588e cd3d ff6c 0f3d 0c02 f0bd
000003d0: f41f 7e3b bf4a b3bd 46db 70bd a2a2 b23d
000003e0: 57e1 313d c4b9 1dbe a86a 213d 9832 0dbd
000003f0: 87dd aabd b031 a23c 8ccb 68bc 66b1 b3bc
0.10733525 0.03580429 -0.11562698 -0.08780285 -0.04665413 -0.0927849 -0.04378028 -0.14049275
-0.02578235 -0.09671184 -0.03184107 -0.096331365 0.15005216 0.1471432 -0.0740771 -0.08204072
0.00066707784 -0.0073918565 0.10383646 -0.053052466 0.09719757 -0.007657945 0.094156295 -0.057960443
-0.010896258 0.07036567 -0.013798752 -0.038222007 -0.076085284 0.082835 0.017058177 -0.09619596
-0.11024591 -0.03880995 0.10503429 -0.13172157 -0.038256776 -0.12126512 -0.1193375 -0.013430232
0.082016245 0.01921836 0.08966795 0.07356918 -0.082168505 -0.0671946 0.14669783 0.02666242
0.069465965 0.08611596 0.03914373 -0.050248355 0.12020339 0.008113434 -0.10967799 0.020517796
0.014702764 0.09844665 0.13804771 0.08046967 0.035167277 0.14251687 -0.09400076 -0.09059369
-0.029827626 0.15607858 0.009610503 -0.05199551 0.01447411 -0.07293048 0.057116307 0.029133199
-0.09934451 -0.14997481 -0.121580005 0.12134784 0.019269483 -0.08682053 0.11692442 0.050812475
0.12912811 0.07692757 -0.15639241 0.10081865 -0.041846897 -0.14402114 0.086634904 -0.036268346
0.017167998 -0.036263607 -0.061201878 -0.1062895 0.13693719 -0.09132079 0.03016325 -0.09904628
0.13933042 0.12926453 0.08914787 0.13756457 0.04816615 0.05179133 -0.060266335 -0.09316376
0.0016619364 0.116079845 0.079684995 0.15088822 0.003964025 0.12087354 0.11338957 -0.106732085
-0.03521739 0.078758225 0.016976463 -0.07515961 -0.09707319 -0.05932042 0.12851803 0.116926745
0.03404139 0.056276858 0.12071119 -0.03792597 -0.11617536 -0.15628827 -0.04966553 0.093183026
-0.0855139 -0.012664091 0.12311617 -0.13170381 -0.065859064 -0.10079518 -0.024024481 -0.0770326
-0.040816326 0.0103030875 -0.031348016 -0.13687076 0.10278404 -0.014255065 0.14296138 0.10144892
-0.025376204 -0.07530989 -0.00534871 -0.03154342 0.06288828 0.026801907 -0.0070146145 0.022596551
0.024518332 -0.022554185 0.12745921 -0.08826819 0.08956458 0.07561093 -0.009452413 -0.14299302
0.029838955 -0.08487296 -0.123230405 0.061707903 0.022658797 -0.12941778 0.06881336 0.13128477
-0.082940854 0.049364086 0.042919382 0.059022274 0.12150026 0.06914191 0.08604389 -0.11458225
0.006557254 -0.07571057 0.029225172 -0.06586057 0.11635131 -0.13475949 0.030401433 -0.035869997
-0.061975755 0.094664514 -0.095016316 -0.012914572 0.08937796 -0.105096385 0.066551045 0.06601962
0.14048569 -0.09426335 0.11596531 0.14004506 0.10177854 -0.120814174 -0.108695894 0.0847177
-0.10246673 -0.12008034 -0.028067742 0.0572013 -0.06211374 -0.043948736 0.007863949 -0.0142949475
0.026661342 -0.02963812 -0.051206093 -0.15561429 -0.15176636 0.009211783 -0.09000601 0.110005915
-0.14200304 -0.08396854 0.13621616 -0.008249942 -0.10855359 -0.09816881 -0.011863985 0.04778821
-0.052634615 0.06402948 -0.01984558 -0.017958837 0.14048442 -0.11485954 0.06920993 0.06726301
-0.15505758 -0.0034741359 0.015741812 0.13298637 -0.030085333 -0.09013971 -0.015076593 -0.0027973473
0.088611096 0.100369155 0.035016056 -0.117191404 0.003877637 -0.08754491 -0.058802865 0.08722426
0.04342779 -0.15402895 0.039408356 -0.034472078 -0.08343034 0.019799083 -0.014208686 -0.021935176

conv_0.bias f4 [128]
00000000: 7142 2fbb 6886 27bb 9a1b 67bb f62d 1cbb
00000010: d67c 3a3b f6cb 56bb 066a 59bb 628c 3fbb
00000020: 849e 413b ef91 753b 2505 45bb fa20 483b
00000030: 03fc 313b 2a41 513b f3dc 3bbb f8b1 543b
00000040: 2813 523b 4389 513b 5954 1abb 7875 6e3b
00000050: 16bb 3ebb 6276 1bbb 13d7 13bb 8870 47bb
00000060: de33 b0ba e472 61bb 8206 493b a345 183b
00000070: 433e 47bb be44 1cbb 193f 583b a6b0 5a3b
00000080: e243 fd3a 380c 5ebb e8b3 59bb 5d68 303a
00000090: 6e86 593b 5d9c 433b 19a7 ea3a 9020 3f3b
000000a0: 61bd 51bb 2ea9 5abb ea76 1abb 3e57 62bb
000000b0: caef 54bb a5b6 37bb bc8a 5bbb 6bc4 523b
000000c0: 6fcc 523b 882a 2cbb 23c5 583b b91f 5c3b
000000d0: 1ee6 42bb 4298 53bb 6fce 553b e9e2 f3ba
000000e0: c911 53bb 3608 463b cecc 533b 6dcb 413b
000000f0: bec7 f5ba 9ab0 e83a d071 513b 5641 52bb
00000100: 9d08 483b 6092 55bb cbaf b7ba 091c 1ebb
00000110: 4389 51bb 76fe 5f3b 7d00 efba c239 52bb
00000120: 7792 593b 6655 513b ef0d 543b 4c9a 57bb
00000130: 15a3 5b3b a23a 523a 882c 313b cb31 5abb
00000140: a027 5f3b 661d 5c3b ffa3 683b 595e 59bb
00000150: d4a3 45bb f366 583b 8d4d 40bb a3a9 54bb
00000160: 00f0 483b bc2c 413b a0a5 29bb 9954 553b
00000170: ab7f 523b e48c 613b ea3e 48bb 2939 4abb
00000180: fb11 473b 4be6 3f3b 2e75 3f3b 3b3e 75ba
00000190: 40d6 403b 29fd 523a 4ae3 9839 4a19 15bb
000001a0: f35f 5bbb 1b39 653b a367 55bb dcc8 51bb
000001b0: 28e9 50bb b7a8 6f3b 55c1 6e3b dcea 0bbb
000001c0: 9acc cbba a702 5f3b 4f4d 3e3b 30bc 5abb
000001d0: 7ec2 45bb 1083 80ba ac99 aeb9 d8de 873a
000001e0: 25fc 573b ee3e 51bb b74c 553b 2ce6 b2b9
000001f0: ef0b 59bb f0b0 573b ebfb 56bb 2c10 543b
-0.0026742483 -0.002556229 -0.0035264255 -0.0023831106 0.0028455756 -0.0032775379 -0.0033174767 -0.0029227962
0.0029543946 0.0037471016 -0.003006288 0.0030537234 0.0027158267 0.003192971 -0.0028665632 0.003245471
0.0032054875 0.0031972684 -0.002354881 0.0036385935 -0.002910321 -0.0023721685 -0.0022558614 -0.0030432064
-0.0013443192 -0.0034400756 0.0030674045 0.0023234866 -0.00304021 -0.0023844684 0.0032996594 0.003336945
0.0019322599 -0.0033881795 -0.0033218805 0.00067294185 0.0033191699 0.0029847838 0.0017902582 0.0029163696
-0.0032003748 -0.0033365 -0.0023569413 -0.0034536864 -0.0032491558 -0.0028032449 -0.003349944 0.0032160531
0.003216531 -0.0026270468 0.0033076487 0.0033588244 -0.0029739211 -0.0032286798 0.0032624265 -0.0018607053
-0.0032206646 0.0030217296 0.0032318118 0.0029570714 -0.0018751544 0.0017752827 0.0031958707 -0.00320824
0.0030522712 -0.0032588467 -0.0014014182 -0.0024125597 -0.0031972684 0.003417877 -0.0018234398 -0.0032077883
0.0033198872 0.003194177 0.0032356938 -0.0032898365 0.0033513953 0.0008019601 0.00270346 -0.003329384
0.0034050718 0.0033586859 0.003549814 -0.0033167808 -0.0030157464 0.0033020347 -0.00293431 -0.0032449744
0.003066063 0.0029476127 -0.0025886074 0.0032551645 0.0032119553 0.0034416253 -0.0030555078 -0.0030856824
0.0030375707 0.0029281552 0.0029214132 -0.00093552814 0.0029424578 0.0008048588 0.00029161043 -0.002275067
-0.0033473938 0.0034976664 -0.0032562993 -0.003201059 -0.0031877253 0.0036569068 0.0036431153 -0.0021349704
-0.0015548647 0.003402868 0.0029037779 -0.0033376329 -0.003017574 -0.0009804685 -0.0003330236 0.0010366095
0.0032956686 -0.0031928378 0.0032546946 -0.00034122297 -0.0033118685 0.003291186 -0.0032803963 0.0032358272

layers.0.weight f4 [128, 128]
00000000: 3a44 0f3e 7fbf 8fbc 5d98 ed3d 14e2 d73d
00000010: d03d 9b3d 18c1 7a3c 96cc 043e 47f5 11bd
00000020: 00fa af3d 8076 2e3a f460 333c fb93 e5bd
00000030: c0ce ad3d 1f9e 83bd d110 0bbe 785d dbbd
00000040: 8c78 cf3d 6684 2cbd 28a7 d43d 95a7 03be
00000050: be22 ecbd bf1a 0c3a eeb6 b3bd 1187 4bbd
00000060: f78f 15bd bb8c e33d f190 ce3d eaf4 0d3e
00000070: a88b ccbd 988e 0c3e 1a55 f03c 8fdc 28bd
00000080: a73f 433d c1b4 da3c 51e1 193e b4bc 823b
00000090: f014 be3a 1180 ec3d 0d23 383d 738e e03d
000000a0: 4403 eebd 1f6c c3bd e987 043e 83e3 0dbe
000000b0: e115 4bbc d5e8 0cbe 9557 423d 1d9f 63bc
000000c0: c5d5 40bc 4de1 053e 396c 8dba 0edb ecbd
000000d0: fd98 c83d 4eb7 273d d75d cbbc 638a 16bc
000000e0: a2b8 2e3d 650e f2bd 8b40 29bb 211b d4bd
000000f0: c5e8 f83d aa9e 53bd 7ebc c73d 9c89 43bd
00000100: 3987 993d 2345 ccbd 3a13 213d a735 603d
00000110: 309c 3fbc 4890 c8bc 0dfa 1cbd 0e69 8d3c
00000120: e714 90bc 94d8 44bd f5ba 3e3d 198e 033e
00000130: 4212 193e d9ff ed3d 1ee3 803d 070e 89bd
00000140: 7057 9c3d 7f76 083e c224 05bc 1fdd 8e3d
00000150: 6006 c6bd 5446 173d e3a6 453d e485 08be
00000160: 2a68 fc3d 29cc b5bd 7419 0e3e ac60 0f3c
00000170: d2b5 adbc 31b1 143e 51b6 ffbd 535a 003e
00000180: c231 a7bd 6af0 d83d cae8 4abd ef27 22bd
00000190: 7156 0c3e 7151 0a3e 9646 e5bd d599 0fbe
000001a0: 7ae9 5ebd a297 11be c474 413d e7a4 cebb
000001b0: 3e8a 80bd a3bd c73c 93da 80bd 2b01 10be
000001c0: c9c0 b63d 43b0 d63d 6987 163e 8b08 4e3d
000001d0: 8f0f 31bc d4f2 0fbe e096 00bd 8b0a 78bd
000001e0: ca7d 6fbd b426 9f3c 1527 cdba 0712 c73d
000001f0: 6bc0 6d3d d086 edbd 1960 05be f6c3 35bd
00000200: a088 493d 7d16 a43c 4c91 dabd de5d d3bd
00000210: 77ba c9bd 6cd9 923c e5f5 f0bd a311 a43c
00000220: 3ddf c3bd 803e dbbd f08e 07be f6c5 ea3d
00000230: be74 db3d 256e 0abe 0eda 57bd 6ea0 e63d
00000240: 31d6 16be 7bbb a93d e067 1a3c 972f eebb
00000250: 2a6b e2bc a071 5abc e606 12be 0405 ed3d
00000260: bc68 033e aab0 233d d39a 333c 67e5 023e
00000270: c793 8cbc 9283 dcbd dfc9 163e 723e 2fbb
00000280: 43cf d83d aec2 2fbd cbda b9bd 76be debb
00000290: 1f59 8cbd e8ee 52bd fbb2 873d 1cfe cb3d
000002a0: b33a 76bb 44dd ee3d 0be2 e9bc 12d4 1dbd
000002b0: bea0 9b3c b65c f8bd d0b5 ddbc 79d6 c0bd
000002c0: a44a c5ba fd6f a23c ea11 5bbd ca46 07be
000002d0: c04f 183e 185f 0b3e 7604 d7bd 377b 2dbc
000002e0: 0cde acbd c25e 09be 91ca 7dbc 215e cc3d
000002f0: 772c 163e a67f 29bd 1411 143e e09d e2bd
00000300: 8ce5 8e3d 12cc 053e 17a9 8abc f80e 9fbd
00000310: 9bee 0bbd ee3e 193e aa7b 19bd 5c6f 17be
00000320: 058a 5dbd 6fe0 14bd f3af 8ebd e899 ac3d
00000330: 1536 eabd 7f3b fcbd 9223 9fbd d042 e1bd
00000340: 2e9e 653d 47a6 fabd e12a ec3d f793 8fbd
00000350: cafc 063d dcee 46bd e2e8 143e 71b2 093e
00000360: 5f17 8abd 9cf1 44bd 825b e6bd 8807 9abc
00000370: de66 db3d a943 ed3d 1266 88bd ae3f bc3b
00000380: fe71 aebc eb6a e0bd e54c e3bc c8fa 10be
00000390: 57b7 aa3d 21ca e7bd c2d6 f93b eb17 973b
000003a0: d8d7 413d fbe6 193e 76fc 063d f84f bf3d
000003b0: 4973 7c3d a8a8 08be a75e 4dbd ad2b 0dbd
000003c0: fcb9 29bd 0326 a93c 4e53 9c3d 054c eb3b
000003d0: 8c18 0d3e 7275 a93d 90cb 0e3c 55b6 4abb
000003e0: c031 c8bc 1766 66bd 9bb9 003e a9fc 153c
000003f0: d008 043e 6ae5 afbd 5928 c93d 0a65 03be
0.1399087 -0.017547367 0.116013266 0.10541168 0.07580149 0.015304826 0.12968668 -0.035634305
0.085926056 0.0006655231 0.010948408 -0.11209866 0.084867 -0.064266436 -0.13580634 -0.10711187
0.10130414 -0.042118452 0.10383445 -0.12856896 -0.11530064 0.00053445617 -0.087751254 -0.049689356
-0.03651425 0.111108266 0.10086239 0.13862959 -0.09987575 0.1372627 0.029337455 -0.041225966
0.047668125 0.026697518 0.15027358 0.0039897803 0.001450209 0.11547864 0.044955302 0.1096467
-0.116217166 -0.09542107 0.1294247 -0.1385632 -0.012395353 -0.13760693 0.047446806 -0.013892916
-0.011769717 0.13074227 -0.0010789699 -0.11565219 0.09794805 0.040946297 -0.02482502 -0.009188267
0.04265655 -0.11819152 -0.0025825824 -0.10356737 0.12153772 -0.051664986 0.09752749 -0.047738656
0.07496495 -0.09974124 0.039324977 0.054738667 -0.011694953 -0.024482861 -0.038324405 0.017262008
-0.017588092 -0.048058107 0.046565015 0.12847175 0.14948371 0.11621065 0.06293319 -0.06692129
0.07633865 0.13326453 -0.0081264395 0.06975769 -0.09669185 0.036932305 0.04825486 -0.13332325
0.12324555 -0.08876831 0.13876897 0.008751076 -0.021204863 0.14520718 -0.12485946 0.12534456
-0.081637874 0.1059273 -0.04953841 -0.039588865 0.1370485 0.1350763 -0.11195104 -0.14023526
-0.05442188 -0.14218 0.047230497 -0.006306279 -0.062763676 0.024382418 -0.0629169 -0.14062946
0.089234896 0.10482838 0.14700092 0.050301116 -0.010806932 -0.14057475 -0.031393886 -0.06055693
-0.05846957 0.019427635 -0.0015651906 0.09720235 0.058044832 -0.11597979 -0.1302494 -0.044376336
0.04920256 0.020030254 -0.106722444 -0.10320638 -0.098500185 0.01792594 -0.11765651 0.020027941
-0.09564064 -0.1070528 -0.1323812 0.11463539 0.10715626 -0.1351858 -0.052698188 0.11261068
-0.14730145 0.08287712 0.00942418 -0.0072688567 -0.02763899 -0.013332754 -0.14260444 0.11573222
0.12832922 0.0399634 0.010962206 0.12782823 -0.01716031 -0.107672825 0.14725445 -0.0026740101
0.10586407 -0.04291027 -0.090749346 -0.006797607 -0.06852936 -0.05149737 0.06625935 0.09960577
-0.0037571609 0.11663297 -0.028550168 -0.038532324 0.018997546 -0.12127058 -0.027064234 -0.094159074
-0.0015052152 0.01982879 -0.05348388 -0.13210598 0.14874172 0.13610494 -0.10498898 -0.010588459
-0.084407896 -0.13415053 -0.01549019 0.09978891 0.146654 -0.0413815 0.1445964 -0.110652685
0.06977376 0.13066128 -0.016926331 -0.07766527 -0.0341631 0.14965412 -0.03747145 -0.14788574
-0.054086704 -0.03634685 -0.069671534 0.08427793 -0.114360966 -0.123160355 -0.077704564 -0.109990716
0.056059055 -0.12238746 0.11531616 -0.07010644 0.032955922 -0.048567638 0.14541963 0.13446976
-0.06742739 -0.04808198 -0.112479225 -0.01880242 0.1071298 0.11585171 -0.06660093 0.005744896
-0.02129459 -0.10957893 -0.027746627 -0.14158165 0.083357506 -0.1131785 0.007624478 0.0046110055
0.047324985 0.15029518 0.03295561 0.09341425 0.061633382 -0.13345587 -0.050139096 -0.03446548
-0.041437134 0.020648008 0.076330766 0.007180693 0.13778895 0.08274354 0.008715525 -0.0030931432
-0.024437785 -0.056249704 0.12570803 0.009154477 0.12893987 -0.08588679 0.09822149 -0.12831512

layers.0.bias f4 [128]
00000000: 123d 5c3b a209 593b 3032 59bb 2252 5b3b
00000010: 2620 5a3b b5f5 57bb d087 5b3b 9e51 593b
00000020: 5039 5b3b 36fe 5b3b f27d 59bb 476a 5b3b
00000030: bc82 5b3b c702 59bb 48ee 623b afc1 58bb
00000040: 11fd 58bb 753d 5dbb daf6 5a3b 7204 5bbb
00000050: b9a0 4c3b 871b 613b ec6d 58bb c8be 59bb
00000060: 772c 5ebb 058e 5c3b 4519 5bbb c7c5 5bbb
00000070: 46c4 5b3b d2ac 58bb c801 5bbb 04d9 583b
00000080: 7937 5b3b 7623 5b3b 694e 5b3b 1194 523b
00000090: 16c3 583b 2e32 59bb 6021 5a3b 363d 59bb
000000a0: c8f7 563b 19fe 57bb ab60 593b 608f 583b
000000b0: b871 5dbb 5f29 583b 4e29 5bbb 0a44 593b
000000c0: bf91 5b3b 1c9f 5c3b 6c4f 593b 013d 5bbb
000000d0: aa6f 5b3b 6bb1 4fbb 329b 62bb ba8e 5bbb
000000e0: 0be8 56bb f4d0 573b a89e 6d3b 0b38 5b3b
000000f0: 6d44 51bb d560 5c3b 1541 593b 9eba 593b
00000100: 2800 5b3b 6d28 6c3b df16 5d3b f3ca 4e3b
00000110: 396d 5c3b 3126 553b 272f 5dbb 8fb4 5dbb
00000120: 6564 5cbb b9d4 573b 6e62 583b dbe2 5a3b
00000130: 9262 58bb 285c 573b ae8c 58bb 6f1c 593b
00000140: 4854 59bb 7c87 18ba fafe 4e3b 6dcf 1bbb
00000150: 1fd5 583b 6d31 593b 2e97 5b3b 7405 5bbb
00000160: b0f5 60bb 05ee 5abb 6fbc 5e3b ed18 5bbb
00000170: 404d 593b 2078 59bb 096e 593b dd3b 60bb
00000180: 61b2 5cbb fc04 5b3b 077f 5b3b ac88 583b
00000190: 1b13 5b3b f0d7 5bbb 6e7f 6dbb 2c29 593b
000001a0: 7fd0 5bbb 5342 593b 3884 48bb 7ebe 573b
000001b0: 4551 733b a255 5b3b df4b 56bb d06b 5d3b
000001c0: 94f1 59bb 832a 59bb 35f3 583b 257f 58bb
000001d0: 9b73 583b a1d6 623b ad5f 5bbb 4e58 5bbb
000001e0: f741 5bbb ab4b 593b fc71 5d3b 7147 52bb
000001f0: 8dd3 5e3b 3104 5b3b e749 5b3b 4044 5bbb
0.0033605737 0.0033117314 -0.0033141486 0.0033465703 0.0033283322 -0.003295285 0.0033497699 0.003316022
0.003345091 0.003356827 -0.0033186642 0.0033480094 0.0033494672 -0.0033113228 0.003462689 -0.0033074429
-0.0033109824 -0.0033758555 0.0033411295 -0.0033419398 0.0031223728 0.0034348683 -0.0033024503 -0.0033225287
-0.0033901015 0.0033653986 -0.003343181 -0.0033534633 0.0033533736 -0.0033061993 -0.003341781 0.0033088336
0.0033449812 0.0033437884 0.0033463484 0.0032131711 0.0033075265 -0.0033141482 0.0033284053 -0.0033148057
0.0032801498 -0.003295785 0.003316919 0.0033044443 -0.0033789705 0.0032983643 -0.0033441368 0.0033152127
0.003350362 0.0033664173 0.0033158911 -0.003345311 0.0033483305 -0.0031691443 -0.0034577367 -0.003350182
-0.0032792117 0.0032930942 0.0036257897 0.0033450152 -0.0031931654 0.0033627052 0.0033150364 0.0033222805
0.0033416841 0.0036034838 0.0033735556 0.0031554073 0.0033634438 0.0032523985 -0.0033750029 -0.0033829545
-0.0033629176 0.003293319 0.0033017653 0.0033399377 -0.0033017737 0.0032861326 -0.0033042836 0.003312852
-0.0033161808 -0.00058185286 0.0031585083 -0.0023774758 0.0033086014 0.0033141032 0.0033506858 -0.0033419998
-0.0034326129 -0.003340603 0.0033986827 -0.0033431605 0.0033157617 -0.0033183172 0.0033177158 -0.0034215369
-0.0033675658 0.003341972 0.0033492462 0.0033040447 0.0033428136 -0.0033545457 -0.0036239284 0.0033136113
-0.0033541021 0.0033151105 -0.0030596387 0.0032919939 0.0037127298 0.003346779 -0.0032699031 0.0033786185
-0.0033255564 -0.0033136911 0.0033103947 -0.0033034768 0.003302789 0.0034612792 -0.0033473775 -0.0033469382
-0.0033456066 0.0033156674 0.0033789864 -0.003208604 0.0034000606 0.0033419246 0.0033460797 -0.0033457428

predict.weight f4 [1, 128]
00000000: 732e 143d e8d2 703d 56d4 8abd 4a97 803d
00000010: 8c11 a53d c8d4 f1bc 47d2 273d e3ff 163d
00000020: 08df 903d 380f 293d b2f7 a0bd 6aca 6f3d
00000030: f62e e73c 8dfa 60bd 3ae0 1f3c 9c59 10bd
00000040: 5c96 5bbd 7b04 d4bc 568c 973d 619a afbd
00000050: 7627 663b 88be 4b3c ab1d ffbc c3cb 6abd
00000060: f18b a0bc 38fc f03c 4d22 a2bd 4cb5 48bd
00000070: 73cf 353d 442a 2fbd c991 b2bd 54ac 3d3d
00000080: 6599 8b3d 8a9b a23d c461 883d 8d16 e73b
00000090: f486 4b3d 7611 91bd b8b7 463d f85a 94bd
000000a0: 4035 a03c 8c5a fcbc 73f1 873d 7a90 203d
000000b0: a79d b8bc 8c3b 063d 59ed 47bd e455 163d
000000c0: 0580 503d 7896 f73c edd2 963d b4ca 8cbd
000000d0: 7b82 633d 324d 9fbb 8947 22bc add4 57bd
000000e0: 2e6a 96bc cf27 db3c 241f 9e3b 9d32 893d
000000f0: 126c cbbb e9d6 0e3d 69a7 933d 74e1 923d
00000100: c6f2 b43d 18d5 bc3b fcae d43c ac39 8d3b
00000110: 2a06 053d a6b7 383c 2a36 cebc 258a b9bc
00000120: 94dd c3bc 6832 de3c dd04 153d 2672 e53c
00000130: f627 b7bc 0f85 903c 5db6 2abd 2b60 893d
00000140: 049d 9abd e101 fcba 2f9c 943b d5d9 2b39
00000150: e981 443d 6aa5 713d 99cd 513d 6042 b9bd
00000160: 7510 52bc ba97 b7bd cfbb 8d3c 9b5f aabd
00000170: 2e8d 9b3d fa59 98bd c367 a83d 55a8 6ebc
00000180: 1689 edbc e9d2 ab3d 80fb 633d 29dc f73c
00000190: daa0 a23d 7336 31bd ac31 b1bb 05b7 893d
000001a0: c662 39bd e3e1 873d 5b71 15bb 4463 d53c
000001b0: d356 943b 0e2a 8b3d 3405 3dbc c8dc c03c
000001c0: 7d25 3ebd a3ef 6abd 234c 613d 549d 13bd
000001d0: c471 f53c ad89 2a3c 2008 76bd 452e 77bd
000001e0: a7b2 85bd 8002 833d f1d8 c13c 22e7 e9bb
000001f0: 2a7c 903c ae97 ae3d 31cf 833d 3185 adbc
0.03617711 0.058794886 -0.06778781 0.06278856 0.080599874 -0.029520407 0.04097202 0.036865126
0.0707379 0.04127428 -0.07859744 0.058542646 0.028220635 -0.054926444 0.00975805 -0.03524171
-0.05361019 -0.025881043 0.07399814 -0.08574367 0.0035118735 0.012435563 -0.031142076 -0.05732323
-0.01959798 0.029417142 -0.079166986 -0.049001023 0.044387292 -0.042764917 -0.087192126 0.046306923
0.06816367 0.07939823 0.06659272 0.007052249 0.04968925 -0.070834085 0.04851505 -0.072439134
0.019556642 -0.030804895 0.0663785 0.039200284 -0.022536112 0.032771632 -0.048810337 0.036703005
0.05090334 0.030223116 0.0736445 -0.068746 0.055544358 -0.0048614973 -0.009904751 -0.052693058
-0.018361177 0.02675238 0.0048254896 0.06699107 -0.0062079513 0.034872923 0.07209665 0.07171908
0.08835368 0.0057627074 0.025962345 0.0043098535 0.03247658 0.011274254 -0.025172312 -0.02264888
-0.023909368 0.027123645 0.03638159 0.028008532 -0.022357922 0.017641572 -0.04167782 0.06707796
-0.075494796 -0.0019226634 0.00453522 0.0001638898 0.047975454 0.05899564 0.051221464 -0.09045863
-0.0128213065 -0.089644864 0.017301468 -0.083190165 0.07595287 -0.07439037 0.08222916 -0.014566501
-0.028996032 0.08389837 0.05565977 0.030256348 0.07940836 -0.043264817 -0.0054075327 0.06724361
-0.045260213 0.06634881 -0.002280316 0.02604831 0.004526952 0.06795131 -0.011536885 0.023542777
-0.04642247 -0.05735744 0.05500425 -0.03603871 0.029961474 0.010408801 -0.060066342 -0.06034686
-0.06528216 0.06396961 0.023663016 -0.007138149 0.017637331 0.08525024 0.06436003 -0.021181675
