PERGAT_embbedding/data/emb/models/model_dim128_lay2_epo13.pth (torch, 137088 bytes, 7 tensors)

linear.weight f4 [128, 1]
0	0xbc394807	-0.011308677
1	0xbf562be9	-0.8366075
2	0x3e9269f5	0.28596464
3	0x3eb2af94	0.3489958
4	0xbf701e1f	-0.9379596
5	0xbf6c4fe5	-0.9230941
6	0x3f316713	0.69297904
7	0x3f00533f	0.50127023
8	0x3f546a47	0.82974666
9	0xb99d2ff9	-0.00029981116
10	0xbc067d36	-0.008208564
11	0x3f37e8a5	0.7183936
12	0x3f3068ae	0.6890973
13	0x3f02d449	0.5110517
14	0x3f3bcf01	0.7336274
15	0xbf5dbc78	-0.86615705
16	0x3df69299	0.1203968
17	0xbea28706	-0.3174364
18	0xbf4d6144	-0.8022654
19	0xbf460194	-0.7734616
20	0xbf1e7c5e	-0.6190852
21	0x3f248b13	0.6427471
22	0xbf180bcc	-0.59393
23	0x3f2f9984	0.6859362
24	0x3f2609be	0.64858615
25	0x3f7766d5	0.96641284
26	0x3ed03493	0.4066511
27	0xbebd5786	-0.36980838
28	0x3f645d8d	0.8920525
29	0xbec5dd5f	-0.38645455
30	0x3f72e950	0.94887257
31	0x3b31dd32	0.00271399
32	0xbf23860c	-0.63876414
33	0x3efd7178	0.49500632
34	0xbf004030	-0.5009794
35	0xbe2ff56b	-0.17183463
36	0xbf6fb003	-0.9362795
37	0x3f239f09	0.63914543
38	0x3e082553	0.13295488
39	0xbdd1a2ad	-0.10236106
40	0xbeae39f6	-0.34028596
41	0xbe9d25e2	-0.30692965
42	0xbea0875c	-0.3135327
43	0xbf08405b	-0.532232
44	0x3eeff3fa	0.46865827
45	0xbf4983df	-0.78716844
46	0xbe9d7c93	-0.30759105
47	0x3f7df8bd	0.9920767
48	0x3f67b56a	0.9051119
49	0xbe7395e0	-0.23787642
50	0x3f2a2c2d	0.66473657
51	0xbf2fc6e5	-0.68662864
52	0x3ddef3e3	0.108863614
53	0x3f24b0a6	0.64332044
54	0xbf3bbe65	-0.73337394
55	0x3c4bf38c	0.012448203
56	0xbf57fb29	-0.84367615
57	0xbea21a10	-0.3166051
58	0xbf4a9e60	-0.7914791
59	0x3f5d51ef	0.86453146
60	0xbe0cded9	-0.13756885
61	0xbe15d1ee	-0.14630863
62	0x3f2672ed	0.6501911
63	0x3f689e39	0.9086643
64	0xbee23c43	-0.441866
65	0xbf682113	-0.9067547
66	0x3db5a8b9	0.08870072
67	0x3f2acd59	0.66719586
68	0xbe8aaafc	-0.27083576
69	0xbf0911a8	-0.53542566
70	0x3f756f69	0.95873123
71	0x3f508f71	0.81468874
72	0x3ee2744a	0.44229347
73	0x3f2c1496	0.6721891
74	0x3dfccf99	0.123442836
75	0x3f2060e9	0.62647873
76	0x3da9a3e7	0.08283215
77	0x3f2de080	0.67920685
78	0x3eb12a43	0.34602556
79	0x3edc2bbf	0.43002126
80	0xbf17e14f	-0.5932817
81	0x3e8e5e8d	0.27806512
82	0xbee8c270	-0.45460844
83	0xbed5be4b	-0.41746745
84	0x3e7366e0	0.23769712
85	0xbf74cf88	-0.9562917
86	0x3dbc27c7	0.091872744
87	0x3ed3d49a	0.4137314
88	0x3f482964	0.7818816
89	0xbe851cdd	-0.25998583
90	0xbec03e52	-0.37547547
91	0xbf6e9e76	-0.9321054
92	0xbf3fc9a5	-0.7491706
93	0x3e85b68f	0.26115844
94	0xbf4019e6	-0.7503952
95	0xbf72d593	-0.9485714
96	0x3e3064fd	0.17226024
97	0x3dea09d5	0.114276566
98	0xbf57beb2	-0.8427535
99	0xbf2f4167	-0.6845917
100	0x3f0cd7c2	0.5501672
101	0x3efc3985	0.49262634
102	0xbe6f0a78	-0.23343837
103	0x3ee435f9	0.44572428
104	0x3f3d527e	0.73954
105	0xbe837f5b	-0.25683102
106	0x3f01ab5e	0.5065211
107	0xbf108aaa	-0.56461585
108	0xbed26d70	-0.4109912
109	0x3f4acc91	0.79218394
110	0xbf02d6df	-0.5110912
111	0xbf234021	-0.6376973
112	0x3f07368e	0.5281762
113	0x3f1a76c6	0.60337484
114	0x3dd2310c	0.10263261
115	0xbe80f542	-0.25187117
116	0x3f32b32a	0.6980463
117	0xbf426eeb	-0.759505
118	0x3e34c354	0.17652637
119	0xbf4e094e	-0.8048295
120	0x3f5f4c91	0.87226206
121	0xbf297753	-0.661977
122	0x3f3ef393	0.74590415
123	0x3f5febed	0.8746937
124	0xbf5832c9	-0.8445249
125	0xbe194b59	-0.14970149
126	0xbf7634d9	-0.9617439
127	0x3e4888dd	0.19583459

linear.bias f4 [128]
0	0x3eba2932	0.36359555
1	0xbef8d154	-0.48597205
2	0x3ebab274	0.36464274
3	0xbdfbe10a	-0.12298782
4	0xbf30449b	-0.68854684
5	0xbf567ba2	-0.837824
6	0x3f50a10b	0.8149573
7	0xbf53be9a	-0.8271271
8	0xbf15cb08	-0.58512926
9	0xbead5564	-0.3385421
10	0x3e9adb2a	0.30245334
11	0x3edfec41	0.43734935
12	0x3f1b365b	0.60629815
13	0xbd3e2e53	-0.046430897
14	0x3e18a094	0.14905006
15	0xbf16811b	-0.5879075
16	0xbf78f1d5	-0.97244006
17	0xbf24db87	-0.6439747
18	0x3e02ec8e	0.12785551
19	0x3f7ba390	0.9829645
20	0x3f47bf1d	0.7802599
21	0xbef33626	-0.4750225
22	0xbf2819cb	-0.65664357
23	0xbde5982b	-0.11210664
24	0x3f2d390f	0.6766519
25	0xbf655df1	-0.8959647
26	0x3f7d2f9a	0.9890076
27	0xbd6f3bd6	-0.058406673
28	0x3e167db8	0.14696395
29	0x3eb6dd6b	0.35715804
30	0x3e9d7542	0.30753523
31	0xbe862edf	-0.26207635
32	0x3f21b451	0.63165766
33	0x3f1bb134	0.60817266
34	0x3f541867	0.82849735
35	0x3f77abe2	0.9674665
36	0xbc86c18f	-0.016449718
37	0x3e12cc26	0.14335689
38	0xbe5359b7	-0.20639692
39	0xbe04414d	-0.12915535
40	0xbf6ba512	-0.9204875
41	0xbf70a5fb	-0.94003266
42	0xbf13613a	-0.5757023
43	0x3f7ba658	0.98300695
44	0x3f213c9b	0.629831
45	0xbf0e6e01	-0.556366
46	0xbd4cc2ee	-0.049990587
47	0x3f72e041	0.94873434
48	0x3e59c0e0	0.21264982
49	0x3f4fdc2c	0.8119533
50	0x3f797355	0.9744161
51	0xbf7cc8bd	-0.987438
52	0xbf41d598	-0.75716543
53	0x3e93206f	0.28735682
54	0xbf1851c3	-0.5949976
55	0xbf27822b	-0.65432996
56	0x3f7eb365	0.99492484
57	0x3e6089f4	0.21927625
58	0xbf359c92	-0.7094203
59	0x3f18078d	0.5938652
60	0x3f7ac310	0.9795389
61	0xbf5d8e04	-0.86544824
62	0x3e2a9bde	0.16661021
63	0xbef3e1e8	-0.4763329
64	0x3f6f78f7	0.9354395
65	0xbeaadcca	-0.33371574
66	0xbf70ad88	-0.9401479
67	0x3ed02099	0.4064987
68	0xbf400052	-0.7500049
69	0xbf301df8	-0.6879573
70	0x3e520cc8	0.20512688
71	0x3cae5249	0.021279471
72	0xbdcb9c5e	-0.09941934
73	0x3f64a153	0.8930866
74	0xbf742cf5	-0.953811
75	0xbee5bfd1	-0.44872907
76	0xbf674000	-0.9033203
77	0xbf289af5	-0.65861446
78	0xbe0ca581	-0.1373501
79	0x3ef77539	0.4833162
80	0x3f523350	0.82109547
81	0x3ce419f9	0.027844416
82	0xbed052b0	-0.40688086
83	0xbee23b22	-0.4418574
84	0x3e158be6	0.14604148
85	0xbf6fffce	-0.937497
86	0x3f6b06c1	0.9180718
87	0xbf7db7e9	-0.9910875
88	0xbf15c590	-0.5850458
89	0xbe28557e	-0.16438863
90	0x3e3734d8	0.17891252
91	0x3de5c26c	0.11218724
92	0xbf2686d7	-0.650495
93	0x3f0511de	0.5198039
94	0x3f1ff9f2	0.6249076
95	0xbecc86c7	-0.39946577
96	0x3f34db80	0.7064743
97	0x3f7ede9e	0.99558437
98	0xbf19a2d3	-0.60014075
99	0xbe24086a	-0.16018835
100	0x3ecc0656	0.39848584
101	0xbd8a7396	-0.067603275
102	0x3d2c3897	0.042046156
103	0xbd7b7b52	-0.061396904
104	0xbf667c8f	-0.9003381
105	0x3f2b45db	0.66903466
106	0x3f03d970	0.5150366
107	0x3e8caaea	0.27474147
108	0xbd07bca9	-0.033138905
109	0x3d90d34e	0.07071553
110	0x3ed17a56	0.40913647
111	0x3f1a301f	0.60229677
112	0xbf70c7ac	-0.94054675
113	0xbf25ee73	-0.6481697
114	0xbd2d3e89	-0.042295966
115	0x3d6c714e	0.057725243
116	0x3dc041ba	0.09387536
117	0x3f72d6d6	0.94859064
118	0x3f51644a	0.81793654
119	0xbf0b9c7c	-0.5453565
120	0x3f2f26b1	0.68418413
121	0xbf4b1598	-0.79329824
122	0xbf1a3d74	-0.6025002
123	0xbf634b88	-0.88787127
124	0xbcbec656	-0.023287933
125	0x3ef4a679	0.4778326
126	0x3e8f413c	0.27979457
127	0x3f6c800b	0.9238288

conv_0.weight f4 [128, 128]
0	0x3d3bcdfb	0.045850735
1	0x3e128e69	0.14312138
2	0xbdb7197e	-0.08940409
3	0xbdcf0a11	-0.10109342
4	0xbdcd93f2	-0.10037984
5	0x3d0ac383	0.03387786
6	0xbd765843	-0.060142767
7	0x3e1b4e7f	0.15166663
8	0xbca4d90a	-0.020123024
9	0xbb3746ba	-0.002796574
10	0x3d9b472a	0.07581933
11	0x3dcbcb95	0.099509396
12	0xbb76dfda	-0.0037670047
13	0xbd14c4db	-0.03632055
14	0x3c960fd4	0.018318094
15	0xbd17de1e	-0.03707706
16	0x3e1d752d	0.1537673
17	0xbcc047be	-0.02347171
18	0xbd7defa4	-0.061996117
19	0xbbafbddb	-0.0053632087
20	0xbd2e91f6	-0.042619668
21	0xbe19c266	-0.15015563
22	0x3de6ae0a	0.11263664
23	0xbddc5b1e	-0.10759567
24	0xbdb6e800	-0.08930969
25	0x3d66c825	0.056343216
26	0x3d6fcea1	0.058546666
27	0x3d770676	0.060308896
28	0xbd2d5ddc	-0.04232584
29	0x3e140838	0.1445626
30	0x3e04c3d7	0.12965332
31	0xbd2e6fbe	-0.042587034
32	0x3d0ba1f4	0.034089997
33	0x3ca22b81	0.019796135
34	0x3cf65ef2	0.03007457
35	0xbdcefd1d	-0.10106871
36	0xbdd3b869	-0.10337908
37	0x3d4bb129	0.0497295
38	0x3dc57ce4	0.096429616
39	0xbdd70b0f	-0.10500156
40	0xbe0f544b	-0.13996999
41	0xbd99662a	-0.074901894
42	0x3e0a8f84	0.1353131
43	0xbd364d0f	-0.044507083
44	0x3d98eda7	0.074672036
45	0x3d36d4ef	0.044636663
46	0xbde36cc2	-0.11104728
47	0xbd967264	-0.07346037
48	0x3dbdcab1	0.09267176
49	0xbe10a377	-0.14124857
50	0x3e1a6cad	0.15080519
51	0xbd9ab2b3	-0.075536154
52	0x3d78cca0	0.06074202
53	0xbe117aec	-0.14207047
54	0xbd176d4e	-0.036969475
55	0x3d6c6030	0.05770892
56	0x3db96e7f	0.090542786
57	0x3ddb60e0	0.10711837
58	0xbe02528b	-0.127268
59	0x3d3ca89a	0.04605923
60	0xbde32a78	-0.11092085
61	0xbdda6b6e	-0.10665022
62	0xbde0ba44	-0.10973027
63	0x3dea5897	0.114426784
64	0xbb76c842	-0.0037655984
65	0x3cd27d7f	0.025694607
66	0xbcbafca8	-0.022825554
67	0x3caad537	0.020853622
68	0x3dee404d	0.11633358
69	0xbca3a6f4	-0.01997707
70	0x3dc9fdd0	0.09862864
71	0xbd41c0e9	-0.047303114
72	0xbd24c122	-0.04022325
73	0xbd9e472b	-0.07728418
74	0xbc534e29	-0.012897053
75	0x3dc457fe	0.09587096
76	0x3df19f61	0.11797977
77	0x3d08e7f1	0.03342432
78	0x3e056397	0.13026272
79	0x3c60163a	0.013677174
80	0xbdd719ee	-0.105029926
81	0xbdad7310	-0.08469212
82	0x3e107300	0.14106369
83	0xbd0eccba	-0.03486321
84	0x3d3eb273	0.0465569
85	0xbd9712b7	-0.073766164
86	0xbc53cf3b	-0.012927826
87	0xbdb4b420	-0.088234186
88	0xbde77bdd	-0.11302922
89	0xbd98cb98	-0.074607074
90	0xbd6d07ae	-0.057868652
91	0xbd944b1e	-0.0724089
92	0xbd618ddc	-0.05506693
93	0xbe1b684b	-0.15176503
94	0xbe177740	-0.14791584
95	0x3c492aa3	0.012278232
96	0x3e178394	0.14796287
97	0xbe1483bf	-0.14503382
98	0xbe033e6c	-0.12816781
99	0x3dd6ca12	0.104877606
100	0x3df6260a	0.12018974
101	0x3da01199	0.078158565
102	0xbc237b31	-0.009978102
103	0x38c7b5fc	9.522957e-05
104	0xbdb87086	-0.09005837
105	0xbd7a2578	-0.06107089
106	0xbdc91b07	-0.09819608
107	0xbe199559	-0.14998378
108	0x3ddd2e03	0.10799792
109	0x3db91d2b	0.090387665
110	0x3dde3143	0.1084924
111	0x3dbbb46c	0.09165272
112	0xbe10ccbf	-0.14140604
113	0x3dd5e462	0.10443951
114	0x3d822f12	0.06356634
115	0xbd8a395f	-0.06749224
116	0xbcdc49e0	-0.026890695
117	0x3e0303c9	0.12794413
118	0xbe1e06c2	-0.15432265
119	0xbc91137c	-0.017709486
120	0xbceaf34b	-0.028680464
121	0xbde99ca4	-0.1140683
122	0xbcb37f41	-0.021911265
123	0x3d319633	0.04335613
124	0x3dfc8914	0.12330833
125	0x3c379e52	0.01120718
126	0x3e11d56d	0.14241572
127	0xbc5c5969	-0.013449051
128	0x3d40cab9	0.04706833
129	0xbe0409d0	-0.12894368
130	0xbde32c7f	-0.11092471
131	0x3db7a94a	0.08967836
132	0xbd23a7bb	-0.039954882
133	0x3d96caee	0.073629245
134	0xbd10f01d	-0.03538524
135	0x3d5c1c01	0.053737644
136	0x3d14ca89	0.036325965
137	0x3b45f2a0	0.003020443
138	0x3e15b588	0.1462003
139	0x3d8d8dcf	0.069118135
140	0x3d196188	0.03744653
141	0x3e052644	0.13002878
142	0x3dc9cadf	0.09853148
143	0xbe1d4b66	-0.15360793
144	0xbad348ab	-0.0016119679
145	0xbdbe7e2d	-0.0930141
146	0x3d13609a	0.0359808
147	0xbdd0988b	-0.10185345
148	0xbe0da163	-0.13831095
149	0xbe143cf8	-0.14476383
150	0x3dc98030	0.09838903
151	0x3d1f3228	0.038866192
152	0x3e0836b2	0.13302115
153	0xbd0b4456	-0.034000717
154	0xbd9a0898	-0.075211704
155	0xbcf327d9	-0.029682087
156	0x3e1263fe	0.14295956
157	0xbe0894bd	-0.13337989
158	0x3d25d9f7	0.04049107
159	0xbb796260	-0.003805302
160	0x3df13d51	0.11779273
161	0xbdc422ad	-0.095769264
162	0x3d6e51d8	0.05818352
163	0x3b18d541	0.0023320469
164	0x3da5d3f9	0.08097071
165	0xbe109d57	-0.1412252
166	0x3c02ab14	0.0079753585
167	0x3dd763a8	0.10517055
168	0xbd932221	-0.07184244
169	0x3d1255f5	0.035726506
170	0xbd2dd97a	-0.04244373
171	0xbd7a56c3	-0.0611179
172	0xbe16f541	-0.14741994
173	0x3d9a1b72	0.07524766
174	0x3d22d13e	0.03975033
175	0xbd4e2ce0	-0.050335765
176	0xbde753ab	-0.11295255
177	0x3d676ce6	0.056500338
178	0xbc9a7f9b	-0.018859675
179	0xbc31f67c	-0.010861989
180	0xbddffda1	-0.10937048
181	0xbc9c02fb	-0.01904439
182	0x3dfebef9	0.12438769
183	0x3d3d80ef	0.04626554
184	0x3da466f9	0.08027453
185	0x3cbddb1e	0.023175772
186	0xbe1422ff	-0.14466475
187	0x3e02a969	0.12759937
188	0x3df727be	0.12068127
189	0xbe0f8587	-0.1401578
190	0xbdb476a3	-0.08811691
191	0xbd7ec3e6	-0.062198542
192	0x3d800b14	0.06252113
193	0xbd8dedb6	-0.069301054
194	0x3d16adf2	0.03678698
195	0xbe0b0d58	-0.13579309
196	0x3d85b916	0.06529443
197	0xbd4fafcc	-0.050704762
198	0x3b75840e	0.0037462744
199	0x3ddc7142	0.1076379
200	0x3e18f01e	0.14935347
201	0xbd998b03	-0.074972175
202	0xbd506f45	-0.050887365
203	0x3a898f32	0.0010494946
204	0x3cd9117a	0.026497591
205	0x3affbc55	0.0019511083
206	0xbdc965fd	-0.09833906
207	0x3db867f3	0.09004202
208	0x3e0646a0	0.13112879
209	0xbcb008c3	-0.021488553
210	0xbc08de7d	-0.008353827
211	0xbd3e9af1	-0.046534482
212	0x3d8e6684	0.06953147
213	0xbda6c733	-0.08143463
214	0xbd4f5432	-0.050617404
215	0x3d6a7b35	0.057246406
216	0x3dcbd68c	0.09953031
217	0xbd94dd2d	-0.072687484
218	0xbd3758f3	-0.044762563
219	0xbdd9863b	-0.106213056
220	0x3e1dd67d	0.15413852
221	0x3d984db3	0.07436695
222	0x3e0c7dac	0.13719815
223	0x3dd4da90	0.1039325
224	0xbde52141	-0.11187983
225	0xbdd9c52d	-0.106333114
226	0x3e12a98c	0.1432249
227	0xbca07161	-0.019585313
228	0x3cbbe8d5	0.022938171
229	0xbd544091	-0.051819388
230	0xbcc1c5a9	-0.023653822
231	0x3d1a47d8	0.03766617
232	0xbd89cd0a	-0.06728561
233	0xbde7874c	-0.11305103
234	0x3cd87075	0.026420811
235	0xbd2c189c	-0.042015657
236	0x3e1b9536	0.15193638
237	0xbddbc85a	-0.107315734
238	0x3e1d2dbd	0.15349479
239	0x3cfb960d	0.030711198
240	0xbd674fba	-0.056472518
241	0xbd0b6c59	-0.034038875
242	0x3c406f99	0.011745357
243	0x3cbdb97d	0.023159737
244	0x3e1277e5	0.14303549
245	0xbd75f3ad	-0.06004684
246	0x3d799951	0.06093723
247	0x3dbb0c8e	0.09133254
248	0xbd179b65	-0.03701343
249	0xbe1dd967	-0.15414964
250	0x3d2d70fe	0.042344086
251	0xbdecb7ec	-0.11558518
252	0x3daa50ea	0.083162144
253	0x3d248721	0.04016793
254	0x3db87ce7	0.09008198
255	0x3c138e97	0.009006164

conv_0.bias f4 [128]
0	0xbaa5ab74	-0.0012639598
1	0xbaa7a500	-0.0012790263
2	0xbaa8a104	-0.0012865369
3	0xbaa2cf57	-0.0012421411
4	0x3aa8b481	0.0012871177
5	0x3a99914f	0.0011716279
6	0xbaaa3359	-0.0012985273
7	0x3aa10ab0	0.001228651
8	0x3aaa0987	0.001297281
9	0xbaa8c50a	-0.0012876105
10	0xbaa9deba	-0.0012960054
11	0x3aa4c66c	0.0012571341
12	0x3aa90280	0.0012894422
13	0xbaa90859	-0.0012896165
14	0x3aa36248	0.0012465203
15	0x3a97b1e4	0.0011573401
16	0x3aae4d56	0.0013298194
17	0x3aa464b2	0.0012542217
18	0x3aa89520	0.0012861826
19	0x3aa9372c	0.0012910119
20	0x3aae2fb4	0.0013289363
21	0xbaa9a46d	-0.001294268
22	0x3a94a102	0.0011339488
23	0xbaad00a5	-0.0013199045
24	0x3aa9b4e7	0.001294759
25	0xbaa1b3a1	-0.0012336859
26	0x3aad5b6c	0.0013226098
27	0x3aace675	0.001319124
28	0xba9bba66	-0.0011881113
29	0xbaa5100d	-0.0012593284
30	0xbaa7be8e	-0.0012797879
31	0x3aa83e32	0.0012835918
32	0x3aad2666	0.0013210296
33	0xbaa2d9a2	-0.0012424479
34	0x3aa7d855	0.0012805561
35	0x3aa4b038	0.0012564724
36	0x3aa42d79	0.0012525759
37	0x3aac15de	0.0013129076
38	0x3aae4ce2	0.0013298059
39	0xbaa47fc9	-0.001255029
40	0x3aa25b26	0.0012386783
41	0xba9ed428	-0.0012117671
42	0xbaa5f204	-0.0012660627
43	0x3aa82afb	0.0012830192
44	0xbaa29263	-0.0012403246
45	0x3aad6b4e	0.0013230832
46	0x3aa1aee3	0.0012335445
47	0x3aa8e94f	0.0012886914
48	0xbaa428ef	-0.0012524406
49	0x3aa089ef	0.0012248139
50	0xbaa9e3a4	-0.0012961519
51	0xbaa7e265	-0.001280856
52	0xbaa41e74	-0.0012521283
53	0xbaa60eed	-0.0012669243
54	0xbaa49ec2	-0.001255952
55	0xb94f1200	-0.00019747764
56	0x3aa656aa	0.0012690623
57	0xbaa85e85	-0.0012845552
58	0x3aaa66a0	0.0013000555
59	0xbaa4eae7	-0.0012582213
60	0x3a9a3674	0.0011765496
61	0xbaa3fd95	-0.0012511486
62	0x3aaa23fa	0.0012980693
63	0x3aa51525	0.0012594803
64	0xbaa3c8d9	-0.001249577
65	0x3aa7e820	0.0012810268
66	0xbaa7fd20	-0.0012816526
67	0xbaab575e	-0.0013072302
68	0x3aa85ca5	0.0012844993
69	0x3aa7d87b	0.0012805605
70	0x3aa8a7ce	0.0012867393
71	0xbaa604fe	-0.0012666283
72	0x3aa5a4f7	0.0012637664
73	0x3aa831df	0.0012832246
74	0x3aa3af02	0.001248807
75	0x3aa26515	0.0012389744
76	0xbaa5eb0b	-0.0012658549
77	0xba94cb52	-0.0011352098
78	0x3a91b79d	0.0011117343
79	0xbaac4012	-0.0013141653
80	0xbaa79fb6	-0.0012788686
81	0x3aa62455	0.0012675623
82	0x3aac1910	0.0013130028
83	0x3aa517a4	0.0012595546
84	0xbaaa2161	-0.0012979918
85	0x3aa5cde8	0.0012649866
86	0x3aa65149	0.001268902
87	0x3aa5f9c4	0.0012662937
88	0x3aa954ee	0.0012918988
89	0x3a9e1538	0.0012060767
90	0xbaa58a6a	-0.0012629752
91	0xbaa61ec9	-0.001267397
92	0xbaa8a5f0	-0.0012866836
93	0xbaad19b9	-0.0013206518
94	0x3aa865d1	0.0012847726
95	0xbaa9e87d	-0.0012962964
96	0x38c19551	9.2307695e-05
97	0x3aa8150c	0.0012823655
98	0xbaa617eb	-0.0012671923
99	0xbaab7766	-0.0013081848
100	0x3aa5a7e4	0.0012638536
101	0x3aa53f91	0.0012607445
102	0xbaa7f079	-0.0012812755
103	0xbaa525e3	-0.0012599792
104	0x3aa8114d	0.0012822539
105	0xbaa65c92	-0.0012692383
106	0xba8aa312	-0.0010577163
107	0x3aaa3103	0.0012984577
108	0xbaa7a5e6	-0.001279053
109	0xbaa44ee9	-0.0012535724
110	0xbaa3eceb	-0.001250652
111	0xbaa617e8	-0.001267192
112	0x3aa7da9d	0.0012806241
113	0x3a8a57ec	0.0010554767
114	0x3aa7ac7a	0.0012792491
115	0x3aa1c230	0.0012341198
116	0x3aa5dddf	0.0012654624
117	0x3aa57d5b	0.001262586
118	0xbaa8b7a7	-0.0012872115
119	0xbaa1b1fa	-0.0012336366
120	0x3aa388b3	0.0012476653
121	0x3aa891d6	0.0012860845
122	0x3aa64c1a	0.0012687475
123	0x3aaa6b2a	0.0013001908
124	0xbaa1ee22	-0.0012354294
125	0xbaa10d72	-0.0012287332
126	0x3aa313ad	0.0012441777
127	0xbaa81529	-0.0012823689

layers.0.weight f4 [128, 128]
0	0x3d072bfe	0.03300094
1	0xbc2f31d3	-0.010693031
2	0xbdb9106c	-0.09036335
3	0xbd9a87d5	-0.07545439
4	0x3c97756c	0.018488608
5	0xbe0cdf9f	-0.1375718
6	0xbe06ed7a	-0.13176528
7	0xbd999add	-0.07500241
8	0x3ddf8c03	0.10915377
9	0xbd14424e	-0.036196046
10	0x3c139791	0.009008304
11	0xbdd33610	-0.10313046
12	0xbcc60bd1	-0.024175556
13	0xbca606b6	-0.020266872
14	0x3d73bbe1	0.059505347
15	0x3dc47faa	0.095946625
16	0x3e0811ba	0.13288012
17	0xbe0a406f	-0.13501142
18	0x3e082564	0.13295513
19	0x3cc9cea6	0.02463467
20	0xbdc1979d	-0.09452746
21	0x3c86d14f	0.016457228
22	0x3dd501c5	0.10400728
23	0x3b30ac90	0.0026958324
24	0xbe0a3d4f	-0.1349995
25	0xbe196afe	-0.1498222
26	0xbdedf32f	-0.11618649
27	0x3d98dafd	0.07463644
28	0x3e0c447d	0.13698001
29	0xbda0b8e5	-0.07847766
30	0xbd8b750b	-0.068094335
31	0x3dece627	0.115673356
32	0xbe0b1dbb	-0.1358556
33	0x3e06d80c	0.13168353
34	0x3d16d4db	0.03682409
35	0x3e0232fb	0.1271476
36	0x3daf37ca	0.08555563
37	0x3da8d90c	0.082445234
38	0xbdda9244	-0.10672429
39	0xbe1797a9	-0.14803948
40	0x3cf26dc8	0.029593363
41	0x3d53f461	0.05174673
42	0xbe091e0b	-0.13390367
43	0x3d351d49	0.04421738
44	0xbd0e8ea0	-0.034803987
45	0xbe1834d7	-0.14863907
46	0x3dee82c5	0.11646036
47	0xbd99c8b2	-0.07508983
48	0x3e0f3973	0.13986759
49	0xbd6f1e98	-0.058378786
50	0x3dc13242	0.09433414
51	0x3d2af1ba	0.041734435
52	0xbdcdfec9	-0.10058362
53	0x3cdd0b47	0.026982917
54	0x3d003c60	0.031307578
55	0x3c1cf22e	0.0095792245
56	0xbd8f162f	-0.06986653
57	0x3d741d4c	0.059598252
58	0xbd0c82fa	-0.034304596
59	0xbded83f3	-0.11597433
60	0x3d03f5e5	0.032216925
61	0x3d28028a	0.041018046
62	0x3e161bab	0.14658992
63	0x3cfade8d	0.030623699
64	0x3d136fe5	0.035995383
65	0x3d4dd11b	0.050248247
66	0xbd0b0bff	-0.033946987
67	0xbd61a272	-0.05508656
68	0xbce02735	-0.027362445
69	0xbc05e38b	-0.008171926
70	0x3d675ddc	0.056485996
71	0x3bf643b3	0.0075153946
72	0x3dc1b4b9	0.09458298
73	0x3e06b7c3	0.13156037
74	0xbd8f34bb	-0.069924794
75	0x3e153cf5	0.14574035
76	0xbda08a32	-0.07838859
77	0x3d9793ab	0.07401212
78	0xbcba8951	-0.022770556
79	0x3d9f5173	0.07779207
80	0xbd6d992b	-0.0580074
81	0x3d7f452a	0.06232182
82	0x3d06363c	0.032766566
83	0xbdc20e1e	-0.09475349
84	0xbd930708	-0.071790755
85	0x3d94e153	0.0726954
86	0x3de669e0	0.11250663
87	0x3bf3457f	0.007424056
88	0xbe00cdf3	-0.12578563
89	0xbdb54ecc	-0.0885292
90	0xbe107c47	-0.14109908
91	0x3d4bf332	0.049792476
92	0xbd9a9d54	-0.07549539
93	0x3d0f1a1d	0.034937013
94	0x3e137bca	0.1440269
95	0xbd2fc563	-0.042912852
96	0xbb8e44a1	-0.0043416773
97	0xbd514b64	-0.05109729
98	0x3e0d2ddb	0.13787024
99	0xbdb41b03	-0.087942146
100	0x3dbb4295	0.09143559
101	0xbd10d7dc	-0.03536211
102	0x3d7be5cc	0.06149845
103	0x3d33ef90	0.043929636
104	0xbe021b7b	-0.12705795
105	0xbdea5603	-0.11442187
106	0xbddae5b6	-0.10688345
107	0x3cbd52eb	0.023110827
108	0xbddfa6e3	-0.10920503
109	0x3e144a72	0.14481524
110	0x3df029ba	0.11726709
111	0xbe1dfb14	-0.1542781
112	0xbdf53c45	-0.11974386
113	0x3d7ee91f	0.06223404
114	0xbdee5f79	-0.11639304
115	0xbd50e67f	-0.05100107
116	0xbe155e15	-0.1458667
117	0xbd9f8ebc	-0.07790896
118	0x3e0874b7	0.13325773
119	0xbd3771f2	-0.0447864
120	0xbe015def	-0.12633489
121	0xbdb4cc0a	-0.0882798
122	0x3dca9681	0.098919876
123	0x3d9b5ac2	0.0758567
124	0x3d9271d9	0.07150621
125	0x3c33adf2	0.010966765
126	0x3c9ceed2	0.019156847
127	0xbdc6d601	-0.09708787
128	0xbdcff6c2	-0.10154487
129	0xbb98f1e3	-0.004667507
130	0x3c802522	0.015642706
131	0x3e072f45	0.13201626
132	0x3d943895	0.07237355
133	0x3dd7a7a7	0.10530024
134	0xbdb0c75f	-0.08631777
135	0xbdcfdc00	-0.101493835
136	0x3e0028b4	0.12515527
137	0xbdc0d231	-0.09415091
138	0x3d142012	0.036163397
139	0xbda638e4	-0.0811632
140	0xbdff44d3	-0.12464299
141	0x3dd51255	0.10403887
142	0xbd9970a7	-0.0749219
143	0xbdcd1bad	-0.10015044
144	0x3d9f3087	0.07772928
145	0x3e1db680	0.1540165
146	0x3d2b79a6	0.04186406
147	0x3d4e9022	0.050430425
148	0x3d8140fe	0.063112244
149	0xbcef5563	-0.02921552
150	0xbd106709	-0.035254512
151	0xbb351d88	-0.002763601
152	0x3e10ddc5	0.14147098
153	0x3a992e11	0.0011686702
154	0xbe1d48e8	-0.15359843
155	0x3c44cd94	0.012011904
156	0x3e097c7c	0.13426393
157	0x3d9f075a	0.07765074
158	0xbe19f5c4	-0.15035158
159	0x3db3ecc2	0.08785392
160	0xbe18cb6c	-0.1492135
161	0x3e0a6761	0.13515998
162	0xbdf962f4	-0.12177077
163	0xbddeb404	-0.10874179
164	0x3d1b5b0e	0.037928633
165	0x3e11a15f	0.14221714
166	0xbd97d02e	-0.07412754
167	0xbd2e6936	-0.042580806
168	0xbd35732c	-0.04429929
169	0xbbef885a	-0.0073099555
170	0xbdd3a3e3	-0.10333993
171	0x3d284e8a	0.041090526
172	0x3e029e33	0.1275566
173	0xbe0c09dc	-0.13675636
174	0x3db4ddf9	0.088314004
175	0xbd8b90dd	-0.0681474
176	0xbda7b2a4	-0.0818837
177	0x3dbc3fd0	0.09191859
178	0x3cdc7d22	0.026915137
179	0xbca49b5b	-0.02009361
180	0xbd9714b4	-0.07376996
181	0x3d931fcc	0.07183799
182	0xbcb4256e	-0.021990504
183	0xbdd07c4e	-0.10179959
184	0xbe182a0b	-0.14859788
185	0xbd6090ce	-0.054825597
186	0xbdfb998d	-0.12285147
187	0x3df55828	0.11979705
188	0xbc89eb78	-0.016835913
189	0x3da7459c	0.08167574
190	0xbd0ac604	-0.03388025
191	0xbd14e382	-0.03634978
192	0xbcd0ec99	-0.025503444
193	0xbda3d620	-0.079998255
194	0xbc85af7c	-0.016319029
195	0x3bba341a	0.0056824805
196	0x3e052d3b	0.13005535
197	0xbe1e1298	-0.1543678
198	0x3ddd74ac	0.10813269
199	0x3da987bd	0.08277843
200	0x3e1aec2a	0.15129152
201	0xbe081fca	-0.13293377
202	0x3cece1a7	0.028916193
203	0x3dbced94	0.09225002
204	0x3b8f9d0b	0.0043827347
205	0x3d2ebeb0	0.042662323
206	0x3cb125a3	0.021624392
207	0x3d8648fe	0.06556891
208	0xbde63bb5	-0.11241857
209	0x3d664f6c	0.056228086
210	0x3d8479fe	0.06468581
211	0xbc7a3935	-0.015272428
212	0xbd4e1886	-0.050316356
213	0x3db9e6f7	0.09077256
214	0x3d42b2c5	0.04753377
215	0x3da833d8	0.082130134
216	0xbd96d023	-0.07363918
217	0x3d380597	0.044927206
218	0xbdc8dfd6	-0.09808318
219	0x3d71b410	0.05900961
220	0x3d99ab48	0.075033724
221	0x3da97418	0.08274096
222	0x3ca50642	0.020144586
223	0x3c5d142c	0.013493579
224	0xbb076360	-0.0020658597
225	0xbd383855	-0.044975597
226	0xbd975853	-0.073898934
227	0x3e030e92	0.12798527
228	0x3dd7ea6f	0.105427615
229	0x3e0d62f2	0.13807276
230	0xbe1771e8	-0.14789546
231	0xbc80dea5	-0.015731165
232	0x3d8eeaef	0.06978404
233	0xbe0874e4	-0.1332584
234	0xbdbca888	-0.09211832
235	0xbe081521	-0.1328931
236	0x3d594014	0.053039625
237	0x3dfdd62e	0.12394367
238	0x3d6fe40c	0.05856709
239	0x3e138e30	0.14409709
240	0x3dc0b0ff	0.09408759
241	0x3ddd8547	0.10816436
242	0xbc1be110	-0.009514108
243	0x3d96282c	0.07331881
244	0x3e0bf6e2	0.13668397
245	0x3c3eea20	0.011652499
246	0x3d297192	0.041368075
247	0x3d160db2	0.036634155
248	0x3cbb5e36	0.022872072
249	0xbe0bc5c4	-0.1364966
250	0x3d48f4cf	0.049061593
251	0x3d4c111b	0.049821
252	0x3d8cdcc8	0.06878048
253	0x3d30605d	0.04306065
254	0x3dd05aa2	0.10173537
255	0xbd9a80c8	-0.07544094

layers.0.bias f4 [128]
0	0x3aa9cee8	0.001295534
1	0xbaa98b3b	-0.0012935171
2	0x3aa9f3e2	0.001296636
3	0xbaa931f7	-0.0012908567
4	0x3aaa26a0	0.0012981482
5	0x3aa96767	0.0012924493
6	0x3aa9fd2b	0.0012969127
7	0xbaa93aad	-0.0012911164
8	0xbaa98910	-0.0012934525
9	0x3aa9c93d	0.001295365
10	0x3aa9808a	0.0012931984
11	0xbaa9f0a2	-0.0012965391
12	0x3a9a7921	0.0011785367
13	0x3aa98601	0.0012933613
14	0x3aa976d1	0.0012929087
15	0x3aaa3977	0.0012987097
16	0x3aa98566	0.0012933433
17	0xbaaa03dc	-0.0012971121
18	0x3aa9ce30	0.0012955125
19	0xbaa9794f	-0.001292983
20	0xbaa99b42	-0.0012939947
21	0x3aa91276	0.0012899179
22	0xbaaa36e8	-0.0012986334
23	0xbaa8fc30	-0.001289254
24	0xbaa96a26	-0.0012925311
25	0x3aa9d664	0.001295757
26	0x3aa9dc50	0.0012959335
27	0xbaa97d6a	-0.0012931053
28	0xbaa98741	-0.0012933986
29	0xbaaa744c	-0.001300463
30	0x3aa85f6c	0.0012845821
31	0xbaa9d005	-0.0012955671
32	0x3aaa1c6b	0.001297844
33	0x3aab19dc	0.0013053971
34	0x3aa98584	0.0012933468
35	0x3aa9eecd	0.0012964845
36	0xbaa9360a	-0.0012909782
37	0xbaa98148	-0.0012932206
38	0x3aa9ce03	0.0012955073
39	0x3aa9c054	0.0012950995
40	0xbaa874ba	-0.001285217
41	0xbaaa282b	-0.0012981942
42	0xbaa981a5	-0.0012932314
43	0x3aa9d0c9	0.00129559
44	0xbaa9dee1	-0.00129601
45	0x3aa98d8f	0.0012935865
46	0xbaa90e1c	-0.0012897882
47	0x3aa9897f	0.0012934654
48	0xbaa9c8a7	-0.0012953476
49	0x3aab1551	0.0013052617
50	0x3aa9d0c4	0.0012955894
51	0x3aa9fd92	0.0012969247
52	0x3aa9d799	0.001295793
53	0xbaaa7eff	-0.0013007818
54	0x3aaa69cb	0.00130015
55	0xbaa9daa5	-0.0012958838
56	0x3aa9c851	0.0012953376
57	0xbaa97fb9	-0.0012931741
58	0xbaa9e708	-0.001296253
59	0x3aa9c6e5	0.0012952952
60	0x3aa9ca6e	0.0012954006
61	0x3aa96734	0.0012924434
62	0xbaa9cfda	-0.0012955621
63	0xbaa9d724	-0.0012957794
64	0x3aa987fa	0.0012934201
65	0xbaa98dd8	-0.001293595
66	0xbaa941ea	-0.0012913321
67	0xbaaa0fad	-0.0012974642
68	0x3aa987a8	0.0012934105
69	0x3aa9f660	0.0012967102
70	0xbaa61bfd	-0.0012673136
71	0xbaa9d6ac	-0.0012957654
72	0x3aa9f2f3	0.0012966081
73	0x3aa9ce39	0.0012955136
74	0xbaa5da23	-0.0012653511
75	0x3aa98301	0.0012932719
76	0xbaa4b803	-0.0012567047
77	0x3aa93a7a	0.0012911104
78	0x3aa98d30	0.0012935754
79	0x3aa9d850	0.0012958143
80	0xbaa9d666	-0.0012957572
81	0xbaa98553	-0.001293341
82	0xbaa97b3b	-0.0012930402
83	0x3aa96eb9	0.0012926675
84	0xbaa9df3a	-0.0012960203
85	0xbaa9d83f	-0.0012958123
86	0xbaa98d04	-0.0012935703
87	0xbaa9c851	-0.0012953376
88	0x3aa49402	0.0012556317
89	0x3aa9147c	0.0012899782
90	0x3aa982c0	0.0012932643
91	0xbaa97837	-0.0012929504
92	0x3aa9c8b3	0.001295349
93	0x3aa9d83c	0.001295812
94	0xbaa9d960	-0.001295846
95	0xbaa97381	-0.00129281
96	0xbaa9828c	-0.0012932583
97	0xbaa9d500	-0.0012957156
98	0x3aa9a9ca	0.0012944278
99	0xbaa8a94c	-0.0012867837
100	0x3aa985e7	0.0012933583
101	0x3aa98e7a	0.0012936138
102	0xbaa97385	-0.0012928104
103	0x3aad9ea4	0.0013246131
104	0xbaa9cc3a	-0.0012954541
105	0x3aa82f45	0.001283147
106	0xbaa98bc1	-0.0012935327
107	0x3aa9894a	0.0012934592
108	0x3aa9c8f6	0.0012953568
109	0x3aa94b96	0.0012916203
110	0xbaa66a65	-0.0012696503
111	0xbaaa0556	-0.0012971561
112	0xbaa98498	-0.0012933193
113	0xbaa9efa3	-0.0012965094
114	0x3aa8ac21	0.0012868681
115	0xbaa98399	-0.0012932896
116	0xbaa94772	-0.0012914969
117	0xbaa98c02	-0.0012935402
118	0x3aacc4c2	0.0013181197
119	0x3aa97ee8	0.0012931498
120	0x3aa5e3cc	0.001265639
121	0xbaa9e284	-0.0012961184
122	0xbaa98f4a	-0.001293638
123	0x3aa98933	0.0012934565
124	0xbaa979ed	-0.0012930013
125	0xbaa97f0b	-0.0012931539
126	0xbaa9722c	-0.0012927703
127	0x3aa9818b	0.0012932284

predict.weight f4 [1, 128]
0	0x3d89215e	0.066958174
1	0xbda07bfb	-0.078361474
2	0x3d0be17e	0.034150593
3	0xbc1ca911	-0.009561793
4	0x3ca1f702	0.019771103
5	0x3d12cd5c	0.035840377
6	0x3cee0b26	0.02905805
7	0xbcb089c2	-0.021550063
8	0xbd946ca6	-0.072472855
9	0x3da40471	0.0800866
10	0x3d6bfa26	0.057611607
11	0xbd0ffeb3	-0.03515501
12	0x3899dc0a	7.336594e-05
13	0x3d6fd34f	0.05855113
14	0x3d386e38	0.045026988
15	0x3c8f0b8d	0.017461563
16	0x3d875aff	0.06609153
17	0xbce304cf	-0.027712254
18	0x3d8c4183	0.06848433
19	0xbd3ea46c	-0.046543524
20	0xbd69d191	-0.057084624
21	0x3c7c1680	0.015386224
22	0xbc91eea7	-0.017813994
23	0xbc60b00f	-0.013713851
24	0xbd1b14e9	-0.03786174
25	0x3d67eb31	0.05662078
26	0x3d4c288e	0.049843363
27	0xbcfdff93	-0.031005656
28	0xbd89a89b	-0.06721612
29	0xbc4e0221	-0.01257375
30	0x3be4be3a	0.0069806846
31	0xbd87ca3c	-0.0663037
32	0x3cb3ab12	0.021932159
33	0x3be4f492	0.006987163
34	0x3d871d5f	0.06597399
35	0x3d148b71	0.036265794
36	0xbca930e1	-0.02065319
37	0xbd7111fd	-0.058855046
38	0x3d460929	0.04834858
39	0x3da818d6	0.08207862
40	0xbbf40a28	-0.0074475
41	0xbca3bfed	-0.019988978
42	0xbd7101d8	-0.05883965
43	0x3d8478e6	0.06468372
44	0xbd402f5b	-0.04692016
45	0x3dab712c	0.08371195
46	0xbc78d218	-0.015186809
47	0x3d99e85e	0.07515024
48	0xbda849b8	-0.08217186
49	0x3beb0fff	0.0071735377
50	0x3d856301	0.06513024
51	0x3cf90a4f	0.030400423
52	0x3d633a7f	0.055475708
53	0xbc42a1bd	-0.011879382
54	0x3c5c947d	0.013463137
55	0xbd52330d	-0.051318217
56	0x3da9c304	0.082891494
57	0xbd65a7b9	-0.056068156
58	0xbd2968ae	-0.041359596
59	0x3db27a94	0.08714786
60	0x3d9e120e	0.077182874
61	0x3ce16488	0.027513757
62	0xbd86858c	-0.06568441
63	0xbd629c22	-0.05532468
64	0x3d8cd22b	0.06876024
65	0xbdab68bb	-0.08369585
66	0xbcbc9e5b	-0.023024729
67	0xbccad5cd	-0.024760151
68	0x3d8bc305	0.068243064
69	0x3d05c6c8	0.032660276
70	0xbb13c146	-0.002254562
71	0xbd654956	-0.05597814
72	0x3d0e215e	0.03469979
73	0x3d8df26c	0.06931004
74	0xbb05654c	-0.0020354567
75	0x3d786a46	0.060648225
76	0xbabfee23	-0.0014643114
77	0x3ca4d541	0.020121219
78	0x3da9abf7	0.08284753
79	0x3d5f0699	0.05444965
80	0xbd6730a2	-0.056442864
81	0xbd871715	-0.065961994
82	0xbd51ba53	-0.051203083
83	0x3d261f2c	0.04055707
84	0xbd40c282	-0.047060497
85	0xbd5ca163	-0.053864848
86	0xbda724c3	-0.081613086
87	0xbda94d7a	-0.082667306
88	0x3ab8568a	0.0014063877
89	0x3c811ec7	0.015761746
90	0x3d73943d	0.059467543
91	0xbd15c1f0	-0.036561906
92	0x3da99dee	0.08282076
93	0x3d5d3afd	0.054011334
94	0xbd5a7c35	-0.05334111
95	0xbd3346d8	-0.043768734
96	0xbd76ee2f	-0.060285743
97	0xbd6e3034	-0.05815144
98	0x3d879a01	0.06621171
99	0xbc14b898	-0.009077214
100	0x3d83c270	0.064335704
101	0x3dad083d	0.08448837
102	0xbd33b940	-0.04387784
103	0x3b2c4828	0.0026288126
104	0xbd95f748	-0.07322556
105	0x3bc3b6c7	0.0059727165
106	0xbda0a8dd	-0.07844708
107	0x3d951d5e	0.07280992
108	0x3da5ba9b	0.08092233
109	0x3ccf1bb4	0.025281765
110	0xbb236e02	-0.0024937396
111	0xbce35833	-0.027752018
112	0xbd7ee712	-0.062232085
113	0xbd142e5a	-0.036177017
114	0x3c16f34f	0.009213283
115	0xbd7d988e	-0.061913066
116	0xbcc70340	-0.024293542
117	0xbda265ef	-0.079295985
118	0x3b5b0f35	0.0033425812
119	0x3d5f4dbb	0.05451749
120	0x3b081fc0	0.0020770878
121	0xbd36ab7f	-0.044597145
122	0xbdb0a244	-0.086247
123	0x3d953fa6	0.072875306
124	0xbd4c3a58	-0.04986033
125	0xbd64cfdb	-0.05586229
126	0xbd2f4416	-0.04278954
127	0x3d6b21bf	0.05740523
