PERGAT_embbedding/data/emb/models/model_dim128_lay2_epo15.pth (torch, 137088 bytes, 7 tensors)

linear.weight f4 [128, 1]
00000000: 9eba 20bf c0d1 763d 40e3 7d3d 4887 4f3e
00000010: 1cb9 e53e bc75 51bf c029 f03e 3ece 543f
00000020: 2049 acbd 546c 8c3e f29b 4d3f e813 a73e
00000030: 8051 41bc 00ab 493d 60d5 7cbd 046c 70bf
00000040: 6e3a 73bf 5e34 0dbf 6a81 29bf 38e7 0abe
00000050: c0d1 5f3e d41e 813e fc0b ffbe b0b0 2e3e
00000060: a411 ba3e fa89 5b3f 5603 5e3f 0e11 23bf
00000070: 2c84 033f 50de f13d 409e 913e 00a6 4dbf
00000080: c821 62be a058 25be 5013 c1bd fc85 dd3e
00000090: d8ea e13e 641b 2dbf 7c4a 5bbf 5c30 223f
000000a0: 984d 51bf b42c 73bf beff 63bf 42c8 0dbf
000000b0: 9809 0dbf 04e8 563f c0c9 ea3c 7cf4 7abf
000000c0: 9018 613f 4ecc 47bf 7c06 d9be 9c42 ca3e
000000d0: 303c cbbd 20f4 793e a0de fabd f027 2c3e
000000e0: 942c abbe b0b7 fbbd 8e4f 26bf 54a7 1a3f
000000f0: 504e 473f 6039 68bf 44bc da3e dc55 0bbf
00000100: 000b 42bc c8c9 5abf 6ef8 55bf f693 43bf
00000110: e6bd 42bf caaf 483f a06e 773f 8851 efbe
00000120: 0046 573f c429 193f 0edc 353f cac5 703f
00000130: f6bc 283f 2c32 bcbe 3024 74be ac2e 70bf
00000140: 7094 44be b08d 55bf f055 12bf 0ec1 3abf
00000150: 20ab dfbd 2c2d febe a4b3 c73e 503a 0b3e
00000160: 080e 31bf 5456 1c3f 60f6 16be dc40 993e
00000170: 5ebc 0f3f 3c23 4e3f 7e19 19bf 10d7 a33e
00000180: f4b5 36bf 08e9 543e 7e25 0d3f 423a 093f
00000190: 4e03 03bf f03b 833d 145e 48bf 38c2 19bf
000001a0: a838 1d3f f076 96bd 6211 623f 4a54 6a3f
000001b0: 70f7 b2bd 3845 433e 6282 05bf 288e 0d3e
000001c0: d423 54bf a83b 44be f02c 053f 585d 26be
000001d0: 38a1 f83e 8c75 d8be e8c0 1bbe 80cc f7bc
000001e0: 9c70 76bf 0a78 073f 3053 df3e 98ad 0ebe
000001f0: 6898 0abe e0ba 5ebe e479 5b3f 382a 4a3e
-0.62784755 0.060258627 0.0619843 0.2026645 0.4486779 -0.81820273 0.46906853 0.831272
-0.08412385 0.27426398 0.8031608 0.32632375 -0.011799216 0.049235344 -0.061726928 -0.9391482
-0.9501103 -0.5515803 -0.66213095 -0.13564765 0.21857357 0.25218832 -0.4981383 0.17059588
0.36341584 0.8575741 0.8672384 -0.636979 0.51373553 0.11809981 0.28441048 -0.8033142
-0.22083199 -0.16147089 -0.09427512 0.43266284 0.44124484 -0.6761992 -0.8566053 0.6335504
-0.81759024 -0.94990087 -0.89062107 -0.55383694 -0.55092764 0.8394778 0.028660655 -0.98029304
0.87928104 -0.7804612 -0.4238776 0.39503944 -0.09923589 0.24409533 -0.122494936 0.1681211
-0.33432448 -0.12290895 -0.6496514 0.6041157 0.7785387 -0.9071255 0.4272176 -0.54427886
-0.011843443 -0.85464144 -0.835822 -0.76397645 -0.7607101 0.7839323 0.96653175 -0.4674189
0.84091187 0.59829354 0.710389 0.940518 0.6591333 -0.36757028 -0.2384193 -0.93821216
-0.1919725 -0.8341932 -0.5716238 -0.7295083 -0.109213114 -0.49643838 0.39004242 0.13596463
-0.69162035 0.61069226 -0.14742422 0.29932296 0.561468 0.80522513 -0.59804523 0.32000017
-0.7137139 0.2079202 0.55135334 0.5360452 -0.5117692 0.064079165 -0.7826855 -0.6006198
0.61414576 -0.07346904 0.88307774 0.91534865 -0.08738601 0.19069374 -0.52152073 0.1382376
-0.8286717 -0.19163382 0.52021694 -0.16246545 0.485605 -0.4227718 -0.15210307 -0.03024888
-0.9626558 0.5291754 0.43618155 -0.13933408 -0.13534701 -0.21750975 0.85732865 0.19742668

linear.bias f4 [128]
00000000: f860 043f fa8d 5e3e adca 61bf cddd 5b3f
00000010: 1b05 2cbf ce6f a2be 5474 1bbf cd03 80be
00000020: 0c78 6d3f 9038 693c 05fe 593f 86ce b0be
00000030: 0c4c 2abe 260c 373f f327 74bd 386a eebe
00000040: 1d4d 9bbd ef33 473f f46c 4bbf f85f f1be
00000050: 7177 0e3f 6d72 383f 49de c13e 7732 253f
00000060: 2dc4 62bf 2346 e1be 415e 49be cbc8 05bf
00000070: b613 20bf 2ed7 b9be d17d 743f 7786 68bf
00000080: 5358 ff3e 2330 5f3f 0705 383f 6b97 0f3f
00000090: 1571 10be 1d26 713f 0e5f d03c 763e d63e
000000a0: 2895 5d3f 9519 463f cda9 713e 2018 f9bc
000000b0: e3ec 323e 5265 463f 8753 61bf 75bc 02bf
000000c0: b518 803f e605 9cbe ab86 9bbe ccd2 0abe
000000d0: 9004 d83d d28f c03e 64f5 2cbf 4dff 3ebe
000000e0: 99e3 3dbf 28e1 48bf a69d 3d3f 4f99 063f
000000f0: b978 77bf 726b efbe 40a1 ce3c d197 53bf
00000100: ea6e 71bf d797 c43e c67e c43b c205 073f
00000110: e898 1dbf 05c6 033c 1200 3f3f 12fa 283f
00000120: 980c 113f a0fd 51be fd52 b8be 45a0 49bf
00000130: e437 9c3e f39f 2c3f 6b9a 24bf ddb9 adbe
00000140: c0f7 203f e8df fabe b260 1cbf 87b5 c7be
00000150: 1f05 4a3f 410b 31bd af6e febd 6813 23bf
00000160: 1077 393f 5251 06bf 58f5 683a ed1b 53bf
00000170: 004f 7a3f 3e8a f5bd 9d94 9c3e f1c9 aabe
00000180: daac 6b3f ff9b 203f d602 793f 808b 6cbf
00000190: 64f6 353f 0ff5 65bf b1a3 0c3f ba60 60bf
000001a0: f91d 393f 9a85 03be 51a6 113f 0eb9 6bbf
000001b0: d67e 043f 9aed 28bf ff3d 263f 8995 cabd
000001c0: 1ebb 253f 6170 2cbe efb2 34bf df65 733f
000001d0: 0124 353e bac7 493e 10eb 193f 2b0f be3e
000001e0: da93 033e e7c7 74be dde9 b4bd 55ca 203f
000001f0: d42b 3c3f 1c10 19be 9af0 5c3f ec49 783f
0.5171046 0.21733847 -0.88199884 0.85885316 -0.6719529 -0.31725925 -0.6072438 -0.250029
0.927613 0.014234677 0.8515323 -0.34532565 -0.16630572 0.7150291 -0.05960841 -0.46565413
-0.075830676 0.7781362 -0.79463124 -0.4714353 0.55651003 0.720496 0.37864903 0.6453013
-0.8858059 -0.43998823 -0.19664861 -0.5225951 -0.62530077 -0.36296982 0.9550448 -0.9083018
0.49872074 0.87182826 0.7188267 0.5609042 -0.14105637 0.9419878 0.02543595 0.4184453
0.8655572 0.77382785 0.2359993 -0.030407012 0.17473178 0.7749835 -0.8801808 -0.5106881
1.000754 -0.3047325 -0.3037618 -0.13556975 0.10547745 0.37609726 -0.67561936 -0.18652077
-0.7417541 -0.7846856 0.7406868 0.5257768 -0.96668583 -0.46761662 0.025223374 -0.8265353
-0.94309866 0.38397095 0.005996558 0.5274316 -0.6156144 0.008042817 0.7460948 0.66006577
0.5665984 -0.20506907 -0.36000815 -0.78760177 0.3051139 0.67431563 -0.64298123 -0.33930865
0.62878036 -0.48998952 -0.61085045 -0.39005682 0.78914064 -0.043223623 -0.12423455 -0.63701487
0.724473 -0.52467835 0.0008886657 -0.82464486 0.97776794 -0.11989258 0.30582133 -0.33357194
0.92060626 0.6273803 0.9726995 -0.9240036 0.7107909 -0.89827055 0.54937273 -0.87647593
0.7231136 -0.12843934 0.56894404 -0.92079246 0.51756036 -0.6598755 0.6493835 -0.09891803
0.64738643 -0.16839744 -0.7058553 0.9507732 0.17689516 0.19705096 0.601243 0.37120947
0.1284937 -0.23904382 -0.088336684 0.62808734 0.73504376 -0.14947551 0.8630463 0.96987796

conv_0.weight f4 [128, 128]
00000000: 549f 0ebe 0731 b33c 9e61 e83b 4dbe 193e
00000010: 3dd3 a7bc 269c b03d 0c37 a93d 425e 72bd
00000020: 655d a0bd 0f99 bcbd ed93 c4bd d1c6 a63d
00000030: 025a 453d 2fc5 a8bd c294 17be 0340 e73c
00000040: b137 a9bd 09a9 3e3d 4fb4 0bbe 004e 0c3e
00000050: 8509 fc3c ed6c 84bd eb78 16bd 91e9 b23d
00000060: e2b8 a0bc 31ea 09be e533 38bc f82f a0bd
00000070: 4c66 73bd 7074 b4bc f90a 043c fb13 e1bd
00000080: 3e5c eebc 671e 96bc ad3f 7ebd 593d ba3d
00000090: 393a e9bd a7f6 dbbd ebca a93d ae00 f9bd
000000a0: 400e 853d 8446 43bd faed f33b acca c5bd
000000b0: 9013 a23d 2e7e e53d 587b bdbd 0a46 1dbe
000000c0: 1beb 2fbd 3885 f6bd 53ed 13be 9271 723d
000000d0: be49 17be 6819 c33d 1637 90bc 50f9 013d
000000e0: 0342 a23c 0f0e 0e3e 02aa 173e 24f8 923c
000000f0: cad9 413d a62b 2fbd b7db c23c 8436 433d
00000100: 47aa 013e bb84 9cbd a51a c3bd 4d94 8cbd
00000110: 07c4 82bd 09bb 9b3d e5e2 b2bc 793c 123e
00000120: fa0e 1a3e 3237 d9bd 9968 523c 2bca a53d
00000130: 593d bfbd a8d8 0e3e 6815 be3c ba54 533d
00000140: 437a aabd 2019 f93d d68d 113e 6a23 fcbd
00000150: ab38 80bd 7a07 66bd fa24 633d 21f9 0fbe
00000160: 12ac be3d ef1c 36bd bd56 843d 4515 38bd
00000170: 617c 873c 9d42 eb3d 28ff ba3d 745f a2bd
00000180: 17a4 3cbd 6cb9 98bd 324f d73d da48 9e3d
00000190: d023 18be c682 d53b 01f0 41bb 3003 75bc
000001a0: 1c38 03be 5289 11be 7090 7fbb 6a34 d53d
000001b0: 51f1 d3bd c289 983c 67fe eabd 7b92 b7bd
000001c0: 5029 c7bd ed80 153b 4e8d 21bd f56b 94bd
000001d0: 0aaf 473d 87ef e6bd 74e7 f43d 2978 d43c
000001e0: 19d9 4fbd a79e ca3b 0a7a 1d3d 9cfe 833c
000001f0: 5055 5f3d 9361 013e d05e 1c3e ed68 d1bd
00000200: ba03 dd3d 081c 073d f794 d8bd 9857 79bd
00000210: ce7b 97bd 8c9b adbd 46bd f7bd bbf0 953d
00000220: b50c 8f3d 7ede 8b3b 6347 3dbd 2ed5 fb3d
00000230: 4e4f 31bd f406 d0bd 1b6f acbd c89a 0cbd
00000240: bebe f13c 511a 843d a9dc 0e3d 7022 a5bd
00000250: 4809 9fbd 5d42 efbd 24e5 85bd 698a f9bd
00000260: 7ec6 febd 2661 fb3d 49c1 5fbd 9ea8 003e
00000270: 5571 983d 45ab 85bd f31c b13c 0d08 7e3d
00000280: b070 0dbe 961c 0b3e 3006 31bd 9fa0 2dbd
00000290: 1549 acbd 10d3 ebbd 1a75 783d 4532 c13d
000002a0: 1cda 04be b432 8d3b 0fec 04be 7e9e 193e
000002b0: 445f 0fbc 176c c1bd c6cd 393d b21a 343d
000002c0: 9f2a a03c fd28 18bc 5d6a 0dbe 3306 92bd
000002d0: 03c8 64bb 7eb5 49bd c597 f23d a2ac 90bb
000002e0: e17c 8f3c 2869 0abe fc80 c0bc eef7 c33d
000002f0: 09a3 b0bc ab3d 97bd a27d 413d b3e6 d33a
00000300: ac44 fb3d 89a1 12bc 594a 15be e88f e9bd
00000310: ed16 ae3d 2841 163e 4afa d23d 46de 423d
00000320: 3b51 db3c fdc7 fc3d c3c2 943c 09ef f5bd
00000330: fe40 58bc 4f3e 763d 4fd6 05bc bf7e 913c
00000340: 9f2e a83c 5172 e7bd 9058 2a3d 9d39 12be
00000350: b8a2 c23d ad47 f0bd 883a 593d 8fe1 15be
00000360: fff9 9ebd 33fe 6dbd 1967 4fbd 2e92 003e
00000370: c0ba c13d ae7d c63d 237f de3d d279 cebd
00000380: 7b4f 843c b16d 923c ff0d 00be c082 a3bc
00000390: b54d c83b 7e36 71bd 04b5 a23d 1d3d a53d
000003a0: 1e25 b23b eb1b cf3c 3517 1c3e 068d 86bd
000003b0: 8d4d 23bc 3e3a c8bc 7c09 a7bd fd1b 86bd
000003c0: 1958 edbd 45a6 ea3d 6e05 c0bd 6123 c2bc
000003d0: 4b9e c83d 5e2e f13d b47f 943c a2ff 303d
000003e0: 8653 093e d268 593d ae5f 97bd 5b70 15bc
000003f0: b3d0 9abc a6e6 193d 72dd 013e 39b4 0a3e
-0.13927966 0.021873964 0.007091715 0.15014 -0.020486468 0.08623533 0.082624525 -0.059171923
-0.078303136 -0.09208881 -0.09598527 0.0814339 0.04818154 -0.08240735 -0.1480284 0.028228765
-0.082625754 0.046547923 -0.13643001 0.1370163 0.030766258 -0.064660884 -0.03673641 0.087359555
-0.019619409 -0.13468243 -0.011242841 -0.07821649 -0.05942373 -0.022028178 0.008059257 -0.10990139
-0.029096719 -0.018325044 -0.062072445 0.090937324 -0.11388058 -0.107404046 0.08290657 -0.12158333
0.064968586 -0.04767467 0.0074441405 -0.09657797 0.079138875 0.112057075 -0.092520416 -0.15358749
-0.042948823 -0.12037128 -0.14446001 0.05919034 -0.14774224 0.0952633 -0.017604392 0.031731904
0.019806867 0.1387255 0.14810947 0.017940588 0.04732684 -0.042766236 0.023786409 0.047659412
0.12662612 -0.07642504 -0.095265664 -0.06864224 -0.063850455 0.076040335 -0.021836707 0.14280881
0.15044776 -0.10606231 0.012842321 0.08095201 -0.09337873 0.13949835 0.023203567 0.051594473
-0.08324101 0.12162995 0.14214262 -0.12311442 -0.062608086 -0.056159474 0.055455185 -0.14059879
0.093101636 -0.044461187 0.064618565 -0.04494216 0.0165388 0.11487315 0.091306984 -0.079283625
-0.046054926 -0.074572414 0.10513152 0.07728739 -0.14857411 0.0065158335 -0.0029592516 -0.014954373
-0.12814373 -0.1421254 -0.0038996004 0.10410388 -0.10348762 0.018620376 -0.11474305 -0.08963486
-0.097246766 0.0022812441 -0.0394414 -0.07247154 0.048750915 -0.11276155 0.11958209 0.025936203
-0.05074415 0.0061834636 0.038446464 0.016112618 0.05452472 0.12634878 0.15270543 -0.10225091
0.107917264 0.032985717 -0.10575288 -0.06087455 -0.07396661 -0.08476934 -0.12096648 0.07321306
0.069848455 0.0042684665 -0.046210658 0.1229652 -0.04328852 -0.10157576 -0.08419629 -0.0343273
0.029509898 0.06450332 0.034878407 -0.08063209 -0.07765442 -0.1168258 -0.06537846 -0.12184603
-0.12440203 0.12274389 -0.05462769 0.12564322 0.07443491 -0.06526808 0.02162025 0.062019397
-0.13812518 0.13585123 -0.04321879 -0.04238951 -0.08412377 -0.11514866 0.06065855 0.09433416
-0.12973827 0.004309023 -0.12980674 0.15001866 -0.00875074 -0.094444446 0.045362256 0.04397077
0.019551573 -0.009287116 -0.13810106 -0.07130089 -0.0034909255 -0.04924535 0.11845354 -0.0044151107
0.017515602 -0.13516676 -0.023499005 0.09568773 -0.021562116 -0.07384809 0.047238953 0.0016166776
0.122689575 -0.008949646 -0.14579143 -0.11404401 0.085004665 0.14673293 0.10301645 0.047575258
0.026772132 0.12342832 0.018159276 -0.12008483 -0.013199089 0.060118016 -0.008168771 0.017760633
0.020530043 -0.11301101 0.041588366 -0.1427979 0.095036924 -0.11732421 0.053034335 -0.14636825
-0.07762527 -0.05810375 -0.05063543 0.12555763 0.09459448 0.0969194 0.10864093 -0.10081829
0.01615118 0.01787457 -0.12505339 -0.019959807 0.006112779 -0.05888986 0.07944682 0.08068297
0.0054365536 0.025281867 0.15243228 -0.06569867 -0.00996722 -0.024441835 -0.08156106 -0.06548307
-0.11589069 0.11457495 -0.09376036 -0.02369851 0.09795817 0.11776422 0.0181273 0.04321254
0.13410768 0.05307848 -0.07391296 -0.009121026 -0.018898344 0.03757348 0.12682131 0.13545312

conv_0.bias f4 [128]
00000000: 9f5f be3a 54c2 c13a a275 c23a 0db5 c0ba
00000010: f7e2 72ba 088b c1ba 84eb bdba 1f62 beba
00000020: 6614 c33a 5655 b03a e3ba bb3a bfab baba
00000030: 400d bbba 04e9 c23a 2b54 b13a bc34 bc3a
00000040: 5bea c6ba 9506 c2ba dc85 ca3a 1ffd c1ba
00000050: 339e c33a 0434 ba3a 6200 be3a 182a bcba
00000060: f586 bd3a 8cde c13a 31a3 c1ba b6c2 be3a
00000070: 50f9 c23a e07b c4ba 66bf bcba a579 bd3a
00000080: d44a c73a 1236 bd3a b3a1 b6ba c8eb bd3a
00000090: b06b af3a 5a48 c13a 3f78 36ba 0702 c1ba
000000a0: b8d3 bd3a 53aa c2ba 3eaf c03a a337 c53a
000000b0: 5bee c03a 1e66 beba 338b be3a 0e16 c1ba
000000c0: d08c bdba 603f c1ba b48d c63a afe4 c13a
000000d0: 36c5 bdba 9ec3 bb3a 8447 c13a 46f9 c1ba
000000e0: 6a06 bdba 986d c3ba 0ae7 bd3a 06b8 b8ba
000000f0: 971e c6ba 9783 be3a 5b1d a5ba 7777 c2ba
00000100: df9d a43a 1d78 c13a 9b0a bfba 8096 b63a
00000110: 02eb b03a 8a53 c13a d62f c2ba 9c6f c1ba
00000120: 1b5a b3ba c989 c1ba 6b6f b9ba d483 be3a
00000130: dff4 bdba b177 b03a aaa1 bcba bc27 c23a
00000140: a914 c1ba 1913 c33a cf03 a23a 0a88 c0ba
00000150: 376e c4ba f53d beba b439 b73a 8673 c23a
00000160: 459b c3ba 74ba c03a e926 bcba ffbe b73a
00000170: 7442 bdba de01 c13a ebc8 b6ba 5a7d bdba
00000180: 4f16 b73a 8424 55ba b2d0 bbba 1834 b93a
00000190: 0bc1 c23a d2f7 b8ba 6e98 bc3a 7647 9eba
000001a0: 0a03 bdba bb97 c43a 24a5 c33a 2d6d c23a
000001b0: 99df c0ba fc63 c0ba f1a8 c1ba bb05 aeba
000001c0: 4140 c2ba b33e bc3a 4e1b c1ba 5ead c1ba
000001d0: 4025 c4ba 3eb8 baba da5a b8ba ef9a c93a
000001e0: ab49 b93a ed91 be3a e278 bd3a 2866 c1ba
000001f0: 35af ca3a 793d c53a 8d55 c73a cfa7 c3ba
0.0014524347 0.0014782646 0.0014836083 -0.0014702395 -0.0009265388 -0.0014766166 -0.0014489745 -0.0014525092
0.0014883399 0.0013453166 0.0014322664 -0.0014241858 -0.0014270917 0.001487047 0.0013529112 0.0014358978
-0.0015176045 -0.0014802987 0.001545127 -0.0014800167 0.0014924466 0.0014206176 0.0014495964 -0.0014355807
0.0014459776 0.0014791056 -0.0014773366 0.0014553878 0.0014875326 -0.0014990531 -0.0014400303 0.0014455809
0.0015204796 0.001443567 -0.0013933688 0.0014489824 0.0013383534 0.0014746294 -0.0006960667 -0.0014725336
0.0014482653 -0.0014851786 0.0014700664 0.0015046488 0.0014719473 -0.0014526283 0.0014537334 -0.0014731304
-0.0014461521 -0.0014743619 0.0015148432 0.0014792884 -0.0014478329 0.0014325266 0.0014746045 -0.0014799021
-0.0014421467 -0.0014909981 0.0014488411 -0.0014092929 -0.0015115318 0.0014535066 -0.001259725 -0.0014836629
0.0012559256 0.0014760528 -0.0014575304 0.001393035 0.0013497772 0.0014749628 -0.0014815282 -0.0014757994
-0.001368347 -0.0014765795 -0.0014147585 0.0014535137 -0.0014492533 0.0013463405 -0.0014391441 0.0014812867
-0.0014730889 0.0014883011 0.0012360754 -0.001468898 -0.001498646 -0.0014514314 0.0013978989 0.0014835454
-0.0014923593 0.0014704005 -0.0014354858 0.0014018713 -0.001443936 0.0014725288 -0.0013945376 -0.0014456913
0.001396844 -0.00081307464 -0.0014329164 0.0014129905 0.0014858557 -0.0014111942 0.0014388689 -0.001207574
-0.0014420461 0.0014998832 0.0014926535 0.0014833562 -0.0014715075 -0.0014678235 -0.001477508 -0.0013276854
-0.0014820175 0.0014361948 -0.0014732869 -0.0014776399 -0.0014964715 -0.0014245582 -0.0014065162 0.0015381257
0.0014136335 0.0014539339 0.0014455582 -0.0014755176 0.0015463593 0.0015048228 0.0015207991 -0.001492733

layers.0.weight f4 [128, 128]
00000000: e04b e33d 9d64 823a b5b3 d3bc c51b 233d
00000010: b81c 0d3e fc40 a33d b0a9 d9bb ae07 923d
00000020: 7e86 49bd 505e 123d 8e3c 18be c710 ebbd
00000030: 538d 153e 4073 963d 9b21 20bd ebb5 4a3d
00000040: 92a4 b53d ab79 06be 6b2e 08be f1bf 553d
00000050: 812f 983d 1af6 8fbd a4d4 903d 0d37 4a3d
00000060: 3780 4dbd cbac 4dbd 3b51 a53d cd64 f6bd
00000070: bdb9 133e e53a 903d 66bd 283d df50 03bd
00000080: fa48 b6bd 1a7b ae3d 321a bcbd c1ac c93c
00000090: 1b32 803d 7c25 a5bc 5be8 d53d e185 1e3a
000000a0: dbda 97bd 9f99 a93d 0e32 c23c e406 a83d
000000b0: 39ee 0d3d 9197 03be 14e6 7bbd 0dc2 ee3d
000000c0: b685 133e 3da1 e53d c731 eb3d 56e0 613b
000000d0: eb47 8cbd 1484 bd3d c488 c03c bab3 7b3d
000000e0: 78b3 bcbc 460f b23d 1541 ee3d 61d9 a5bd
000000f0: efc4 ad3c 98ee f83d b497 043d 49ea 76bd
00000100: 64fa a2bc 7c50 81bd b9bd 79bb 8c60 c2bc
00000110: 1201 b33d 1f95 d23d 1495 c33d 2958 033e
00000120: b1a1 b93d 85a7 233d 7d65 20bd ccdd ffbd
00000130: 89ea 96bc b3d8 2c3d 6e47 cdbd 4e04 cc3d
00000140: 6978 023c d94d 44bd 299a 9a3d f421 e1bc
00000150: 61d4 ecbd 980e ac3d 9409 e8bd 6ee2 0f3e
00000160: 1ac7 903c 2c9a 88bd 2f34 cc3d bf1f 0d3e
00000170: 1bc6 d9bd 10b2 06bd db55 75bd 75fa dbbd
00000180: ea6d d4bc ce16 5b3d 885c 673d fcc3 9ab9
00000190: c415 0f3e 3e82 6a3d f93f fabd 8b6e f63d
000001a0: bc92 fc3c f26e 18be dc5b 143d c3d8 75bd
000001b0: 7cdf 05bc e07d 073e 1ef8 973d 203c db3b
000001c0: a80e a9bc c14e e6bd 3900 dbbc 10a4 fabd
000001d0: 8f4d e33d 09c2 f3bd e762 b4bd fe4b ad3d
000001e0: 11b8 9ebd 7822 a5bc 208c 13bd f7e2 47bd
000001f0: 761e 4b3d d055 673d d3b7 a23d f5fc aabd
00000200: 205b a7bc b799 8ebd f3c5 0a3d 20b5 50bd
00000210: 028b 133e c8d3 d13d 88e3 e0bc abb8 153e
00000220: 3188 163e 8983 403d 1c56 5bbd 030d ad3d
00000230: 57d7 853d 3fb0 1f3d aede ee3d f495 c53d
00000240: 7453 083b 4555 80bd bd2d 12be 6fc1 a03d
00000250: b1c3 9bbd 3261 a03d ac0f 6d3d e15c cebd
00000260: 5fc3 26bd ed38 34bd cda5 80bd fa51 e1bd
00000270: 6804 dc3d 95d3 be3d 7933 fdbd cd88 10be
00000280: 28aa 47bc 9908 91bd 5254 c9bd 39a1 003b
00000290: c9c0 9abd b765 4e3b 8fcc 7a3d ce07 d6bd
000002a0: 17f3 17be a30a 0d3d 910b e3bd b91b aabd
000002b0: 51ae ca3d d12f b53d 4a7d 043e 30b3 b6bd
000002c0: 28e4 8dbd d923 063d 14af 0fbe bbc5 813d
000002d0: d33c 18be 6ffa 61bd c71c e2bd e374 ca3d
000002e0: 8546 acbd e4b9 043e 9e43 13be 9ae5 e1bd
000002f0: 8caa b8bc 2a50 b5bd 4ecf b7bd 3100 11be
00000300: 5f33 18be 24e2 163e a787 623d 690a 8e3c
00000310: 8934 033e f077 ae3d 0205 f9bd f680 15be
00000320: 9920 993c b1ab 4ab9 6c54 14be 7c6b 193e
00000330: fbb0 193e 6e83 bcbd 1433 e63d d994 95bd
00000340: c885 15be b9e0 86bc bd0a b7bd 209c 013e
00000350: 7ada d33d 4570 cf3c a56c 9e3d 96b7 193e
00000360: 8712 9fbd 7a61 bebb 9d0c aa3d 3ce0 653d
00000370: 0200 9a3d 6aea b83d 08cd 14be c8b5 863d
00000380: accd 0dbe cc2f 033e 2fe4 203d c361 a03d
00000390: 8526 a9bc 406a 7b3d 59c5 c93c 6759 173c
000003a0: f497 503c 544d 0a3d c6f3 f03c 2716 14be
000003b0: 1be1 873d c7ff 9abd e3b1 d7bd ece5 95bd
000003c0: 2736 fbbd 7911 f4bc 6554 003e 6b8b 00be
000003d0: e859 d3bd bc27 bebd 494a ddbc 39e4 c03d
000003e0: 29e3 00be 5bf0 cc39 f2d6 3fbb acc4 073e
000003f0: ec40 75bd c8ff c4bd 5d57 993d fa9a 0abe
0.110984564 0.0009948198 -0.025842527 0.039821405 0.13780487 0.07971379 -0.006642543 0.07130371
-0.049200527 0.035734475 -0.1486685 -0.114778094 0.14604692 0.07346201 -0.03909455 0.049489897
0.0886928 -0.1313235 -0.13298957 0.052185003 0.07430936 -0.07029362 0.07071808 0.049368907
-0.050171103 -0.050213616 0.08072134 -0.12030945 0.14426322 0.07042483 0.04119625 -0.032059547
-0.08900638 0.085195735 -0.09184684 0.024618508 0.06259557 -0.020159476 0.10444709 0.0006047171
-0.0741479 0.08281254 0.023705509 0.08204439 0.034651015 -0.12850787 -0.061498716 0.11658106
0.14406475 0.112123944 0.11484104 0.003446599 -0.06849655 0.092537075 0.023502715 0.061450697
-0.023034796 0.086943194 0.11633507 -0.08098102 0.02121207 0.12154883 0.032371238 -0.060282025
-0.019894786 -0.06314179 -0.0038107468 -0.023727678 0.087404385 0.10282349 0.09549919 0.12826599
0.09064043 0.03995468 -0.039159287 -0.12493476 -0.018422382 0.042198848 -0.1002339 0.099617586
0.007963278 -0.047925804 0.07548935 -0.02748201 -0.115639456 0.08401221 -0.11329952 0.1405122
0.017673064 -0.06670031 0.09970891 0.13781641 -0.10633489 -0.032884657 -0.05989633 -0.1074113
-0.025931317 0.053488545 0.05648473 -0.0002951919 0.13973147 0.057253115 -0.12219233 0.12032803
0.030831687 -0.14886072 0.036220416 -0.060021173 -0.008170959 0.13231611 0.074203715 0.006690517
-0.020636871 -0.1124549 -0.026733505 -0.12238324 0.110987775 -0.11902244 -0.088079266 0.0846176
-0.07749952 -0.020158038 -0.036022305 -0.048800435 0.049589597 0.05647832 0.07945218 -0.08349029
-0.020429194 -0.069629125 0.033880185 -0.050953984 0.14408496 0.10245472 -0.027452245 0.14621226
0.1470039 0.04700044 -0.053548917 0.084497474 0.065352134 0.03898644 0.116635665 0.09647742
0.0020801695 -0.06266264 -0.1427526 0.078493945 -0.076056845 0.078310385 0.057876274 -0.10076309
-0.040713664 -0.0439996 -0.06281624 -0.11001964 0.10743028 0.093177 -0.12363333 -0.14114685
-0.0121865645 -0.07081718 -0.09830536 0.0019627346 -0.07556302 0.0031493732 0.06123024 -0.104507074
-0.14838825 0.034433972 -0.110861905 -0.08306069 0.098965295 0.08847011 0.12938419 -0.08920896
-0.06928283 0.03274903 -0.14031631 0.06336542 -0.14866953 -0.055170473 -0.11040645 0.098855756
-0.08411888 0.12961537 -0.14381263 -0.11030121 -0.02254226 -0.08853181 -0.08975087 -0.1416023
-0.14863347 0.14734703 0.05530515 0.017338948 0.1281301 0.0851897 -0.12159158 -0.14599976
0.018692302 -0.00019328181 -0.1448533 0.14982408 0.15008919 -0.09204756 0.11240211 -0.07303781
-0.14601815 -0.016464578 -0.08937595 0.12657213 0.103444055 0.025322089 0.07735566 0.15011439
-0.07767206 -0.00580996 0.08303187 0.05612205 0.07519533 0.09029086 -0.14531338 0.06577641
-0.13847989 0.12811202 0.039280113 0.078311466 -0.02064825 0.061380625 0.024630236 0.009237624
0.012731541 0.033765152 0.029413115 -0.14461575 0.06634732 -0.07568317 -0.10531976 -0.07319245
-0.12266188 -0.029793488 0.12532194 -0.12553184 -0.10319883 -0.092849225 -0.027012961 0.0941853
-0.12586655 0.0003908899 -0.0029272404 0.13258618 -0.059876367 -0.09619099 0.07487366 -0.13535681

layers.0.bias f4 [128]
00000000: 8616 c3ba 0dc5 c33a 28b6 c2ba c92a c43a
00000010: 2302 c33a 0bd8 c3ba 786b c3ba 613c c3ba
00000020: 91fb c33a 714c c4ba e9d9 c33a 16cd c3ba
00000030: e791 c23a adf7 c33a 4141 c3ba 4992 c7ba
00000040: 064d c33a 43c8 c3ba 2468 c3ba 466a c33a
00000050: 4be6 c3ba 9154 c3ba 7269 c3ba c34b c33a
00000060: c2ee c9ba 85f8 c2ba d8df c2ba 81a3 c3ba
00000070: 8864 c33a b9dd c33a e8c1 c3ba 0448 c3ba
00000080: c528 c4ba 60c4 c3ba 85d7 c3ba aa5c c3ba
00000090: 9dc3 c3ba c164 c33a f8fc c33a fc37 c3ba
000000a0: d6dd c3ba 1ce3 27ba 72d0 c33a 6372 c23a
000000b0: 40c3 c3ba 5d69 c33a 93fc c3ba 010d c33a
000000c0: 6ef7 c3ba 949e c2ba cc60 c33a cb8a bf3a
000000d0: 0b01 c4ba c427 c33a 53ca c3ba 325f c33a
000000e0: 6cfc c3ba 0c65 c33a 2832 c33a d5c1 c33a
000000f0: 6366 c3ba 9b65 c33a 587c c43a 206b c33a
00000100: db6c c4ba 321f c33a b699 c5ba 133e c8ba
00000110: 615c c33a 3463 c33a 9a28 c33a 186d c33a
00000120: aaee c3ba 9846 c43a 675b c33a e8d1 c33a
00000130: 33cf c33a cef6 c23a b711 c53a d9d8 c3ba
00000140: f53b c43a 955c c3ba 45d7 c3ba 452c c33a
00000150: a8da c3ba 581c c4ba 96e4 c33a 9799 c4ba
00000160: 2f68 c33a c0c2 beba b330 c33a 1ee6 c33a
00000170: a864 c3ba cc2f c3ba 3f28 c73a a2ad caba
00000180: c650 c43a 39db c23a cfc0 c23a 4d7c bdba
00000190: 4863 c33a e8f8 c3ba 5e06 c53a 9163 c3ba
000001a0: d961 c33a f2db c3ba 4036 c33a 9019 c43a
000001b0: f20d c3ba 2fd0 c33a 4f16 c43a 70a2 c3ba
000001c0: 5959 c0ba 6f01 c4ba b723 c33a c0cf c33a
000001d0: 69d1 c3ba cc5f c3ba 8b52 c3ba 1aef c3ba
000001e0: 3df7 c03a aa12 c4ba 0a33 c4ba d1d1 c2ba
000001f0: 18c9 beba bf8f c43a 3c2b c33a 7062 c3ba
-0.0014884032 0.0014936045 -0.0014855312 0.0014966364 0.0014877956 -0.0014941705 -0.0014909348 -0.0014895314
0.0014952292 -0.0014976395 0.0014942262 -0.001493844 0.0014844508 0.0014951132 -0.0014896767 -0.0015226091
0.0014900274 -0.0014937002 -0.0014908356 0.0014908991 -0.0014945952 -0.0014902522 -0.0014908744 0.0014899898
-0.0015406238 -0.001487509 -0.0014867736 -0.0014926047 0.001490728 0.0014943398 -0.0014935108 -0.0014898782
-0.0014965764 -0.0014935844 -0.0014941549 -0.0014904935 -0.0014935617 0.0014907346 0.001495271 -0.0014894004
-0.0014943432 -0.00064043864 0.0014939441 0.0014835115 -0.0014935508 0.001490872 -0.0014952592 0.0014881195
-0.0014951059 -0.0014848285 0.0014906167 0.0014613507 -0.0014953924 0.001488917 -0.0014937617 0.001490569
-0.0014952547 0.0014907434 0.0014892267 0.0014935086 -0.0014907833 0.00149076 0.0014990671 0.0014909245
-0.0014986055 0.0014886616 -0.0015075717 -0.0015277289 0.001490485 0.0014906884 0.001488942 0.0014909832
-0.0014948447 0.0014974652 0.0014904559 0.0014939876 0.001493907 0.0014874579 0.0015035187 -0.0014941945
0.0014971482 -0.0014904911 -0.0014941475 0.0014890513 -0.0014942484 -0.001496206 0.0014945443 -0.0014999387
0.0014908368 -0.001455389 0.0014891833 0.00149459 -0.0014907317 -0.0014891564 0.0015194489 -0.0015463124
0.0014977686 0.0014866359 0.0014858487 -0.00144566 0.0014906907 -0.0014951499 0.0015031805 -0.0014906992
0.001490648 -0.0014942868 0.0014893487 0.0014961231 -0.0014881475 0.0014939363 0.0014960262 -0.001492573
-0.0014675065 -0.001495404 0.0014887963 0.0014939234 -0.0014939728 -0.0014905869 -0.0014901919 -0.0014948577
0.001472212 -0.0014959176 -0.0014968824 -0.0014863556 -0.001455578 0.0014996453 0.0014890204 -0.0014906656

predict.weight f4 [1, 128]
00000000: 5fd8 cebc c3c7 a73d c2ba 80bc a7a5 d13c
00000010: d2de bf3c 4c8e 6cbd 7971 a8bd 2bce 25bd
00000020: e238 193d 909b aebc 85d3 613d 1d6a 90bd
00000030: 9efb 5b3c 21b8 1f3d 5dc5 26bd d504 83bb
00000040: a357 423d 6b9e 9dbd aaaf 9cbd c825 a43d
00000050: 0124 41bd 9a99 27bd 3ea3 a0bd 22a1 423d
00000060: c7e2 28bb 64c8 b6bc 2650 9ebc cf5d dfbc
00000070: 0a2f 8e3d f34d 583d 40a0 b6bd ac08 37bd
00000080: 41b5 d5bc 8250 a9bd 4a21 6fbd f743 7cbd
00000090: db6d abbd ac63 6d3d 48ce 173d 1eca 19bd
000000a0: 15cb 5bbd 4ed8 543a e238 853d b27a 3e3c
000000b0: 49a8 acbd dbeb 9a3d 7864 14bd b8d1 d33c
000000c0: 8758 20bd 6ce6 68bc ae70 833d 3cc6 443b
000000d0: 3577 10bd 3cca 003d 1fda 95bd 488a 833d
000000e0: d969 19bd 9503 913d 154d 123d faf1 b73d
000000f0: c217 95bd aa18 953d 295e 853c fd87 9d3d
00000100: fb07 90bc 4ae4 f33c d55a fabb cdda 68bb
00000110: 0b03 753d 7368 8b3d c427 fe3c d539 ae3d
00000120: 26bf 2ebd 2b46 b03c fa68 763d 348f 833d
00000130: a1d7 8a3d 3f3f b63c 1e9b 2a3c d8ea 68bd
00000140: d633 bc3c 21c8 7ebd e05c 72bd 8229 063d
00000150: b722 63bd a7e7 e7bc 3d4e 483d 981f 70bc
00000160: 8eaf 9b3d 2166 1dbb 0bc6 0b3d 2829 423d
00000170: a54c 90bd a6e0 d9bc 14f1 8f3b db3d 19bb
00000180: 5bd3 a73c 3a64 9a3c 00e5 873c 036f e7ba
00000190: 5700 8e3d 1da5 1ebd 0dce 2d3c 25d5 91bd
000001a0: baf7 893d 4759 5dbd 5210 153d 7990 ec3c
000001b0: cf20 d2bc d6c0 863d a124 f53c 8f71 aabd
000001c0: 8dba 7bbb f731 0ebd 06f3 fc3c 209b 873d
000001d0: 5021 85bd 86b4 57bd fa04 57bd 67e8 31bd
000001e0: 6bdd a03b 23f5 f7bc f57a c8bc d71e 94bc
000001f0: 6072 1ebb 89d0 7c3c 2f5c 073d 306a 8bbd
-0.025249658 0.081923984 -0.015714053 0.025591685 0.023421679 -0.057752892 -0.08224768 -0.04047982
0.037407763 -0.021314412 0.05513336 -0.070514895 0.013426689 0.03899396 -0.040715564 -0.0039983788
0.04744686 -0.076962315 -0.07650693 0.08015019 -0.047153477 -0.04091797 -0.07843636 0.04751695
-0.0025769935 -0.02231235 -0.019325327 -0.027266411 0.06942566 0.052808713 -0.08917284 -0.044686005
-0.026087405 -0.08267309 -0.058381356 -0.061588254 -0.08370563 0.057956383 0.03706196 -0.03754627
-0.05366047 0.000811939 0.0650499 0.0116259325 -0.08430535 0.07564517 -0.036228627 0.025856838
-0.039146926 -0.014215093 0.06417976 0.0030025383 -0.035269935 0.031442866 -0.07316994 0.064228594
-0.03745446 0.07080761 0.035718042 0.089817 -0.07279922 0.07280095 0.01628025 0.07691953
-0.01758193 0.029771943 -0.0076402226 -0.0035530806 0.059817355 0.068070315 0.031024821 0.08507124
-0.042662762 0.021517834 0.060158707 0.06423798 0.06779409 0.022246955 0.010412959 -0.05686459
0.022973936 -0.062202577 -0.059170604 0.03275443 -0.05545303 -0.028308703 0.04890274 -0.01465597
0.07601844 -0.0024017172 0.034124415 0.04740253 -0.07045869 -0.026596379 0.0043927524 -0.0023382816
0.020486524 0.01884662 0.016588688 -0.0017656985 0.069336586 -0.038731683 0.010608208 -0.07120732
0.06736703 -0.05404022 0.036392517 0.028877484 -0.02565041 0.06579749 0.029924693 -0.08322441
-0.0038410753 -0.03471562 0.030877601 0.066213846 -0.065004945 -0.052662395 -0.05249498 -0.043434527
0.0049092076 -0.030268257 -0.024472693 -0.018081112 -0.002417706 0.015430578 0.033046898 -0.06807363
