PERGAT_embbedding/data/emb/models/model_dim128_lay2_epo26.pth (torch, 137088 bytes, 7 tensors)

linear.weight f4 [128, 1]
000000 3c 0f 60 3f f2 b7 27 3f b0 a8 2b 3f 80 43 75 bf
       0.87523246 0.65515053 0.6705427 -0.9580612
000010 d0 10 ba 3d e8 c7 15 3e 2c 0e f3 3e 3c ca f6 be
       0.09085238 0.1462704 0.4747175 -0.48201168
000020 a4 0c 6d 3f c4 f4 e5 be 16 f5 5d 3f 50 5c b0 3d
       0.92597413 -0.44913304 0.86702096 0.08611357
000030 66 78 19 bf 10 c4 e2 3d 94 3f 5b 3f f8 db ea be
       -0.5994934 0.11072552 0.8564389 -0.45870948
000040 fe 7f 2a 3f 56 fc 7c 3f 8a 9b 51 bf 82 93 14 bf
       0.6660155 0.98822534 -0.8187796 -0.5803758
000050 e0 7c 2a 3d ee ea 5d 3f cc 8b 38 3f 94 35 77 bf
       0.041622996 0.866866 0.72088313 -0.9656613
000060 e0 83 35 3f 64 18 2e bf 90 ea 62 3e 30 b4 ef be
       0.7090435 -0.6800597 0.22159791 -0.4681716
000070 90 6c ee bd 80 c6 21 bc f2 ff 0e bf 7a 94 1e bf
       -0.116418004 -0.009873986 -0.5585929 -0.6194531
000080 ec b0 89 be 3e 88 36 bf 24 1c 39 bf c8 c8 f0 3e
       -0.26892793 -0.7130164 -0.72308564 0.47028184
000090 c4 b3 92 3e 80 b5 1a 3c dc e8 e2 be 76 a9 66 bf
       0.28652775 0.009442687 -0.44318283 -0.90102327
0000a0 4e 45 1a 3f 54 bb 71 3f fc 5b 47 3f 5c 64 26 bf
       0.60262 0.94426465 0.7787473 -0.64996886
0000b0 94 2e 6e 3f 78 2e 77 bf 68 22 3a 3f d0 bf 6f 3f
       0.9303982 -0.9655528 0.7270875 0.9365206
0000c0 88 9f 84 3e 00 fd 3c bf 88 6e 81 3e 78 1d 2a 3f
       0.25902963 -0.7382355 0.2527964 0.66451216
0000d0 c6 76 59 bf f4 41 ff be 08 f4 49 3e 6c a1 fd be
       -0.8494686 -0.49855006 0.19721997 -0.49537218
0000e0 30 49 12 bf 20 7a 06 3e cc 2e 36 3f 60 f1 c6 be
       -0.57142925 0.13132524 0.71165156 -0.3885603
0000f0 3c c1 a4 3e 3c 0e fa 3e 88 13 db 3e f8 d7 59 3e
       0.32178676 0.48838985 0.4278834 0.21273792
000100 24 c0 e0 be c8 62 f6 be 3a 22 07 bf 7c fe 73 bf
       -0.43896592 -0.4812224 -0.527866 -0.9531019
000110 b8 4c 65 3f 5c b4 02 bf 54 e3 10 bf d0 ec 70 be
       0.8957019 -0.51056457 -0.56596875 -0.23527837
000120 9c 61 be be b8 ac 4e 3e 92 11 39 bf 7c b4 2e 3f
       -0.37183845 0.20183074 -0.72292435 0.6824415
000130 80 25 29 3c 40 53 49 be 28 96 a3 be 68 d7 12 bf
       0.010323882 -0.19660664 -0.31950498 -0.57359934
000140 00 af 86 3b e0 49 76 3f e4 cc 09 bf d4 ce cf 3e
       0.004110217 0.96206474 -0.53828263 0.40587485
000150 d4 88 81 be de 84 0a 3f 38 5a 8b 3e 26 2b 47 bf
       -0.25299704 0.5410899 0.2721727 -0.77800214
000160 66 39 33 bf ae 48 20 3f e4 63 fb be f2 86 3c bf
       -0.7000946 0.626109 -0.49099648 -0.7364341
000170 28 c8 3f 3e 68 5b 67 bf 10 c1 4d bf 02 75 61 3f
       0.18728697 -0.9037385 -0.80372715 0.88069165
000180 38 fb 44 3e 40 7a 88 3d 38 60 79 3f 70 cf d1 3e
       0.19236457 0.06663942 0.97412443 0.40978575
000190 86 56 15 bf 28 22 c8 3e de 79 4b bf 08 6a 6f bf
       -0.5833515 0.3908856 -0.7948283 -0.93521166
0001a0 1c 2c b6 3e c4 93 c3 3e 56 85 15 bf b2 b9 02 3f
       0.35580528 0.38198674 -0.5840658 0.510646
0001b0 48 f7 3a 3f 40 9e 81 3d a0 27 0f be 88 6c aa 3e
       0.7303357 0.06329012 -0.1397996 0.33285928
0001c0 b8 57 83 be c8 4e 13 3e c0 9a 7e 3e 4e 2f 4f 3f
       -0.25652862 0.14385521 0.2486372 0.80931556
0001d0 da 50 04 3f d8 56 23 bf 48 b0 e6 be f0 3f 6e bf
       0.5168587 -0.6380439 -0.45056367 -0.9306631
0001e0 0a fb 70 bf e4 f8 ea 3e b0 7a eb 3d dc 05 12 bf
       -0.94133055 0.45893013 0.1149801 -0.5704019
0001f0 18 b5 61 3f 64 0a bf be 52 b4 28 bf ce 81 61 3f
       0.8816695 -0.37312615 -0.65900147 0.8808869

linear.bias f4 [128]
000000 76 e8 0a bf 71 a1 d2 bd cd 15 e3 3d ca ed 7d 3e
       -0.5426096 -0.10284699 0.110881425 0.2479774
000010 f0 73 4d bf 30 3c a2 bd 28 29 5c 3f 0c 50 7d 3f
       -0.8025503 -0.07921636 0.860003 0.98950267
000020 6a 17 62 bf 5c a7 b2 3e ff 92 08 bf a8 ed 68 3f
       -0.8831698 0.3489331 -0.533493 0.90987635
000030 2a 4d 9c 3e 1a 83 69 3e 27 18 7f bf 86 0d 8c be
       0.30527622 0.22803918 -0.9964623 -0.27354068
000040 f9 a2 37 3e cc 0b bd 3d de fd 50 bf bb 94 11 bf
       0.17933263 0.09230766 -0.8163737 -0.5686757
000050 6d 35 49 bf 2a ad 27 3e 34 15 39 bf 77 c9 3c 3e
       -0.78597146 0.1637465 -0.7229798 0.18436228
000060 a2 e5 04 3f 93 e5 30 3f 15 bd 58 bd c0 70 72 be
       0.5191289 0.691003 -0.052914698 -0.23675823
000070 55 b1 e4 3e f1 ba ec be 66 5e be 3e bd 54 9a be
       0.44666544 -0.46236375 0.37181395 -0.30142775
000080 e9 60 1d 3f 97 e5 0b bf 6e 2a 1a 3f 25 87 eb 3e
       0.61476 -0.546472 0.6022099 0.46001545
000090 01 58 6f bf b5 53 35 bf a8 24 8d be 12 66 4b 3f
       -0.9349366 -0.7083085 -0.2756703 0.7945262
0000a0 cc e7 27 bf d9 15 3c bf a4 88 92 3e 3f 00 16 be
       -0.6558807 -0.73470837 0.28619874 -0.14648531
0000b0 03 7d e5 bd 3e e1 1c 3f 99 6f 4f 3e e6 31 80 be
       -0.11205485 0.6128119 0.20257415 -0.2503807
0000c0 c1 45 68 bf 3b 16 22 bf c9 2b 50 bf bd 64 4d bf
       -0.90731436 -0.6331517 -0.8131681 -0.8023184
0000d0 96 08 bb 3e 1c 76 68 3f 99 40 a5 be f5 f4 0b bf
       0.36529988 0.9080522 -0.32275847 -0.5467065
0000e0 7c f6 b1 be b3 22 71 3f 4a 5d 7c bf 2b 03 2c bf
       -0.34758365 0.9419357 -0.9857985 -0.67192334
0000f0 22 0b 80 bf 0b 4b 82 3e 1b 8b 59 3f aa 89 a4 3e
       -1.0003397 0.25447878 0.84977883 0.3213628
000100 d0 47 64 bf 86 15 e6 3e 37 0a 77 3e 31 ef 92 be
       -0.8917208 0.44938296 0.2412499 -0.28698114
000110 08 9f 78 bf d7 1b 47 bf 03 62 62 3f 9d d1 64 3f
       -0.9711766 -0.77776855 0.88430804 0.89382344
000120 0b 6e 04 bf aa 67 07 3f 42 6f 1d 3f 05 ae 44 3f
       -0.5173041 0.52892554 0.6149789 0.7682803
000130 01 7b db 3d 2b 73 14 be 2f bd 36 3f 9a 38 49 bc
       0.107168205 -0.14497058 0.7138242 -0.012281561
000140 ba 41 6c bf 4e a7 0f be d4 af b6 be c5 3d e2 3e
       -0.9228779 -0.14028665 -0.3568102 0.4418775
000150 c9 68 da bd 1d 97 17 3e 7b 1e 84 bd ac 22 1b 3f
       -0.106645174 0.14803739 -0.06451126 0.6059978
000160 83 94 04 bf c3 4b c9 be 6f e4 c8 be a1 2e 9e be
       -0.5178911 -0.39315614 -0.3923678 -0.3089495
000170 51 f2 3e 3f a9 07 74 3f cb 7b 29 be e9 84 b2 be
       0.74588495 0.9532419 -0.1655113 -0.34867027
000180 18 b1 9a bd d8 dd 31 bf f3 42 cc be f2 a7 32 3f
       -0.07553309 -0.6947913 -0.39894828 0.69787514
000190 ff bc 49 bf 8f e5 65 3e 58 71 f6 3e 8a 05 72 bf
       -0.7880401 0.22450851 0.4813335 -0.945397
0001a0 7b f2 47 bf 76 8d 05 3f 70 4a 42 3f 87 dd e4 3e
       -0.7810437 0.5216898 0.7589483 0.44700262
0001b0 f8 99 b9 be 09 ec 50 3f 22 a1 4d bf 12 c2 5d 3f
       -0.3625028 0.8161016 -0.80323994 0.8662425
0001c0 d0 92 05 bf 82 bc c3 3e 00 8e 69 3f 30 bb 2c 3e
       -0.52177143 0.38229758 0.912323 0.16868281
0001d0 28 16 29 bf de e4 08 be b6 2e 73 3f e6 76 43 3e
       -0.6604943 -0.13368556 0.9499315 0.19088325
0001e0 b5 27 19 3e a4 46 1f 3e 19 bd 3a be bd 61 48 bf
       0.14956553 0.15554291 -0.18236198 -0.78274137
0001f0 5c 87 92 3d 21 d7 d1 be 9c df 4d 3f 5e 71 80 3d
       0.07154724 -0.40984443 0.80419326 0.06271623

conv_0.weight f4 [128, 128]
000000 dd 52 d2 3d 12 e0 7e 3d 09 4b 91 3c 44 b0 d6 3d
       0.10269711 0.06222541 0.017735975 0.10482839
000010 5d e1 bb bd cb 98 d3 3c ca f5 98 3d 46 bb 49 3d
       -0.09173844 0.025829693 0.074687555 0.049250863
000020 b0 82 12 be e2 d1 b2 3c 33 24 93 bd 27 ef ff bd
       -0.14307666 0.021828596 -0.07184639 -0.124967866
000030 ea 50 e6 bc 99 fb e1 bc 7a 44 a7 bd 77 3d 20 3c
       -0.028114755 -0.027585791 -0.08167358 0.009780279
000040 61 eb 08 be a2 e0 42 3d b5 a8 c1 3d e8 6e ed 3d
       -0.1337104 0.047577508 0.094560064 0.11593419
000050 1f 72 b6 3d 44 c6 d2 3d fe 48 d2 bd 37 89 e9 3d
       0.089084856 0.102917224 -0.102678284 0.11403125
000060 c7 8b 16 3e 20 6d a2 bd e8 93 e7 3d ea 32 b5 bb
       0.14701758 -0.0793097 0.11307508 -0.005529751
000070 85 64 08 3e 72 4d a4 bc 77 fc 43 3d 75 d7 98 3d
       0.13319595 -0.02005646 0.04784819 0.0746297
000080 55 b1 88 3d 71 7e f6 3c 94 94 e9 bd 65 7f 84 3d
       0.066744484 0.030089589 -0.11405292 0.06469611
000090 f0 53 d4 3d fe 08 a2 3d 69 04 a9 3c 2f d8 24 bd
       0.10367572 0.079118714 0.020631986 -0.04024523
0000a0 a6 d7 c4 3c 0f 51 b9 3d 32 85 ee 3d bd 9a 5c 3d
       0.02402861 0.09048664 0.11646499 0.053858507
0000b0 ef 1b 78 bb 00 f7 00 3d c8 0b b5 3d 26 e3 9c bd
       -0.0037858447 0.031485558 0.08840138 -0.076605126
0000c0 65 6c e0 bd f8 e0 ba bd 9e b9 d1 bc f3 3f c4 3d
       -0.109581746 -0.09124941 -0.025601204 0.0958251
0000d0 16 c3 b6 bd fe d1 dc 3c 50 b0 f0 bd 29 03 0b 3d
       -0.089239284 0.0269556 -0.11752379 0.03393856
0000e0 5f 68 fc 3d 7e 13 6e 3d 2d 4a 1a bd 1e c0 c9 3d
       0.12324595 0.058124058 -0.037668396 0.098510966
0000f0 4c 45 f4 3d c9 ed 7b bd d6 70 cd bd 80 5b 9f bd
       0.1192728 -0.061506066 -0.10031287 -0.07781124
000100 f7 1d 12 be 75 6b 05 3d 0f fa 84 3d 9f 7d 09 be
       -0.14269243 0.032573182 0.064930074 -0.13426827
000110 f2 1c 9a bb 80 7a 50 3b 86 83 05 3d 2a bc b6 3d
       -0.0047031576 0.0031811297 0.032596134 0.08922608
000120 47 93 9d 3d 93 05 16 3e 44 46 a7 bd 95 f8 73 bd
       0.076941065 0.14650564 -0.08167699 -0.05956324
000130 29 c9 05 be 60 fd 84 3c b4 44 ec bd 31 14 17 bd
       -0.13065018 0.0162341 -0.115365416 -0.03688449
000140 20 60 d6 bd 0f 4f 43 bc b2 ff 0d be b7 9c ef bd
       -0.10467553 -0.0119207045 -0.13867071 -0.11699813
000150 9d 31 c5 3c f0 8a fd bd 17 60 66 bc c7 9e 40 3d
       0.024071509 -0.12380016 -0.014060996 0.047026422
000160 60 60 b8 bd 63 e1 09 3e a4 a9 ad 3c c1 c9 16 be
       -0.09002757 0.13464884 0.021199055 -0.147254
000170 bb 84 ae bd f0 1a 9f bd 68 7c b3 ba 35 8a 74 3c
       -0.0852141 -0.0776881 -0.0013693692 0.014925529
000180 10 a8 09 3e 29 0a c7 3d 00 57 ae bd d0 f0 c0 3d
       0.13443017 0.09718735 -0.08512688 0.09420931
000190 f4 17 29 3d a2 9e c5 3d 1d e8 f3 bd b4 47 71 3d
       0.04128261 0.096493974 -0.119095065 0.058906272
0001a0 40 ab b8 bd 2f b2 9d bd 51 70 cb 3d ab a6 58 3d
       -0.09017038 -0.077000014 0.09933532 0.052893322
0001b0 3e 00 47 bd ba 33 86 3d ff c8 26 bd c8 e8 86 bd
       -0.048584215 0.06552835 -0.04071903 -0.06587368
0001c0 7e 86 60 3c 9e dd 8a bd 37 16 b8 bd c1 1e 0d 3e
       0.01370394 -0.067805514 -0.08988612 0.13781263
0001d0 d5 f2 99 bd 8c 5d e1 3d a3 67 03 be 55 18 04 3e
       -0.0751702 0.11004171 -0.12832503 0.12899907
0001e0 b4 c0 dd bc 7f 34 89 3d a2 26 d8 3d b0 ba 6c bc
       -0.027069427 0.06699466 0.105542436 -0.014448807
0001f0 d1 f7 7e bd ff ab 51 bd 13 c5 02 3e ca 57 a0 bd
       -0.062248055 -0.05118942 0.1277049 -0.078292444
000200 90 aa e8 bd 9c 53 0c be 31 35 06 be d2 48 0e 3e
       -0.11360657 -0.1370377 -0.13106228 0.13894966
000210 c4 9e bf 3a 3e e1 09 3e 09 ef f6 3b 05 08 1b bd
       0.0014619459 0.1346483 0.0075358194 -0.037849445
000220 ec c7 fe bc 6d 48 93 bc 31 54 06 3e 47 b6 cf 3d
       -0.03110119 -0.017978871 0.13118054 0.101421885
000230 e5 d2 4e 3d 69 67 fc bd 99 1a 03 3e 91 5b 91 bd
       0.050494093 -0.123244114 0.12803115 -0.07097543
000240 50 13 f0 bd cf cc 92 3d 91 98 da bd 88 76 ff bd
       -0.117224336 0.071679704 -0.10673631 -0.1247378
000250 c9 f4 a4 bd d0 54 d3 bd 04 2a 66 3c e8 14 00 3e
       -0.080545016 -0.10318911 0.014048103 0.12507975
000260 8b e5 80 3c 32 02 72 3d e9 9b 04 3e f8 fe 64 3c
       0.015734455 0.059084125 0.129501 0.013976805
000270 16 84 d8 bc 25 a6 ac bd b9 8b 98 bd 77 1a 6c bc
       -0.026430171 -0.08430127 -0.07448525 -0.014410607
000280 81 3e e1 bc 28 42 54 bd 94 0c 54 3d 84 ea cb 3d
       -0.027495624 -0.051820904 0.051769808 0.0995684
000290 44 c1 c0 bd c6 9c 13 be 59 c3 e5 3d 94 40 01 3e
       -0.094118625 -0.14415273 0.112189 0.12622291
0002a0 03 ea a0 bd 62 b0 b3 3d 1f fa 4e 3d 8a 29 91 bd
       -0.07857134 0.08773877 0.050531503 -0.07088001
0002b0 4a ca dc bd 02 53 83 3d 56 f1 cd bd b4 ad 04 bd
       -0.10780771 0.06412317 -0.10055797 -0.03239222
0002c0 68 89 85 3d e0 ae f7 3d cc dd 1b bd 68 34 98 bc
       0.06520349 0.12093902 -0.03805332 -0.018579677
0002d0 48 9c 99 3b 49 f6 f9 bc d0 81 6d ba d5 ea dd 3d
       0.0046878196 -0.030512946 -0.0009060176 0.10835806
0002e0 cb 45 eb bd cb 50 f3 3c 1e 9c 13 3e 84 3d 9e bd
       -0.11487921 0.029701611 0.14415023 -0.07726577
0002f0 35 7b 8f bd 48 04 59 bc 8a a2 10 bd 28 6d a4 bd
       -0.07005922 -0.01324565 -0.03531126 -0.080286324
000300 27 67 26 bd 1c 66 19 3e de 25 c2 3d b4 19 04 3e
       -0.040625717 0.14980358 0.09479879 0.1290043
000310 7f cc 48 3d da 63 b1 3d 1e c4 9d bd b4 08 8e 3d
       0.049023148 0.08661623 -0.07703422 0.06935254
000320 62 91 62 bd 4b ce dd bd 1a d1 eb 3d 22 81 df 3d
       -0.05531443 -0.10830363 0.11514492 0.10913302
000330 f9 f4 07 3e 88 b8 ab 3d de ca c0 bd 9c 08 dc 3d
       0.13277043 0.08384806 -0.09413694 0.107438296
000340 c9 23 87 bb 9e cd dc 3d 1f 7d 0a 3e fa dd df 3d
       -0.004124139 0.10781406 0.13524292 0.109310105
000350 72 e2 a2 3c 23 23 0d be f9 d2 9a bc 84 f6 87 bc
       0.019883368 -0.13782935 -0.018899428 -0.01659704
000360 03 32 e7 bd 45 63 8f 3c 0a 38 8b bd e2 09 4b bd
       -0.11288836 0.01750339 -0.06797798 -0.04956997
000370 b1 99 a0 3d 03 a7 85 3d 9d 34 9d 3d 5d 1f 8d 3b
       0.07841814 0.065259956 0.07676051 0.0043067173
000380 a3 f5 1a bd 03 1f b1 3d 78 60 cf 3c f7 1d f7 bd
       -0.037831914 0.08648493 0.025314555 -0.12066262
000390 0b 28 12 be ab 6b 8a bd b2 ed 12 3e bc cb 44 bd
       -0.14273088 -0.06758817 0.14348486 -0.04804586
0003a0 eb ee 4f bd 83 f4 d0 3d ec 44 c1 bd 0a f2 96 ba
       -0.05076496 0.10202887 -0.09436974 -0.0011516225
0003b0 0f 9e 20 bd a4 1b cc bd 29 43 91 3d db 6b fe 3d
       -0.039213236 -0.099662095 0.07092888 0.124229155
0003c0 ef 38 82 bd eb 69 1a bc 75 41 83 ba 37 22 33 3d
       -0.063585155 -0.009424667 -0.0010014015 0.0437338
0003d0 23 3e bf 3d 9e 29 1d 3e 77 a4 ca bd 60 57 16 be
       0.093380235 0.15347907 -0.098946504 -0.14681768
0003e0 a2 a7 c6 bd 90 ff 92 bd 9a 2e 11 3d a4 5b 4d bc
       -0.09699942 -0.07177651 0.035444833 -0.012534056
0003f0 fb 9e 85 bc ab b6 c1 3c 8a 00 f7 3d 8f 12 a6 3d
       -0.01631116 0.023646673 0.1206065 0.081090085

conv_0.bias f4 [128]
000000 98 b6 22 3b 06 5a 2c bb f1 fe 17 3b df 0e 25 3b
       0.0024828073 -0.0026298775 0.0023192728 0.0025185866
000010 6a 45 1c bb ce 3a 1c bb 10 4c 2b 3b 2d b4 1a bb
       -0.0023845085 -0.0023838761 0.0026137866 -0.0023605928
000020 63 c5 2f 3b 3c f7 25 bb a9 26 22 bb a5 3a 24 bb
       0.0026820533 -0.0025324365 -0.0024742282 -0.002505937
000030 05 d3 33 bb 6b f5 18 3b f1 70 30 bb 94 96 1c 3b
       -0.002743901 0.002333964 -0.0026922787 0.0023893462
000040 28 ca 08 3b da c4 12 3b e2 87 1b 3b ee 42 e1 3a
       0.0020872448 0.0022395165 0.0023732116 0.0017186084
000050 2b ad 1b bb 28 82 24 3b f0 3a 07 3b 50 b0 af ba
       -0.002375434 0.0025101993 0.0020634495 -0.0013403986
000060 4b 17 fc 3a 6d 37 18 3b 7a 8c 1c 3b 01 a7 22 bb
       0.0019233016 0.0023226396 0.0023887441 -0.002481878
000070 57 04 1d 3b 77 af 2a 3b 4e 9d 14 bb 2f b8 25 bb
       0.0023958886 0.0026044527 -0.0022676769 -0.0025286784
000080 ef 89 22 3b 4c bb 28 3b 37 e9 23 bb 51 07 08 3b
       0.0024801453 0.0025746403 -0.0025010833 0.0020756314
000090 7e 4e 1f 3b e4 73 02 b9 9b a5 18 bb 32 03 22 bb
       0.002430826 -0.00012440939 -0.0023292068 -0.0024721143
0000a0 a7 b8 24 bb f4 6b 24 3b e9 08 24 bb 14 a3 1c 3b
       -0.0025134475 0.002508876 -0.0025029725 0.0023900913
0000b0 80 d3 21 bb 3d 42 15 3b 69 09 1a bb 19 f6 27 3b
       -0.0024692714 0.0022775077 -0.0023504144 0.0025628863
0000c0 08 26 18 3b 16 a4 1a 3b 7d fa 27 3b 85 41 21 bb
       0.0023216028 0.0023596338 0.002563148 -0.0024605703
0000d0 9a 3d d6 ba 39 1d fa ba b9 63 1e 3b 80 18 1c 3b
       -0.0016345263 -0.0019082195 0.0024168326 0.0023818314
0000e0 26 5e 19 bb d0 66 4f ba ac 41 1c 3b 21 60 18 3b
       -0.0023402064 -0.00079117436 0.0023842854 0.0023250657
0000f0 85 31 08 3a b8 84 22 3b f6 6f 1a bb 61 91 1e b9
       0.0005195367 0.0024798345 -0.002356527 -0.00015122212
000100 66 f7 45 3a db 0d 1d 3b a3 8e 19 bb b1 79 21 3b
       0.0007551819 0.0023964557 -0.0023430965 0.0024639184
000110 f2 d3 29 3b c3 f4 22 bb 83 3a 20 bb 62 2b 23 3b
       0.0025913683 -0.0024865128 -0.0024448938 0.0024897684
000120 27 b8 21 3b c4 a8 20 3b 83 da 21 bb d5 0f 24 3b
       0.0024676414 0.0024514655 -0.0024696894 0.002503385
000130 ed b6 14 bb 71 4e 19 bb ea 83 21 bb 6a f4 17 3b
       -0.002269204 -0.0023392702 -0.0024645277 0.0023186454
000140 9e fc 1a 3b 60 1c 14 bb 47 19 23 3b eb 50 1d bb
       0.0023649107 -0.002259992 0.0024886893 -0.002400453
000150 bc 63 25 bb 1d 34 1c bb a6 c6 0b 3b 3d 7d 1a 3b
       -0.0025236448 -0.0023834773 0.002132812 0.0023573183
000160 65 d7 30 bb eb 7d 17 3b fd 17 19 3b 83 04 34 3b
       -0.0026983854 0.0023115824 0.0023360245 0.002746851
000170 99 0a 23 3b b6 79 ed b9 b5 3d 18 bb ed dc 35 3b
       0.0024878143 -0.00045294844 -0.002323014 0.002775009
000180 fe 3a 15 bb e1 13 1d bb 98 2e 22 3b 65 39 1a 3b
       -0.0022770758 -0.0023968148 0.002474701 0.0023532745
000190 03 1b 08 bb 54 f7 24 3b e2 5a 1b 3b 97 94 23 bb
       -0.0020768053 0.0025171833 0.0023705293 -0.0024960393
0001a0 c0 e3 1b 3b 11 7d 2b 3b cb f2 22 bb ad aa 29 bb
       0.0023786873 0.0026167075 -0.0024863954 -0.0025889084
0001b0 c0 a8 21 3b c7 14 25 3b cf 28 1c bb a1 5a e2 ba
       0.0024667233 0.0025189386 -0.0023828035 -0.0017269441
0001c0 d8 6c 22 3b b1 24 21 3b f5 ec ab ba cd 87 14 3b
       0.0024784114 0.002458852 -0.0013116883 0.0022663951
0001d0 ce b0 80 ba de 8a 0a bb 1a ca 67 ba bf 96 0f 3b
       -0.0009818317 -0.00211399 -0.0008842066 0.002190992
0001e0 10 b5 70 ba 05 ec 21 bb e5 8f 26 3b e2 72 45 ba
       -0.0009182254 -0.002470733 0.0025415358 -0.00075320725
0001f0 3c 63 15 3b 21 d9 25 3b 13 1b 36 3b 42 b5 29 bb
       0.0022794744 0.002530642 0.0027787134 -0.0025895392

layers.0.weight f4 [128, 128]
000000 bc e3 25 3d 5c 52 37 bc 2a 95 63 3b c0 4e cf bd
       0.040500388 -0.01118907 0.003472636 -0.10122442
000010 74 9b 86 bd 75 bd de 3d 15 52 02 be e7 0d 7e 3b
       -0.06572619 0.1087598 -0.12726624 0.003876561
000020 92 04 bc bd 70 4b b6 3d 2e 75 f1 3b 21 1e 11 be
       -0.09180559 0.08901107 0.0073687052 -0.1417165
000030 9e 28 c6 3c c5 f6 fe bd 03 35 d8 bd a0 07 a1 bd
       0.02418929 -0.12449411 -0.10556986 -0.078627825
000040 a3 93 da bc 26 f1 05 3e 14 02 c7 bd 12 6d 90 3d
       -0.026681727 0.13080272 -0.09717193 0.070520535
000050 c9 ee a9 3d de 99 d8 3d 1b 9b 0f be 2f 7f 79 bd
       0.08297498 0.10576223 -0.14024012 -0.060912307
000060 e4 3b c6 3d 6b 1a 17 bd 24 4d 09 bd b0 21 91 3d
       0.09679392 -0.03689043 -0.033520833 0.070865035
000070 9c 8e a9 bd be e1 c6 bd 71 f6 88 bd b2 e5 0f bb
       -0.08279154 -0.09711026 -0.0668763 -0.0021956977
000080 74 10 d9 3c 17 43 b6 bc e0 a8 b7 3c c3 0b 72 3d
       0.026497103 -0.022248788 0.022419393 0.059093248
000090 54 45 0d 3d 6d 60 e5 3d 07 80 10 3e d3 50 c2 bd
       0.034489945 0.112000324 0.14111339 -0.09488072
0000a0 a2 d4 6e bd 77 cd 36 3d 77 df b7 3d f1 8e 4a bc
       -0.05830825 0.04462954 0.089781694 -0.012363181
0000b0 94 cf 95 bd 91 62 17 be 9e 70 f1 3d 37 ad 47 3d
       -0.07314983 -0.14783694 0.11789058 0.048749175
0000c0 ce 01 97 3d 46 45 89 3c f0 2c 18 be 2e 96 19 3e
       0.07373391 0.016756665 -0.14860892 0.14998695
0000d0 60 f4 53 bd 4d bf dd 3d 25 0f 2a bd 63 a8 e7 bd
       -0.051746726 0.10827503 -0.04151835 -0.11311414
0000e0 7a 83 b4 bd 2e 29 b5 bd 49 a2 15 be 41 04 12 be
       -0.0881414 -0.08845745 -0.14612688 -0.14259435
0000f0 2d 0c 60 3d 63 da ea 3d 9a 44 10 3e 25 c7 e8 bd
       0.05469911 0.11467435 0.1408867 -0.11366109
000100 cd 68 9d 3b 92 47 f1 bd 87 1e e8 bc 4f 25 91 bd
       0.004803753 -0.11781229 -0.02833487 -0.07087194
000110 7e fd a1 3c a3 9c b4 3c a5 71 da bd 31 82 18 3e
       0.019774195 0.022047346 -0.10666207 0.14893414
000120 c4 91 d1 3d 71 34 a4 3d 14 94 8b 3d 03 07 97 3d
       0.10232881 0.08017815 0.06815353 0.07374384
000130 68 52 19 3e 5e d5 2d bd 8d c2 6f bd 41 50 6b 3c
       0.14972842 -0.04243981 -0.058535147 0.014362396
000140 da a7 0c 3e c0 30 ee 3d ea 52 08 3e cf 49 9c bd
       0.13735905 0.11630392 0.13312879 -0.07631265
000150 e1 07 ff bc 14 fe 38 3d 76 7e dd bd a1 11 7f 3d
       -0.031131687 0.045164183 -0.10815136 0.06227267
000160 89 54 8b 3d 87 da 0e 3e 1c 08 b1 3d 80 80 15 3e
       0.06803233 0.13950549 0.08644125 0.145998
000170 8f 66 21 3c b8 7e a9 3c 7d ed 22 bc a0 68 6b bd
       0.009851112 0.020690307 -0.009944317 -0.057472825
000180 55 ec cb bc 16 6a 67 3d 50 8b f1 bd 64 c8 f9 bd
       -0.024892965 0.056497656 -0.1179415 -0.121964246
000190 14 eb ee bc 25 a1 cd bd 50 79 c0 bd 47 51 a4 3d
       -0.029164828 -0.100405015 -0.093981385 0.08023315
0001a0 22 3a 33 bd 7b fc b2 3d df 31 98 3d 58 1f 70 bd
       -0.04375661 0.08739563 0.07431387 -0.05862364
0001b0 1d aa c4 bd a2 73 a3 3d cd df 85 3d d8 92 16 3d
       -0.09602759 0.079810396 0.06536827 0.036761135
0001c0 c5 0d af bb e7 6d 2a bd 18 c0 01 be d7 a7 32 bd
       -0.0053422176 -0.041608717 -0.12670934 -0.043617096
0001d0 5f cd a8 3d 97 e5 c4 3c 13 f3 3d bd 4d de ac bd
       0.082422964 0.024035258 -0.04637439 -0.08440838
0001e0 5d 1c 7f 3c 47 78 41 3b a4 44 dd 3c a5 28 a3 3d
       0.015570727 0.0029521154 0.02701027 0.07966737
0001f0 43 b1 7e 3d d9 00 77 bd 9a 91 9a bd 1b a5 16 be
       0.06218077 -0.060303543 -0.075473025 -0.1471142
000200 b6 cb 0d 3d ee e7 16 be c2 53 f4 39 20 a2 d8 3d
       0.034618102 -0.14736912 0.0004660171 0.10577798
000210 9f 76 c2 bd 9a 79 ba bd 15 4b 3d bd 7e 1b 89 3d
       -0.094952814 -0.09105225 -0.046214182 0.06694697
000220 f5 b2 e8 bd f9 3b 91 bd ab be 84 bb 85 17 ba bd
       -0.11362258 -0.07091517 -0.0040510497 -0.09086517
000230 10 41 af 3d 57 62 ff bd 20 83 87 3d 83 b8 5f 3c
       0.085573316 -0.12469929 0.06616807 0.013654831
000240 da fd fe bd b7 20 c6 3d 9d 43 b5 bd ca a8 98 bd
       -0.12450762 0.096742086 -0.08850787 -0.07454069
000250 9e 06 20 bd c2 ca 38 3d 3e 0e 97 3c 89 0b ee bc
       -0.03906881 0.04511524 0.018439408 -0.029058235
000260 d1 30 95 bc 56 7f da 3c 35 cd 4e bd d6 39 09 be
       -0.018211754 0.026672047 -0.05048867 -0.13400969
000270 ff a6 ba bd bc dc 57 bd 75 65 66 3d ed a1 26 bd
       -0.09113883 -0.052700743 0.0562491 -0.04068177
000280 c8 0d 8a 3c a4 59 be bd 76 21 c2 bd 26 d4 f1 3d
       0.016852275 -0.09294441 -0.094790384 0.11808042
000290 11 35 9a bd 7e 37 ec 3d ab ff b6 bb 34 ee 28 3d
       -0.07529653 0.11534022 -0.005584677 0.041242793
0002a0 91 47 69 bd 9c 8c ec bd 37 57 aa 3d ad 14 c7 3c
       -0.056953017 -0.115502566 0.08317416 0.024301851
0002b0 0f 11 66 3c e3 56 f0 bd 75 c9 93 3d 45 9f 7e bd
       0.014042153 -0.11735322 0.07216159 -0.06216361
0002c0 80 e7 b0 bd 28 22 34 bd cb 14 01 be 03 76 33 3d
       -0.08637905 -0.043977886 -0.12605588 0.043813717
0002d0 fb 64 a9 3d cf b2 5f bd b2 4d 63 bc 73 9f 01 be
       0.082712136 -0.054613885 -0.0138735045 -0.12658481
0002e0 8c 71 0e 3e 0b 4e 0e 3d 6f e9 cc 3d 01 c2 18 be
       0.13910502 0.034742396 0.100054614 -0.14917757
0002f0 8d 1f 72 3d 72 bf 32 bc 38 22 eb bd 38 c3 ec 3c
       0.05911212 -0.010909902 -0.11481136 0.028901681
000300 6d ca 0d 3e 6d 92 e0 bb 6f 6b d8 bd a5 92 9a 3d
       0.1384675 -0.006853393 -0.10567366 0.075475015
000310 98 52 bb 3d 24 1f 3d 3d cd 0c 12 be 13 6a 0d be
       0.09146613 0.046172276 -0.14262696 -0.13809995
000320 f6 3d 03 bd b7 80 5c bd 8d c6 a4 bd fe d0 da 3d
       -0.032041512 -0.05383369 -0.08045683 0.10684393
000330 e2 24 06 be e2 3f c9 bd dd 21 16 be 5b 59 bd 3d
       -0.13100007 -0.09826638 -0.14661355 0.09245559
000340 b1 c7 19 be 6f c6 d0 3d 1c 91 09 3e 40 78 eb bd
       -0.15017582 0.10194098 0.13434261 -0.11497545
000350 c7 f7 03 be 31 54 36 bc 19 91 82 bd 04 f9 d8 bc
       -0.12887488 -0.011128471 -0.063753314 -0.026485927
000360 12 8f 65 3d e3 b2 99 3d 3f c7 ef 3d 70 7f 1e bc
       0.056044646 0.07504823 0.11707925 -0.009673938
000370 1e 35 32 bd c0 48 9b bd 3c 32 00 bd 94 22 a7 3c
       -0.043507688 -0.07582235 -0.031297907 0.02040223
000380 46 30 1a be 5a 14 c4 3d 4c e4 bb bd 3c ee 08 3d
       -0.15057477 0.09574194 -0.091744035 0.033430323
000390 ee cc 56 bd b1 c6 fa 3d 92 43 0b be e2 16 a6 3d
       -0.05244153 0.12244929 -0.13599995 0.08109833
0003a0 d3 59 a9 3c 24 64 f8 3d 55 7e 1e bb 69 11 76 3d
       0.020672714 0.12128475 -0.0024184186 0.060075197
0003b0 64 7f 5d bd 34 62 fa 3d 0d d5 cc 3d dc 30 17 3e
       -0.054076567 0.12225762 0.10001574 0.14764732
0003c0 77 ac c2 3d 00 c7 9e 3d eb 2b ec 3d 94 bb 08 3e
       0.09505551 0.077528 0.11531814 0.13352805
0003d0 e6 e7 97 b8 16 ed 0f be 0a 3f 40 bd 5a 92 27 3c
       -7.2434355e-05 -0.14055285 -0.04693512 0.010227764
0003e0 4e c1 be 3d 8f ac 02 3d 40 d1 c6 3d 0f 70 55 bd
       0.09314214 0.031902846 0.0970788 -0.05210882
0003f0 66 b0 ae 3b 5a 8f c9 bd 77 17 fd bc 53 6d 1b 3c
       0.005331087 -0.09841795 -0.030894978 0.009486514

layers.0.bias f4 [128]
000000 cb 44 29 3b 9f 17 29 3b a3 bb 2d bb db 1c 27 bb
       0.0025828357 0.0025801433 -0.0026509545 -0.0025499377
000010 61 76 28 3b f4 f0 26 3b 89 dd 28 bb dc 9f 28 bb
       0.0025705325 0.002547321 -0.002576681 -0.002573005
000020 6f 5e 30 bb de 59 28 bb 69 49 27 3b 57 82 2a 3b
       -0.0026911756 -0.002568833 0.0025525934 0.002601763
000030 0b af 28 bb 6d 5c 28 3b 1f 2f 26 bb 1c 6d 27 bb
       -0.00257391 0.0025689856 -0.0025357676 -0.0025547212
000040 81 f7 25 bb ea ba 26 3b 5c 07 29 bb e6 4b 28 bb
       -0.0025324526 0.0025441 -0.002579174 -0.0025680005
000050 75 1c 29 3b d8 d7 26 3b 99 f1 28 bb 9d bc 23 3b
       0.0025804315 0.0025458243 -0.002577877 0.0024984248
000060 fc 84 28 3b d4 77 27 3b 9e 84 27 bb 9f 37 2b 3b
       0.002571403 0.00255536 -0.0025561224 0.0026125682
000070 ec b8 26 bb 1e bb 26 3b a0 65 28 bb f4 c1 27 3b
       -0.0025439812 0.002544112 -0.002569534 0.0025597783
000080 c2 4f 27 3b ae 0f 28 bb 66 5d 22 3b 31 4e 28 bb
       0.0025529717 -0.0025644111 0.0024774908 -0.0025681371
000090 f3 6f 28 3b 3a 41 27 3b 44 6c 28 3b 47 98 32 3b
       0.0025701493 0.0025521056 0.0025699297 0.002725141
0000a0 cc be 24 bb 3c f8 28 3b 30 f6 28 3b e9 6e 27 3b
       -0.0025138138 0.0025782725 0.0025781505 0.0025548285
0000b0 d3 2c 21 3b 8f 51 29 3b f7 53 28 3b 2c 35 28 bb
       0.0024593368 0.0025835966 0.0025684813 -0.0025666459
0000c0 bb 84 28 3b 22 8f 25 3b e0 96 27 3b b1 5c 29 3b
       0.002571388 0.0025262316 0.0025572106 0.0025842602
0000d0 ec 26 27 3b f7 b2 28 bb 30 14 28 bb ca 12 28 bb
       0.0025505377 -0.0025741437 -0.0025646798 -0.0025645965
0000e0 c0 22 21 bb bb 19 e3 b9 c5 68 27 3b df 71 27 bb
       -0.0024587363 -0.00043315985 0.0025544625 -0.002555005
0000f0 fd 66 28 bb 3f 82 27 3b 07 1b 29 3b c1 39 27 bb
       -0.0025696151 0.002555981 0.0025803463 -0.0025516602
000100 c3 05 28 bb e5 4d 27 3b ab 83 27 bb dd f4 31 bb
       -0.00256382 0.0025528606 -0.0025560658 -0.0027154007
000110 76 a4 27 bb 25 84 27 bb c2 a9 28 3b cc 4d 34 3b
       -0.0025580204 -0.0025560942 0.002573595 0.002751219
000120 b5 56 27 3b 70 de 28 bb 6f 1c 27 3b 24 3f 27 3b
       0.002553386 -0.0025767349 0.0025499125 0.0025519812
000130 b8 70 28 bb de d9 28 bb 8a 68 26 3b 21 4b 27 bb
       -0.0025701951 -0.0025764625 0.00253919 -0.0025526958
000140 63 47 35 3b 9d 44 27 bb e6 3f 26 bb 0a 6d 26 3b
       0.0027660958 -0.0025523074 -0.0025367676 0.0025394582
000150 4a 1a 29 3b 22 13 29 3b 99 79 28 bb 7f 93 26 bb
       0.0025803023 0.0025798758 -0.0025707243 -0.0025417504
000160 c1 02 29 3b 27 e1 26 3b 0d e2 26 bb f7 57 28 3b
       0.0025788995 0.002546379 -0.0025464327 0.0025687197
000170 1d 64 29 bb cc a1 28 3b 86 e7 26 3b 8d f5 28 bb
       -0.0025847026 0.0025731204 0.0025467589 -0.0025781125
000180 50 76 27 bb b6 ef 27 bb f0 e4 25 3b 6b 7a 29 bb
       -0.0025552697 -0.0025625057 0.002531346 -0.002586032
000190 b6 a6 20 3b 15 7a 27 bb db 74 27 bb 6b fe 25 3b
       0.002451343 -0.0025554944 -0.002555183 0.0025328647
0001a0 83 0d 25 3b 38 d7 28 3b d6 b6 26 3b aa 3b 27 bb
       0.0025185056 0.0025763046 0.0025438569 -0.002551774
0001b0 6f 64 24 3b 4e 33 2a bb d4 7d 27 3b 82 ff 25 bb
       0.0025084277 -0.0025970521 0.0025557177 -0.0025329296
0001c0 de 6a 24 3b 2a 3e 27 3b dc a3 24 3b 90 99 26 bb
       0.0025088112 0.002551923 0.0025122082 -0.002542112
0001d0 22 40 26 bb ab 59 28 3b 4a 41 27 bb dd b7 26 3b
       -0.0025367816 0.0025688212 -0.0025521093 0.002543918
0001e0 99 25 28 3b 76 bb 32 3b 89 8f 28 3b f9 58 2b 3b
       0.0025657176 0.002727238 0.002572032 0.002614556
0001f0 b9 bd 24 3b 9f 0a 27 3b e2 7b 27 bb ff 1e 29 3b
       0.0025137498 0.0025488508 -0.0025556018 0.0025805829

predict.weight f4 [1, 128]
000000 bb 95 e1 3c ce a5 e9 3c 68 94 e6 bb ee 26 25 bd
       0.027537217 0.028521445 -0.0070367344 -0.04032033
000010 53 4f 84 3d 3a a1 03 3d 8e cf 12 bd 3d b5 45 bd
       0.064604424 0.03213618 -0.03584247 -0.048268545
000020 99 ec a9 bb 7c c2 a8 bd c1 59 55 3d b8 e5 6a 3c
       -0.0051856753 -0.0824022 0.05208755 0.014336996
000030 43 76 36 bd bf 20 9f 3d 92 86 92 bc 97 5d 8b bd
       -0.044546377 0.07769918 -0.017886434 -0.0680496
000040 5a 44 82 bc b2 c0 d8 3c 21 d1 00 bd 7e 41 b5 bd
       -0.015901733 0.026459072 -0.03144944 -0.08850382
000050 9c 47 e3 3c 1d 62 87 3c db 4f 0c bd 48 79 21 3b
       0.027744107 0.016526276 -0.034255844 0.002463894
000060 25 38 69 3d 36 43 82 3d 00 fe ae bd 9d ce 3f 3c
       0.05693831 0.06360476 -0.085445404 0.011706975
000070 ca 3e a7 bc 9e 69 de 3c 13 d6 91 bd 6f 82 96 3d
       -0.020415682 0.027149972 -0.071209095 0.07349097
000080 38 e8 56 3d e1 80 82 bd 73 df 9c 3b 7e 35 b3 bd
       0.052467555 -0.06372238 0.0047873794 -0.08750437
000090 19 2f 86 3d 32 6e 28 3d 82 be 87 3d 32 7f 87 3b
       0.06551952 0.041120715 0.06628133 0.004135036
0000a0 d8 75 ef bb f6 88 07 3d 56 4a 12 3d 77 b6 8a 3d
       -0.0073077492 0.0330896 0.035715424 0.06773084
0000b0 80 79 5a 3b 88 67 bd 3c cf e4 a9 3d 43 4f ac bd
       0.003333658 0.023120657 0.08295595 -0.084135555
0000c0 36 ef 69 3d dc 85 56 3c b7 15 ae 3d 19 8d c4 3c
       0.057112895 0.013093438 0.085002355 0.023993062
0000d0 57 99 2c 3d 6b b4 2a bd 9b 9e 8d bd 1b 15 4f bd
       0.042138424 -0.041675966 -0.06915017 -0.050557237
0000e0 93 68 6f bb 2b 78 e9 ba 75 bf 87 3d 54 95 86 bd
       -0.0036530837 -0.0017812302 0.066283144 -0.06571451
0000f0 f1 ec 96 bd a9 b1 a2 3d b8 58 01 3d 54 05 28 bd
       -0.07369412 0.07944042 0.03157875 -0.041020706
000100 10 21 0b bd d1 6a 4f 3d ad 92 a9 bd 72 e8 1a bb
       -0.033967078 0.050638977 -0.08279929 -0.0023637083
000110 9a 06 a1 bd 4c 0e ac bd ec 4e 37 3d 49 e2 6e 3b
       -0.07862587 -0.084011644 0.044753 0.0036450794
000120 2f a1 66 3d 1a e1 1c bd f2 ae 15 3d fe 8c 42 3d
       0.05630606 -0.03830061 0.036543794 0.047497742
000130 4c 85 87 bd 40 2a 23 bd ee fc ac 3c ec 14 4d bd
       -0.06617221 -0.039835215 0.0211167 -0.05006878
000140 64 bb 5e 3b 7f 14 51 bd ac da 9d bc 05 9e af 3c
       0.0033986205 -0.051044937 -0.01926931 0.021437654
000150 ea 80 ed 3c 24 e6 00 3d f9 10 7c bd 4d 9d bd bc
       0.028992135 0.03146948 -0.061539624 -0.023146296
000160 76 aa 02 3d e3 b5 f9 3c 7b 19 f4 bc 69 51 a3 3d
       0.031900845 0.030482238 -0.029797306 0.07974512
000170 b2 08 c7 bc 0f e2 43 3d 4c 56 00 3d 05 cd 0e bd
       -0.024296138 0.04782301 0.0313323 -0.03486349
000180 8d 6f 94 bd b5 73 a0 bd 7f 80 7c 3c b8 4c bb bc
       -0.07247839 -0.07834569 0.015411495 -0.02286373
000190 49 f0 52 3b 91 76 97 bd 47 ed 90 bd 93 7a 76 3c
       0.0032186678 -0.073956616 -0.07076507 0.015043872
0001a0 88 b8 2f 3c 1a c8 1f 3d 29 8a ee 3c 1b af 2a bd
       0.010725148 0.03900919 0.029118614 -0.0416709
0001b0 f0 0f 07 3c 88 6b 85 bc da 2e 26 3d ec e5 86 bc
       0.008243546 -0.016286626 0.040572025 -0.016467057
0001c0 94 81 07 3c 72 4c 36 3d 4c 6c 13 3c 80 d2 c2 bc
       0.00827064 0.044506498 0.008997988 -0.023782015
0001d0 6d 66 99 bc 27 b7 a1 3d 43 59 1e bd 06 55 dd 3c
       -0.018725598 0.07896262 -0.038659345 0.027018081
0001e0 8b 4f 9c 3d 54 7c 82 3b 41 c6 5f 3d 6b 1c 35 3c
       0.07632359 0.003982106 0.05463243 0.011054139
0001f0 2d 1b 17 3c 9e d7 26 3d c7 0a 9b bd fc ee ed 3c
       0.009222788 0.040732972 -0.07570415 0.02904462
