PERGAT_embbedding/data/emb/models/model_dim128_lay2_epo14.pth (torch, 137088 bytes, 7 tensors)

linear.weight f4 [128, 1]
00000000: 6c8a 433f 6a0b 01bf 3ef6 77bf 021f 773f
00000010: 3e2b 2bbf a05b 33be 608d 53bf 12cb 763f
00000020: 46a2 4fbf 94cc dabe 24ab 833e 9cd5 cfbe
00000030: b0eb 02bf 80d3 20bd 00ca f5bc 808d 04be
00000040: fc46 3fbf cc9d fcbe 922c 42bf d0d5 58bf
00000050: 4025 f1bd 96fc 663f aab4 3fbf aca7 08bf
00000060: 286d 523e d0d1 e33e 90c8 33bf 68cb e9be
00000070: 1a18 173f 7017 1b3f 3692 003f 50a5 7cbe
00000080: b4b6 babe c6a1 083f 58e1 dabe c8dc 29be
00000090: cc05 1cbf 6a19 023f 1c45 8a3e a272 453f
000000a0: 1c02 3dbf 96d3 233f 7296 4abf d4d6 0bbf
000000b0: bc23 043f 5048 5abe 9c6e 393f 88d7 483f
000000c0: 90c4 2cbe a07b 633e 0855 c63e 46ae 613f
000000d0: b09d bfbd 48a7 803e d041 723f f2ad 333f
000000e0: 1083 0bbf 2e21 1f3f 604f 4b3e 6aea 63bf
000000f0: 52e5 183f 1292 483f 5ccc 34bf 3eda 24bf
00000100: 08d2 713f d273 113f a066 6b3f 400a 11bf
00000110: 58a5 13be e600 6bbf 2895 1bbf cc0a 373f
00000120: 30a9 7dbf ca19 5f3f 2036 7dbd 4cda d13e
00000130: dc75 723f 0cd9 d63e 00f8 da3c 789c 65be
00000140: 400e 963d 401a 2cbf 84bd a93e ec2d 4ebf
00000150: 3cde dc3e 0007 6bbc c691 7bbf 1697 11bf
00000160: 6017 12be 8003 42bf 043f cdbe 4898 e3be
00000170: 1a18 43bf 4e02 29bf d430 eb3e 2c6a 6d3f
00000180: 946e a33e 80a5 25bd 1096 bd3e dcb9 90be
00000190: d0da 023e 6425 92be b0c6 01bf fa2e 043f
000001a0: 18fb cb3e 5803 1cbf 6e41 063f 80e1 92bc
000001b0: 8455 673f a4a2 c43e c085 ed3c b87f 22bf
000001c0: e4a4 333f 20e4 353f 38ab 18be 3025 04bf
000001d0: ae09 513f 74da 743f 1255 323f 747c 663f
000001e0: 728b 4fbf da86 02bf d817 14bf 8099 613f
000001f0: d0fa e7be b04d 553e 9043 913d a424 773f
0.7638309 -0.5040804 -0.9686011 0.9653169 -0.6686286 -0.17515421 -0.82637596 0.9640361
-0.81106985 -0.42734206 0.25716507 -0.4059266 -0.5114088 -0.039264202 -0.030003548 -0.12944603
-0.7471769 -0.4933914 -0.7584926 -0.8470125 -0.11774683 0.90229166 -0.74885046 -0.53380847
0.20549452 0.44496012 -0.7022791 -0.45663 0.5902115 0.6058264 0.502231 -0.24672437
-0.36467516 0.53371847 -0.4275005 -0.16588128 -0.60946345 0.5082003 0.2700585 0.7712804
-0.73831344 0.6399473 -0.7913581 -0.54624677 0.51617026 -0.21316648 0.724344 0.78453875
-0.16871858 0.22215128 0.3873675 0.88156545 -0.093562484 0.25127625 0.9463167 0.70187294
-0.5449686 0.62160003 0.19854498 -0.8902956 0.59724915 0.78347886 -0.7062433 -0.6439551
0.9446111 0.5681735 0.9195347 -0.56656265 -0.14418542 -0.91798246 -0.6077447 0.7150085
-0.99086285 0.87148726 -0.061819196 0.4098686 0.9471109 0.4196247 0.026729584 -0.2242297
0.07326937 -0.67227554 0.331524 -0.8053882 0.431383 -0.014344931 -0.9826931 -0.56871164
-0.1426673 -0.7578659 -0.4008714 -0.4445212 -0.7620865 -0.6601914 0.4593569 0.9274013
0.31920302 -0.040441036 0.3702855 -0.282668 0.12778783 -0.28544152 -0.506938 0.5163418
0.39840007 -0.609426 0.5244359 -0.017929792 0.9036486 0.38405335 0.028994441 -0.63476133
0.7017348 0.71051216 -0.14909065 -0.51619244 0.81655395 0.95645833 0.69661057 0.9003365
-0.8107215 -0.5098702 -0.5784888 0.8812485 -0.45308542 0.20830417 0.07092965 0.96540284

linear.bias f4 [128]
00000000: a826 c5be c69d 79bf a825 6dbf 5b3a 3e3f
00000010: 0a0d 25bf 5fae b93e 301f 56bf 6630 d4be
00000020: a35d 553e 1656 21bf 514c 2f3f beac 4a3e
00000030: 441e 5f3f 0550 373f 7a7e 60be 5a7b c63e
00000040: 27f3 483f 655c 1ebf 294e 513e 70b6 e83d
00000050: b370 653f 5f8d 1a3e 62ba 79bf dd7e f1bc
00000060: f7f3 523f 489e 503f 8d07 ad3e cf9a b03e
00000070: 6334 4bbf 2568 783f 4a2e b23e 9f58 92be
00000080: 4883 c63c 8cd1 68bf d9e0 5bbe 018c d03e
00000090: 20c8 40bf b44a 10be 0681 54bf 2b78 873e
000000a0: 2c2e 1d3e d16e 463e a67f e8bd 1db3 22bf
000000b0: b370 463f 0616 e63e 802a 5a3f 29ac 4dbe
000000c0: 63d7 053f 59f6 c73e a2b4 26bf 96e9 493f
000000d0: 3288 913e 82ce 5d3f 5dab cbbe 55f6 883e
000000e0: aa07 a2be 6471 8cbd a3e9 74bf 1dae 5b3f
000000f0: c81c 05bf 27f2 38bf 179c 5b3f fdba f0ba
00000100: 1c26 263e f829 0abf 698d d5be a497 66bf
00000110: 1c0c f9be 85a4 0f3f cb5d 59be 6c59 5abf
00000120: dee2 a23e 2d8e 3cbf 1e67 4dbf da2e 673f
00000130: b969 56bf 9a4f 2c3f cadc 1abe 8cb5 6f3f
00000140: fa72 b6be 8dba 61be 6a34 e43e ea60 95be
00000150: 4fea 3ebe 65d0 80be ab6b 6b3f efef f53e
00000160: 6691 08bf 43ca 9bbe 9b41 75bf f993 2a3e
00000170: 6ab9 083e 5628 633f 92cb fd3d 5c5b 5abf
00000180: 19ab a6bd 01ec 2bbf cac6 c53e f752 0f3e
00000190: 9947 a2be 4b44 19bf 238c 613f 8ac4 39be
000001a0: 7383 a9bd 2fe6 03bd 5024 56bf 8c4c 83be
000001b0: 345e 193f 4a8b 7a3f 65ce cfbe fb6b 8dbe
000001c0: 8f69 763f 652c 57be 2a61 47bc 4640 9cbe
000001d0: cdc8 863e 463b 713f 861f a8be 9ee3 433f
000001e0: 42bc 123f a44b 4a3b a1fd 083f a230 743d
000001f0: b1dc 483f 71d6 f43e f4a6 4a3f b3bd 95bd
-0.38506055 -0.9750637 -0.92635584 0.74307793 -0.6447302 0.36265847 -0.8364134 -0.41443175
0.20836501 -0.6302198 0.68475825 0.19792458 0.87155557 0.71606475 -0.21923247 0.38765985
0.7849602 -0.6185973 0.20439972 0.11362922 0.8962509 0.15092991 -0.9755002 -0.029479438
0.8240351 0.8149152 0.33794823 0.3449311 -0.7937681 0.9703391 0.3480094 -0.28583238
0.024232522 -0.90944743 -0.21472491 0.40731815 -0.75305367 -0.14090997 -0.83009374 0.26458868
0.15349644 0.1937821 -0.11352472 -0.63554555 0.77515715 0.44938678 0.852211 -0.20085205
0.5228178 0.39055136 -0.65119374 0.7887205 0.2842422 0.8664323 -0.39779177 0.26750436
-0.31646472 -0.06857565 -0.95669 0.8581255 -0.5199704 -0.72244495 0.8578505 -0.0018366274
0.16225475 -0.5397029 -0.4170945 -0.90075135 -0.4864205 0.5611041 -0.21227185 -0.85292697
0.3181371 -0.73654443 -0.8023547 0.90305865 -0.8375507 0.6730896 -0.15123287 0.93636394
-0.35634595 -0.2204382 0.4457124 -0.29175502 -0.18644069 -0.25158992 0.91961163 0.48034617
-0.5334686 -0.3042775 -0.9580323 0.1665801 0.1335198 0.8873342 0.123923436 -0.85295653
-0.08138103 -0.6715699 0.38628227 0.13996492 -0.3169525 -0.5986983 0.88104457 -0.1814138
-0.08277025 -0.032201942 -0.8364916 -0.25644338 0.5990937 0.9786879 -0.40587154 -0.27621445
0.9625482 -0.21013029 -0.012169162 -0.30517787 0.26325074 0.9423107 -0.3283655 0.7651919
0.5731851 0.003086784 0.53512007 0.059616692 0.7846175 0.47819856 0.79161 -0.07311573

conv_0.weight f4 [128, 128]
00000000: 3ffc 3d3d 8c4b 7e3d cb2d 623d a805 053d
00000010: a29f a7bc 3b50 cb3d 4387 00be 73b3 433d
00000020: bb24 cfbd d3a4 2a3d b59e 18be bf3f 453d
00000030: bc0b a6bd c361 d8bd 1baf ce3b ca74 0d3e
00000040: e346 05be b074 13be 8c98 e23d ae59 923d
00000050: dc21 0cbe 323c dfbd fd29 0dbe 85ed c8bc
00000060: 0b31 1bbe dff6 0dbd d3d7 16be bf01 e53d
00000070: db20 573d 3c8a d33a 1112 dd3d 6316 12be
00000080: 1118 2d3d de2e de3d 5e40 1abe 6ea8 f23d
00000090: 260d 58bd f2b6 fbbd 1573 8a3d bc0a 8dbd
000000a0: 5e31 0a3e ecdb ba3d 4a81 0bbb 5623 9a3d
000000b0: 8032 b83d 9c85 f23d 0d87 88bd 2c73 8dbc
000000c0: 1fe6 aa3d 5edf a33c b2cd 0bbe 8698 44bd
000000d0: ca18 22bd 8594 193e a3fc 953d 8309 ae3c
000000e0: 1e0a c13d 6580 d83b a771 d93d c462 cd3c
000000f0: 2a3d c93d 8064 4b3d 9ecc e13d 942b 0a3e
00000100: c8fa 00be ea9c 0cbe 60a6 7fbd 360c f23d
00000110: 01a8 82bd 2e6b 66bc dcb5 eebd 1091 94bd
00000120: b960 9c3d bff6 96bd ce18 7abb 0184 d3bd
00000130: c519 013e 03a5 e1bd e91a 143e b479 d23d
00000140: cb71 fcbd 422e d93d 7e58 d83d dadf 21bc
00000150: a5ff 003e 4967 71bd 8d30 183e e000 f5bd
00000160: 324a 873d 6647 f03d 8d4e 263d 9fd4 abbd
00000170: 51ba 283d d472 b43d 0c08 f83c a5ed b9bd
00000180: 6d34 993c d169 b5bd 3823 b53d 4d17 ff3d
00000190: c621 193e 0b5b fcbc c718 813c 05e9 a13c
000001a0: 676e d93d 5638 bebd f28c 273d dc3d 153d
000001b0: b6b7 07be e974 16be ba52 b9bd a390 01bd
000001c0: 41b3 38bd 3dac ce3c d6e7 f43c f60c a53c
000001d0: 5717 a43d fd57 883c 2468 dcbd a10f 57bd
000001e0: 1d36 3dbb 167a 0e3e 064b c33d 58f7 b3bd
000001f0: ee1a 0ebe d4bb 9b3d fd33 3fbd 4b78 0cbe
00000200: c50c 00be aae9 5cbd 8ae4 dc3d 3abc a9bd
00000210: bc5c 493d 3391 b53a 3ebd 85bd 4012 cd3d
00000220: 195a f53d 28a0 15be b257 0dbb 0862 453d
00000230: 33bb 2abd 3526 8bbd 2873 dc3d 6d9c acbd
00000240: 0b11 dabd 57fd 963d 41e7 22bd e38f 04bd
00000250: d7b4 14be 5d08 16be fbde c63d 15d5 c9bd
00000260: a65f 37bc 81ed b4bd 0516 db3d b9d8 e63d
00000270: 8e76 043e 34bc 11be 2aa8 c9bd ec8e 613c
00000280: 25fb a3bd 5c3c ebbd 64c7 173e 4660 88bd
00000290: 05df e53c 63bd ef3d 9829 04be 1538 12be
000002a0: a3f8 0ebe c1e5 82bd 1a95 34bd 17c3 28bd
000002b0: 7dac 173e 9f55 eebd b56e e23d 0013 bc3d
000002c0: 79a3 6cbc f17e c4bd 9b38 b73d 37cf b83d
000002d0: bc5c f63d b26e b2bc c517 c83d e50c 91bd
000002e0: 1fff ca3c 708a 73bd e02e 6b3d aa99 10be
000002f0: 9e39 08be d5f4 68bd 97ce ee3c 1a0d 7c39
00000300: 4007 203d d8d1 d53d 2f5d 72bd 340c 243c
00000310: f6fa 66bc c4fc 993c b792 30bb b6d2 563b
00000320: 6823 403b e3c5 853b 3eb6 423d fb7c 123e
00000330: 0363 103d de23 f83d ce00 febd 15c0 99bd
00000340: 277f fabd 0bd0 913d 2ced da3d c92d 0e3e
00000350: af30 27bd 6f9c d23d 5ace 1dbe c7a0 993d
00000360: b792 0a3e 4ca7 143e dbf1 443c 16b3 e0bc
00000370: a417 0abc 572e 953d 16ee 4abd a879 e93d
00000380: a7a1 9c3d 8bdc d4bc aff8 0abe d375 dd3c
00000390: f6f8 13be 9e4c d5bc d37b 033e 023e 873d
000003a0: 6483 c33d 9c83 753d 3c4d 523d 757d febd
000003b0: 0c24 09be cb20 ddbc 12f8 bfbd 13de efbb
000003c0: 63a1 89bd b16d 173e 67e0 e6bd 245e aa3d
000003d0: 5495 a9b9 c882 f7bd 05d4 acbd 39a1 cc3d
000003e0: a3aa 143b db77 513d 5589 1c3e 1738 e3bd
000003f0: 92ed 643d 099e 0e3e b399 b43a 1c1b 1a3e
0.04638314 0.062083766 0.055219453 0.032476097 -0.020461861 0.09927412 -0.12551598 0.047778558
-0.10114428 0.041661095 -0.14904292 0.048156496 -0.08107707 -0.105655216 0.0063074953 0.13814083
-0.13015322 -0.14399981 0.11064252 0.07146011 -0.13684791 -0.10900153 -0.13785549 -0.02452732
-0.15155427 -0.034659263 -0.14730768 0.11181974 0.052521568 0.001613922 0.107944615 -0.14266352
0.04225928 0.10848783 -0.15063617 0.11848532 -0.052746914 -0.122907534 0.067602314 -0.06886813
0.13495395 0.09123978 -0.002128678 0.07526271 0.08994007 0.1184189 -0.06666384 -0.017266832
0.08344673 0.02000397 -0.13652685 -0.04799702 -0.039574422 0.14998062 0.07323577 0.02124477
0.09425758 0.0066071027 0.106173806 0.02507151 0.09826119 0.04965639 0.11025356 0.13493186
-0.12595665 -0.13731733 -0.062414527 0.11818735 -0.063797005 -0.01406364 -0.11655781 -0.07254231
0.07635636 -0.07371282 -0.0038161757 -0.10327912 0.12607487 -0.110178016 0.1446339 0.10277119
-0.12326392 0.10604526 0.105637535 -0.0098800305 0.1259752 -0.05893639 0.1486227 -0.119630575
0.066059485 0.11732368 0.040602256 -0.08390164 0.04119331 0.08810964 0.030277275 -0.0907853
0.018701756 -0.088580735 0.08844608 0.12455616 0.1495429 -0.030805131 0.015758885 0.019764433
0.10616761 -0.09288089 0.0409059 0.036435947 -0.13253674 -0.14693035 -0.09048982 -0.031632077
-0.045092825 0.025228614 0.029895704 0.020147782 0.08012264 0.016643519 -0.10762051 -0.05250514
-0.0028871365 0.1391376 0.09535794 -0.087874115 -0.1387746 0.07604185 -0.04668044 -0.13717763
-0.12504871 -0.053933777 0.10785778 -0.082878545 0.049160704 0.0013852477 -0.06530236 0.100132465
0.119800754 -0.14611876 -0.0021567163 0.048189193 -0.041682433 -0.06794397 0.10764152 -0.08428273
-0.10647782 0.073725395 -0.039771322 -0.032363784 -0.1452211 -0.14651628 0.09710499 -0.09855095
-0.011192238 -0.08834363 0.10697559 0.11271805 0.1293585 -0.1423195 -0.09846528 0.013766985
-0.080068864 -0.11486122 0.14822155 -0.06658988 0.028060446 0.117060445 -0.12906492 -0.14279206
-0.13962035 -0.06391478 -0.044087507 -0.041201677 0.14811893 -0.11637425 0.11056272 0.091833115
-0.014443272 -0.09594525 0.089463435 0.09023898 0.120294064 -0.0217813 0.09770159 -0.070825376
0.024779854 -0.059458196 0.05741775 -0.14121118 -0.13303229 -0.056874115 0.029151244 0.00024037473
0.039069414 0.10440415 -0.059170898 0.010012675 -0.01409792 0.018797286 -0.0026942918 0.0032779402
0.0029317979 0.004082428 0.04753708 0.14305489 0.035250675 0.12116216 -0.12402497 -0.0750734
-0.12231284 0.07119759 0.10689768 0.13884653 -0.040817913 0.102837436 -0.15410748 0.07501369
0.1353253 0.14516944 0.012020553 -0.027429145 -0.008428488 0.07284229 -0.049543463 0.11400157
0.0764802 -0.02598407 -0.13571428 0.027033722 -0.1445044 -0.02603751 0.12840204 0.06603624
0.09546545 0.059939966 0.051343188 -0.12426273 -0.13392657 -0.026993176 -0.093734875 -0.0073201745
-0.06720235 0.14787938 -0.1127327 0.08318737 -0.0003234545 -0.120854914 -0.08438877 0.09991688
0.0022684715 0.051139694 0.15286763 -0.11094683 0.055890627 0.13927473 0.0013778716 0.15049404

conv_0.bias f4 [128]
00000000: 88ac b43a 267e baba 70cf b23a 256b b4ba
00000010: f880 b2ba 57a8 b4ba 7416 bc3a 6173 b5ba
00000020: fb18 b2ba 4287 b0ba 5229 b5ba c493 abba
00000030: 28ec b1ba 641a b23a 68ee fcb9 9f8e b2ba
00000040: d357 b43a 8ed5 bb3a e4a6 b5ba e7af a63a
00000050: d755 b0ba 89e5 b4ba 491d b2ba 45ca b0ba
00000060: faca afba 28bb b63a 3ced b4ba 795c b5ba
00000070: 1d46 aa3a 426d b2ba b126 9f3a fac2 ae3a
00000080: 3b47 6e3a ec22 ac3a 3d39 b23a b39a b4ba
00000090: 665c a33a 494a b9ba cf99 a93a 7233 b63a
000000a0: 4fb7 b53a f389 b5ba bfe0 b53a 9cce b83a
000000b0: 2fb4 ac3a 5b85 ba3a d91b b33a 1543 aeba
000000c0: 462a b13a 6bc0 5f3a f1a4 b03a 1c24 b63a
000000d0: a801 b0ba 5105 b5ba f2d9 b4ba be8e 82ba
000000e0: 6307 b5ba 010c 563a 6095 b4ba 06fb a4ba
000000f0: 04ff b4ba da36 b4ba fb5e b0ba b119 a53a
00000100: c188 43ba ea67 b23a 4dd9 b4ba b6c2 b1ba
00000110: 5662 b53a ddff b1ba 2fe1 b23a 3c82 8e3a
00000120: b036 a8ba 5925 b63a f28f b1ba 0a5d a0ba
00000130: b27e a43a d7b7 a23a ea39 b6ba a14d b4ba
00000140: 58e5 b63a 4fc7 b4ba 7e52 b53a 1b94 b43a
00000150: 5ca6 203a 6248 b4ba 5095 bb3a 1034 b2ba
00000160: 10b9 b8ba b792 b6ba 4467 b13a 5ff9 b5ba
00000170: 294e bbba 1b66 b2ba fde5 b83a cc8a 0f3a
00000180: 7a3e b5ba cee9 b9ba a4e8 baba 7d15 b73a
00000190: 7919 b53a 108c b03a 7a58 b23a 8622 b4ba
000001a0: 1bce b1ba 5f50 b13a 6eaf b4ba e013 9e3a
000001b0: 3cfc b5ba 7419 b83a b672 b1ba 618c b5ba
000001c0: 18c4 b13a df8a b63a c7f0 b43a 5398 b23a
000001d0: c7ee b7ba 965b b1ba 591a af3a 00c0 b2ba
000001e0: 223c b73a 749a b6ba 9699 b6ba cc57 b23a
000001f0: da02 b6ba c956 b13a b981 b1ba 135b a93a
0.0013784328 -0.0014228269 0.0013642143 -0.0013764842 -0.0013618758 -0.0013783079 0.0014349953 -0.001384359
-0.0013587767 -0.0013468044 -0.0013821519 -0.0013090302 -0.0013574408 0.0013588187 -0.00048242812 -0.0013622827
0.0013759084 0.0014330612 -0.0013858941 0.0012717218 -0.0013453317 -0.0013801317 -0.001358905 -0.0013488015
-0.0013411932 0.0013941275 -0.0013803612 -0.0013836763 0.0012990866 -0.0013612884 0.0012142268 0.0013333254
0.00090895937 0.0013132966 0.0013597381 -0.0013779014 0.001246345 -0.0014136519 0.0012939515 0.001390083
0.0013863834 -0.0013850316 0.0013876184 0.001409966 0.0013176257 0.0014230417 0.0013664915 -0.0013295138
0.0013516627 0.00085354474 0.0013476891 0.001389626 -0.0013428228 -0.0013810789 -0.0013797863 -0.0009960753
-0.0013811406 0.0008165241 -0.0013777427 -0.0012587018 -0.0013808911 -0.0013749257 -0.0013456041 0.0012596158
-0.00074590376 0.0013611291 -0.0013797671 -0.0013562057 0.001383851 -0.0013580282 0.0013647432 0.0010872553
-0.0012833681 0.0013896629 -0.0013546927 -0.0012234759 0.0012549965 0.0012414408 -0.0013902758 -0.0013756045
0.0013953848 -0.0013792309 0.0013833789 0.0013777049 0.0006128305 -0.0013754482 0.0014311466 -0.0013595838
-0.0014093239 -0.0013929222 0.0013534804 -0.0013883522 -0.0014290261 -0.0013610752 0.0014106628 0.00054756994
-0.0013827824 -0.0014184059 -0.0014260006 0.0013968196 0.0013816796 0.0013469476 0.001360669 -0.0013743199
-0.0013565453 0.0013527981 -0.0013785192 0.0012060367 -0.0013884376 0.0014045672 -0.0013538215 -0.001385104
0.0013562469 0.0013926885 0.0013804667 0.0013625718 -0.0014032953 -0.0013531323 0.0013359293 -0.0013637543
0.0013979713 -0.0013931529 -0.001393127 0.0013606488 -0.0013886348 0.0013529892 -0.0013542689 0.0012920819

layers.0.weight f4 [128, 128]
00000000: c5e9 be3c 8281 9fbd 6a46 7cbd fe54 183e
00000010: cb71 3bbd 978e 003e 79f8 f23d b5c7 2ebd
00000020: 428b 36bb 5f16 b9bd 0b01 033e 987f 75bc
00000030: 1ca2 d93d a765 b83d 087e 1dbe a4ba d6bd
00000040: cd62 853c a1f2 883b 900a 14bd 0daa 0a3e
00000050: 63d9 62bc 7551 01be 354b 0abe 5bd4 f63d
00000060: 3725 a9bd c8b6 103d 535b 6d3d ab38 923d
00000070: 194b 16be 28d5 dbbd ba7e c43d e464 89bd
00000080: 9b49 d9bc e579 0abe 272b 11bd d277 f23d
00000090: a2cd ebbc 2806 953d 5b8f 8b3d 55d5 753d
000000a0: 4cd7 503c 8e6e 22bd 1a98 1b3e b63f b5bd
000000b0: 6601 483c 59c5 94bb 5bb7 87bd ad31 0c3e
000000c0: 7a8c 0a3e a86f 073e b48d dcbc dd2f 8bbc
000000d0: ecdf e83d 8580 b9bd 7b01 96bd 7d53 263d
000000e0: ebdc 0a3d f8c9 97bc 7469 d63c 8c2a 4f3c
000000f0: ebd3 85bd c480 81bd 52d1 073e 9e45 c83b
00000100: 251e 15be 4c4e b03d 3df6 a9bc 753c e13c
00000110: 2cd0 793c a64f 9dbd 4b9a c23d 2754 5ebc
00000120: 5278 513d a34a ccbd e256 21bd 0222 383c
00000130: b07a 1a3e ffbf 183d 0473 223d 1870 f83d
00000140: 7932 83bd 0949 c63a a7f5 12be 35fe fcbd
00000150: 18f1 16be ae9b 693d cc1d d9bd f1f8 33bd
00000160: de20 10be eef6 0c3d 228f 05be b57a 313d
00000170: 948f 963d 0c33 12be d543 a53c d02f bfbd
00000180: 4996 07bd 57e9 dd3d c38d 04be c786 883d
00000190: 1def d9bd 6de3 773b 824e 7f3d ed6c e03d
000001a0: 76a9 053d 626f 173e 25cf 043e 982c cabd
000001b0: 4f0f 12be e162 343d e196 503d 3605 c4bd
000001c0: e8c2 803c baf7 08be a918 d33c 5314 173e
000001d0: 4d0d d8bd 0d2f f03d 0a93 173d 71ca 17bd
000001e0: 57ec 46bb d009 903d 1a1d 82bc 7f89 2abd
000001f0: 1624 c63d c88b 033c e813 113e ebd6 d0bd
00000200: 03da 0d3e f6fb ff3c cb3d 153e e966 40bd
00000210: fb52 2fbd 2480 babd 4189 1a3e 86d1 dfbc
00000220: 2f12 b53c b71d e9bb 1089 06be 6ca5 11be
00000230: 5dfd 873c e2ac c03d 5a7c 543c 9b00 553d
00000240: 48c3 503d de6b 2abd 4faf 083e c822 783b
00000250: d7cd 6f3d 0170 fb3d 1822 5e3d a493 febd
00000260: 4f14 c73d f308 203d cdf2 123e 7c87 d03d
00000270: 8e24 14bd 022b ca3d fff3 eebd 4fae ac3c
00000280: 5886 07bd 047e 04be 391e 0ebc 6e1b 07bd
00000290: 82e8 31bc 7c67 4a3d 372d eebd f71e 153e
000002a0: 7029 0f3e 2080 cbbd 273f eb3d 5956 143e
000002b0: 3fb8 6dbc 1f20 0b3e 03ef c73b 2625 943d
000002c0: 1bcb 4f3d ccaf d63c 7fd2 49bd d684 40bc
000002d0: fffa 04be b338 323d d1e6 033c f2b1 173e
000002e0: 83e4 dcbd ecb2 9c3c 8381 ed3c 6a76 2abd
000002f0: 175a b83d 75bd 0abe 629d fb3b 6b43 363c
00000300: 60a1 08be ed2d a23d 08af febc 4777 dabd
00000310: 3cbb aebd 7793 f43d 2b0b 25bd d409 b6bd
00000320: 6677 2abd 128b eb3c 50b3 953d 477d 1a3d
00000330: b1ee 4e3d f6d4 bfbd 8fa2 413d 3620 99bc
00000340: c472 07be 8858 f73d 6dc4 debc 82d2 f73d
00000350: 2940 03be a584 113e 62f6 173e 7f61 223d
00000360: bd67 94bd f0c5 e33c 20a7 9e3d 4dc7 4bbd
00000370: 47c0 0dbd bf4f 02be a830 b2bb 4330 d4bd
00000380: 416f 95bd f7d6 973c 594b ed3d d215 8d3d
00000390: b3ea 01be dd3f 6fba 0900 173e c41d 393d
000003a0: aa97 3cbd 154c a2bc ba5a 13bd 546c 2bbd
000003b0: 01b4 c93c 6c20 9ebc f77f 8b3c 5e3f 01be
000003c0: 9f87 8dbc cb97 80bd 2d7d adbd c719 1bbe
000003d0: ec33 cdbd d205 0a3e 9417 e7bd cd62 79bd
000003e0: 5a6b dabd 103d 76bd 38f8 c0bd 8210 ee3d
000003f0: 8bb0 ed3c 61ea bcbd e29c 783d c383 b6bd
0.02330483 -0.077883735 -0.06159059 0.14876172 -0.04576282 0.12554394 0.11863799 -0.042670924
-0.0027854 -0.0903747 0.12793367 -0.014984034 0.10626623 0.09003764 -0.15380108 -0.104848176
0.016282463 0.0041793142 -0.036142886 0.13541432 -0.013845774 -0.1262873 -0.13505252 0.12052222
-0.08259051 0.035330564 0.05794842 0.07139715 -0.14677085 -0.10734016 0.09594484 -0.067086965
-0.026524356 -0.13523062 -0.035441544 0.1183926 -0.028784577 0.07276565 0.06814452 0.060017902
0.012746643 -0.039656214 0.15194741 -0.088500425 0.012207365 -0.0045401272 -0.06626769 0.13690825
0.1353015 0.13226187 -0.026923038 -0.016990596 0.11370835 -0.09057716 -0.07324501 0.040606964
0.03390209 -0.018528923 0.02617333 0.012644421 -0.06534561 -0.06323388 0.13263443 0.0061118146
-0.1456228 0.08608684 -0.020747298 0.027494648 0.015247386 -0.07681207 0.09502085 -0.013569868
0.051140137 -0.09975173 -0.0393895 0.011238577 0.15085864 0.037292477 0.03966047 0.12130755
-0.06406111 0.0015127967 -0.14351521 -0.12353174 -0.14740407 0.057033233 -0.106013864 -0.04393858
-0.14075038 0.034415178 -0.13042882 0.043329913 0.07351604 -0.14277285 0.020173946 -0.093352914
-0.033102307 0.10835522 -0.12944703 0.06666332 -0.1064131 0.0037824765 0.06233073 0.10958276
0.032632314 0.14788583 0.12969644 -0.09871787 -0.14263652 0.04403961 0.05092514 -0.095713064
0.015717939 -0.1337575 0.025768595 0.14753847 -0.10549412 0.11727724 0.03700546 -0.037058298
-0.0030353272 0.070331216 -0.015883017 -0.041635033 0.096748516 0.008028932 0.1416775 -0.10197242
0.13852696 0.031248074 0.14574353 -0.046973143 -0.042803746 -0.09106472 0.1509142 -0.027321588
0.022103397 -0.007114138 -0.13138223 -0.1422326 0.016600305 0.09407975 0.012969101 0.05200253
0.050967485 -0.041606776 0.13348125 0.0037862528 0.058545914 0.122772224 0.054231733 -0.12430504
0.097206704 0.039071035 0.14350434 0.101820916 -0.036167674 0.09871484 -0.11667632 0.02107921
-0.033087105 -0.12938696 -0.008674198 -0.032985143 -0.010858657 0.049415097 -0.11629718 0.14562593
0.13980651 -0.09936547 0.11486655 0.14486064 -0.01450926 0.13586472 0.0061014905 0.07233648
0.050730806 0.026206873 -0.04927301 -0.011750421 -0.12986372 0.043511104 0.008050636 0.14813974
-0.10785773 0.019128285 0.02899242 -0.041616835 0.09001558 -0.13548835 0.0076786736 0.011124472
-0.1334281 0.07918916 -0.03108932 -0.106672816 -0.08531806 0.11942189 -0.040293854 -0.08888593
-0.041617773 0.028752837 0.07309592 0.03771713 0.050520603 -0.09366791 0.04727417 -0.018692117
-0.13227373 0.12077433 -0.027193272 0.12100698 -0.12817444 0.14210756 0.14840081 0.03964376
-0.07246349 0.027804345 0.0774672 -0.049750615 -0.034607198 -0.12725733 -0.005437929 -0.10360768
-0.072966106 0.01853512 0.11586637 0.068889275 -0.12687187 -0.0009126643 0.14746107 0.045194402
-0.046043076 -0.01981167 -0.035975195 -0.041851357 0.024621965 -0.01930257 0.017028792 -0.12621829
-0.017276583 -0.06278952 -0.08471141 -0.15146552 -0.10019669 0.13478783 -0.11283794 -0.06088524
-0.10665007 -0.060116827 -0.09422344 0.11624242 0.029014846 -0.09224392 0.06069649 -0.0891185

layers.0.bias f4 [128]
00000000: d6a3 b7ba 578d b4ba 27a6 b73a 4b8b b6ba
00000010: f579 b6ba d986 b63a 0f80 b63a c35b b63a
00000020: 1d92 b7ba 0bde b6ba ebd4 b63a a58c b6ba
00000030: 448a b63a 3eea b63a a08c b6ba 6bec b53a
00000040: 3cf3 b4ba 8d51 b4ba 200e b6ba 81e5 b6ba
00000050: 9ade b6ba 6c17 b6ba 5a06 adba 7679 b63a
00000060: 898c b6ba 465f b6ba 048d b6ba a9e0 b63a
00000070: 4025 b6ba 01ed b6ba 9861 b6ba b0e8 b23a
00000080: 9794 b83a 67dd b63a f1fe b63a 648c b6ba
00000090: bdfa b63a 0fe9 b63a 8d31 b9ba a17c b63a
000000a0: 64f4 b6ba 0984 b6ba 62ed b63a 371e b63a
000000b0: 13da b6ba 7c61 b43a 0339 b6ba 49dc b63a
000000c0: bb72 b6ba 5434 b63a bbb2 b53a 60dd b63a
000000d0: 9176 b63a 95d1 b63a 8c6f b63a fc7f b63a
000000e0: 1cd2 b6ba 5377 b6ba a65d b63a 6b6f b63a
000000f0: 575f b6ba 8dd3 b63a 141e b6ba f7b2 b63a
00000100: 52f0 b63a 2c7f b6ba b01e bc3a 4d83 b6ba
00000110: e081 b63a cad3 b63a 54e0 b63a f589 b63a
00000120: ed7a b63a 5e39 b83a 5b08 b7ba c3ee b6ba
00000130: 69e6 b63a db7f b73a 700c b73a af64 b63a
00000140: 38f8 b53a 6a1b b73a b573 b63a 69d7 b6ba
00000150: 2afd b6ba 9a07 b7ba 1987 b63a 49d1 b6ba
00000160: a1cc b7ba 7fed b6ba 4e75 b6ba 3fe9 b63a
00000170: 1dee b6ba d380 baba 7e89 b6ba 314d aa3a
00000180: 2d54 b63a 136f b63a 1081 b6ba 1f03 b7ba
00000190: 2b26 b53a 0281 b6ba cf50 b83a 4e74 b6ba
000001a0: 4f73 b6ba 87d9 b6ba 8b47 b73a 5175 b6ba
000001b0: b08c b6ba 8385 b6ba 478a b6ba c58b b6ba
000001c0: c208 b7ba 868c b6ba 1bbe b6ba a950 b73a
000001d0: f019 b7ba f306 b7ba eb75 b63a 77dd b6ba
000001e0: ebf1 b6ba d0ff b6ba 83e9 b63a 88db b63a
000001f0: b2ec b53a eb7c b63a 1706 b93a defe b6ba
-0.0014010619 -0.0013775033 0.0014011309 -0.0013927011 -0.0013921844 0.0013925686 0.0013923662 0.0013912845
-0.0014005337 -0.0013951672 0.0013948953 -0.0013927413 0.0013926704 0.0013955308 -0.0013927408 0.0013879662
-0.00138054 -0.0013757214 -0.0013889708 -0.0013953896 -0.0013951838 -0.0013892478 -0.0013200745 0.0013921696
-0.0013927381 -0.0013913892 -0.0013927524 0.0013952452 -0.0013896599 -0.0013956131 -0.0013914583 0.0013649669
0.0014082369 0.0013951481 0.0013961477 -0.0013927338 0.0013960224 0.0013954955 -0.0014129147 0.001392264
-0.0013958332 -0.0013924848 0.0013956244 0.0013894503 -0.0013950489 0.0013761963 -0.0013902489 0.0013951148
-0.001391969 0.0013901093 0.001386247 0.0013951473 0.0013920834 0.0013947958 0.0013918742 0.001392364
-0.0013948116 -0.001392106 0.0013913407 0.0013918703 -0.0013913912 0.0013948545 -0.0013894462 0.0013938834
0.0013957119 -0.0013923398 0.0014352407 -0.0013924629 0.0013924204 0.0013948616 0.0013952353 0.0013926612
0.0013922133 0.0014055183 -0.0013964282 -0.0013956655 0.0013954166 0.0013999896 0.0013965499 0.0013915504
0.0013883179 0.0013969962 0.0013919981 -0.0013949695 -0.0013960947 -0.0013964057 0.001392576 -0.001394787
-0.0014022776 -0.0013956277 -0.0013920458 0.0013955011 -0.0013956461 -0.0014229066 -0.0013926474 0.0012992976
0.0013910584 0.0013918601 -0.0013923962 -0.0013962722 0.0013820579 -0.0013923945 0.0014062169 -0.001392016
-0.0013919863 -0.0013950326 0.0013983113 -0.0013920461 -0.0013927426 -0.0013925288 -0.0013926708 -0.0013927153
-0.0013964402 -0.0013927377 -0.0013942154 0.0013985831 -0.0013969522 -0.0013963863 0.001392064 -0.00139515
-0.0013957595 -0.0013961736 0.001395509 0.0013950923 0.0013879745 0.0013922727 0.0014116195 -0.0013961454

predict.weight f4 [1, 128]
00000000: af92 51bc eadd a0bb 4d6d 503c 42f7 aabd
00000010: 6212 66bd c220 973d b083 543d 87e8 123d
00000020: 8c74 60bc a393 84bd 8d66 a43d 96de b0bd
00000030: eced a43d e86b 513d 3135 afbd 8e55 753c
00000040: fcae cdbb d75c 90bb cc89 8fbc 22e2 65bd
00000050: aba3 82bd 9ce7 9abc c872 53ba 5095 5f3d
00000060: afea b1bd 8254 19bd 483d b2bd 8531 7c3d
00000070: 6201 b0bc a8ca 49bd df68 12bd 4926 2b3b
00000080: a524 da3b cabc 863d 29ab 1c3d 30b8 a9bd
00000090: dd19 253d 25bc 563d 1c79 a6bb 4faf 743d
000000a0: 93cf 34bd d8c3 52bd 020d 4a3d 5f3e a43c
000000b0: aea4 90bd f76a 973b d5fb ccbc 514e 8a3d
000000c0: 7f44 47bd f777 bd3c 3001 3b3c c703 863d
000000d0: dc4a 573d 22e1 b43d f23f 3d3d dd57 673d
000000e0: bcb6 b1bd 1012 59bd 52a8 b13b 86db 3f3d
000000f0: 4132 18bd 9fdc ab3d 4814 a5bc 24bb 843d
00000100: 176c 3e3d 5f80 7ebd 6659 d53a ff37 81bd
00000110: 60fd 803d 9826 ab3d be74 7d3d 9fc8 a13d
00000120: 51a6 643d da02 043c e43e 0bbd db62 44bd
00000130: 43bb 623d 128f 743c 258b 073d 3d58 203d
00000140: 414d 833c 793e e73c 2f4d 4d3d d689 9abd
00000150: 5fa3 1fbd dd12 0dbd 869a 993d 6922 b5bd
00000160: d090 33bc 2b70 47bd d244 51bd 1a99 533d
00000170: 0527 4abd 7b25 65bb 2e74 a3bd dc84 c039
00000180: e6dd 033d 76d7 3d3d d105 7abd 9084 14bd
00000190: 74a1 ed3b 6c87 84bd ef74 fb3b 2433 44bd
000001a0: 368b 4abd ff66 92bd 126d a53c 8f9f 4abd
000001b0: a4c9 b1bd 4112 92bd 46a1 9dbd 514d aebd
000001c0: e996 0bbd ce53 aebd 22e3 0bbd 8772 9c3c
000001d0: 9c2f efbc 9cea 10bd 1367 543d 5f03 87bd
000001e0: 5064 3dbd bc89 1bbd a293 593d b836 8f3d
000001f0: 1b70 783c 63da 603d d569 b23b d257 20bd
-0.01279132 -0.0049092667 0.012721372 -0.08347942 -0.056169875 0.07379295 0.0518834 0.035866287
-0.013699662 -0.06473472 0.080273725 -0.08636205 0.080531925 0.051128298 -0.08555067 0.014974011
-0.0062769633 -0.0044055986 -0.017521761 -0.05612386 -0.063788734 -0.018909268 -0.0008066115 0.054585755
-0.086873405 -0.03743411 -0.08703095 0.061570663 -0.021485034 -0.049265534 -0.035744544 0.002611535
0.0066572004 0.065789774 0.03824917 -0.08287084 0.04030787 0.052425522 -0.0050803553 0.0597375
-0.04414327 -0.051456302 0.04932881 0.020049272 -0.0706266 0.0046209055 -0.025022427 0.06753219
-0.048649307 0.023128493 0.011413857 0.06543689 0.052561626 0.08832003 0.04620356 0.056480277
-0.08677432 -0.05299574 0.0054216767 0.046840213 -0.0371573 0.083916895 -0.020151272 0.06481007
0.0464898 -0.062134143 0.0016277253 -0.063095085 0.062983274 0.083569705 0.061878912 0.078995936
0.055822674 0.0080573205 -0.033995524 -0.04794584 0.055354368 0.014926689 0.033091683 0.03914665
0.016028048 0.028228031 0.050122436 -0.07545821 -0.038974162 -0.034441818 0.07500176 -0.08844454
-0.010959819 -0.048690956 -0.051091023 0.05165968 -0.04935362 -0.0034964967 -0.07981144 0.00036720082
0.03219404 0.046348058 -0.061040703 -0.036259234 0.0072519127 -0.06471142 0.0076738517 -0.047900334
-0.04944917 -0.07148551 0.02019361 -0.049468573 -0.08681038 -0.07132388 -0.07696776 -0.08510841
-0.034079466 -0.08512078 -0.034152158 0.01909758 -0.029197507 -0.03537999 0.05185611 -0.0659244
-0.046238244 -0.03797315 0.05311931 0.06992859 0.015163447 0.05489577 0.005444745 -0.039146252
