PERGAT_embbedding/data/emb/models/model_dim128_lay2_epo100.pth (torch, 137100 bytes, 7 tensors)

linear.weight f4 [128, 1]
00000000: 44c6 29bf 386e 8cbe d057 903e e08b dd3d
00000010: ae79 38bf 5026 c8be 86df 32bf cef0 2e3f
00000020: 8068 e9bc f8c3 02be aabc 7ebf 02ec 0ebf
00000030: 582c 5f3e 6842 cdbe 3cdf a23e e8f2 b2be
00000040: 44fe 8b3e 7019 a23e 042d 64bf 4404 05bf
00000050: da66 30bf 80f1 783c 8095 6e3f 44c5 babe
00000060: 7882 0c3e 226b 04bf 6e1a 073f 9c3f 9dbe
00000070: 9ea3 6dbf 44a3 70bf fceb b63e 3cc9 0f3f
00000080: 50ad 0d3e a077 2cbd f0cd c1be e0bc 08bd
00000090: 0099 a3bd 48f5 34be b0a0 b83d ec6c d3be
000000a0: 28a7 15bf 0866 0c3f 9078 0d3f 3885 673e
000000b0: 9467 debe 9476 5d3f c4d1 7ebf 6022 c83d
000000c0: 12f5 56bf 3c95 40bf d0c7 023f a264 06bf
000000d0: 00f0 e63e c6d6 0c3f 80bf 3e3e faa1 10bf
000000e0: aa8d 023f 1c01 113f b411 e13e 48dc 6dbe
000000f0: beed 61bf 4819 23bf aaaa 0abf 1001 8fbe
00000100: eae5 3c3f 0065 3abe aca3 6b3f be35 20bf
00000110: 5cb8 64bf 4e8f 2b3f 40f4 16bf c0cb e43c
00000120: 905e e43e 32db 073f f22b 003f 106b f5bd
00000130: 2ef5 25bf e8fd 05bf f2f0 56bf 1855 ec3e
00000140: 0009 db3c 7afa 5bbf 80d1 b5be 1000 793f
00000150: 8cd3 793f a8a2 14be d09c a1bd 1233 15bf
00000160: 946d 06bf 6061 08be 9035 00be e853 13bf
00000170: f2aa 423f 442c 843e f68e 673f 2082 54bf
00000180: a45b 40bf 4849 a2be 3077 833d 188f e6be
00000190: 9806 d0be 56f7 22bf b03b f1be de12 6b3f
000001a0: a065 483d 1e1b 5ebf 40a6 583d 789c 6dbe
000001b0: d4dc 3dbf 00ea fe3b 5857 9fbe c0fc 4e3e
000001c0: d4e6 e0be fa68 353f 2a9e 253f b058 563f
000001d0: 021f 523f 683e ae3e ba81 0c3f 40c2 57bd
000001e0: d21a 4ebf a0db 9bbe 8810 3dbf bcca 593f
000001f0: a8c2 1e3f 3237 153f 3402 7f3f daea 4cbf
-0.66318154 -0.2742784 0.28191996 0.10817695 -0.7206067 -0.3909173 -0.6987232 0.6833619
-0.028492212 -0.12770069 -0.9950663 -0.5582887 0.2179426 -0.40089726 0.3181094 -0.34950948
0.27342427 0.31660032 -0.8913119 -0.51959634 -0.6890694 0.015194297 0.9319687 -0.36478627
0.13721645 -0.5172597 0.52774704 -0.30712593 -0.92827785 -0.93999124 0.35726917 0.56166434
0.13835645 -0.04210627 -0.3785243 -0.03338325 -0.07988167 -0.17671692 0.09015024 -0.41294038
-0.58458185 0.5484319 0.5526209 0.22609413 -0.434384 0.8650906 -0.99538827 0.097721815
-0.839677 -0.75227714 0.5108614 -0.52497303 0.4510498 0.5501522 0.18627739 -0.56497157
0.5099741 0.5664232 0.4395882 -0.23228562 -0.8825339 -0.6371045 -0.5416666 -0.27930498
0.7378832 -0.18202591 0.9204662 -0.62582004 -0.8934381 0.6701554 -0.58966446 0.027929187
0.44603395 0.5306884 0.50067055 -0.11983311 -0.6482724 -0.52340555 -0.83961403 0.4615867
0.02673769 -0.8592907 -0.35511398 0.9726572 0.9758842 -0.14515173 -0.07891238 -0.5828105
-0.5251095 -0.13318396 -0.12520432 -0.57549906 0.7604209 0.25815022 0.90452516 -0.83011055
-0.7513983 -0.31696534 0.064192176 -0.45031047 -0.4063003 -0.63658655 -0.4711585 0.91825664
0.048925042 -0.8676013 0.052892923 -0.2320422 -0.7416508 0.00777936 -0.31121325 0.20213604
-0.43926108 0.70863307 0.64694464 0.83729076 0.82078564 0.34031987 0.5488545 -0.052675486
-0.80509675 -0.30440998 -0.7385335 0.85074973 0.6201577 0.58287346 0.99612737 -0.80045855

linear.bias f4 [128]
00000000: 3b9c eb3e d20a 493e f581 093f 344b 753f
00000010: d03e 10bf 48fe 15bf f70b 813e 3a0d 7abf
00000020: 900a a0be a72c 4ebf 6321 b83c dfcd 7f3f
00000030: 6562 21bf 5320 39bf 5a29 2ebf 6be3 533f
00000040: 378e 663f 88dd c73d 17e2 773e 0e02 d73e
00000050: f896 273f a13b 3fbf da06 c3be 8a12 2abf
00000060: 59bb b73e 29de a43e 4243 8b3e 1feb 5ebf
00000070: b8ee 6a3f 712c 64bf 3bdc ce3d 1fee aebd
00000080: 8787 95be 4429 1a3e 7517 4dbe 449c 5abf
00000090: c41e 62bf e6a6 5fbf 1b14 1f3f 09c9 9f3e
000000a0: 2902 83be 966f fa3e 130e b33e a63b 673e
000000b0: e7b4 7abf a0ff fa3e a08d f03e 39cc 69be
000000c0: eb46 d33e c284 163f 3bff a5be af05 08be
000000d0: bbad 15bf 1713 fabe efe0 23bf 3057 d0be
000000e0: 5090 083f fe60 883e 0c90 65be 6e71 483c
000000f0: 685f 073f 0f73 253f 8318 65bf 8b02 46bf
00000100: 17b2 3c3f adde 02bf d3b1 50bf 5883 753f
00000110: 6cb9 a43e 5633 62bf f984 2abf 8e30 c53d
00000120: 7c82 05be 2112 183f 0886 a9be 8ff2 1b3f
00000130: 783a d33e 3031 41bf 0485 283e b0eb d7be
00000140: 53f1 1a3f 42f7 433b e8a1 663e 404a 7a3f
00000150: e67a 0bbf b609 713e adc2 46be 0297 0dbf
00000160: e18d 0a3f 562f 143f 0aae 543e 4d82 d6be
00000170: 839e 68bf 9e37 7bbe f6f7 4b3f 3145 febd
00000180: b415 7cbf 5b09 24be f9de 00bf dae3 51bf
00000190: 4a7f 283f 0a83 80be a1ae cfbe 87bb 36bf
000001a0: 1550 8c3e 2a4e 6cbf 2142 6ebd 6177 2b3e
000001b0: d1f7 09bf e2e1 4b3f cf41 9dbd 7e86 72bf
000001c0: 71d0 3fbf 389d 503f b206 193f 9819 7cbf
000001d0: 5954 433f 1a15 b53e 18b6 05bf 1fc0 d1be
000001e0: 6294 28bf 27ae c6be 3dc5 e5be 66e1 7e3f
000001f0: c79f 2a3e 3fc4 45bf 77cd 083f c639 55bf
0.46017632 0.19633034 0.53713924 0.95817876 -0.56345844 -0.5859113 0.2520444 -0.9767643
-0.3125806 -0.80536884 0.022476858 0.9992351 -0.63040763 -0.7231495 -0.6803185 0.8276889
0.9006075 0.097590506 0.2420734 0.41993755 0.65464735 -0.7470036 -0.38091165 -0.6643454
0.35885122 0.32200745 0.2719975 -0.87077516 0.91770506 -0.8913031 0.101005994 -0.08541512
-0.29204962 0.15054804 -0.2002848 -0.8539469 -0.88328195 -0.8736404 0.62140054 0.31208065
-0.25587586 0.48913258 0.34971675 0.22581348 -0.97932285 0.4902315 0.4698305 -0.22831811
0.41265044 0.5879632 -0.32421288 -0.13283418 -0.58468217 -0.4884269 -0.64015096 -0.4069152
0.53345203 0.266365 -0.22418231 0.012234075 0.52879953 0.6462869 -0.89490527 -0.7734763
0.73709244 -0.51121026 -0.8152134 0.9590354 0.32172716 -0.8835958 -0.6660915 0.09628402
-0.13038057 0.5940266 -0.3311007 0.6091699 0.41255546 -0.7546568 0.16456991 -0.42172003
0.6052448 0.0029902016 0.225227 0.97769547 -0.54484403 0.2353886 -0.194102 -0.55308545
0.5412274 0.5788473 0.20769516 -0.41896287 -0.9086687 -0.24532935 0.79675233 -0.12415541
-0.98470616 -0.16019194 -0.5034023 -0.819883 0.6581923 -0.25099975 -0.4056292 -0.71379894
0.27404848 -0.9230677 -0.058168534 0.16744758 -0.5389376 0.79641545 -0.076785676 -0.9473647
-0.7492743 0.81489897 0.5977584 -0.9847655 0.7630058 0.35367662 -0.5223098 -0.4096689
-0.65851414 -0.38804743 -0.44877043 0.9956268 0.16662513 -0.7725257 0.53438514 -0.8329128

conv_0.weight f4 [128, 128]
00000000: b82b 033e 335d e83c 68a2 debd 727d 1e3d
00000010: 4b67 13bd 7337 1b3e dca1 783c 06f5 0a3e
00000020: 6442 0d3e 458b 293c 2f13 483c 9ee0 8e3d
00000030: 5bc8 d3bd ee40 10be 0591 c6bd ee4d d8bd
00000040: bf9e fabd cda9 243d 6160 183d 49e8 0a3e
00000050: fb1a 643d 3f2a 86bc 8f04 853d 2b33 7abd
00000060: e74d 9dbb 295e df3d 6e4e 3b3d ee5b 3fbc
00000070: d175 4a3d 6f7d 6bbd f401 823d 3bf7 cabd
00000080: 73d3 8d3d 2325 d1bd ae2b c6bc cbeb e2bd
00000090: 4d14 763d bfd3 a3bd b0fa ac3d 601b ebbd
000000a0: 22d7 8e3d 1037 1cbe 3911 cd3a 88f4 6c3d
000000b0: 48e3 973b 59cb a1bd 3ca7 013e 90ee 52bd
000000c0: c3a4 efbc 9734 133e 1c19 b43d 0655 a33d
000000d0: 6d90 0abe e4a6 f3bd f370 84bc 6e7c 083e
000000e0: 581e aabd 8389 6f3b ecb6 debd 6c33 913d
000000f0: 7741 143e f449 19be 8f20 093e c807 303b
00000100: 75be 69bd 46e8 20be 0386 f73d c931 f13d
00000110: 7dfe 593d 1e9e 62ba a19f b8bd 4f78 fdbc
00000120: 6cb8 ccbd 76ac 8fbb 8e9c 30bd 0ac4 183d
00000130: f2cd d7bd 8012 1c3e aa2c 163e 3550 04bc
00000140: b549 083d 26a0 a53d 0aa1 8cbd 28fd 1d3e
00000150: f4ad 3abd 38f2 bebd 936b afbc 81c7 52bd
00000160: 6e24 05be e6f6 da3d 5cfa bc3d 70c9 033d
00000170: 01ae 6d3d 9065 9a3d 9548 93bd 04c6 a93c
00000180: 15ba d5bc ccb9 0f3d f29f 64bd ceb8 1e3e
00000190: 3a58 90bd b39e 153e e8c9 40bd 0fad b03d
000001a0: 0648 87bd c475 df3d 4a72 e2ba 1d46 c23d
000001b0: e845 7c3c 4b48 81bd 6b2b d03d d6dc 77bd
000001c0: 8162 ebbd c380 193d fd86 113d d02a 803d
000001d0: 4f66 c0bd 1f1f f3bd 8147 273d 05ed d13d
000001e0: fa15 d43d b03c fbbd 3976 ddbc 9e2a 813d
000001f0: 0169 ba3c 03b9 1dbd 930a 1f3e dd9a 063e
00000200: fbea e2bd 5187 ca3c bd7a dd3d e75a 7e3c
00000210: e160 ca3d 89b0 9abd 8418 07bd 17f5 963d
00000220: 0534 95bd 70f1 e8bd 7840 6e3c 2cf5 f7bd
00000230: c0b4 593d b0aa 23be 708e d93d c4d2 3abd
00000240: 99a2 aebd 4902 ee3d fad4 8cbc 84d8 bf3d
00000250: 3bc2 073e 13f4 0b3e 6dda 593d ac55 9f3d
00000260: 06ca 793d e519 343d 1aae f3bd 1054 1c3d
00000270: b06a dc3d f428 78bd eeb8 033c ec99 4cbd
00000280: 9ef2 d43d 550a a3bd ed67 1a3e a25e 253e
00000290: 0744 e1bc 2f6a c63d a6f0 c73d ed8f f03d
000002a0: 45e0 30bb d9e4 ecbd 427a 00be 0342 113d
000002b0: 0663 943d 89b4 c3bd 2b44 e63d 76b4 813d
000002c0: d4a8 47bd 1e02 c1bd b557 b93c 097d 643c
000002d0: ed79 63bd ce71 463d 898e f23d 35aa 643d
000002e0: 23f9 f3bd 84e4 ffbd d4eb c7bc 5802 f53d
000002f0: b3f8 03be 7717 f53d 5f7c 80bd bee0 013e
00000300: 7615 23bc 87ad 8d3a a527 58bd 3acb edbc
00000310: 3c8d 0f3e 097d 87bd bd38 ab3d 5006 e83d
00000320: c5e7 083d ac7b fb3d 1bcd 44bb 02a3 863d
00000330: bcbb edbd 6275 29bd ab88 0a3e cb0e 3b3c
00000340: 013f a73c a100 ba3d 9ec7 86bb 6cfc 023e
00000350: 06ae c73d ef63 a23b c9d3 cd3d b9a2 a93c
00000360: bda6 67bc 1108 d1bd 5010 8f3b d150 7f3d
00000370: 8cf5 debc 7a31 0a3e a4f8 ccbd 500f a83c
00000380: 4a1c b1bd 73eb 26bd adc6 0bbd eaae 02bc
00000390: 0551 0abd 5c7f 813b 3a2d 05be 8335 d23d
000003a0: 60ce bd3d 3f92 c8bd 02f5 9bbd 5410 a33d
000003b0: 66c0 af3d 88fb 9a3d 07cd f8bd 580e 0fbe
000003c0: f851 833d 0b0c e73d 7eab 10bd 3782 803d
000003d0: 82c4 603d bda3 c13d 98ce 1d3d 8266 13bd
000003e0: 9b67 eebd 0bce f53d 5b29 23bd 766c 833c
000003f0: ae18 ddbd 64eb f43d a5ef ac3d 38f8 093e
0.12809646 0.028364753 -0.1087082 0.038693853 -0.03598718 0.15157871 0.015175309 0.13570032
0.13794857 0.010348146 0.012211605 0.06976436 -0.10340949 -0.14087269 -0.09695629 -0.10561739
-0.1223731 0.040200997 0.03720129 0.13565172 0.055689793 -0.016377566 0.0649501 -0.061083954
-0.0048005464 0.109066315 0.045729093 -0.011679633 0.049428765 -0.05749267 0.06348029 -0.09910437
0.06925096 -0.102121614 -0.02419075 -0.1108013 0.060077954 -0.07999372 0.08446252 -0.11479831
0.06974627 -0.1525538 0.0015645392 0.05785039 0.0046352483 -0.079001136 0.12661451 -0.051497042
-0.02925337 0.1437553 0.08793852 0.07975201 -0.13531657 -0.11897066 -0.01616714 0.13328716
-0.08306569 0.003655047 -0.10874733 0.07089886 0.14478098 -0.14969617 0.13391326 0.0026860107
-0.0570664 -0.15713605 0.120861076 0.11777074 0.053221215 -0.0008644777 -0.09014822 -0.030941157
-0.09996113 -0.0043845726 -0.043118052 0.037296332 -0.10537328 0.15241432 0.14665475 -0.0080757635
0.033273418 0.080871865 -0.06866653 0.15428603 -0.04557605 -0.09323543 -0.0214136 -0.051459793
-0.13002178 0.106916234 0.0922744 0.032174528 0.05802727 0.07538903 -0.07191578 0.020724304
-0.026089707 0.0350893 -0.0558166 0.15500185 -0.07048078 0.1461132 -0.047067553 0.08626758
-0.06605534 0.10911134 -0.0017276492 0.09486029 0.015397526 -0.06312617 0.10164531 -0.06051334
-0.114933975 0.037476312 0.035529125 0.06258166 -0.09394514 -0.1187117 0.040839676 0.10250286
0.10355754 -0.122674346 -0.027033912 0.06306957 0.022755148 -0.03850652 0.15531377 0.13145013
-0.11079975 0.024722727 0.10814426 0.0155246025 0.098817594 -0.07553203 -0.032982364 0.07370966
-0.072853126 -0.113741755 0.014541738 -0.1210731 0.053150892 -0.15983081 0.10622871 -0.045611158
-0.08527107 0.116215296 -0.017191399 0.09367469 0.13257687 0.13667326 0.053186823 0.077800125
0.06098368 0.043970007 -0.118984416 0.038166106 0.107625365 -0.06058593 0.008039696 -0.04995148
0.10397838 -0.07960955 0.15078707 0.16149381 -0.027498258 0.09688222 0.09762697 0.11746202
-0.0026989144 -0.11567087 -0.12546638 0.035463344 0.0724545 -0.09555919 0.11243471 0.06333248
-0.04874499 -0.09424232 0.02262483 0.013945826 -0.0555362 0.048448376 0.11843593 0.055826385
-0.119127534 -0.12494758 -0.024404444 0.11963338 -0.1288784 0.11967366 -0.06273722 0.12683389
-0.009953847 0.0010809161 -0.052772183 -0.02902757 0.1401872 -0.066156454 0.08360431 0.11329329
0.033424158 0.12279448 -0.003002948 0.0657406 -0.11608073 -0.04137171 0.13528697 0.011417101
0.020415785 0.09082151 -0.0041131517 0.12791604 0.09749989 0.0049557607 0.100501604 0.020707475
-0.014138875 -0.10206617 0.0043659583 0.062332932 -0.027216695 0.13495436 -0.10008362 0.020515114
-0.08647974 -0.040751886 -0.03412502 -0.007976273 -0.033768672 0.00395195 -0.13005534 0.10264113
0.092678785 -0.09793519 -0.07615091 0.07962099 0.08581619 0.07567507 -0.12148481 -0.13970315
0.06412119 0.11281594 -0.035319798 0.062748365 0.054874904 0.09455059 0.0385271 -0.03598643
-0.11640855 0.1200219 -0.03983436 0.01604293 -0.10795723 0.1195896 0.08444146 0.13473594

conv_0.bias f4 [128]
00000000: 574f 133c 1c5c 013c fcb6 1ebc 5079 3fbc
00000010: 55b3 8aba ba8c 273c d628 36bc f5c9 05bc
00000020: 541b 18bc af37 113c 5515 a1bb 56df e73b
00000030: 9c6b 383c 924c 12bc 643a 1abc 4e1a 323c
00000040: 151d f0bb 6575 f5ba 364c 0fbc 60c1 103c
00000050: d1b0 1fbc 98fb 7bbb 7b07 3c3c 9cc3 4f3c
00000060: 6839 6cbb 7598 14bc 47b7 c93b e285 ecba
00000070: 8fae 1c3c b5e8 19bc 8781 0a3c 7c96 b9bb
00000080: d478 003c dbc0 2e3c c368 ab38 f7a0 253c
00000090: 183e 423c 191a 493c d4bd 0e3c 6e5b 1ebc
000000a0: c227 95bb a486 b1bb cb8d 393c ad57 c8bb
000000b0: 5a33 1dbc f917 143c 941a 3f3c a7e9 0ebc
000000c0: dbfb 0bbc 4c07 14bc a9fa 2bbc ecd3 0b3c
000000d0: 8b69 15bc 69c2 0dbc cc2c 183c a06a 213c
000000e0: b34a 473c 9b35 0cbc 54af 013c 3951 183c
000000f0: cbac 2a3c 1caf 24bc 65e6 a53b 8faf 9e3b
00000100: 6a9d bdbb 6c10 0dbc 16bd 393c 0fbb c93b
00000110: 6c9c d9ba 5a9d 32bc 36c1 d6bb 0ccf 64bb
00000120: 4c33 2a3c 1426 18bc 2783 dd3b ec5f 21bb
00000130: b1c0 f9ba 97d9 0c3c 89f9 463c f27f 1dbc
00000140: e742 b53b 6bf3 863b 351d 363c 5c58 383c
00000150: d098 5dbb accf 04bb 0f99 413c 0173 173c
00000160: be40 223c 07d4 5abb e0c8 2abc 4ddc 0bbc
00000170: f103 72ba 77f0 de3b c61b bcbb d9da 33bc
00000180: b6bf 1f3c 7017 dd3b ee89 1f3c c863 1e3c
00000190: 5386 483c 71fa 0f3c 1c03 193c eed9 573b
000001a0: ef68 243c 1dbc 00bb d553 603b 789b 2a3c
000001b0: addf 35bc 6a53 1dbc a82b 263c 5b97 2f3c
000001c0: 5065 393c 34b4 1b3c 1500 a6bb e67e c63b
000001d0: 7ed9 1ebc 998d 183c 6faa 29bc 3856 193c
000001e0: 9868 0ebb 545a 3ebc 734d 0d3c 09e1 41bb
000001f0: 3c8d f239 a614 1b3c 39b7 273c b456 dcbb
0.008991084 0.007895496 -0.009687182 -0.011686638 -0.001058201 0.010226423 -0.0111181345 -0.008165826
-0.009283859 0.008863374 -0.004915873 0.0070761843 0.011256125 -0.008929389 -0.0094133355 0.010870529
-0.0073276856 -0.0018727003 -0.008746197 0.008835167 -0.009746746 -0.0038449522 0.011476393 0.012680914
-0.003604496 -0.009069552 0.0061558816 -0.0018045271 0.009563102 -0.009393861 0.008453733 -0.005663691
0.007841308 0.0106660975 8.173429e-05 0.010109178 0.011855625 0.012274289 0.008712251 -0.009665353
-0.0045518586 -0.0054176617 0.01132531 -0.0061139674 -0.009594763 0.009038919 0.011664052 -0.008722699
-0.008543934 -0.009034943 -0.010496774 0.008534413 -0.009119402 -0.008652308 0.009288024 0.009852082
0.012163806 -0.008557702 0.007915337 0.009296709 0.010417174 -0.010051515 0.0050628656 0.0048427056
-0.0057865875 -0.008609872 0.0113365855 0.0061563323 -0.0016602403 -0.010901773 -0.0065537943 -0.0034913449
0.010388207 -0.009286422 0.0067600193 -0.0024623824 -0.0019054619 0.008596799 0.012144455 -0.009613024
0.005531657 0.004118373 0.011115362 0.011251535 -0.0033813007 -0.0020265384 0.011816277 0.009243728
0.009903131 -0.0033390538 -0.010423869 -0.0085364105 -0.00092321547 0.006803568 -0.0057406155 -0.01097747
0.009750297 0.0067471787 0.009737475 0.009667344 0.012239057 0.008787737 0.00933912 0.0032936293
0.010034784 -0.0019643374 0.0034229655 0.010413043 -0.011100692 -0.009602407 0.010142244 0.010717238
0.011315659 0.009503413 -0.0050659277 0.006057608 -0.009695409 0.009311103 -0.010355576 0.009358935
-0.0021729823 -0.011618216 0.008624422 -0.0029583594 0.00046263065 0.009465372 0.010236555 -0.006724203

layers.0.weight f4 [128, 128]
00000000: 6231 fe3d dc59 d83d c54a a0bd b607 e7bd
00000010: 3c18 edbd b973 fbbd 8905 8ebd 8f30 9dbd
00000020: a03e 773d 74a7 603c 0974 453d ab56 9cbc
00000030: e7ad ee3c e604 1a3e 5649 ebbc 9a12 d5bc
00000040: 14c8 17be f211 ed3d aba9 ef3d ecaf 443c
00000050: d7ec 8f3d c3f2 05be bf9a ee3d de14 19be
00000060: 76e3 fabc 5265 a2bd f885 b2bc 0bf7 1a3d
00000070: 1d58 643c 7419 a2bd 3af4 0ebd c12c 143e
00000080: 7c0d c4bd 2a6a cabc e90f e23c f0d9 08be
00000090: 9785 7c3d c1e5 ffbd e856 0e3e 6205 fdbd
000000a0: 96ab ca3d 8015 593d 54ad f6bd d1d4 213e
000000b0: 6eff 88bd 9e4d f5bd d2b4 b03b bff0 a33c
000000c0: 037b ed3d f52a 04be d983 19bd 8016 ecbd
000000d0: 98ab 1b3e c56e 743d 29bc 983d 300c 063e
000000e0: b535 98bd 37c0 d93d eb29 92bb aa89 f2ba
000000f0: 0dad bfbd e8fc dabd e753 9d3d 4b78 17be
00000100: 05b4 273d 3555 ab3c 3d19 f63d ddc0 e13c
00000110: 4e56 bbbd c11b 0ebe dc64 0c3e 8ea1 df3d
00000120: 9c1e 7cbd bf73 36bd 7ed8 83bd f586 b43d
00000130: 39ad 983d 3b5f c7bd af37 d03d 7422 b7bd
00000140: 7edd 43bd c5ac 10be b622 f33d cd2f a2bd
00000150: d59e c5bd e74c 0cbd 9871 a6bd 51cb 09b9
00000160: 9652 07bd 8ce0 b4bd 7640 853a 3418 98bd
00000170: 678c 23bd c05d 0bbe c37d 67bd fde1 cabd
00000180: 7b08 a93b b5da c2bc 3681 0ebe c238 f7bd
00000190: 0332 803d 10cd 843d 7577 3a3c dd17 febd
000001a0: 9f49 e73d 2a50 c7bc 10c1 1dbc 2804 a0bd
000001b0: 0234 20bd 89dd acbd df04 b23d deae 3bbd
000001c0: d9bc 933c bbcb ea3d d82f 10bd cc0f a03d
000001d0: 8998 ebbd b6a6 44bc b6bc bbbd 17c2 0ebd
000001e0: 9b32 adbd e342 12be 10e4 703a fd60 983d
000001f0: 1a4d ac3b edde 1e3e 0e3f dfbc b087 e5bc
00000200: 505c d43c c3d7 a83b c015 6c3d 816e 0b3c
00000210: 1da4 fdbc 545e 1bbc 4b2e d3bc 85d2 19bd
00000220: bd7f f53d f733 42bd ed2f bbbc bd48 073e
00000230: fefc f6bd 8b1e 5c3d b450 d6bc 52c8 0b3e
00000240: c8c7 77bd 61f1 043e 09b5 9d3d 02ff 10bd
00000250: 9bda cebd 972b cb3d e823 9bbd 1c66 0e3e
00000260: 7f74 683c ccf1 033e 7cb2 1b3e 9e46 0c3e
00000270: 364f bf3d e465 c4bd a77c cfbd 09a4 be3d
00000280: 4b50 a1bd ef84 763d 47e5 f7bc 3fba 123c
00000290: e336 ab3c 31de 0c3e ad0f 043e 8de7 aebc
000002a0: 9729 3cbb 57c1 8c3d c9d8 4b3c 450f 0c3d
000002b0: b03b 143e 6a67 fabd 68b5 b3bd e18f 053e
000002c0: f069 063c 3d31 9f3d a7e5 933d 3d02 76bd
000002d0: a3c6 aa3d 6b3c 1a3e 8c3a c6bd bb5c 7d3d
000002e0: 2df6 68ba d01a 2ebd 8fd5 783a 6eab a9bd
000002f0: 80b8 e73c a4b1 df3d 0a6f 04be e8a1 5e3b
00000300: 8f84 b4bd 275c 0fbe 6684 d53d deea c63d
00000310: 0e7f 23be 0eae 21be 40f8 e3bd e9d4 2d3d
00000320: d947 e7bd 68d2 fbbd e63e abbd 996d d8bd
00000330: fd77 203e 7ffc a3bc ca7e 503d 6db2 cabd
00000340: 2e99 273d 17e9 b43a a05e c6bd acc7 09bd
00000350: 668b a3bd 883b 973d 4d16 fdbd ba8c eb3d
00000360: 3af5 223d e016 003d 8bc9 58bd d86b 293d
00000370: 874e 923c 4779 8a3d 2e06 103c 2061 083e
00000380: 16eb 853d 289d 75bd daa3 e7bd f6a7 8f3d
00000390: af1d d13d a475 153c 3d35 133e ac8f abbc
000003a0: bb08 ab3d 525e 0e3e 5179 97bd 1c1e bebd
000003b0: dfb5 1e3e 60a3 acbd 8053 e23d a5ed aa3d
000003c0: 20fb 963d 68e6 443d ac40 aa3d 28be f13d
000003d0: cdfb 64bd 3816 07be 46a0 743d d3ed 46bd
000003e0: 6418 aebc ce73 a43c fb6e 723d 9d18 e7bc
000003f0: c7b3 4a3b 588d d83c 57e4 dbbc 9c17 3e3d
0.12411763 0.10564014 -0.07826761 -0.112807676 -0.11576888 -0.12277932 -0.069346495 -0.076752774
0.06036246 0.013711799 0.048206363 -0.019084295 0.029135657 0.15040931 -0.028721493 -0.026009846
-0.14822417 0.115756884 0.117022835 0.012004834 0.070275955 -0.13080887 0.11650609 -0.14949366
-0.03062604 -0.079294816 -0.021792397 0.037833255 0.0139370235 -0.07915011 -0.03490088 0.14470197
-0.095728844 -0.024708826 0.027595477 -0.13364387 0.06165084 -0.12494994 0.1390034 -0.12354542
0.09896009 0.05299902 -0.120447785 0.1580384 -0.06689344 -0.11977695 0.005392649 0.020012258
0.11595728 -0.12907012 -0.037479255 -0.11527729 0.15202177 0.05967595 0.07457764 0.13090587
-0.07432119 0.10632365 -0.0044605634 -0.0018504162 -0.09359179 -0.10692769 0.07682019 -0.14791982
0.040943164 0.020914653 0.120165326 0.027557785 -0.09147321 -0.13877775 0.1371035 0.10919486
-0.06155263 -0.044543978 -0.06437777 0.088148035 0.074549146 -0.09734961 0.10166871 -0.08942118
-0.047818653 -0.14128406 0.11871855 -0.079192735 -0.096494354 -0.034253027 -0.08127135 -0.0001314108
-0.033037744 -0.088318914 0.0010166306 -0.074264914 -0.03992882 -0.13609982 -0.05651642 -0.09906385
0.0051584817 -0.023785928 -0.13916478 -0.120713726 0.06259539 0.06484425 0.01138102 -0.12406895
0.11293339 -0.024330217 -0.009628549 -0.07813293 -0.0391121 -0.08440692 0.08692335 -0.045821063
0.018034386 0.1146464 -0.035201877 0.07815513 -0.11503703 -0.012002638 -0.09166853 -0.034853067
-0.08456918 -0.14283328 0.00091892574 0.07440374 0.0052582147 0.15514727 -0.027251747 -0.028018802
0.025922924 0.005152674 0.05763793 0.008510233 -0.030962044 -0.009482939 -0.02577891 -0.037554283
0.11987255 -0.04741284 -0.022850001 0.13211341 -0.12059973 0.053740066 -0.02616153 0.13650635
-0.06049326 0.12982704 0.07700545 -0.035399444 -0.101002894 0.099204235 -0.07575208 0.13906139
0.014187931 0.12885207 0.15204805 0.13698813 0.0934128 -0.095897466 -0.101311974 0.09308631
-0.07876643 0.06018537 -0.030260695 0.008955537 0.020900195 0.13756634 0.12896605 -0.021350646
-0.0028711313 0.06872814 0.012441822 0.03419425 0.14475894 -0.12226756 -0.08774835 0.13043167
0.008203968 0.07773063 0.07221537 -0.06006073 0.08338668 0.1506211 -0.09679136 0.061856013
-0.00088867807 -0.04250604 0.0009492272 -0.08284651 0.028286219 0.10922554 -0.12932983 0.0033971015
-0.08814346 -0.13999997 0.104256436 0.09712766 -0.15966436 -0.15789053 -0.11131334 0.042439375
-0.11293001 -0.12295991 -0.08361606 -0.10567779 0.15670772 -0.02001786 0.050902165 -0.09897313
0.040917568 0.0013802376 -0.09686017 -0.033637688 -0.079855725 0.073844016 -0.12357769 0.11501451
0.039784648 0.031271815 -0.05292658 0.041362613 0.01785971 0.06761413 0.008790536 0.133183
0.0653898 -0.05996433 -0.11310549 0.07014458 0.1021074 0.009122286 0.14375778 -0.020942532
0.083512746 0.13903168 -0.07396186 -0.09283087 0.15499066 -0.08429599 0.110510826 0.08346108
0.07372117 0.048071295 0.083131164 0.118038476 -0.0559042 -0.1319207 0.05972316 -0.04856665
-0.021251865 0.020074751 0.05918787 -0.028209979 0.003092991 0.026434585 -0.02684228 0.046409234

layers.0.bias f4 [128]
00000000: adef 15bc 2082 0d3c 93aa 16bc 8b3d 163c
00000010: 87f9 a7bb f206 18bc d305 163c 51c1 17bc
00000020: ef6b 193c 1e40 053c 24c4 0b3c 7e16 fb3b
00000030: b760 4dbc b99a a13b 5a42 16bc 3d25 293c
00000040: 6cee 15bc 6905 17bc 9f10 113c 7669 2abc
00000050: 409f 103c 3d78 0f3c e0ed 193c 059d 18bc
00000060: 85bd 103c 7350 04bc c278 1a3c d7e4 17bc
00000070: 561c 103c 940b 10bc 7648 f8bb a455 143c
00000080: df3f 16bc e41b 0dbc a73e 213c 2da4 0ebc
00000090: b921 14bc 17a9 0fbc d9a3 173c 9ad7 093c
000000a0: 50af 153c 3cd3 34bc cd66 11bc aad3 273c
000000b0: 1f85 153c 87b8 1cbc d2b1 11bc 670b 0fbc
000000c0: c09a 153c 3189 0ebc bf33 15bc 6c36 0c3c
000000d0: 1601 163c cd02 403c 6871 21bc fbf8 143c
000000e0: 56df 0c3c 3add f7bb 55c6 0fbc 7fcc 0cbc
000000f0: 584f 173c a066 16bc 8b86 183c 2bc9 a4bb
00000100: 446a 3cbc 4614 17bc 46ef 163c b668 0ebc
00000110: d32c 29bc c842 15bc c28f 14bc e474 193c
00000120: b708 153c 247e 0f3c c913 4e3c c291 163c
00000130: 6f72 2e3c 1ccf 0c3c 39ba 12bc 66f8 1bbc
00000140: dd16 17bc c5a9 e03b cf71 0e3c 197c 1ebc
00000150: 3ac8 1c3c 3ed7 b43b 6a96 1cbc 08c4 0dbc
00000160: 1486 173c bf50 19bc acf0 163c a9cb 0f3c
00000170: 01f3 253c 762e 173c 50df 173c f6b9 123c
00000180: a4ed 08bc be2e 11bc 0d23 173c 2830 133c
00000190: f9c1 b5ba 868b 163c d591 193c 9336 0bbc
000001a0: 8bc3 163c af5b 1dbc 0a54 163c 293e 16bc
000001b0: 2e33 173c 27b1 0f3c eaee 193c 6041 0b3c
000001c0: 0317 0a3c 52c4 0f3c c8eb 0ebc 4a63 16bc
000001d0: 2cff 1cbc fdd1 103c bd79 10bc 58c1 113c
000001e0: 70ba 17bc 821d 0f3c 0734 16bc 7bce 153c
000001f0: 1aba 15bc a210 0e3c 3262 10bc 421b 24bc
-0.009151381 0.008636981 -0.0091959415 0.009169946 -0.0051261815 -0.009279 0.009156662 -0.009262399
0.009364112 0.0081329625 0.00853065 0.0076625934 -0.012535266 0.0049317745 -0.009171093 0.01032382
-0.0091510825 -0.0092175985 0.00885406 -0.01040112 0.008827031 0.008756694 0.009395093 -0.00931478
0.0088342475 -0.008075821 0.009428205 -0.009270868 0.008795818 -0.008791823 -0.0075769974 0.009053621
-0.0091705015 -0.008612607 0.009841598 -0.008706135 -0.009041243 -0.0087683415 0.009255373 0.00841322
0.009136036 -0.01103669 -0.008874607 0.010243336 0.009125977 -0.009565479 -0.008892493 -0.008730746
0.009131134 -0.008699701 -0.0091065755 0.008557897 0.009155532 0.011719418 -0.009853698 0.009092565
0.008598169 -0.007564214 -0.008775313 -0.008593678 0.009235226 -0.009179741 0.009309421 -0.005028864
-0.011499945 -0.009221142 0.009212321 -0.008691957 -0.010325628 -0.00911016 -0.009067478 0.009366248
0.009096316 0.008758102 0.012577959 0.009190025 0.0106474 0.008594301 -0.008955532 -0.009519672
-0.00922176 0.0068561756 0.008694126 -0.009673142 0.009569222 0.005518823 -0.009557346 -0.0086526945
0.009248275 -0.00935763 0.009212654 0.008776584 0.010128737 0.009227386 0.00926955 0.008955469
-0.008357439 -0.008861242 0.009224665 0.008983649 -0.0013867012 0.009188538 0.009373148 -0.008496898
0.0092018945 -0.009604379 0.00917531 -0.009170094 0.009228511 0.008770264 0.00939534 0.008499473
0.008428338 0.008774834 -0.008723207 -0.009178946 -0.009582322 0.008839128 -0.008818087 0.008896194
-0.009260759 0.008735063 -0.009167678 0.009143467 -0.009138608 0.008670958 -0.008812474 -0.010016264

predict.weight f4 [1, 128]
00000000: 66bd bdbd ddbc c43c e469 81bd 3cf6 a13d
00000010: d2f0 f839 6ed7 6ebd e3db ca3d caab 7ebd
00000020: f17f 393d 5978 583c fbdb ea3c dc54 b93b
00000030: ec3e 50bc 8a71 bc3b 8d4e 9ebd ec5a a93c
00000040: a917 94bd 1ef5 88bd 3922 9a3d 7fa1 8dbc
00000050: 328d 893d f8ff 913d f5a2 153d 3dc5 42bd
00000060: f94c a33d ee5c b8bb a5ec 163d bf8e 67bd
00000070: e076 9c3d 20b7 48bd 190e 0abc 2e56 a03d
00000080: 231b 9fbd 9964 c1bc bc74 bc3c 13a7 03bd
00000090: 4fe8 7fbd dd7a 8fbd 86d2 3d3d b059 3e3c
000000a0: 6322 9c3d 8858 5abc f33b 86bc 55a0 803c
000000b0: 9e5c be3d e80c eebc 3bc9 f7bc 8afe 56bd
000000c0: c7ee 913d 053a 4dbd dc64 9bbd 938f e83c
000000d0: c7a5 b03d 5489 163c dee5 bcbc 470f c53d
000000e0: 2b21 ce3c 43cc b5bb 565e 95bd ada8 c7bc
000000f0: c996 4e3d 000b a3bd 3844 7e3d 0e8b bcbb
00000100: 537c 1fbc 2948 59bd 4d92 613d 591e 38bd
00000110: b5c1 89bc d0fb bcbd 67e1 bcbd 47f5 483d
00000120: 2a98 743d 927f 393d 4f83 5e3c cbf2 9c3d
00000130: fad4 813c 2daf f33c 58e0 f7bc 82d9 01bd
00000140: 4a76 87bd ba4c 413b e138 723d c4d4 d3bc
00000150: 8c3c 1c3d 1da9 1139 e4dd eebc 2ed9 dbbc
00000160: f9d3 673d 34ab 3dbd 6a78 963d 838c 953d
00000170: 7ffd 913c 3792 5b3d 3e26 503d b6e5 b43d
00000180: 3d86 87bc 2870 9abd 1354 623d 8372 ba3d
00000190: 0a70 353b 19a8 a43d 2a9f 0e3d 696a d0bc
000001a0: 4d8f 8c3d 3d69 8bbc 393a 873d 6fe5 97bd
000001b0: 9f87 6e3d ff94 8f3d 023b 703c 00fc ba3c
000001c0: c9b9 8b3c e95b 933d 0f22 0bbd a91c 84bd
000001d0: af67 08bd 4fd6 f73c ff8a 95bd f50e 833d
000001e0: 66c3 89bd cbd6 2e3d 269f a5bd 2f50 8a3d
000001f0: b337 a5bd 95ae 0c3d 05cf 02bd 99e3 a0bc
-0.092646405 0.024015838 -0.06319025 0.079082936 0.0004748167 -0.05831092 0.09905221 -0.06217555
0.04528803 0.013212287 0.028669348 0.005655868 -0.012710314 0.0057508396 -0.07729826 0.020673238
-0.07231075 -0.066873774 0.07526059 -0.017288921 0.06716384 0.071289 0.03653236 -0.047551382
0.07973666 -0.0056263125 0.036846776 -0.056532618 0.07639861 -0.049002767 -0.008426213 0.078289375
-0.07768848 -0.023607539 0.023004882 -0.032141756 -0.062477406 -0.07005856 0.04634335 0.011618063
0.07623746 -0.013326772 -0.016386008 0.015701452 0.09295009 -0.029058889 -0.030247321 -0.05248884
0.07125621 -0.05010416 -0.07587597 0.028388774 0.086253695 0.009188015 -0.023058828 0.096220545
0.0251623 -0.0055480315 -0.07293384 -0.024372423 0.05043677 -0.079610825 0.062076777 -0.0057538813
-0.009734231 -0.053047333 0.055071164 -0.044950817 -0.016816 -0.09227717 -0.092226796 0.04906204
0.059715427 0.045287676 0.013581111 0.076634966 0.015848625 0.029746616 -0.030258343 -0.031701572
-0.06614359 0.0029495195 0.059136275 -0.02585829 0.03814368 0.00013891277 -0.02915854 -0.026836958
0.056598637 -0.04630585 0.07347186 0.07302191 0.017821072 0.05360624 0.05081772 0.088328764
-0.016543502 -0.07540923 0.05525596 0.091038726 0.0027685189 0.080398746 0.03481976 -0.025441365
0.0686327 -0.017017955 0.06602902 -0.07416808 0.058234807 0.070108406 0.014662506 0.022825241
0.017056363 0.07195265 -0.033968028 -0.06450779 -0.033302005 0.030253557 -0.07301902 0.06399337
-0.067267224 0.04268531 -0.08086996 0.06753575 -0.080672644 0.034346182 -0.03193571 -0.019639777
