PERGAT_embbedding/data/emb/models/model_dim128_lay2_epo30.pth (torch, 137088 bytes, 7 tensors)

linear.weight f4 [128, 1]
000000 c0 1c 06 3f ec b3 43 bf 00 4d 9d be b8 00 08 3e
       0.5238762 -0.76446414 -0.3072281 0.13281524
000010 06 01 11 3f 40 e7 d2 bd d0 e1 eb bd 90 b5 34 3e
       0.56642187 -0.10298014 -0.1151768 0.17647386
000020 00 ea a1 3c d6 a7 7f 3f 70 32 99 3e 54 48 03 3f
       0.0197649 0.9986547 0.29921293 0.5128224
000030 40 fe 67 3e 4e c2 6b bf 64 54 26 3f a0 ac 3d be
       0.22655582 -0.9209336 0.6497252 -0.18522882
000040 54 c1 ad be 92 5a 7f bf 5e 12 49 bf 5e 3a 44 bf
       -0.3393656 -0.99747574 -0.7854365 -0.7665156
000050 52 06 6c bf 14 1a a0 3e 80 1b 3f 3e 80 66 64 3f
       -0.92197144 0.31269896 0.18662834 0.892189
000060 1a 6b 58 bf f6 25 75 bf f4 c2 e0 3e 74 18 e7 be
       -0.84538424 -0.9576105 0.43898737 -0.45135844
000070 f8 5c fb be 48 0d 34 3e 64 40 96 3e 28 12 1a be
       -0.49094367 0.17583191 0.29346 -0.15045989
000080 2c b2 ba be ac fc 3f bf 44 c1 70 3f 5e b8 6b 3f
       -0.3646406 -0.7499492 0.940449 0.92078197
000090 2c 66 b7 3e a0 97 9c 3d 5a 97 2a 3f c0 b9 ef 3d
       0.35820138 0.07646108 0.66637194 0.11705351
0000a0 b2 bb 15 3f a0 e6 38 3e 50 b9 55 3f 88 92 f0 3e
       0.58489525 0.18056726 0.8348589 0.46986794
0000b0 a8 1c 24 3f c8 38 30 be b0 c2 cd 3d 0c 43 18 3f
       0.64106226 -0.1720916 0.10046899 0.59477305
0000c0 58 d1 59 3f 32 4d 0b bf ce dd 6a 3f d8 39 80 be
       0.8508506 -0.54414666 0.917447 -0.2504413
0000d0 7c a0 09 3f 90 e1 42 bf 86 dd 11 bf 46 a1 43 bf
       0.53760505 -0.7612543 -0.5697864 -0.7641796
0000e0 a0 bc a7 3e 88 1d d0 3e c6 fd 31 bf 46 ba 24 3f
       0.32761097 0.4064753 -0.6952785 0.6434673
0000f0 44 2f f9 3e 30 1b 70 3f 9c 75 71 3f 24 f8 ad be
       0.48668873 0.93791485 0.9432008 -0.3397838
000100 26 ea 17 3f ec 73 b2 be a0 5d 67 bf 4c 56 a4 3e
       0.5934166 -0.34854066 -0.90377235 0.3209709
000110 08 9a 74 bf b0 5a a2 3e b8 35 6a bf 70 20 7d 3e
       -0.95547533 0.31709814 -0.9148822 0.24719405
000120 98 a9 1f 3e 9a f9 71 bf b8 6f 77 be fc 60 84 be
       0.15592039 -0.94521487 -0.24163711 -0.25855243
000130 f8 2e e8 3e 28 3f 7e 3f e0 ee b2 3d 84 a6 9b be
       0.45348334 0.9931512 0.08736968 -0.3040048
000140 bc d2 3d 3f 20 d7 93 3e 2a 03 54 bf a0 9b 0c bd
       0.7414968 0.28875065 -0.8281733 -0.034328103
000150 50 ee 97 3d b6 c8 20 3f 00 1a 1e be 70 f5 f2 3d
       0.074185014 0.6280626 -0.15439606 0.1186322
000160 56 09 0b 3f 10 04 32 bf 88 ae f6 3e 2a 94 04 3f
       0.5431112 -0.6953745 0.48180032 0.5178858
000170 48 72 3b 3e a4 0b 44 bf a8 06 0c bf ac 92 c0 be
       0.18305314 -0.7658026 -0.54697657 -0.37611902
000180 e0 c9 51 bd 88 1e cd be d8 8f 17 be 86 ef 3f bf
       -0.051217914 -0.40062356 -0.14800966 -0.7497486
000190 64 b0 ef be a8 1c 56 bf c4 58 00 bf c8 9c b5 3e
       -0.46814263 -0.83637476 -0.50135446 0.35471177
0001a0 d0 c1 c2 be 68 4c 6c be f0 9d d9 bd 1e 18 17 3f
       -0.38038492 -0.23076022 -0.10625827 0.59021175
0001b0 92 32 63 bf 00 27 62 3c bc f0 49 bf c8 eb 53 bf
       -0.8874904 0.013803244 -0.78882957 -0.8278165
0001c0 56 79 19 3f 96 ff 2b bf 6c 49 c9 3e 70 ae 0a 3e
       0.5995077 -0.6718687 0.3931383 0.13543105
0001d0 b8 aa 37 3e f0 e9 c0 bd 08 78 10 bf 08 67 ef be
       0.17936218 -0.0941962 -0.56433153 -0.46758294
0001e0 ec 41 de 3e 2c 20 cd 3e 2e 14 4d 3f 32 77 2a bf
       0.4340967 0.40063608 0.80108917 -0.6658813
0001f0 10 27 48 3f 1e c0 15 bf 2c 1e 16 bf b6 da 34 3f
       0.78184605 -0.5849627 -0.5863979 0.70646226

linear.bias f4 [128]
000000 d5 4b 70 3f ce bc 9f bd b1 83 75 3f 51 37 a3 bc
       0.9386571 -0.077996835 0.9590407 -0.019923838
000010 04 db 9c be 39 36 b9 be 76 41 31 3f b4 cb 2a bf
       -0.30635846 -0.3617418 0.6924051 -0.66717076
000020 d3 d2 af 3e b6 94 54 3f 8f 84 18 bf 17 3a 9f 3e
       0.34340534 0.83039415 -0.5957727 0.31099007
000030 41 71 1f 3e 3b 64 63 bf 9b 7a 72 be 63 b2 75 bf
       0.15570547 -0.88824815 -0.23679583 -0.9597532
000040 ab c7 de be f0 0e 17 bf 52 5b c4 bd 7e 5b be be
       -0.4351171 -0.5900717 -0.095877305 -0.37179178
000050 e1 0f 1c 3e de 01 69 3f 88 1f 6c bd 94 1d 45 3f
       0.15240432 0.91018474 -0.057647258 0.7699826
000060 ca ce 08 3f 01 9b 46 3f 0e 69 a6 3d 98 44 c5 3e
       0.53440535 0.7758027 0.08125506 0.38528895
000070 36 c8 ac 3e 6e 6c 73 3f b9 55 0f bf 05 f6 00 3e
       0.337465 0.95087326 -0.5599018 0.12593849
000080 1e a1 e3 bd c2 bd 2a bf 37 64 29 3f 89 84 d6 be
       -0.11114715 -0.666958 0.6616854 -0.4189799
000090 36 c7 1d be 06 7c 59 bf a4 fd d1 bc 71 89 c3 be
       -0.15408024 -0.8495487 -0.02563364 -0.38190797
0000a0 83 30 54 3e 85 88 89 be 0f 08 4d 3f 0a e5 73 bf
       0.20721631 -0.2686197 0.8009042 -0.9527136
0000b0 2c c5 40 3f df fc 5a bf 10 21 a4 be a7 9b 44 be
       0.7530086 -0.855421 -0.32056475 -0.19200002
0000c0 df 19 91 bd 52 f9 43 be 52 2c 78 be 34 d0 a8 bd
       -0.07085013 -0.19138077 -0.24235657 -0.082428366
0000d0 f7 13 a4 be 1f d6 58 3f 33 0a fa 3e 3d 4f 4d 3f
       -0.32046482 0.8470172 0.48835906 0.80199033
0000e0 58 32 1b 3f 96 e8 1c 3f c7 86 95 be ee 1c 2a bf
       0.60623693 0.612924 -0.2920439 -0.66450393
0000f0 e5 a1 28 3f 43 54 0a bf bc c7 d9 3e 97 df 2c 3f
       0.6587203 -0.54034823 0.42535198 0.6752867
000100 82 95 9e 3d f3 e8 78 bf ec dd c1 3e 1a 5e f3 3e
       0.0774336 -0.9723045 0.37864625 0.4753273
000110 42 52 59 3f 5b 65 2e 3f 83 1e 3c bf 79 54 53 bf
       0.8489114 0.68123406 -0.7348406 -0.8255077
000120 15 84 9a bd 43 5f f3 3e 6a aa 22 3f 17 8d 6e bf
       -0.07544724 0.47533616 0.6354128 -0.93184036
000130 1c c7 21 bf 7f fb 3c 3f 01 ef ed 3e 77 8b c7 3d
       -0.6319444 0.7382125 0.46471408 0.09743398
000140 3e 88 81 3e f7 0c 00 bc 4b 51 c2 be 88 a1 16 3e
       0.25299257 -0.007815591 -0.37952647 0.14710057
000150 f4 13 7d be 9d 12 27 3f 04 ab 97 3e 1e 89 ad be
       -0.24714643 0.65262777 0.29622662 -0.33893675
000160 02 a8 22 bf ce 98 09 be 5e 75 58 bf 57 50 f9 be
       -0.6353761 -0.13437197 -0.8455409 -0.48694107
000170 6a d4 7a bf e0 58 1a 3f 49 91 78 3f 6a 86 57 be
       -0.9798037 0.6029186 0.9709669 -0.21047369
000180 a8 10 4e bf 28 89 10 bf 9f ff 6e 3e 81 d2 4f be
       -0.80494165 -0.56459284 0.23339699 -0.20295145
000190 69 44 36 be 52 84 02 bf 78 01 71 bf ca 09 43 3f
       -0.17799534 -0.50983155 -0.94142866 0.7618681
0001a0 82 c9 30 3c dc a7 8f 3e f6 ba 05 be 52 eb 75 3f
       0.010790231 0.28057754 -0.13059601 0.96062195
0001b0 06 86 0d 3f ab 7f d7 3e 6e ac e4 3e 58 20 12 3f
       0.5528263 0.4208959 0.44662803 0.570806
0001c0 f9 13 51 3f f7 28 27 bf c9 e5 1c 3f ad 7a 90 3d
       0.816711 -0.6529688 0.61288124 0.070546485
0001d0 94 b1 23 bf c1 12 06 3f 9f d7 ec 3e 14 eb 18 bf
       -0.6394284 0.52372366 0.46258256 -0.597337
0001e0 6a af 56 be 87 b1 84 be 0c 2c c6 be f4 9f 69 bf
       -0.20965353 -0.25916693 -0.3870548 -0.91259694
0001f0 8c 31 5e bf 36 23 2a bf ee db db be 05 7d 53 3f
       -0.8679435 -0.6645998 -0.4294123 0.8261264

conv_0.weight f4 [128, 128]
000000 4a 79 a5 bd 46 e7 50 bb af a0 90 bc 3e d0 d5 3d
       -0.08079775 -0.003187613 -0.017654745 0.1044011
000010 3f 29 b2 bd 53 94 11 3d 4a b0 17 be d3 26 30 bd
       -0.08699273 0.035541844 -0.14813343 -0.043005776
000020 ef 11 6d 3d a1 4b d8 3d 17 41 78 bd 1c de b5 3c
       0.05787843 0.105613 -0.06060895 0.022200637
000030 dd ca 84 3c ca 1e f7 bd f4 93 f2 3d 07 2c 49 bd
       0.016210014 -0.120664194 0.11844626 -0.049114253
000040 15 8f ea 3d 81 1b 10 3e ae 33 17 3e 20 83 18 be
       0.11453072 0.14072992 0.14765808 -0.1489377
000050 7f fd 1a 3d b0 a5 19 be 50 4c 19 3e ef af 0d 3c
       0.03783941 -0.15004611 0.14970517 0.008647903
000060 e5 23 d2 bd 07 5c e3 3d af 16 14 be d0 7d fb 3d
       -0.102607526 0.11101537 -0.14461778 0.12279856
000070 e4 e2 03 be 48 f7 b2 bd d1 a8 c0 bc dc 2b 82 3d
       -0.1287952 -0.087385714 -0.023517998 0.06356022
000080 94 40 a6 bc d1 bf ca bd 67 ff 03 3e 90 f2 e0 bd
       -0.020294465 -0.09899867 0.12890397 -0.10983765
000090 7e bf aa bd 6a dd 72 3d 68 bd 53 bd 94 83 59 bd
       -0.083373055 0.05929319 -0.051694304 -0.053104
0000a0 65 fc b4 bd 53 4f 87 3d a1 7f 4e bd 36 b2 d5 3c
       -0.08837203 0.06606927 -0.050414685 0.026085954
0000b0 c3 6d 16 3e 44 7c ad 3d 92 be a3 3d b2 f0 08 3e
       0.14690308 0.084709674 0.07995333 0.13373068
0000c0 ac 10 98 3d 09 97 d5 3d 29 4b 02 be fb bb 07 be
       0.07425055 0.10429198 -0.12723984 -0.13255303
0000d0 16 dd 44 3d db 0a 0d be 86 e3 02 3e b9 24 f4 bd
       0.048062406 -0.13773672 0.12782106 -0.11921067
0000e0 91 62 6d 3d 03 2c da bd 9e 83 06 3e 44 a7 fd 3d
       0.05795533 -0.10652926 0.13136145 0.12385419
0000f0 8e 5a d2 3c 54 6b 40 bc 19 00 e0 bb 45 54 d1 bc
       0.025677945 -0.011744339 -0.006835949 -0.025552878
000100 82 59 cb bc 65 1a 05 be 15 fc 16 be c9 06 b0 bd
       -0.024822954 -0.1299835 -0.14744599 -0.08595044
000110 7d 81 92 bc e0 1f e9 bd ae f6 1a 3e 2b 70 f5 bc
       -0.01788401 -0.11383033 0.15133163 -0.029960712
000120 3c ef ab bd 05 c7 81 bd 70 7f be 3d 33 1b cd bd
       -0.0839524 -0.06336788 0.093016505 -0.100149535
000130 3f 32 53 3d 7a 8a 98 bd 2b 22 0f be 20 f4 19 39
       0.05156159 -0.07448287 -0.13977878 0.0001468216
000140 c1 ba b9 bc 3d 31 78 bd 9d a6 f3 bd 95 5b 17 be
       -0.022672059 -0.060593832 -0.11897013 -0.1478103
000150 58 99 3e bc 5c fd 0d be 9b eb 17 be b6 0f 97 bd
       -0.01163324 -0.1386618 -0.1483597 -0.073760435
000160 94 16 68 3d e7 57 10 3e d1 87 0c 3e ae c3 da 3c
       0.056662157 0.14096032 0.13723685 0.026704635
000170 20 53 9d 3d ee 77 ce bd aa 09 a4 bd c7 5c 78 bd
       0.076818705 -0.100814685 -0.08009656 -0.060635354
000180 d9 2d 20 bd 20 72 aa bd 03 73 e0 3d 1d d6 b7 3c
       -0.039106224 -0.08322549 0.10959437 0.022440964
000190 2e 94 f0 bd 54 b5 f0 bd e3 d5 f3 bc 7c 6d 7c 3d
       -0.11747013 -0.117533356 -0.029765075 0.06162785
0001a0 44 02 14 3e 40 6b ee bc 5c 05 c4 3d f4 41 4f bd
       0.1445399 -0.029103875 0.09571335 -0.050600007
0001b0 a6 56 19 3e bc 55 9e 3d 80 33 0b 3e a2 df 42 3d
       0.1497446 0.07731196 0.13593864 0.047576554
0001c0 60 18 bd 3b 9d 70 6b 3c 74 e8 bf bd 86 09 d9 bd
       0.005770728 0.014370111 -0.09370509 -0.105975196
0001d0 31 b5 13 3e 47 53 4e 3a 79 cb 10 3e e2 5f 10 be
       0.14424588 0.00078706857 0.14140119 -0.14099076
0001e0 6c 29 3c 3d cc 5b 3e bd 0c 3d 5b 3d e9 35 a4 3d
       0.04593794 -0.046474263 0.053525016 0.08018095
0001f0 ff 73 19 be b4 80 cd bd 99 a9 04 3c 11 dc 18 3e
       -0.14985655 -0.10034314 0.008097076 0.14927699
000200 e2 f7 59 bd 2a 12 82 bd 62 2d ee bd 8a ef 0d 3e
       -0.053214915 -0.06351121 -0.1162975 0.13860908
000210 98 0d f7 3c b3 16 8b 3d a4 6c 05 be 3d fa 9a bc
       0.03015785 0.06791439 -0.13029724 -0.018918151
000220 2c 27 34 bd cb aa dc bd 2a 47 b7 3d a3 f0 40 3d
       -0.04398267 -0.10774764 0.0894912 0.04710449
000230 4c 1f 14 3d f8 83 c6 3d f3 9a bb 3c 84 20 96 bb
       0.03616266 0.0969314 0.022901034 -0.004581513
000240 78 80 0d be 37 89 56 3d 35 73 f0 3d a3 b8 f8 3d
       -0.13818538 0.052376952 0.11740724 0.12144592
000250 93 0d 5f 3b f4 c7 82 3c af fc 35 3d 39 cf de bd
       0.003403519 0.015964486 0.04443043 -0.10879368
000260 79 c6 be 3d 07 68 05 3e 25 f3 93 bd d7 ec cd bd
       0.093151994 0.13027965 -0.072241105 -0.10054939
000270 af 3e bb bd d1 f5 b1 bc 2a 0a 11 3e b6 79 29 bc
       -0.09142815 -0.02172366 0.14164034 -0.01034396
000280 a0 d5 11 3e ac 02 0c bd 79 db 04 be 17 94 d5 bc
       0.14241648 -0.034182236 -0.12974347 -0.026071591
000290 68 3f a5 3d 03 37 02 be 79 b5 72 bd ee 7c 07 be
       0.080687344 -0.12716298 -0.059255097 -0.1323125
0002a0 d4 20 fa bd 0b 32 0e be 7b ea 13 be 5c 83 7a 3d
       -0.12213293 -0.13886277 -0.14444916 0.06116043
0002b0 7f 4c 09 3c f7 d0 da 3d 3b 36 98 3d 81 a5 e5 3d
       0.0083800545 0.10684388 0.07432219 0.11213208
0002c0 40 49 86 3d b3 d3 36 3d b4 25 c8 bd c9 3a d0 3d
       0.0655694 0.044635486 -0.09772816 0.101674624
0002d0 1f 5a 85 bd 1a 71 15 bd 11 2b ad 3d d5 69 16 be
       -0.0651133 -0.036484815 0.0845548 -0.14688809
0002e0 43 b6 e8 3d 55 ed 10 3e 2e ee 02 3e e0 84 13 be
       0.11362889 0.14153035 0.12786171 -0.14406157
0002f0 8d 52 30 bd 73 43 d2 3c 8f 92 09 be 2c 9a 33 3d
       -0.043047477 0.025666928 -0.13434814 0.0438482
000300 60 de d7 3d 40 9b f4 bd 18 4e 95 3d a2 90 e9 3d
       0.105404615 -0.11943674 0.07290286 0.1140454
000310 84 c3 af bd 3c 53 c0 bd 36 cd b4 3d 14 36 77 bd
       -0.085822135 -0.09390876 0.088282034 -0.060354307
000320 08 ef 7b bd 81 00 03 be 08 d4 84 bd 24 21 13 bd
       -0.061507255 -0.12793161 -0.06485754 -0.035920277
000330 e7 dc 7f 3c bf a7 a1 bd cd 25 32 bd 93 4f 03 3d
       0.015616632 -0.07893323 -0.04349308 0.03205831
000340 23 1a 08 be 73 70 da bc 3c 22 bf 3c 27 7f 78 3d
       -0.1329122 -0.026664948 0.023331754 0.060668137
000350 71 aa af bc d1 67 00 3c 02 9d be 3d 89 2d c0 bc
       -0.021443577 0.007837252 0.093072906 -0.023459213
000360 5c f1 cb bd ad 9f 8a bd 87 10 bf bd 24 81 01 3c
       -0.09958145 -0.06768737 -0.09329324 0.007904325
000370 bc 02 0d 3e 4f 67 49 3d 45 51 1b 3c 13 bb cb 3c
       0.13770574 0.04917079 0.009479825 0.024869477
000380 d3 8f c5 3d 03 c8 5c 3d e7 55 8e bb bd 8b 90 3d
       0.09646573 0.053901684 -0.0043437365 0.07057903
000390 28 64 ba bc 89 66 51 3b 8d 77 50 bd e1 e0 58 bc
       -0.022752836 0.0031951985 -0.050895263 -0.013237209
0003a0 0b 2c b6 3c 50 da e5 3d 5f 5f 19 be 94 2e 65 bd
       0.022237798 0.112232804 -0.14977787 -0.055952623
0003b0 16 a4 d4 bd 72 12 13 3e 2a 8b 01 3e 27 a3 94 bd
       -0.103828594 0.14362505 0.12650743 -0.07257681
0003c0 08 08 1c bc 36 30 06 be 58 5b 01 be d1 4a 65 3d
       -0.009523399 -0.13104329 -0.12632501 0.055979554
0003d0 7f 3a a5 3d 6e fc 05 3e 4c 71 69 bc 75 50 4c 3d
       0.08067798 0.13084576 -0.0142482035 0.049881417
0003e0 fe 25 ed 3b 28 4d 11 bd 02 2f a7 bd 77 95 7f 3d
       0.007237195 -0.035473973 -0.08163263 0.0623984
0003f0 38 6d b0 3c 10 58 12 be be b8 e9 bd 78 a2 fe bd
       0.021536455 -0.14291406 -0.1141219 -0.12433332

conv_0.bias f4 [128]
000000 76 f3 37 3b 89 a2 18 bb 1d 6c 3f bb 40 14 19 ba
       0.0028068698 -0.0023290238 -0.0029208728 -0.00058395043
000010 87 21 3d bb 89 5a 37 bb 5a d3 2b 3b 6e 5c 04 b8
       -0.0028859095 -0.0027977547 0.0026218505 -3.1557334e-05
000020 b9 f7 37 3b 50 c8 38 3b 66 3f 2b 3b 86 92 3d 3b
       0.0028071238 0.0028195567 0.0026130318 0.0028926446
000030 95 d0 2e bb 51 28 28 bb a1 1c 3b bb ff 19 3d 3b
       -0.0026674618 -0.0025658796 -0.0028551 0.0028854606
000040 a2 62 30 bb f4 9b 30 3b 50 5e 23 bb 41 04 3c bb
       -0.0026914258 0.0026948424 -0.002492804 -0.002868906
000050 f6 fd 2e 3b d7 6e 30 3b 4f b3 2e 3b d6 64 2e bb
       0.0026701665 0.0026921534 0.002665717 -0.0026610396
000060 50 9b 37 bb fa ee 5d ba e4 7b 06 3b e5 03 31 bb
       -0.0028016157 -0.0008466091 0.0020520622 -0.0027010378
000070 e5 d1 2b bb ab cc 2f 3b 1f a7 2f 3b 15 12 0c bb
       -0.0026217636 0.0026824872 0.0026802493 -0.0021373082
000080 20 43 2e bb 9d af 27 3b d1 e7 3d 3b 2e ce 46 3b
       -0.0026590303 0.0025586851 0.0028977285 0.0030335295
000090 38 47 2e 3b cd 44 48 bb 66 42 39 bb 02 16 3a bb
       0.0026592743 -0.0030558587 -0.0028268336 -0.0028394465
0000a0 7c 37 37 bb e8 2e 29 3b 9d c4 3b 3b 8d 6d 42 bb
       -0.0027956655 0.0025815312 0.0028651126 -0.0029667348
0000b0 70 34 43 3b 54 10 3f 3b 24 e1 30 3b 8d 9f 2c 3b
       0.0029785894 0.002915402 0.0026989663 0.0026340217
0000c0 dd 50 39 3b 09 5c 37 3b 12 bb 21 bb 0a 30 3d 3b
       0.0028276958 0.0027978441 -0.0024678153 0.0028867745
0000d0 2b 4d 83 ba 9f e9 05 3b c0 64 19 3a a2 4d 2e bb
       -0.0010017505 0.0020433438 0.00058515 -0.0026596566
0000e0 7b 8a 2c 3b 52 11 b7 ba b2 cf 27 3b e9 09 3b 3b
       0.0026327658 -0.0013966954 0.0025605974 0.0028539842
0000f0 66 08 59 3a 43 92 27 3b aa 4b 28 3b 38 b5 10 bb
       0.00082791445 0.0025569357 0.0025679865 -0.002208067
000100 a0 8c 2a 3b f4 4a 39 3b 57 a1 2e bb 21 64 4a bb
       0.002602376 0.0028273435 -0.002664646 -0.0030882435
000110 05 83 2b 3b 85 e7 3b 3b 58 27 39 3b 54 0d 43 3b
       0.0026170623 0.0028671932 0.002825221 0.0029762583
000120 41 a6 4c 3b 17 88 3e 3b 26 38 52 bb a4 d9 31 ba
       0.0031227025 0.0029072815 -0.0032076924 -0.0006784445
000130 cc c6 30 bb 40 82 2a bb 73 42 49 3b 62 3f 38 bb
       -0.002697396 -0.0026017576 0.0030709773 -0.002811395
000140 31 b9 4e bb 65 fe 3d 3b c3 76 3e 3b 91 63 2f 3b
       -0.0031543488 0.0028990742 0.0029062487 0.0026762227
000150 bc b5 29 bb d5 23 38 3b 93 34 51 bb 9c b2 43 bb
       -0.0025895676 0.002809753 -0.0031922206 -0.0029861098
000160 46 d2 3a 3b 98 c7 b6 ba 8e cf 2d bb 13 76 24 bb
       0.002850668 -0.0013944982 -0.0026521417 -0.0025094792
000170 f2 c5 25 bb 40 6e 3d 3b 62 cd dd ba 9e 23 39 bb
       -0.0025294987 0.0028904825 -0.0016922171 -0.002824999
000180 f3 74 1e 3b 84 b8 1a 3b 11 ff 38 bb 8a 22 45 3b
       0.0024178594 0.0023608515 -0.0028228203 0.0030080401
000190 b6 02 05 bb e6 06 2a 3b bb 10 3c bb 98 97 d9 3a
       -0.0020295805 0.0025944053 -0.0028696496 0.0016600965
0001a0 62 cd 3c bb e4 96 37 bb d8 7e f9 39 08 8a 36 3b
       -0.002880894 -0.0028013522 0.00047587487 0.002785327
0001b0 b6 9b 25 bb 3b c4 24 bb 15 8a 2e bb bb 86 37 bb
       -0.0025269813 -0.0025141377 -0.0026632596 -0.002800389
0001c0 34 4a 37 bb f6 ff ab ba 9c d9 2c 3b 4e 13 38 bb
       -0.0027967812 -0.0013122547 0.0026374822 -0.0028087678
0001d0 df 03 3b bb b3 71 25 3b 35 fc 47 3b 86 a4 38 bb
       -0.0028536243 0.0025244772 0.0030515317 -0.0028174235
0001e0 d6 b2 37 bb 46 ed 2a 3b 9c 4e 44 bb b8 16 05 bb
       -0.0028030179 0.0026081367 -0.0029954081 -0.002030773
0001f0 03 17 30 bb b6 93 3e bb a9 7e 3b 3b 52 65 29 bb
       -0.0026869185 -0.0029079742 0.002860943 -0.0025847745

layers.0.weight f4 [128, 128]
000000 17 af 71 3d fe 4a b7 bd 34 0a 15 3d a5 93 11 bd
       0.05900487 -0.089498505 0.036386684 -0.035541195
000010 54 71 dc 3c ee 6d 98 3d 11 99 14 be 98 b3 57 bd
       0.026909508 0.074428424 -0.14511515 -0.05266151
000020 c5 30 5e 3b de 61 f5 bc 1c 0b 87 bd d6 67 08 be
       0.003390358 -0.029953893 -0.06593916 -0.1332086
000030 41 59 10 3e 30 dc fb bd 92 53 07 be b8 58 be 3d
       0.14096548 -0.12297857 -0.13215473 0.092942655
000040 a6 e8 bb bd 2b 2a 92 3d be 63 aa 3d 7b 16 1c bc
       -0.091752335 0.07136949 0.083198056 -0.009526844
000050 d3 31 74 bd 25 e9 13 3d f4 9a b9 bd 65 ff 79 3d
       -0.05961783 0.036111016 -0.09062758 0.06103458
000060 27 1a b0 bd 9b 75 f9 3c 96 5f 05 3e 4b 73 71 3d
       -0.08598738 0.030451586 0.13024744 0.058947843
000070 47 21 80 3d b1 2b 43 3d 0b e4 06 3e be c2 7f 3d
       0.06256347 0.04764909 0.13172929 0.06244158
000080 a6 46 ef bd 6b 8b d7 bb 8f b2 b9 bd 28 a6 3f 3d
       -0.11683397 -0.006577899 -0.090672605 0.04678932
000090 0a 17 e5 bc 3c a7 94 3d f0 e1 14 be cf 19 d3 bd
       -0.027965087 0.0725846 -0.14539313 -0.10307657
0000a0 37 4a e2 bd ec f9 89 3d 53 1c 15 3e ff 91 94 3b
       -0.110493116 0.06737122 0.14561586 0.0045340057
0000b0 f4 21 cb bd de b5 2e bc b4 ee 84 3d a2 29 29 3d
       -0.099185854 -0.010663478 0.064908415 0.04129947
0000c0 64 80 09 be a8 d3 f8 3d fd b8 f8 3d 5a be 2e 3d
       -0.13427883 0.12149745 0.12144659 0.042662002
0000d0 51 f6 dd 3c 9d 71 16 3e ff 40 18 be 53 67 e9 3d
       0.027094992 0.14691778 -0.14868544 0.11396661
0000e0 45 65 d4 3d 35 3a f3 bd 87 29 73 bd 2a 71 1f 3e
       0.10370878 -0.118763365 -0.059365775 0.15570512
0000f0 fe 94 0e be 9d 37 8e 3d 93 11 ef 3d 2d 4d c0 bc
       -0.13924024 0.06944201 0.11673274 -0.0234743
000100 ac cb 02 be 3a 19 dc 3d 9a e0 65 3d 6c be cc bc
       -0.12773007 0.10746999 0.0561224 -0.024993144
000110 e8 63 37 3d 61 88 00 be 69 78 34 bc 18 ba 99 3d
       0.044773012 -0.12552024 -0.011015036 0.07506198
000120 26 85 df bd cd 63 fb 3d ea d8 0d 3e 3f 4d 9d 3d
       -0.10914068 0.12274895 0.13852277 0.07680749
000130 3b 29 dc 3d b2 85 01 3d 0d dd 1e be 14 69 93 bd
       0.107500516 0.031621642 -0.15514012 -0.071977764
000140 e3 3c 9c 3c 1f df 3f bd da 7f 5a 3d ca 69 9d 3c
       0.019072002 -0.046843644 0.053344585 0.019215483
000150 70 ff eb 3c 49 21 ce bd 8b 56 f5 3c 47 8b 14 3e
       0.028808326 -0.100649424 0.029948493 0.14506255
000160 64 3b 66 bd b0 ab 01 ba 5d 60 d8 bd 4e 06 d1 bd
       -0.056208983 -0.0004946543 -0.10565255 -0.10206281
000170 8a 55 41 bd 6d 5c 05 3e 79 09 f0 bd 46 6a ba 3d
       -0.047200717 0.13023539 -0.11720557 0.09102301
000180 96 1e b7 bd c2 8e e4 3d 78 81 c7 bd 44 c1 f5 bc
       -0.08941381 0.111600414 -0.09741491 -0.029999383
000190 fb ca 94 bd 9c eb de bd 84 93 a9 bd bd 6c 81 3d
       -0.07265278 -0.10884783 -0.082800895 0.06319568
0001a0 1d d7 75 bd d9 e2 85 3c 99 16 e4 bd 33 94 86 bd
       -0.0600196 0.016343521 -0.11137123 -0.065712355
0001b0 05 98 90 3d 57 13 ff bc d1 3f 44 3d ec 14 9b bb
       0.070602454 -0.031137152 0.047912423 -0.0047327187
0001c0 61 d7 55 bc c8 07 06 ba 34 c8 10 be 23 bf 2d bb
       -0.013051839 -0.0005112854 -0.14138871 -0.0026511631
0001d0 ae 66 07 3e 52 92 73 bd b7 0a 7a bc b3 46 68 3d
       0.13222763 -0.059465714 -0.015261344 0.05670805
0001e0 85 c8 c3 bd 1e 9d f1 bd a6 23 18 3e 7f 9e 0f 3d
       -0.095597304 -0.11797546 0.14857349 0.035063263
0001f0 99 f4 2b bd 31 ff e9 bd bc fa 0e 3d 39 60 ff 3d
       -0.041981313 -0.11425627 0.034907088 0.12469525
000200 ca 1c 13 bd 2a 0c 49 bd e6 a7 0b 3e 8c 2c 0e bd
       -0.035916127 -0.049083866 0.13638267 -0.034710452
000210 60 12 fe bd aa 40 c6 3d 04 ba ef 3d eb 10 08 3e
       -0.124058485 0.096803024 0.117054015 0.13287704
000220 3c 70 a6 3d f0 9a b1 bd d9 c9 9a 3d 07 f0 9b bc
       0.08126876 -0.0867213 0.07558031 -0.019035352
000230 4f e9 5b bd 1d fc 20 bd 6f a6 97 3d 35 8f cb 3d
       -0.053689297 -0.039302934 0.074047916 0.09939424
000240 22 38 11 3e ab c2 fb 3d ff 1b 92 3d e3 26 85 3b
       0.14181569 0.12292989 0.07134246 0.0040634735
000250 8b b6 ff bd a4 6d 0f 3d a9 22 64 3d 38 e6 88 bd
       -0.12485989 0.03501667 0.055697117 -0.06684536
000260 d9 a8 01 3d 90 5b ef bd 73 03 83 3c 90 dd a9 bd
       0.031655166 -0.11687386 0.015992856 -0.08294213
000270 bc ac 0b be 6f aa 4a 3d 1f 01 d6 bd 20 d8 62 bc
       -0.13640112 0.049478944 -0.104494326 -0.0138454735
000280 16 56 12 be a1 92 02 3e a3 5a c4 3d e8 f5 b3 bd
       -0.14290652 0.12751247 0.095876 -0.08787137
000290 9e cc bd bb d3 67 a9 3d 73 18 72 bd b0 c9 db 3b
       -0.0057922145 0.08271756 -0.059105348 0.0067073926
0002a0 b1 93 a2 bd cb 6f ca bd 07 49 ff bd 5b ee 96 bc
       -0.07938326 -0.09884604 -0.12465101 -0.018424204
0002b0 94 7f 15 3e 36 4d e9 3d 9b fe 82 3b b1 0a a9 bb
       0.14599448 0.1139168 0.0039976365 -0.005158745
0002c0 5f 77 f5 3c 22 6f b7 3d 57 60 99 bd 48 bb 0e be
       0.029964147 0.08956744 -0.074890785 -0.1393863
0002d0 79 ae b8 ba 79 bf 0e bc 97 77 d3 bc 28 0c 51 3b
       -0.0014090083 -0.008712643 -0.02581386 0.0031898115
0002e0 d6 92 35 bd 13 ac 90 bc 32 26 cf 3d a5 98 ee 3d
       -0.044329487 -0.017660176 0.10114707 0.116502084
0002f0 5b 57 1d 3e 1f 8a 0a 3d 6a 7b 9a bd 4b 4e d2 bd
       0.15365355 0.03382313 -0.075430706 -0.102688394
000300 b5 85 22 3d 40 90 0a 3e b2 24 02 3e d4 10 d7 3c
       0.039678294 0.1353159 0.1270931 0.026253141
000310 c5 8f d3 bd 16 2d ae 3d c1 01 8a bc 4d 69 66 bd
       -0.10330156 0.08504693 -0.01684654 -0.056252766
000320 62 6a e6 3d 0b 65 5a bc 3b e8 52 3d 26 bd d7 bd
       0.1125076 -0.013329755 0.051491003 -0.10534124
000330 52 15 0f be 77 6d 1a 3e aa 42 e2 bd 10 ed 6e 3b
       -0.13972977 0.1508082 -0.110478714 0.0036457218
000340 0d 6a 49 3d 4c f4 b8 3d 48 23 19 be 8f 79 a7 ba
       0.049173404 0.09030971 -0.14954865 -0.0012777316
000350 3b c5 53 bd 9d 62 44 3d 8a 58 c7 3c 52 e7 d5 bd
       -0.051701766 0.047945607 0.02433421 -0.104445115
000360 31 87 43 bd 83 03 4b bc 42 98 b4 3b 0f 16 65 3d
       -0.04773635 -0.012390974 0.0055113146 0.05592924
000370 e0 af d7 3c de 27 f9 bd 87 dd 20 3d fb ac e8 3d
       0.02632898 -0.12165807 0.039273765 0.113611184
000380 b4 bd 15 bd ab d1 32 3d 89 6e cd 3d e4 e7 b0 bd
       -0.036557868 0.043656986 0.100308485 -0.086379796
000390 48 cc 2b bd 2d e4 e1 3d d1 b2 ce 3d b9 19 e8 bd
       -0.041942865 0.11029849 0.100927 -0.11333031
0003a0 8a 77 1a be 7e e7 ac bb dd 68 fe 3c 24 41 98 3d
       -0.15084663 -0.0052766195 0.031055862 0.074342996
0003b0 b0 e3 14 3c 9b b8 1d 3e 13 4e 6a 3c 6f 2d c5 3d
       0.009087488 0.15402453 0.014300841 0.096278064
0003c0 21 41 27 3d 4f 11 6f 3d e6 0b 31 bd 51 7e dd 3d
       0.040833596 0.058366116 -0.043224238 0.108151086
0003d0 df 63 cf 3d 1e 21 02 3e b3 5e b6 3d 22 b0 b0 bd
       0.10126471 0.12707946 0.08904781 -0.08627345
0003e0 cf 5f 12 bc e4 5b 0e be 31 ff 00 be 65 db 02 bd
       -0.008933975 -0.13902241 -0.12597348 -0.031947512
0003f0 49 45 f0 3d e8 b9 c0 bd d4 a2 99 3d 37 4b d1 bd
       0.11731965 -0.09410459 0.0750176 -0.10219424

layers.0.bias f4 [128]
000000 eb 6b 42 bb 5f 4a 40 bb 1f 08 4a 3b 1c cc 44 bb
       -0.0029666375 -0.0029341204 0.0030827594 -0.0030028885
000010 43 cc 3f 3b 17 08 40 3b 96 24 41 bb e3 2a 42 bb
       0.0029266037 0.0029301697 -0.002947127 -0.0029627613
000020 1b da 3f bb c4 30 40 bb 9f 03 3e bb a2 90 45 3b
       -0.0029274288 -0.0029325942 -0.0028993858 0.0030146022
000030 7f 1a 42 3b cd 98 41 bb a4 34 3d 3b 18 07 42 3b
       0.0029617844 -0.002954054 0.0028870488 0.002960628
000040 ab 7d 40 3b 21 34 40 bb 20 5c 41 3b 91 64 41 bb
       0.002937178 -0.0029327946 0.0029504374 -0.0029509405
000050 3a 23 42 bb db 88 40 bb 39 8d 42 3b 3c fc 3f 3b
       -0.0029623047 -0.0029378447 0.0029686226 0.002929463
000060 c1 bd 53 3b 87 fe 41 bb 44 75 41 bb 56 f9 40 3b
       0.0032309147 -0.0029601173 -0.0029519359 0.002944549
000070 b4 fb 41 bb 90 77 3f bb f7 f4 43 bb a7 17 3f bb
       -0.002959949 -0.0029215552 -0.002990065 -0.0029158385
000080 cb 5c 41 bb a4 7f 42 bb a0 5a 41 3b 90 27 40 3b
       -0.0029504772 -0.002967813 0.002950348 0.0029320456
000090 ca e7 3b 3b 51 d5 42 bb 4e 68 41 3b d8 60 41 bb
       0.0028672093 -0.0029729197 0.0029511633 -0.0029507186
0000a0 00 22 40 3b d4 87 41 3b 3c bd 44 bb d6 1c 40 3b
       0.002931714 0.0029530423 -0.003002002 0.0029314063
0000b0 93 64 41 bb 75 1a 40 3b 92 f8 3f 3b 1f d1 3f 3b
       -0.002950941 0.0029312645 0.0029292447 0.0029268933
0000c0 dd a0 3f bb ca ca 3f 3b dd 3f 42 bb 7f a3 3f 3b
       -0.002924017 0.0029265159 -0.0029640116 0.0029241738
0000d0 bb 8a 41 3b f0 61 3d bb ea c3 41 3b f4 c7 3f 3b
       0.0029532153 -0.0028897487 0.0029566237 0.0029263468
0000e0 51 cc 41 3b 05 58 44 3b 7c 17 45 3b 1a 03 42 3b
       0.0029571245 0.002995969 0.0030073812 0.00296039
0000f0 4e 06 42 3b 56 56 41 bb 42 b3 41 3b 34 8c 44 3b
       0.0029605809 -0.0029500923 0.002955631 0.0029990794
000100 e0 fb 41 bb 3e 28 3f 3b 12 30 40 3b 73 13 3e bb
       -0.0029599592 0.0029168273 0.0029325527 -0.0029003292
000110 de a6 40 3b e5 06 47 3b ff 63 41 3b 3c 83 40 bb
       0.0029396336 0.00303691 0.0029509065 -0.0029375097
000120 47 fe 3f bb 3c 1a 40 bb ec 21 40 3b e7 ba 40 3b
       -0.0029295848 -0.0029312512 0.0029317094 0.0029408277
000130 98 a1 41 3b df 02 40 3b cb 42 3f bb d5 d5 3f bb
       0.002954578 0.0029298586 -0.0029184099 -0.002927174
000140 55 69 41 3b f4 b1 3f 3b 9a 54 41 bb 9f bd 3c 3b
       0.0029512246 0.0029250355 -0.002949989 0.0028799546
000150 44 17 40 bb 39 d8 ce 3a 34 75 41 3b 90 a6 41 3b
       -0.0029310742 0.0015780992 0.0029519321 0.0029548742
000160 bc e3 41 3b 4c bf 3f bb c5 1d 40 3b 8f 8d 41 bb
       0.0029585203 -0.002925831 0.002931462 -0.0029533838
000170 01 4e 40 3b 93 04 40 3b 08 9b 43 bb 78 b5 41 3b
       0.002934337 0.0029299601 -0.0029847044 0.0029557627
000180 82 70 89 ba d8 ea 42 3b e2 91 40 bb 5b 90 3f bb
       -0.00104858 0.0029742029 -0.0029383828 -0.002923033
000190 32 12 40 bb b7 22 15 3b 05 bf 3e bb c8 f4 3b 3b
       -0.002930772 0.0022756287 -0.0029105556 0.0028679837
0001a0 8f 6e 41 bb c9 40 40 3b a0 3f 41 3b f9 09 3d 3b
       -0.002951536 0.002933549 0.0029487386 0.0028845055
0001b0 75 d0 41 3b cf 9c 3f 3b 7f 06 40 bb 68 c7 3f bb
       0.0029573713 0.0029237752 -0.0029300747 -0.0029263142
0001c0 7c 7f 48 bb 00 97 3f 3b d9 e0 3f 3b ac ed 3f bb
       -0.0030593565 0.002923429 0.0029278307 -0.002928595
0001d0 8f 20 40 bb 2f 17 40 bb 27 4b 42 3b 09 57 41 3b
       -0.0029316281 -0.0029310693 0.0029646845 0.002950134
0001e0 a1 82 42 3b c4 84 3f 3b 5b 6e 41 bb c7 8f 42 3b
       0.0029679912 0.0029223422 -0.002951524 0.0029687749
0001f0 c8 ea 2c bb f4 ce 44 3b 7b 6a 42 bb c2 15 34 3b
       -0.0026385058 0.003003058 -0.0029665518 0.002747879

predict.weight f4 [1, 128]
000000 f3 82 00 bd a0 9b 74 bd 86 31 df 3b bd 92 64 bc
       -0.031374883 -0.059718728 0.0068113236 -0.013951001
000010 f0 64 43 3d 68 22 87 3d 64 0b 9e bd 3e 86 1c bd
       0.047703683 0.06598359 -0.07717016 -0.03821396
000020 19 5d 62 bd 0c 3d a4 bd b2 d8 82 bc a0 78 3b 3c
       -0.055264566 -0.08019456 -0.015972469 0.011442333
000030 14 c7 7a 3c b3 f1 85 bd f7 62 dc 3b 0f fd 1e 3d
       0.015306253 -0.06540241 0.0067256647 0.038815554
000040 40 ff af 3d 19 ed ad bd 6f ed ab 3d 95 d8 a5 bd
       0.08593607 -0.084924884 0.08394896 -0.0809795
000050 58 3f 17 bd 7a 6d 8a bd 0d 3e f4 3c 64 ba 77 3d
       -0.036925644 -0.06759162 0.029814744 0.06048049
000060 34 11 89 3b 7c ba 26 bd 71 da 92 bd 24 f6 a8 3d
       0.004182959 -0.04070519 -0.07170571 0.082500726
000070 7c 8f 2b bd 47 d7 03 bd 5e 38 88 bc ce 3e e9 bc
       -0.041884884 -0.032187726 -0.01662844 -0.02847233
000080 f9 86 ac bd 90 59 03 bd 4c 08 a7 3d 4b 6c a2 3d
       -0.084241815 -0.032067835 0.081558794 0.079308115
000090 58 b8 1b 3c 34 c7 cb bc 90 b8 9d 3d 5c 55 b0 bd
       0.0095044 -0.02487526 0.07701218 -0.08610031
0000a0 73 49 9e 3d cf 94 88 3d b7 0e 5d bc a4 53 9a 3d
       0.07728853 0.06669008 -0.013492278 0.075354844
0000b0 e5 70 aa bd 86 a2 8a 3d 72 17 3a 3d fd d4 51 3d
       -0.08322314 0.0676928 0.045432515 0.051228512
0000c0 7d 83 0a bd 6c 75 4c 3d 71 55 0e bd 1d 1d 31 3d
       -0.033816803 0.04991667 -0.034749452 0.043240655
0000d0 5f 34 83 3d fb 33 5c bc 39 33 4a 3d b1 85 48 3d
       0.06406473 -0.0134401275 0.049365256 0.048955623
0000e0 c2 9c 53 3d 1e dd 7e 3c 1b d4 62 3c d0 0f 25 3d
       0.051663168 0.015555648 0.013844515 0.040298283
0000f0 91 2a 14 3d 0b de ae bd b0 0f 52 3d 2b 24 6f 3c
       0.036173407 -0.08538445 0.051284492 0.014596025
000100 83 77 39 bd 33 35 de 3c d7 8e a7 3d ed 08 87 bc
       -0.04527999 0.027124977 0.081815414 -0.016483748
000110 aa c7 95 3d be 30 15 3c 64 7d a2 3d ba 00 92 bd
       0.073134735 0.009105859 0.079340726 -0.07129045
000120 5e 69 82 bd ab 1b 94 bd e7 c5 91 3d 8a 88 33 3d
       -0.063677534 -0.0723184 0.07117825 0.043831386
000130 31 1b 72 3d cc bb 6f 3d 56 8d ed bc 86 fe 57 bd
       0.059107963 0.058528706 -0.028998058 -0.052732967
000140 b4 c3 a9 3d 8f c0 37 3d 11 4a b7 bd 2e ff 31 3c
       0.082892805 0.044861373 -0.08949674 0.010864062
000150 36 19 81 bd e3 4e 17 3b ee 83 9f 3d 80 17 76 3d
       -0.06303637 0.0023087792 0.077888355 0.060081005
000160 c2 cc 36 3d a8 59 33 bd 80 86 86 3c 83 4f 8c bd
       0.044628866 -0.043786675 0.016421556 -0.06851103
000170 f5 86 90 3d 1c 0f 87 3d f7 8a a6 bc fc 7a 6d 3d
       0.07056991 0.06594679 -0.020329935 0.057978615
000180 73 12 ac 3a ba 6d cd 3c fd 70 8d bd 31 05 29 bd
       0.0013128057 0.025076736 -0.069063164 -0.041264717
000190 1e 13 8e bd a4 37 2c 3b 47 b6 bf bc ea ff 06 3c
       -0.0693724 0.0026278282 -0.023402346 0.008239726
0001a0 d6 48 98 bd 64 f9 84 3d b6 1d 88 3d ea c7 42 3c
       -0.07435767 0.0649288 0.06646292 0.011888484
0001b0 25 76 49 3d 87 8b 2b 3d 79 12 8a bd 16 f0 3e bd
       0.049184937 0.04188111 -0.06741805 -0.046615683
0001c0 b8 2f 01 bc fd 73 14 3d 42 a7 5e 3d 74 8d 54 bd
       -0.007884912 0.036243428 0.05435873 -0.051892713
0001d0 0f e1 9f bd 3a d7 93 bd 52 e6 09 3d 4f f9 b5 3d
       -0.078065984 -0.072187856 0.033666916 0.088854425
0001e0 57 f5 f4 3c f9 e8 1b 3d 90 0a a4 bd 8e 84 f6 3c
       0.029902143 0.038063977 -0.08009827 0.030092504
0001f0 e3 05 a7 ba d5 88 67 3c 70 56 ff bc 83 c4 26 3b
       -0.0012742843 0.014131744 -0.031169146 0.002544672
